Assets/ML-Brains/BrainScenario05.onnx (onnx, 35829 bytes, 9 tensors)

action_model._discrete_distribution.branches.0.bias f4 [7]
0.009990338 -0.0039272546 0.0139543535 -0.0030079328 0.016025487 -0.018757945 -0.009248156
00000000: 84ae 233c 33b0 80bb cda0 643c bd20 45bb
00000010: e247 833c 43aa 99bc 9485 17bc

action_model._discrete_distribution.branches.0.weight f4 [7, 64]
-0.0072797476 0.06644788 0.0010592064 -0.004623286 0.0524009 0.06053072 -0.004724928 -0.02492216
-0.0007657678 -0.059423935 0.027354836 -0.0025403358 -0.031255558 0.000108193715 0.03006266 0.06041586
0.0060685943 -0.016476257 0.031839766 -0.080168515 0.03278141 -0.0074652727 0.017264092 0.054256458
0.006878099 -0.020149393 0.036639266 0.031424563 -0.06030023 0.024544125 0.014345378 0.03766249
-0.018896865 0.010659869 0.022634853 -0.0065948125 0.0009882627 0.032459162 0.02411242 0.0021864967
-0.044647567 -0.023188183 -0.049144708 -0.025367398 0.017049463 -0.016989728 0.014969495 0.008503407
-0.0010731979 0.0075363717 0.010486749 -0.11112585 0.021026485 0.0059961965 0.030499615 0.009686131
-0.0157211 0.013057553 -0.017660981 0.01717001 0.004972159 -0.036845967 -5.531474e-07 0.018942159
0.016107747 0.056398712 0.0038384032 0.023327006 0.0037546284 -0.068163246 -0.053527616 0.026583863
0.026520053 -0.004896684 -0.021724118 -0.03409215 -0.013138415 0.01822796 -0.016579349 0.0007259223
0.01315973 0.019957053 -0.029676817 0.049423527 0.008130377 0.012646493 0.04545656 -0.064357094
-0.019297078 0.060712762 -0.0109089045 0.029951064 0.048041835 -0.0091302255 -0.0071592284 0.002620776
-0.036252268 0.006244193 0.032858387 0.035196185 0.023094345 -0.006314226 -0.028125284 0.0075671817
0.0033732252 0.048331663 0.016377557 -0.041293927 -0.04492392 0.018192537 -0.010838764 -0.027348112
-0.0204972 -0.0047044065 0.009194169 0.03269144 -0.016784715 -0.014409073 -0.01505316 0.011707876
-0.01580977 -0.009239417 0.014840114 0.0011972948 0.017547855 0.042311773 0.03485571 -0.029311666
-0.018720347 -0.0019460261 -0.017091539 0.0054285675 -0.012839537 0.0027126172 -0.02506642 -0.010548896
0.0072586965 -0.013468051 -0.03707461 0.018084051 0.035898022 -0.055219453 0.016426794 -0.024091404
0.0025402203 -0.038882244 0.007455935 0.021879684 0.024098128 0.030252848 -0.08968758 0.06692414
-0.012317801 -0.025478616 0.0070744595 -0.0032039615 0.011218293 0.0057657873 -0.024638616 -0.039755676
0.02097316 -0.014177167 0.009895414 0.025167646 0.021355852 0.015236235 -0.002446946 0.011130393
0.019364195 0.033792697 0.038257405 -0.043532282 0.021496415 -0.02384565 0.030233562 0.015230408
0.027198281 -0.01858022 0.055778887 -0.116547465 0.008238738 -0.010901069 0.002909613 -0.00480614
-0.017482156 -0.018135805 0.006436165 -0.03414171 -0.017517304 0.035802685 0.03172453 0.013780587
-0.03691184 0.020341137 -0.01102663 -0.013205788 0.035548978 0.02398943 0.021490354 -0.033901565
0.01925558 0.032935303 0.0009719537 0.051380713 0.0060782833 -0.03303219 0.04473461 0.039629042
0.030827872 0.0708032 0.07276736 -0.055224754 -0.048385292 -0.0026142488 0.017635055 0.03876954
-0.023714593 -0.016892536 -0.03683104 -0.013760574 -0.01209637 0.004374287 -0.01551658 -0.01044553
0.02654728 0.03263415 -0.037533764 -0.008774223 0.0142169595 -0.043133784 -0.051826466 -0.021269783
-0.057368997 -0.0029627949 -0.028111164 0.02091946 -0.05391435 0.03032874 -0.070177145 0.0012479909
-0.002044609 0.015687654 0.049922224 -0.015980126 0.022206683 0.0033940745 -0.027564667 -0.0015944854
-0.042824484 0.012420287 0.057954893 -0.009851109 -0.0006260288 0.035509158 0.045278415 0.0052087135
00000000: f38a eebb d315 883d 12d5 8a3a ef7e 97bb
00000010: 53a2 563d 0fef 773d 92d3 9abb 8f29 ccbc
00000020: cfbd 48ba 8366 73bd 4017 e03c c37b 26bb
00000030: d405 00bd 0fe6 e238 f845 f63c 9f76 773d
00000040: 0fdb c63b 37f9 86bc 6a6a 023d 642f a4bd
00000050: cd45 063d 3f9f f4bb 6d6d 8d3c 053c 5e3d
00000060: ad61 e13b 5710 a5bc 0e13 163d 0bb7 003d
00000070: 60fd 76bd c310 c93c e008 6b3c fc43 1a3d
00000080: 99cd 9abc bba6 2e3c ba6c b93c 4c19 d8bb
00000090: 9888 813a e6f3 043d 6987 c53c 544b 0f3b
000000a0: 5ee0 36bd 25f5 bdbc f64b 49bd 4acf cfbc
000000b0: 51ab 8b3c 0b2e 8bbc 9d42 753c e051 0b3c
000000c0: 8caa 8cba abf3 f63b 9dd0 2b3c f395 e3bd
000000d0: bc3f ac3c be7b c43b 54da f93c 94b2 1e3c
000000e0: 89c9 80bc 59ef 553c c3ad 90bc 1fa8 8c3c
000000f0: 7eed a23b cceb 16bd 007c 14b5 962c 9b3c
00000100: 65f4 833c 5602 673d b88d 7b3b 4718 bf3c
00000110: 3610 763b 2c99 8bbd c63f 5bbd 67c6 d93c
00000120: 9540 d93c 5d74 a0bb c7f6 b1bc 36a4 0bbd
00000130: 8242 57bc ce52 953c 6ad1 87bc d24b 3e3a
00000140: e89b 573c f97c a33c cc1c f3bc 5370 4a3d
00000150: 4635 053c 3c33 4f3c a830 3a3d a7cd 83bd
00000160: e814 9ebc f2ad 783d 43bb 32bc ef5b f53c
00000170: 84c7 443d f196 15bc f697 eabb 53c1 2b3b
00000180: 427d 14bd 169c cc3b 8496 063d e029 103d
00000190: 5a30 bd3c 91e7 cebb ff66 e6bc 1ff6 f73b
000001a0: 5411 5d3b 6cf7 453d 3a2a 863c d223 29bd
000001b0: 2502 38bd 8408 953c 1295 31bc 2609 e0bc
000001c0: bee9 a7bc 6c27 9abb 24a3 163c 76e7 053d
000001d0: 1980 89bc 0814 6cbc 87a1 76bc 64d2 3f3c
000001e0: 7e83 81bc ec60 17bc f323 733c 8cee 9c3a
000001f0: 85c0 8f3c 1c4f 2d3d dcc4 0e3d 051f f0bc
00000200: 6a5b 99bc cd11 ffba 8e03 8cbc 20e2 b13b
00000210: ec5c 52bc 2ac6 313b 1858 cdbc 47d5 2cbc
00000220: 5cda ed3b 1aa9 5cbc 8cdb 17bd 0125 943c
00000230: ce09 133d cb2d 62bd 7c91 863c 565b c5bc
00000240: d379 263b fd42 1fbd ea50 f43b 063d b33c
00000250: 7069 c53c d2d4 f73c 1fae b7bd 860f 893d
00000260: 9ad0 49bc 88b8 d0bc ded0 e73b 8ef9 51bb
00000270: eecc 373c eeee bc3b ecd6 c9bc d9d6 22bd
00000280: e8cf ab3c 5947 68bc 6020 223c 612c ce3c
00000290: 78f2 ae3c 67a1 793c f15c 20bb 405c 363c
000002a0: a9a1 9e3c 366a 0a3d ccb3 1c3d e84e 32bd
000002b0: 4019 b03c f457 c3bc 60ac f73c f688 793c
000002c0: eece de3c 8c35 98bc 6778 643d 70b0 eebd
000002d0: c6fb 063c 669a 32bc 35af 3e3b d37c 9dbb
000002e0: bd36 8fbc 8a91 94bc 77e6 d23b 2dd8 0bbd
000002f0: 7380 8fbc d6a5 123d 95f1 013d f9c7 613c
00000300: df30 17bd 75a2 a63c 0aa9 34bc 175d 58bc
00000310: ce9b 113d 7b85 c43c 8a0c b03c 5edc 0abd
00000320: e1bd 9d3c 2be7 063d b5ca 7e3a 9574 523d
00000330: 562c c73b c34c 07bd a33b 373d 1052 223d
00000340: bc8a fc3c 4501 913d 0e07 953d 5a33 62bd
00000350: a82f 46bd d153 2bbb 6477 903c cfcc 1e3d
00000360: 1b45 c2bc 3762 8abc 25dc 16bd 0874 61bc
00000370: da2f 46bc 2e56 8f3b 4139 7ebc ba23 2bbc
00000380: ae79 d93c 63ab 053d 01bd 19bd c2c1 0fbc
00000390: 40ee 683c 0dad 30bd fd47 54bd f83d aebc
000003a0: c1fb 6abd 732b 42bb 6249 e6bc 4a5f ab3c
000003b0: 4bd5 5cbd fa73 f83c 09b9 8fbd a093 a33a
000003c0: d9fe 05bb 6583 803c 3f7b 4c3d c1e8 82bc
000003d0: caea b53c 1f6f 5e3b 4ccf e1bc 0dfe d0ba
000003e0: ba68 2fbd 767e 4b3c 1c62 6d3d 8c66 21bc
000003f0: 151c 24ba 0d72 113d dc75 393d dbad aa3b

action_model._discrete_distribution.branches.1.bias f4 [2]
0.005328407 -0.005328414
00000000: eb99 ae3b fa99 aebb

action_model._discrete_distribution.branches.1.weight f4 [2, 64]
-0.019440407 -0.07257327 -0.015782394 0.05767237 -0.010715863 -0.02834007 0.03564288 -0.033045623
0.004308699 -0.014454592 0.013017149 0.032416955 7.6537e-06 -0.024261354 -0.014835732 0.035028376
0.025602316 0.006977285 -0.05186642 -0.075969316 -0.007803675 0.0020876809 -0.016788388 -0.012304952
0.031110909 -0.024566762 0.033721026 -0.02061161 0.0875737 0.03312661 0.0008239475 -0.0030945954
-0.002457868 0.04353782 -0.0029162227 0.0830193 0.0034751075 0.036644813 -0.04890822 0.02010107
0.0625671 -0.016943315 0.021047482 -0.080575585 -0.03988903 0.0015834166 0.02186834 0.030674754
-0.02716408 0.010081949 0.014599525 0.019016232 -0.031826958 -0.04262361 0.008257702 0.06488411
-0.017669957 -0.012555866 0.016195586 0.050030597 0.06343755 0.0098950295 -0.045545537 -0.037640665
0.010095651 0.07458478 0.010666693 -0.075993925 0.008077333 -0.0038822033 -0.031159924 0.029532315
0.00246879 -0.0031606546 -0.023627495 -0.0030506197 -0.010452866 0.021762526 0.014271522 -0.040776968
-0.020427777 0.006762111 0.06779409 0.06615676 0.001638419 -0.0012784874 0.00066512753 0.00690845
-0.009484128 0.05298883 -0.029962957 0.002228615 -0.08845378 -0.03293717 0.0121736815 -0.002089168
-0.025156727 -0.048531987 -0.021106523 -0.06899681 0.011508831 -0.009513218 0.064768605 0.0046186945
-0.029808147 0.0114943 -0.048000004 0.09764151 0.0035915254 0.0012727728 -0.017795485 -0.018480599
0.009858827 -0.015259879 0.0103885485 -0.047766726 0.024731385 0.04375177 -0.0049072406 -0.016485926
0.037434354 0.01582111 -0.0031665002 -0.034774907 -0.035065085 -0.015506789 0.054081496 0.04008364
00000000: 7d41 9fbc 4ba1 94bd 144a 81bc dd39 6c3d
00000010: 9691 2fbc 6f29 e8bc 45fe 113d d95a 07bd
00000020: fd2f 8d3b f4d2 6cbc e145 553c a4c7 043d
00000030: 6468 0037 bfbf c6bc 9211 73bc ea79 0f3d
00000040: f3bb d13c b5a1 e43b e271 54bd cd95 9bbd
00000050: f8b5 ffbb 79d1 083b cd87 89bc b69a 49bc
00000060: 4edc fe3c 3c40 c9bc 0f1f 0a3d aed9 a8bc
00000070: d759 b33d c5af 073d 2efe 573a b2ce 4abb
00000080: 2f14 21bb b754 323d 191e 3fbb 0606 aa3d
00000090: a1be 633b df18 163d fc53 48bd 00ab a43c
000000a0: 2e23 803d b5cc 8abc c56b ac3c d004 a5bd
000000b0: ae62 23bd a58a cf3a 3c25 b33c 9f49 fb3c
000000c0: 3487 debc c22e 253c d932 6f3c eec7 9b3c
000000d0: fc5c 02bd 1896 2ebd 504b 073c f6e1 843d
000000e0: 96c0 90bc 1eb7 4dbc 9bac 843c e2ec 4c3d
000000f0: 8ceb 813d c31e 223c f58d 3abd 192d 1abd
00000100: 3b68 253c e8bf 983d 5ac3 2e3c b4a2 9bbd
00000110: ca56 043c 906c 7ebb 1943 ffbc c1ed f13c
00000120: 6ccb 213b fc22 4fbb 738e c1bc e8ec 47bb
00000130: 7f42 2bbc 5347 b23c 1ad3 693c c005 27bd
00000140: 2758 a7bc b394 dd3b a1d7 8a3d 327d 873d
00000150: 38c0 d63a eb92 a7ba f45b 2e3a 4760 e23b
00000160: 5163 1bbc d10a 593d e074 f5bc f50d 123b
00000170: 4127 b5bd 20e9 06bd 1f74 473c 6cea 08bb
00000180: 7b15 cebc 7ac9 46bd 96e7 acbc 334e 8dbd
00000190: 898f 3c3c 54dd 1bbc 67a5 843d 6b58 973b
000001a0: 3730 f4bc 9752 3c3c a79b 44bd 46f8 c73d
000001b0: cc5f 6b3b 2bd3 a63a d6c7 91bc a064 97bc
000001c0: eb86 213c 9204 7abc bb34 2a3c 0ba7 43bd
000001d0: 7999 ca3c 0e35 333d ebcc a0bb 7e0d 87bc
000001e0: c454 193d 469b 813c 0f85 4fbb 2270 0ebd
000001f0: 68a0 0fbd 3010 7ebc 8f84 5d3d be2e 243d

discrete_action_output_shape f4 [1, 2]
7.0 2.0
00000000: 0000 e040 0000 0040

network_body._body_endoder.seq_layers.0.bias f4 [64]
-0.03871145 -0.012348228 -0.0029359676 -0.022300232 -0.014817118 -0.04236932 -0.0018938856 -0.0024422575
0.011817839 -0.040761773 -0.034446143 -0.030124864 -0.0018508068 0.016185805 -0.008060737 0.01576702
0.010565031 -0.04226974 -0.034031317 -0.026220178 0.017382348 -0.039713364 0.025521666 -0.007804568
-0.011047249 -0.010084563 -0.023745934 0.0077745 -0.037151307 0.017431278 -0.00920157 -0.048292022
0.007124278 -0.01239546 -0.0011356123 0.04127893 0.030924425 -0.0228944 -0.028051417 -0.023303598
0.03168349 0.019087704 -0.0062419954 0.029987112 0.010119494 -0.008852352 -0.050975055 -0.013216979
-0.013592021 -0.011384234 -0.030286683 0.0038538566 -0.041006837 -0.005600505 -0.016092237 -0.027679801
0.064994484 -0.015653303 -0.020956228 0.0224568 0.04948682 -0.00884339 0.00011067027 0.0019478303
00000000: e68f 1ebd 3950 4abc 5d69 40bb faae b6bc
00000010: 7fc3 72bc 748b 2dbd 413c f8ba 480e 20bb
00000020: 9c9f 413c d1f5 26bd 6617 0dbd 6bc8 f6bc
00000030: c596 f2ba 1898 843c 2e11 04bc d629 813c
00000040: f418 2d3c 0923 2dbd 6c64 0bbd b3cb d6bc
00000050: 6d65 8e3c 7baa 22bd d012 d13c 76bd ffbb
00000060: 85ff 34bc b939 25bc d586 c2bc 3cc1 fe3b
00000070: f82b 18bd 0acc 8e3c 2fc2 16bc dbcd 45bd
00000080: c772 e93b 5416 4bbc d3d8 94ba 1814 293d
00000090: 3855 fd3c 098d bbbc 16cc e5bc 30e7 bebc
000000a0: 8cc6 013d d15d 9c3c a789 ccbb 88a7 f53c
000000b0: 3ccc 253c 7509 11bc 38cb 50bd 078c 58bc
000000c0: 11b1 5ebc f084 3abc c71b f8bc fc90 7c3b
000000d0: c9f6 27bd 7184 b7bb ded3 83bc c0c0 e2bc
000000e0: d41b 853d 5b3b 80bc 65ac abbc 53f7 b73c
000000f0: b1b2 4a3d dee3 10bc a617 e838 574e ff3a

network_body._body_endoder.seq_layers.0.weight f4 [64, 54]
0.14901845 0.14160025 -0.16481689 0.10853923 -0.047384165 -0.033271477 0.14012204 0.19388649
-0.0062921927 0.016265713 0.010188481 0.07875355 0.16218033 0.14416297 -0.17970054 -0.013555137
-0.040053196 0.16385965 0.11684262 0.006924804 -0.21932082 -0.007587347 0.26871586 0.2230415
-0.020587154 -0.1301069 0.11056401 -0.021907357 0.07001014 0.062328607 0.23692675 -0.015826868
-0.1348936 0.007755396 -0.12556581 -0.101202875 0.06726764 0.0965323 0.060370296 0.050409313
0.04087827 0.16887255 0.021271255 0.12212145 0.12586413 -0.08230681 0.17148565 -0.084883966
0.08177702 0.087802805 -0.037047073 -0.45284793 0.20269774 0.14496133 0.07302508 0.011864944
-0.14214374 0.08019722 0.15406801 -0.071744494 0.22846858 -0.1999533 -0.012424492 0.20580503
-0.015122966 0.08390562 -0.088958725 -0.21338983 0.014820189 0.14101002 0.03225968 -0.29166454
0.18601732 -0.15169112 0.03236338 0.1969771 -0.03977003 -0.09158702 -0.30538905 0.09788971
-0.025977846 -0.11644087 0.045044914 -0.013703059 0.065940276 0.056133088 0.10473679 -0.04427464
-0.0057274615 0.004745788 -0.2592465 0.096351996 0.021964595 0.20594268 -0.04719124 0.049123142
-0.28404573 0.09479117 0.2250489 0.03167026 -0.4691166 -0.027347647 0.0032051625 0.05273336
0.07257527 0.33587283 -0.06830545 0.017292133 -0.14890002 0.005782833 0.16759296 0.24501409
0.02322891 -0.06470716 0.0105285235 -0.13783893 0.05538532 0.13486882 -0.10067485 0.23394834
-0.20546441 0.018675992 0.09739462 -0.14471534 -0.29180703 0.09131083 0.24063863 -0.085943595
0.060473822 0.26409754 0.25800955 -0.23474011 0.12505387 -0.052447826 -0.067979276 0.041047372
0.09195598 0.07910983 -0.35328147 0.12205347 0.045062117 -0.07202427 -0.12157374 -0.076613225
0.0609345 0.04739028 -0.28728804 0.097689465 0.19396453 0.09905841 0.29467818 -0.06514922
-0.05060602 -0.00915393 0.032933373 -0.17831638 -0.025747877 0.13859017 -0.27933335 0.11448907
-0.13656831 0.048013937 -0.18448785 -0.01817962 -0.16592988 0.012859904 -0.0077506574 -0.09536053
-0.056108825 0.13299058 0.082612045 0.17010053 0.16926357 0.20408833 -0.12016168 0.007335371
0.03606666 0.18134113 -0.023251846 -0.15665026 -0.17132315 0.26398796 0.03287913 -0.28377256
-0.2828227 0.1398086 0.014923001 -0.22397673 -0.12780064 0.017746586 -0.15299116 0.17098477
-0.0076747006 -0.12154075 -0.21405396 0.02295701 0.009183904 0.22412415 -0.17367506 0.044585638
0.12623432 0.14636606 0.13603489 -0.17710818 -0.02322519 -0.23730046 -0.06658625 -0.40844923
0.023421707 0.18041316 0.013977209 0.081632584 0.079674356 0.37670478 -0.087202534 -0.11941447
0.0071899476 -0.2104781 0.1040275 -0.06568069 -0.24021512 0.044657998 0.031161888 -0.083383024
-0.0952336 0.1446377 -0.13324223 -0.07199248 0.00022407682 -0.04067075 0.1114998 -0.26334926
0.007078019 0.11009171 0.041488867 -0.19087781 -0.103856415 -0.076403 0.15096098 0.1472384
-0.17835616 0.047780737 -0.12204049 0.17580481 0.11114088 0.0096074855 0.15702623 -0.23314139
0.09247788 -0.16261673 0.39010862 0.10397476 0.0010011159 0.11025357 0.30196327 0.022822011
00000000: 4b98 183e a8ff 103e c2c5 28be d149 de3d
00000010: e615 42bd ac47 08bd 277c 0f3e 2e8a 463e
00000020: bd2e cebb ac3f 853c 96ed 263c 8b49 a13d
00000030: 9a12 263e 759f 133e 6b03 38be 5e16 5ebc
00000040: d20e 24bd d3ca 273e 2f4b ef3d 77e9 e23b
00000050: a395 60be 489f f8bb 2095 893e fe64 643e
00000060: 64a6 a8bc be3a 05be 626f e23d 0f77 b3bc
00000070: 7a61 8f3d 484c 7f3d ed9c 723e 59a7 81bc
00000080: 8c21 0abe fa20 fe3b 5394 00be 7443 cfbd
00000090: 9ec3 893d bab2 c53d d846 773d ff79 4e3d
000000a0: f96f 273d edec 2c3e 0e41 ae3c d01a fa3d
000000b0: 87e2 003e 7990 a8bd ef99 2f3e a5d7 adbd
000000c0: b67a a73d f5d1 b33d acbe 17bd afdb e7be
000000d0: ff8f 4f3e be70 143e 2c8e 953d 2f65 423c
000000e0: 218e 11be 713e a43d 01c4 1d3e c7ee 92bd
000000f0: abf3 693e 8fc0 4cbe 1990 4bbc 8ebe 523e
00000100: 51c6 77bc b6d6 ab3d fe2f b6bd dd82 5abe
00000110: 61d0 723c ee64 103e ba22 043d 0e55 95be
00000120: 537b 3e3e eb54 1bbe 778f 043d 5db4 493e
00000130: e6e5 22bd fa91 bbbd f45b 9cbe 667a c83d
00000140: 7ecf d4bc 8d78 eebd 0481 383d cc82 60bc
00000150: b20b 873d cfeb 653d 3e80 d63d 5359 35bd
00000160: 6ead bbbb 8e82 9b3b f5bb 84be 3254 c53d
00000170: 18ef b33c a3e2 523e 9a4b 41bd 5935 493d
00000180: 716e 91be df21 c23d 3873 663e adb8 013d
00000190: 0d30 f0be 2c08 e0bc b40d 523b f0fe 573d
000001a0: 58a2 943d 86f7 ab3e bae3 8bbd 3ba8 8d3c
000001b0: 3f79 18be eb7d bd3b 7d9d 2b3e f9e4 7a3e
000001c0: 8e4a be3c 3085 84bd d47f 2c3c a625 0dbe
000001d0: b8db 623d 0d1b 0a3e 9e2e cebd 2790 6f3e
000001e0: 4365 52be 65fe 983c d576 c73d 4230 14be
000001f0: bb67 95be 2c01 bb3d f969 763e 3203 b0bd
00000200: 66b3 773d cb37 873e d419 843e b65f 70be
00000210: 1f0e 003e 88d3 56bd b838 8bbd 4a21 283d
00000220: 6b53 bc3d 5604 a23d 4fe1 b4be 2bf7 f93d
00000230: 0e93 383d 7681 93bd a7fb f8bd 65e7 9cbd
00000240: 7496 793d 4f1c 423d 6b17 93be 6a11 c83d
00000250: a39e 463e 23df ca3d 0fe0 963e f46c 85bd
00000260: 4248 4fbd 5dfa 15bc 25e5 063d 9298 36be
00000270: 36ed d2bc 95ea 0d3e c804 8fbe 3f79 ea3d
00000280: 90d8 0bbe 43aa 443d 62ea 3cbe 6ded 94bc
00000290: 86e9 29be 59b2 523c 3af9 fdbb 624c c3bd
000002a0: 5ed2 65bd af2e 083e 8130 a93d d52e 2e3e
000002b0: 6e53 2d3e 88fc 503e 5417 f6bd 8d5d f03b
000002c0: a2ba 133d 7db1 393e a87a bebc ed68 20be
000002d0: 566f 2fbe 6e29 873e 44ac 063d a34a 91be
000002e0: 23ce 90be fc29 0f3e 9a7f 743c 285a 65be
000002f0: 2cde 02be 4a61 913c b7a9 1cbe a216 2f3e
00000300: 0e7c fbbb 5bea f8bd f630 5bbe 5710 bc3c
00000310: 1678 163c cd80 653e e0d7 31be 6e9f 363d
00000320: 9243 013e fce0 153e bb4c 0b3e d95b 35be
00000330: c142 bebc e4fe 72be 5f5e 88bd 4220 d1be
00000340: e1de bf3c 3abe 383e aa00 653c fc2e a73d
00000350: 4f2c a33d 73df c03e 3e97 b2bd 938f f4bd
00000360: a799 eb3b 9287 57be 5f0c d53d 9983 86bd
00000370: f4fa 75be 4eeb 363d 3747 ff3c b8c4 aabd
00000380: d509 c3bd e81b 143e a770 08be cb70 93bd
00000390: 2af6 6a39 5f96 26bd 025a e43d b7d5 86be
000003a0: baee e73b c377 e13d 3bf0 293d 7975 43be
000003b0: acb2 d4bd 2d79 9cbd 8495 1a3e aac5 163e
000003c0: ffa2 36be bcb5 433d 5df0 f9bd 2d06 343e
000003d0: d49d e33d b768 1d3c 7ccb 203e 9ebc 6ebe
000003e0: 0b65 bd3d 0085 26be 51bc c73e b8f0 d43d
000003f0: e037 833a a0cc e13d ee9a 9a3e 3af5 ba3c

network_body._body_endoder.seq_layers.2.bias f4 [64]
-0.035675682 0.00821439 -0.0010710426 -0.005876951 -0.023321804 -0.004344496 -0.007760991 -0.012471205
-0.01967123 0.028385485 -0.005611825 -0.018733004 0.0051518506 -0.017055018 -0.0150532 -0.026830506
-0.03617287 0.009133649 0.018585524 -0.015368019 0.004407808 -0.036370106 -0.00015184357 -0.0075523183
-0.008597665 -0.0058683893 -0.02643581 -0.009296997 0.026545173 -0.00473443 -0.027042653 -0.002767249
0.0113735255 -0.0025467451 -0.0336414 0.023863308 -0.027032543 -0.0075013423 0.00405145 -0.039139576
-0.03253 -0.0005901259 0.03713045 0.028908268 -0.01853479 -0.027512506 6.169568e-06 -0.017497484
0.032776788 -0.048644025 -0.0057333848 0.079895176 -0.014944496 0.0050671026 -0.022732338 -0.016855607
-0.0033697712 -0.021309702 0.0026736816 -0.016966546 -0.016749626 0.049742308 0.024509836 -0.013300325
00000000: aa20 12bd a695 063c 3a62 8cba 7093 c0bb
00000010: 5e0d bfbc 465c 8ebb e94f febb 0654 4cbc
00000020: 8f25 a1bc ad88 e83c 66e3 b7bb f575 99bc
00000030: dbd0 a83b f7b6 8bbc b2a1 76bc a6cb dbbc
00000040: 012a 14bd 4da5 153c ab40 983c 25ca 7bbc
00000050: 606f 903b d2f8 14bd 3338 1fb9 7079 f7bb
00000060: 38dd 0cbc 9e4b c0bb e98f d8bc 6f52 18bc
00000070: 4375 d93c 4723 9bbb 8e88 ddbc bc5a 35bb
00000080: 0658 3a3c 4be7 26bb 91cb 09bd fc7c c33c
00000090: 5a73 ddbc d2cd f5bb 07c2 843b d250 20bd
000000a0: 2d3e 05bd aeb2 1aba 1916 183d 08d1 ec3c
000000b0: 46d6 97bc e861 e1bc 3004 cf36 e256 8fbc
000000c0: f440 063d f53e 47bd 1edf bbbb 15a0 a33d
000000d0: c2d9 74bc f009 a63b 2b39 babc c514 8abc
000000e0: 61d7 5cbb af91 aebc ef38 2f3b 6dfd 8abc
000000f0: 8336 89bc 97be 4b3d dac8 c83c 9be9 59bc

network_body._body_endoder.seq_layers.2.weight f4 [64, 64]
-0.0773462 -0.028847342 -0.29454833 -0.13190639 -0.3288064 0.2296387 -0.08837654 0.10976029
-0.2088491 -0.11482191 -0.062323187 0.0049558314 -0.0732694 -0.05576761 0.023076922 0.21843216
0.06949075 -0.026220163 -0.005229465 0.06972219 0.030452609 0.18655036 0.06912817 0.13352473
-0.1431339 -0.19850962 0.1884297 -0.11872321 0.0063344687 -0.059346803 -0.027098356 -0.030130483
-0.034559276 -0.02881983 -0.042690672 -0.053450435 -0.04631928 -0.16137503 -0.21013798 -0.049691916
-0.08677585 -0.015917523 0.10243635 0.093623914 -0.20840272 0.03587716 0.089150295 0.004076447
-0.1313384 -0.07815907 -0.21039799 0.14527024 0.016075449 -0.12260252 -0.10461263 -0.10005589
0.045337275 0.1677031 0.14747126 0.0163077 -0.033586454 -0.04877802 0.1353499 -0.03546925
-0.26263857 -0.058488075 -0.13844903 0.040799975 -0.16400358 -0.14458112 -0.27992755 0.043044437
-0.1147565 -0.061827164 0.06733907 -0.07161729 -0.02262961 0.1658314 0.12846911 0.14482948
-0.029707013 -0.04281395 -0.19497588 -0.21882021 -0.18933891 0.07372829 -0.018061977 0.2465672
-0.26172194 0.02045903 0.051288903 0.12014081 -0.1645298 -0.13823111 0.19341487 -0.17461555
0.08281129 -0.12138493 -0.16754086 0.021087745 0.13828684 0.11200692 -0.02648869 0.13279536
0.059207898 -0.07583703 -0.025942292 -0.030595321 -0.23527975 0.08483486 -0.023042051 0.0022691651
-0.08233774 -0.18458463 0.113392815 -0.20309031 0.045710184 -0.06893116 0.05741029 -0.001035311
-0.0794275 0.21859345 -0.10145435 -0.08784132 0.05599345 -0.07770779 -0.006874761 -0.063538775
-0.16246784 0.15052047 -0.14924718 0.12039257 0.122454055 0.059612826 0.238323 -0.021581015
0.13931903 0.11479679 -0.07062029 -0.040304873 0.3036907 -0.04723149 0.018213337 0.037822478
-0.12392822 -0.1051866 -0.08320867 -0.0154348 0.25304514 -0.3033267 -0.13106951 -0.041708097
-0.040146995 -0.4003068 0.041758996 -0.08017091 0.006098839 -0.25040525 -0.11636917 0.162782
0.120130934 -0.017501706 -0.11788111 -0.122576244 -0.0066542756 0.06129885 0.05771336 -0.14672157
0.049085706 0.08187145 -0.070123956 0.117818 0.09504852 -0.17862695 0.16436182 -0.12693079
-0.14972447 0.13535954 -0.25875032 -0.0065524383 -0.05330793 -0.09221158 0.08393392 0.07595523
-0.24838185 0.13481271 -0.05976101 0.017721858 -0.026506945 0.13473533 -0.2754576 0.09133431
0.013520966 -0.08215023 -0.13022538 0.04436204 0.14090258 -0.071945086 0.13419972 0.046674646
-0.054552443 -0.058119364 0.2100112 0.012458383 -0.04906505 0.17291592 -0.016422853 0.079271205
-0.13565879 0.12420109 -0.017129842 0.032046884 -0.12889406 0.034908097 0.03627777 0.17732531
0.11698432 -0.020183634 -0.025176786 0.17605944 -0.17598756 -0.15181413 0.039981823 0.042474058
-0.055393983 0.24871586 -0.14572681 -0.034320015 0.0069346935 0.017919963 -0.00580472 0.05775338
0.17494357 -0.065199316 0.0014867742 0.20700465 0.019674918 0.20506577 -0.1110559 -0.09519132
-0.09400649 -0.12789117 -0.055719778 0.035693884 0.11651265 0.018727325 -0.29401106 0.09222286
0.10322642 -0.16753466 -0.18560027 0.14923327 -0.2618197 0.19618045 0.031953793 -0.14853917
00000000: af67 9ebd 4351 ecbc 0acf 96be 7812 07be
00000010: 5059 a8be 6826 6b3e c2fe b4bd 01ca e03d
00000020: 8adc 55be c027 ebbd 9946 7fbd 8764 a23b
00000030: 440e 96bd 946c 64bd d00b bd3c aeac 5f3e
00000040: 2b51 8e3d abcb d6bc ef5b abbb 82ca 8e3d
00000050: c077 f93c 0f07 3f3e 1293 8d3d b5ba 083e
00000060: b191 12be 1b46 4bbe b7f3 403e 2825 f3bd
00000070: 6091 cf3b a215 73bd 5ffd ddbc 34d4 f6bc
00000080: 078e 0dbd 9017 ecbc 6adc 2ebd d8ee 5abd
00000090: 49b9 3dbd 7f3f 25be 692e 57be c089 4bbd
000000a0: 89b7 b1bd 7765 82bc 26ca d13d e5bd bf3d
000000b0: 8667 55be eef3 123d 6e94 b63d b793 853b
000000c0: 937d 06be dd11 a0bd 9272 57be b9c1 143e
000000d0: a9b0 833c 0817 fbbd 263f d6bd 1aea ccbd
000000e0: 94b3 393d 5dba 2b3e b502 173e ba97 853c
000000f0: f391 09bd 76cb 47bd 2a99 0a3e 3448 11bd
00000100: 9078 86be 3191 6fbd 95c5 0dbe e01d 273d
00000110: 8ef0 27be 130d 14be aa52 8fbe 5d4f 303d
00000120: 7505 ebbd 7b3e 7dbd 11e9 893d 16ac 92bd
00000130: bb61 b9bc b5cf 293e 688d 033e 2e4e 143e
00000140: 1f5c f3bc ae5d 2fbd c2a7 47be 6812 60be
00000150: 0fe2 41be dcfe 963d b6f6 93bc 1d7c 7c3e
00000160: 6b00 86be b299 a73c 5014 523d 630c f63d
00000170: 807a 28be 758c 0dbe 8c0e 463e 6bce 32be
00000180: f798 a93d aa98 f8bd d58f 2bbe 35c0 ac3c
00000190: 119b 0d3e e263 e53d cffe d8bc 82fb 073e
000001a0: fb83 723d 7250 9bbd ee84 d4bc 0aa3 fabc
000001b0: 2ded 70be e6bd ad3d afc2 bcbc 46b6 143b
000001c0: b0a0 a8bd c103 3dbe 7e3a e83d e8f6 4fbe
000001d0: 9a3a 3b3d c82b 8dbd 0d27 6b3d 46b3 87ba
000001e0: e3aa a2bd f6d6 5f3e 4cc7 cfbd 26e6 b3bd
000001f0: 6359 653d 4325 9fbd ad45 e1bb 9e20 82bd
00000200: f85d 26be 0a22 1a3e 41d4 18be 6190 f63d
00000210: 31c9 fa3d 942c 743d f20a 743e abca b0bc
00000220: a6a9 0e3e 941a eb3d 5fa1 90bd b916 25bd
00000230: 597d 9b3e cf75 41bd 2334 953c beeb 1a3d
00000240: 14ce fdbd 126c d7bd 4f69 aabd 3ee2 7cbc
00000250: 228f 813e a34d 9bbe 1637 06be 1cd6 2abd
00000260: 2d71 24bd 03f5 ccbe 7b0b 2b3d a530 a4bd
00000270: c5d8 c73b 1e35 80be f652 eebd 53b0 263e
00000280: 3507 f63d bd5f 8fbc a76b f1bd 4109 fbbd
00000290: 1c0c dabb 8114 7b3d d864 6c3d 2e3e 16be
000002a0: 180e 493d 38ac a73d 269d 8fbd 904a f13d
000002b0: cca8 c23d fce9 36be 774e 283e 25fa 01be
000002c0: 5f51 19be b19b 0a3e ec7a 84be d6b5 d6bb
000002d0: 6a59 5abd 6dd9 bcbd 8ce5 ab3d 6a8e 9b3d
000002e0: d057 7ebe 580c 0a3e f6c7 74bd 6e2d 913c
000002f0: 1825 d9bc 0ff8 093e c708 8dbe 7c0d bb3d
00000300: 0b87 5d3c 613e a8bd cd59 05be f8b4 353d
00000310: c448 103e f257 93bd a76b 093e ea2d 3f3d
00000320: 6272 5fbd 920e 6ebd 2d0d 573e 3f1e 4c3c
00000330: 6ff8 48bd df10 313e 3889 86bc f158 a23d
00000340: 23ea 0abe 245d fe3d e253 8cbc 9843 033d
00000350: cefc 03be cbfb 0e3d 0098 143d c494 353e
00000360: 7a95 ef3d 2658 a5bc 8c3f cebc ed48 343e
00000370: 1536 34be 2a75 1bbe fbc3 233d 47f9 2d3d
00000380: cde4 62bd 5faf 7e3e 6939 15be 2593 0cbd
00000390: 6d3c e33b e3cc 923c 8535 bebb cf8e 6c3d
000003a0: 6824 333e 3887 85bd dddf c23a 07f9 533e
000003b0: 4b2d a13c c3fc 513e 4771 e3bd abf3 c2bd
000003c0: 7a86 c0bd e7f5 02be 6c3a 64bd c033 123d
000003d0: 2f9e ee3d 0c6a 993c 9e88 96be 57df bc3d
000003e0: 6068 d33d 358e 2bbe ff0d 3ebe 9bd0 183e
000003f0: 3b0d 86be 87e3 483e fbe1 023d a71a 18be
