Assets/ML-Brains/BrainScenario09.onnx (onnx, 35829 bytes, 9 tensors)

action_model._discrete_distribution.branches.0.bias f4 [7]
00000000: f196 d1bc ebca 7b3b 0952 7e3c 063b 713c
00000010: 72f9 b03c d87d a3bc 3153 39bc
-0.02558467 0.003842051 0.015522488 0.014723545 0.02160332 -0.019957468 -0.011311338

action_model._discrete_distribution.branches.0.weight f4 [7, 64]
00000000: 0307 0bbd 1a5e d23c 64fe fa3b 0123 4bbc
00000010: 0884 f1ba 0fdd 64bc acf8 9b3b 3d23 513c
00000020: 774f df3a 0efd 8d3d 9349 293d 81cc 97bc
00000030: 3950 093d ad76 c13c b56e a63c bcf1 80bb
00000040: ea4e 9c3d b121 d5bb ad63 0bbd 9334 e03b
00000050: ab83 8dbd adf5 3b3d bc60 03bb 63df 8b3b
00000060: 984b a13c e213 383c a345 843d 3d8d 093d
00000070: 2cd3 05bc 2914 8b3c 6e5f f83d dc6f 023c
00000080: b793 7abc 3093 7bbb 9ee5 aa3b ca56 153c
00000090: 83cc a73b 77d4 85bc 9aab 023d b69b e9bb
000000a0: 185d 03bd 58be d63c 4391 0c3d 402b eabc
000000b0: 9481 113d dd91 00bd 6f9b 103c 4f1a b1bc
000000c0: 3470 833c 6e98 11bd 3ec6 babc 56e8 513c
000000d0: af69 3f3d 0772 d03c 7098 07bc 0873 5abc
000000e0: 2879 e83c adb2 5ebd 7266 00bd cb3f 27b9
000000f0: 59c3 19bb d9b6 563b 9bde 06bd e022 b6bc
00000100: 0870 bd3c 3709 78bd 389b dfbb 6d67 313d
00000110: 138d d73c 3695 e9bb 5861 853d d14d 39bd
00000120: e3ba 57bb 8791 39bd 52bb 323d 5d95 3bbd
00000130: 7e44 1bbc 1143 cdbc 2270 9cbd 72c5 abbc
00000140: 663e e8bd 51b8 f73c 988c 263d 13a0 7e3c
00000150: 1ec1 afbc d04a 1e3d f62e 0f3c 5b02 4bbc
00000160: 766a 0d3d 5d50 16ba a52e 80bc c816 6cbc
00000170: a54b de3c 3da0 453d f1be 3e3d 41f0 d03c
00000180: f911 fcbb a063 b33c c767 dabc b23a 17bc
00000190: c670 62bd 3989 e4bb d68c babb 7b78 ddbb
000001a0: 4484 103c 4477 0abc 4d02 663c 0aa4 bc3c
000001b0: 0c6a 49bc cc36 153d 54ab a5bd 5fb2 253d
000001c0: 4af5 a43c 9d42 4f3d 7d0c a2bd b023 283d
000001d0: 629b be3c 9d91 0dbd 9ab3 1a3d 8a1b 39bd
000001e0: f225 ca3b 1324 983c 7391 99bd 244b 423a
000001f0: f742 b03c 26fb 363d 32bf 3f3c 6bbd 863d
00000200: f1e2 483c 0a64 0cbd 1f10 053d da25 8b3d
00000210: d055 063d 275d 3c3c ad14 42bd 9ae5 10bd
00000220: a513 80bd 2140 bbbc 8092 e13c ac59 9c3c
00000230: d71b f03c bfd8 9f3b 1e7f 58bc 62b7 67bc
00000240: 1e29 063d 11c6 48ba 4d48 0dbd 8263 b43c
00000250: bc3c 9f3c 6372 babc 3ee7 fc3b e897 46bd
00000260: e4fd 393c a563 1bbd a745 113d 5db7 c4bc
00000270: ecca 27bc f828 c53c 6fc4 c3bd 088e 48bd
00000280: 99f2 b5bc bd7c c03c c244 2e3c a769 383d
00000290: 05ac 8ebc 8c04 1f3c 58ac 10ba c1dd a639
000002a0: 6f33 303d bbd6 a43c 1640 8cbd 218b a4bc
000002b0: e831 2f3c 10c6 e13a 2d22 f13c 2f49 843c
000002c0: 6b92 943c 39a2 333a 550b 7c3d 0241 e5bb
000002d0: 1a34 c9bc d227 fbbc 31b6 34bd e775 fc3c
000002e0: 38e7 dabb 1543 5abc 72bf 033d 6c3c 733b
000002f0: cfa5 173d 603e 123c 5f31 a03b 56f0 feba
00000300: 3a36 a6bc d6ad f43b d646 c93c 4438 3cba
00000310: 9c17 02bc 0c0f db3c af2f 07bd fd40 563d
00000320: 049c 703d 1824 093d 532e 94bd 94ad 2bbd
00000330: c206 cebc 346d ed3b e278 29bd 5a9e f7ba
00000340: c891 163c b035 46bc cab3 12bd c619 ed3c
00000350: b9cf 903c 7557 9bbc 1768 433c fc90 d5bc
00000360: a690 d83c 147c c43b 84e0 6cbd e6a0 f53c
00000370: ac5f b93b 6d05 103c 28cb 54bd 5f6c 373d
00000380: 9168 903b 3f7f cc3b ed2e 023d a20d 0b3c
00000390: 2e42 d2bc 2750 7dbc 935b 833d 4cb6 b73c
000003a0: 0363 e63c 78cb 39bd 73b6 9a3c 2458 b53b
000003b0: 0679 8738 4205 20bd 43e2 2dbd f3b1 a2bc
000003c0: 0313 21bb abb8 d7bc dde2 903d 9f22 26bc
000003d0: 073d 7e3d 02c5 103d e109 e3ba 0376 613c
000003e0: 11f9 e9bc 89fa b4bc fedb 543d db32 97bb
000003f0: 6727 c4bc bb33 8c3c efa7 323d 6f96 e93c
-0.033942234 0.025679637 0.0076597203 -0.012398482 -0.0018426189 -0.01396872 0.0047598686 0.012764749
0.0017037232 0.06933032 0.04132993 -0.018530132 0.033523772 0.02361616 0.020316461 -0.003935067
0.07632239 -0.0065042605 -0.034030605 0.006842205 -0.06909879 0.04588859 -0.0020046672 0.004268573
0.019689366 0.011235209 0.06458595 0.03358196 -0.008168023 0.016977387 0.12127577 0.00796124
-0.015294007 -0.003838729 0.005215361 0.00911493 0.0051208152 -0.016336663 0.031901933 -0.007129158
-0.032071203 0.02621381 0.03431822 -0.028585076 0.035523966 -0.031389106 0.008826121 -0.02161899
0.016044714 -0.03554576 -0.022799607 0.012811741 0.046731647 0.025444997 -0.00827609 -0.01333309
0.028378084 -0.054369617 -0.0313477 -0.00015950126 -0.0023462384 0.0032762794 -0.032927137 -0.022233427
0.02312471 -0.060555663 -0.0068239234 0.043311525 0.026312387 -0.007128383 0.065127075 -0.045240227
-0.003291779 -0.0453048 0.043635674 -0.04579674 -0.009476779 -0.025056394 -0.07638575 -0.020968173
-0.113400266 0.030239256 0.040661424 0.015541094 -0.02145439 0.038645566 0.008739224 -0.012390698
0.034525357 -0.0005734021 -0.015647242 -0.014409728 0.02713568 0.04824852 0.046568815 0.025505187
-0.007692572 0.02189809 -0.026660813 -0.009230303 -0.05528333 -0.006974366 -0.0056930585 -0.006758747
0.008820597 -0.008451287 0.0140386345 0.023027439 -0.01229335 0.03642921 -0.08089319 0.04045331
0.020136494 0.050600637 -0.07912538 0.04104966 0.023267452 -0.034562696 0.037768938 -0.04519228
0.006169074 0.018571889 -0.07498445 0.00074117095 0.021516306 0.044673108 0.011703299 0.06579097
0.012261138 -0.034275092 0.032486077 0.06794329 0.03279668 0.011496819 -0.047383 -0.035375215
-0.06253747 -0.022857727 0.027535677 0.019085728 0.02931015 0.004878133 -0.013213901 -0.014142843
0.032754056 -0.0007658909 -0.03449278 0.022020105 0.01943814 -0.022759622 0.007717996 -0.048484713
0.011352036 -0.037936825 0.035466816 -0.024013216 -0.010241251 0.024067387 -0.09558951 -0.048963577
-0.022210406 0.02349698 0.01063651 0.045022633 -0.01741601 0.009705674 -0.0005518845 0.00031827207
0.0430178 0.020121923 -0.06848161 -0.020085873 0.010693051 0.0017225165 0.029435242 0.016148178
0.018136224 0.0006852481 0.061534245 -0.006996275 -0.024560977 -0.030658636 -0.044119064 0.030817939
-0.0066803955 -0.013321658 0.032165 0.0037114872 0.03702336 0.008926004 0.004888698 -0.0019450288
-0.02028953 0.007467012 0.02456991 -0.0007180015 -0.007940199 0.026740573 -0.03300446 0.05230807
0.058742538 0.033481687 -0.07235398 -0.041913584 -0.025149707 0.007245684 -0.04137505 -0.0018891797
0.00919003 -0.012097761 -0.03581599 0.028942954 0.017677175 -0.018962601 0.011926672 -0.02607011
0.026436161 0.0059962366 -0.057831302 0.029983949 0.005657157 0.008790356 -0.051951557 0.044781085
0.0044069965 0.006240755 0.031783033 0.008487137 -0.025666323 -0.015461004 0.06413951 0.022425793
0.028123384 -0.04536006 0.018885827 0.005534189 6.459844e-05 -0.039067514 -0.042452108 -0.019860243
-0.0024577982 -0.026333174 0.07074521 -0.01014009 0.06206992 0.03534413 -0.001732167 0.013761046
-0.028561147 -0.02209212 0.051967613 -0.0046142167 -0.02394457 0.01711451 0.043617185 0.028514115

action_model._discrete_distribution.branches.1.bias f4 [2]
00000000: 7cd3 d4bb 5cd3 d43b
-0.0064949375 0.0064949226

action_model._discrete_distribution.branches.1.weight f4 [2, 64]
00000000: 0460 2e3d 414a 64bd a8a7 433c 88cd f63c
00000010: 9aa9 23bc 7ad1 4a3c 8242 e1bc 1b80 2dbc
00000020: 95ef 82bd 18e3 c3bc a9d5 f1bb 3845 0abd
00000030: 9263 543c a7f5 ec3c d173 2c3d 1612 d83c
00000040: 49ff 323c c754 663c 9274 1cbd ec91 823b
00000050: 47b9 b63b 8727 c7bb 5910 523d a87c 9abb
00000060: e984 62bc 1015 d33c 52f9 533d 0197 283b
00000070: 87d7 1a3d ebfc 2d3b 2b98 0b3c e761 bcbb
00000080: 7883 cebc c582 98bc 9d72 bb3c a80e 363b
00000090: d249 68bc 0edf b4bc 360d 8abc a8d9 873d
000000a0: 9dad a2bb 5362 fc3c 38f7 21bd 440f 6d3b
000000b0: 66f0 d83c e356 13bd 3caf 8abd ceaa ad3b
000000c0: 1411 5bbc 7cba de3c cdc4 2bbd 5721 b93c
000000d0: fd28 bcbd ef19 eabd 746d 583c 865a 84bd
000000e0: 01e1 46bd 4fdf a23c f7e3 8cbc 4966 703d
000000f0: 1014 243c ef7a e43c c66a a5bc a771 213d
00000100: 790b 11bd affb 9f3d 13e5 b3ba 3f11 25bd
00000110: 5ed1 c8ba 02dc f0bc e895 233c 9d64 233c
00000120: 3ba3 ba3d ac81 a43a 47f3 a9bb 4cd8 993c
00000130: e303 7d3a 5198 66bd 112a 3dbd 5305 4d3b
00000140: 918e db3c 3a1a 97bc d736 b73c cf6a 843b
00000150: 7cc2 e1ba 6a80 6bbc cf97 89bd 7a19 203b
00000160: 2b63 3fbc 1c47 30bd 6330 84bd 870c 983c
00000170: a945 46bd 7574 d3bb fa44 8fbc de5f 98bc
00000180: 79f4 e33c 456a 1f3b e0af 04bc c643 a73b
00000190: 1027 d53c 8045 423d 3d2b 033d 11b7 b7bd
000001a0: 50e8 b03c d9c2 37bd cc79 793d 8daa b93a
000001b0: 21b3 68bc a0c8 b73c 905d 2f3d ffac 1f3c
000001c0: 23c5 873b f9d1 dbbc dc76 a63d 1241 ddbb
000001d0: 9dbb 683d 74f2 eb3d 5891 2f3c 5551 883d
000001e0: f2fa 9e3c d6c1 10bd acb7 e23c 1f97 01bd
000001f0: 25f5 0d3c a756 3dbd eb4d a23c e60e 98bc
0.042572036 -0.055734877 0.011941828 0.030127302 -0.009989167 0.012379045 -0.027497534 -0.010589625
-0.06393353 -0.023911998 -0.0073802066 -0.03375742 0.012963193 0.02892573 0.04210264 0.026375812
0.010925123 0.014058298 -0.038197108 0.0039846804 0.005576286 -0.00607771 0.05128512 -0.004714567
-0.013825634 0.02576688 0.051751442 0.002572477 0.0378032 0.0026548456 0.008520166 -0.0057489756
-0.025209174 -0.018617043 0.0228818 0.0027779732 -0.014177756 -0.022079017 -0.016852003 0.066333115
-0.004964544 0.030808603 -0.039542407 0.003617243 0.026481818 -0.035971534 -0.067717046 0.0052999025
-0.013370771 0.027188532 -0.04193573 0.022598905 -0.091875054 -0.11430728 0.013209689 -0.064625785
-0.048554424 0.019881872 -0.017198546 0.058691297 0.010014549 0.02789065 -0.020192515 0.039415028
-0.03541133 0.07811677 -0.0013724886 -0.04029965 -0.0015321185 -0.029401783 0.009984471 0.009972719
0.09113165 0.0012550852 -0.0051864716 0.018779896 0.0009651763 -0.056297604 -0.046182696 0.003128369
0.02680138 -0.018445123 0.022365017 0.004041053 -0.0017224099 -0.014373878 -0.06718408 0.0024429248
-0.011681358 -0.043036565 -0.064545415 0.018560661 -0.048406277 -0.0064530917 -0.017488945 -0.0186004
0.027826535 0.0024324816 -0.0080985725 0.005104515 0.026019603 0.04742956 0.032023657 -0.08970464
0.02159515 -0.044863556 0.06090717 0.0014165208 -0.014202864 0.022434533 0.042813838 0.009745835
0.0041433736 -0.026833521 0.081281394 -0.0067521418 0.056819547 0.11520854 0.010715805 0.06656138
0.01940677 -0.035341106 0.027675472 -0.03163826 0.008664404 -0.046225216 0.019812545 -0.018561792

discrete_action_output_shape f4 [1, 2]
00000000: 0000 e040 0000 0040
7.0 2.0

network_body._body_endoder.seq_layers.0.bias f4 [64]
00000000: fe76 c9bb e60d 08bd bf2e 29bc 461f af3b
00000010: b1c4 b53c bc96 21bd 7019 2f3c 9c76 263c
00000020: 3419 8f3c fd5f a2bc 3594 83bd ea02 e43c
00000030: a72c 103d 6e62 c93c fd2c dcb8 c892 1cbd
00000040: 0022 afbc 257e 3fbd d7d2 1fbd 7f5d 69bd
00000050: e055 0fbd 9102 153c d6ad 08bd 87a5 2cbc
00000060: da64 17bc d141 08bd 1d39 8fbc eaba 52bc
00000070: ac94 4cbd 1043 a73b 29f3 2cbc a443 e23c
00000080: 0605 d4bc eee5 04bd b208 c63a 1ad0 0a3d
00000090: bc21 c63c 930e 8abc 810d b6bc 5801 58bc
000000a0: 6855 c8bc ad50 723d 443d 6bbc f1dd 81ba
000000b0: 3aa3 79bb 05ee f33b 836a 453d b29c ec3c
000000c0: 4122 973c d4be e3bc cd60 90bc c87f acbc
000000d0: 3599 a9bb ce2c 013d c256 a3bb 67a3 3d3c
000000e0: 72c0 cbbc c672 71bc 7ff4 10bd d65e 2f3d
000000f0: 23f2 e4bc dd4a d33c ac7a 64bc 531e 503c
-0.006148218 -0.03321638 -0.010326087 0.0053443043 0.022188516 -0.039450392 0.010687217 0.010160115
0.017468072 -0.019821161 -0.064247526 0.02783342 0.035198834 0.024583068 -0.00010498797 -0.03822592
-0.021378517 -0.04675116 -0.039019432 -0.05697393 -0.034994006 0.00909485 -0.033368908 -0.010537512
-0.0092403535 -0.033265892 -0.017483288 -0.012861947 -0.049946472 0.00510443 -0.010556021 0.027620144
-0.025881302 -0.03244584 0.0015108793 0.033889867 0.024186008 -0.016852653 -0.022223236 -0.013183914
-0.024454787 0.05915897 -0.014357869 -0.0009908063 -0.0038091675 0.0074441456 0.04819728 0.028883312
0.01844895 -0.027800955 -0.017624283 -0.021057025 -0.0051757344 0.03153687 -0.0049847076 0.011574603
-0.024872039 -0.014736837 -0.03538942 0.042815052 -0.027947491 0.025792534 -0.013945263 0.012702542

network_body._body_endoder.seq_layers.0.weight f4 [64, 54]
00000000: 482e 95bd 5e68 66bb 1703 28bc 3114 13bc
00000010: 4355 373e 9dca 45be 1278 2a3e 0b11 39bd
00000020: 7086 c1bd 02d2 cd3d c1ca 40bd 32fd 90bd
00000030: 173f 65be 3e53 35bc 1a2b 35be 898f b7bd
00000040: c056 1dbe 58a4 88be ca61 f4bd 0c91 b93b
00000050: 51d3 a53d 43e5 073d 129d 0e3e b4c0 c83d
00000060: d8c2 ad3d 04a9 b13d 1f0f a73d 05b1 b8bd
00000070: 1222 2abd ffab b2bc c70a f83d 8077 643e
00000080: 8e01 2fbe 7866 b9bc 0834 d5bc f4e9 9b3d
00000090: 9d70 1abe 9d8e 633d 7a94 0b3e 6479 12bc
000000a0: 6729 143d 87a6 ec3c c53f a6bd 9208 28be
000000b0: 6ea1 4e3e 0027 733e 6fc4 2a3e fee7 e83c
000000c0: c94f 3a3d 6702 523d c643 223b ae50 923d
000000d0: 335b 0dbc f8c6 573e 9aec 16bc fce6 583e
000000e0: cdd1 87bd 8e38 4ebe 74f2 00bc 76ea 70bd
000000f0: 80c5 1d3e 43db 873c 0407 733d 07b4 1ebc
00000100: 26e7 edbd e702 ef3d c880 26bd dc7c c23e
00000110: a7b0 9b3d 7b15 193e 2009 b23d 0eb0 283e
00000120: fc41 72bd 903e 133e 83e9 0ebe 8949 f03d
00000130: 64e6 5ebe 3f03 a23e 0121 053d 2a7e 59be
00000140: 64b7 92bd 0329 003d f17e b83d 719d 493d
00000150: da50 49bb 12bc 04be 0242 a5be dc9b 483e
00000160: 227f c2bd b48b 7abc 417a 33bc 6ff7 8e3c
00000170: 458c 25be beb2 3938 35a2 d73d a6fe 033e
00000180: 8ee0 5c3d e01c e9bc 88e9 603e 011d 4dbe
00000190: 6e26 32be 4300 bdbd 46ca 3f3e 051e 06be
000001a0: b60e 01bb 1c13 a03d d01c c9bd 6735 80bc
000001b0: 30d3 f73d c780 563e 53d1 4cbd 8d3b 4d3e
000001c0: 9a8d 563b 7764 f1bd 349a a4bb dd12 3f3e
000001d0: 6d14 cb3d f23b 8d3b 6667 be3c 5afe 493e
000001e0: 167c df3d 4dd4 87be 8207 f33b 170b 5bbe
000001f0: 24c3 1ebd 0ecf 1cbe 8ae7 003a 2ce2 003e
00000200: 59b3 a43d f66a 11bd e3db c1bd fc7b b53d
00000210: 13bd e2bb 37e4 cf3d f8ce 1f3e d05f ba3d
00000220: 347c e83a 9b4f 8fbd 0764 12bd 17de c5bd
00000230: acc2 18be b27b 49bd afd4 e3bd e1e2 aabd
00000240: 477c 4b3d 2934 2c3e 0940 36be 41f6 cbbd
00000250: b97d 643e 8961 55bd 645b c03d bd6b 7f3e
00000260: d257 bdbd f48c 7e3e afa8 46be b1c9 6e3e
00000270: a2bb 9b3d 0db6 be3d a914 993d 7c54 1abe
00000280: 439d 5dbe bcc0 9e3e 7906 5b3c cfa7 31be
00000290: f5ab 79bd 2b34 943d 87d9 b0bc fc0f 22bd
000002a0: 045a a8bb 3d4c 83be f108 7c3e 7816 2c3e
000002b0: 1830 e8bc c6f3 883d a7f3 b53c 70d7 623d
000002c0: bbdc f6bd e311 f43d dfc6 52bd 92da 673e
000002d0: 0ffc 9dbd fac6 f7bd 1c70 19bd 438a c5bd
000002e0: 1ed8 17be f783 263e 4596 37be f0a7 cb3d
000002f0: 0856 053e 9f08 5a3e 1c5e 1b3d 1a8e 893e
00000300: e023 f73c d3ea a23c d5da 82bc dba8 513d
00000310: 11fd db3d 3c63 babc 570f ffbd 74f1 83be
00000320: e11c 173e 22c9 373e f4cc 7cbd 4162 8abd
00000330: f903 543e 87bf 84bd db54 0b3e 062c acbe
00000340: 8011 20be b898 973e a1a5 83be 6b6d 7bbd
00000350: 3fa0 cebc 0647 d33d f34e 59be 74b9 4e3d
00000360: 5c92 fa3d ee73 7c3d 7d5b 953e 5635 97be
00000370: 9a82 30be 2ba7 9c3c e625 f1bc ae73 bc3d
00000380: 43d0 403d d4d6 34be 23cb 50be 0c68 0fbd
00000390: 1179 fbbc eb27 093e e1e0 c93d e4e9 533e
000003a0: 715a 0ebd 1a68 413e 406a 14be 5c23 163e
000003b0: d459 073e b337 f23d 2f6c c3be e26e 19be
000003c0: eb0e 073e b8a8 12bd aa97 a4bd 1d75 98bd
000003d0: d870 243e 158d 083d 02f8 b83d ba14 523d
000003e0: eb58 e8bd 001c 04be a61c 243d e09e 07bd
000003f0: 4b12 e7bc ffdc 9c3d f517 91bd ded5 b2be
-0.07284218 -0.0035157423 -0.010254643 -0.008976982 0.17903619 -0.19315572 0.16647366 -0.04518227
-0.0944947 0.100498214 -0.04706836 -0.07079543 -0.22387348 -0.01106721 -0.17692223 -0.08962924
-0.15365124 -0.26687884 -0.11932714 0.005663043 0.08096946 0.033177625 0.13927105 0.0980238
0.08484429 0.08674815 0.08157181 -0.09018139 -0.0415364 -0.02181053 0.121114306 0.2231121
-0.17090437 -0.022631869 -0.026025787 0.076129824 -0.15082021 0.05555593 0.13630858 -0.008940075
0.036172297 0.028888 -0.08117632 -0.1640952 0.20178768 0.23745346 0.16676496 0.028430935
0.045486245 0.051271822 0.0024759634 0.07144295 -0.008627701 0.21071994 -0.009211684 0.21181864
-0.06631813 -0.20138761 -0.007870305 -0.05881735 0.15407372 0.016584044 0.059332862 -0.009686477
-0.11616354 0.116704755 -0.04065016 0.37985885 0.07602053 0.149496 0.08693147 0.1647341
-0.05914496 0.14379334 -0.13956265 0.11732776 -0.21767575 0.31643102 0.032502178 -0.21239534
-0.07163885 0.03128911 0.09008587 0.049222413 -0.0030718357 -0.12962368 -0.32276922 0.19590706
-0.09496905 -0.015292097 -0.010954441 0.01745197 -0.1616679 4.4273904e-05 0.105289854 0.1289011
0.05392509 -0.028456151 0.21964085 -0.20030595 -0.17397472 -0.092285655 0.18729505 -0.13097389
-0.0019692606 0.07816145 -0.09819949 -0.015650464 0.12100828 0.20947562 -0.050004315 0.20042248
0.003273821 -0.1178674 -0.0050232653 0.1865954 0.09916005 0.0043101246 0.023242664 0.19725934
0.109123394 -0.2652916 0.0074166665 -0.21390949 -0.03876032 -0.1531336 0.00049173145 0.12586278
0.0804202 -0.035502397 -0.09465768 0.08861539 -0.006919512 0.101509504 0.15606296 0.09100306
0.0017737211 -0.069976054 -0.035739925 -0.09661501 -0.14918011 -0.04919023 -0.111245506 -0.08344055
0.049679067 0.16816773 -0.17797865 -0.099590786 0.22313584 -0.05209497 0.093924314 0.24943443
-0.09245266 0.24858457 -0.19400285 0.23319127 0.076041475 0.09312067 0.07474644 -0.1507129
-0.21642022 0.3100642 0.013368242 -0.1734917 -0.060955007 0.07236513 -0.0215881 -0.039566025
-0.005137684 -0.25644103 0.24612786 0.16805446 -0.028343245 0.06687121 0.022210909 0.05538124
-0.1205382 0.11917474 -0.05145919 0.22641972 -0.07714092 -0.12098499 -0.03746043 -0.09645512
-0.14828536 0.16261278 -0.17928417 0.09944141 0.130211 0.21292351 0.037931547 0.26866227
0.030168474 0.019887364 -0.015973488 0.051186424 0.10741628 -0.022752397 -0.12454098 -0.25770152
0.1475711 0.1794782 -0.061718896 -0.06757022 0.2070464 -0.064818434 0.13606589 -0.33627337
-0.15631676 0.29608703 -0.25712302 -0.061383646 -0.025222896 0.10316281 -0.21221523 0.05046983
0.12234947 0.061633997 0.29171363 -0.2953288 -0.1723732 0.01912268 -0.029437017 0.09201752
0.047073614 -0.17660075 -0.2038999 -0.035011336 -0.030697377 0.13394134 0.09857345 0.20694691
-0.03475422 0.18887368 -0.14493656 0.14661926 0.1321786 0.1182703 -0.38168475 -0.14983705
0.13189285 -0.035805434 -0.0803674 -0.074442126 0.16058671 0.03333767 0.09031679 0.051289298
-0.11345085 -0.12901306 0.040066384 -0.0331105 -0.028206965 0.07659339 -0.070846476 -0.34928793

network_body._body_endoder.seq_layers.2.bias f4 [64]
00000000: d445 fa3c 8167 4b3c c3ed aebb 1d4f b23c
00000010: b0e4 a1bc a31e 83bd b684 8bbb 7220 b2bb
00000020: a7bb bd3a 7e1c 98bc dce0 ca3c f2d7 613c
00000030: c69b d6bc 7620 503c 4d92 233d 9f72 08bd
00000040: 4286 e53c c2fb 29bc 8261 c1ba c2f0 093c
00000050: ccdc e5bc 0991 05bd 8a46 c33c cdee c83b
00000060: aae7 fabb 07fd 81bb 0491 9e3c 88e0 85bc
00000070: 8887 923c 6bcb a3bc 52f7 983c 506a 563c
00000080: 2860 b6bc b5ae 47bc ad94 bfbc ac21 24bb
00000090: a562 d9bc 216a 8dbc a791 94bc 36a7 a7bb
000000a0: 5c92 13bb a4e3 c8bc 7884 e13c adb5 9dbb
000000b0: ac28 a6bc eab3 68bc ee9c 09bd b95f d6bc
000000c0: c3f2 9fbc 496c 043c 6160 e63b 0e07 edbc
000000d0: 6409 5d3d d6e3 1b3d a604 b53b 9009 193c
000000e0: 5167 d23b bb4d 0abd 9811 723b 385f 32bc
000000f0: cdc0 64bd 6ad0 d9b9 e89a f03a b72b 2f39
0.030550875 0.012414814 -0.005338402 0.02176624 -0.019762367 -0.06402328 -0.0042577637 -0.0054359967
0.001447548 -0.018568274 0.024765424 0.0137843955 -0.026197325 0.012703052 0.039934445 -0.033312436
0.02801812 -0.010374965 -0.0014753791 0.008419218 -0.028059386 -0.03260902 0.023837347 0.006131983
-0.007657011 -0.003966931 0.019356258 -0.016342416 0.017886892 -0.019994458 0.018672619 0.01308687
-0.022262648 -0.0121876495 -0.023386324 -0.0025044484 -0.026536295 -0.01726252 -0.018135859 -0.0051163686
-0.0022517657 -0.02452261 0.027528986 -0.004812917 -0.020283066 -0.014203051 -0.033596925 -0.026168691
-0.019524937 0.008082458 0.007030532 -0.028934028 0.053964034 0.03805908 0.005524236 0.009340659
0.0064210077 -0.033765536 0.0036936756 -0.01088696 -0.05584793 -0.00041544746 0.0018356713 0.00016705586

network_body._body_endoder.seq_layers.2.weight f4 [64, 64]
00000000: b65e b9bb b4e9 fabd f920 eabc c5b6 173e
00000010: aedb 7fbd c753 9fbc 2b7d 2f3e 7e7f 9c3c
00000020: 6296 d03d ff85 0ebd 7f5e 913d f5ea 683d
00000030: 70bc 4abe 7a22 cbbd 2389 3abc 4bfd 573e
00000040: 7767 783e 8076 363e f8d2 fb3d e4e8 a13d
00000050: 2b3d 83bd d427 3cbe ad49 26bd 980c 8fbd
00000060: 5fe8 143e 134c abbd 8269 d43b 5f5f a43c
00000070: dc9f 6f3d 79aa 763d 728b a43c bff3 b5bc
00000080: 8c5b 14be 5284 2b3d 6bbe 12bc 828b 023c
00000090: f0b2 313e 08aa b13b 7783 1b3d c073 95bc
000000a0: 7543 a4bc fe62 203e 5929 1bbe 29e1 07be
000000b0: a47a eabd ac61 5b3d 7634 bcbd 4eed c4bc
000000c0: 9fb4 fa3d c512 b5bc 64df 97bd cec7 0abd
000000d0: 9a0b 41be 0565 80be c3df 57be 63c4 e1bd
000000e0: f6fe 32bd c6c6 a8bc bd29 9f3c 5a2f 0dbc
000000f0: eb10 e8bd 06cb 9fbd 18d2 e63d fdbf 22be
00000100: 52a3 e6bb cd5e 5abd 07b3 063d c739 803c
00000110: 2120 d0bd 1145 133d a42d 023e 315b 9c3e
00000120: a60e ddbd 7281 0ebe 6824 553e 5a50 edbd
00000130: d677 243e 88a0 7f3e 666f 39be de14 a23a
00000140: a537 9dbc 82a0 a03e d899 b73d fa41 753d
00000150: 00c2 28be e672 393e dbe0 3f3e a5da 29bd
00000160: 217b 2cbe 2b25 dabd 2d9d 0bbe 5da8 c03d
00000170: d8e1 013e c0f7 76bd a53c f7bd f4fc 58be
00000180: 0276 39bd 768a 4f3d 4151 6e3e a816 32be
00000190: 6147 963d b119 19bd 9d9c a8be f7e8 21be
000001a0: 2f59 263e ed4a 83bc f631 89be 59c5 b23d
000001b0: 4a7e 493e f1fa 723e d1ae 16be ed81 203e
000001c0: e6b4 b6bd d34b c33d 7a91 f8bc bfa3 3f3e
000001d0: 31b5 e5bd 92a2 95bd dfa0 843c e96c 2bbe
000001e0: 5793 153c abf0 4d3d 2669 8fbd 940c b83d
000001f0: 0226 143c cbda 803e e2d1 d2be 5617 823d
00000200: 0978 0abe d6aa 56be 9ebe 12bd c13b 58be
00000210: 8e05 893d 3517 cbbb d67b 0ebd b0f6 47bc
00000220: abc3 4e3d 894a b23d 793e 0d3e d1bd aa3e
00000230: 20cb 84be be4d eb3c 5bb1 ea38 11f4 063e
00000240: 7f8b 14be a98c 103d 96bc 273e cce5 683e
00000250: a144 113e f33a ddbd 566f 373a 0b52 02be
00000260: 27ed 2e3e da1b c83d 6cc7 053e 05c8 11be
00000270: 4d44 a23d b943 5e3d 04ca 0ebe 5646 313e
00000280: 3737 3b3d 3220 063b 5ff2 c33d 50bd dabd
00000290: 4297 c33e 5870 18be 7c15 55be d671 113e
000002a0: 09ca 3ebd 016b 6cbe 577c 32be 4f83 573e
000002b0: e629 263e 9c43 dcbd 032a 69be 94bb 59bd
000002c0: fc4e e83d 428b bdbd 41e9 71bd 93ba 31be
000002d0: c76c 21be 442d 9c3d 913b 36bb 9e7c eabd
000002e0: 0c97 303d e097 083e 05ed bebd 4caf f13d
000002f0: 5915 d8bc 1b19 cabc 9fb6 fbbd c40d 6c3d
00000300: 5975 d3bd aca3 9dbe 176a cf3d cf21 8b3c
00000310: 5917 f8bc 6091 06be 7b3c 8e3d a187 27bd
00000320: 1ef5 b8bd 063a 86bd 14d2 76bd 20b6 09bc
00000330: f713 70be d355 0a3e 09b7 61be b546 7ebd
00000340: 6869 e53c 51f5 3cbe 785d 15bc 1ef4 d8bc
00000350: b673 14be 0cf6 e8bd 8fbf 093d dbef e4bd
00000360: ea84 5fbe 7be5 b2bd 3e00 b3bd 6b3b 4ebe
00000370: e941 9c3d 3eff ec3c 7c68 92bb 9064 8f3d
00000380: 2023 e1bd 2197 2cbe 20ae 033c 4d44 09be
00000390: 1bbc ed3d feba efbd 68d0 85bd eb35 babc
000003a0: 9d10 833d b839 723e 9bba ea3c 35fd 013d
000003b0: 51d4 4a3c 4f27 88be 5607 85bc bf52 bfbd
000003c0: c306 f13c 0fa5 d6bd a312 b23c 036f 73bd
000003d0: 3944 7e3e e2be 4f3d 7a11 bbbc 48fc 18bd
000003e0: 1d0d eebd 09d0 e9bd 104a 92bc dcaf 15bd
000003f0: 7e7d 983d 5fa8 353d 574b 44bd 2bc8 0b3e
-0.0056570424 -0.122516066 -0.028580176 0.14815815 -0.062465362 -0.019449128 0.17137592 0.019103762
0.10184933 -0.034795757 0.07098102 0.056864697 -0.19798446 -0.09918685 -0.011385235 0.21092717
0.24258219 0.17818642 0.122960985 0.079057485 -0.06408151 -0.18374568 -0.040597606 -0.06984824
0.14541768 -0.083641194 0.006482304 0.020065008 0.058502063 0.06022117 0.020086024 -0.022210954
-0.14488047 0.041874237 -0.008956532 0.007967832 0.17353415 0.0054218806 0.03796717 -0.01824367
-0.020051697 0.15662763 -0.15152492 -0.13269486 -0.11449173 0.053559944 -0.09189694 -0.024038937
0.12241482 -0.022103677 -0.07415655 -0.033881955 -0.18852082 -0.25077072 -0.21081452 -0.11023786
-0.04370018 -0.020602595 0.019429082 -0.0086172465 -0.11331352 -0.078023955 0.11270541 -0.1589355
-0.0070385123 -0.053313065 0.032885578 0.01565255 -0.10162378 0.03595454 0.12712723 0.30538324
-0.107938096 -0.13916567 0.20814669 -0.115875915 0.16061339 0.24963582 -0.18108901 0.0012365838
-0.019191572 0.31372458 0.0896489 0.059877373 -0.16480255 0.18110237 0.1873812 -0.04146828
-0.16843845 -0.106516205 -0.13634177 0.09407113 0.12683809 -0.060294867 -0.12072114 -0.21190244
-0.045278557 0.050669156 0.23273183 -0.17391455 0.07337833 -0.037378017 -0.32931986 -0.15811525
0.16244958 -0.016026938 -0.2679593 0.08729047 0.19677082 0.23728539 -0.14715125 0.15674563
-0.089212224 0.09535947 -0.030342806 0.18714808 -0.112162 -0.073063985 0.01618999 -0.16740765
0.009129367 0.050278347 -0.07002477 0.08986774 0.009042265 0.25166926 -0.41175753 0.06352107
-0.13522352 -0.20963606 -0.035826318 -0.21116544 0.066905126 -0.006197835 -0.034786068 -0.012204811
0.050479572 0.08705623 0.13793363 0.33347943 -0.25936222 0.028723594 0.000111910245 0.13179041
-0.14506339 0.035290394 0.16380534 0.2274391 0.14186336 -0.10802259 0.00069974863 -0.1272661
0.17082654 0.09770937 0.13064355 -0.14236458 0.079231836 0.054263804 -0.1394425 0.17311987
0.045706954 0.0020465967 0.09567713 -0.1068064 0.38201338 -0.14886606 -0.20808977 0.14203581
-0.046579394 -0.23087694 -0.17430244 0.21046184 0.1622692 -0.10755083 -0.22769932 -0.053157404
0.1134319 -0.09255077 -0.05906034 -0.17356329 -0.15764152 0.07625821 -0.00278065 -0.1144955
0.0431128 0.13339186 -0.09322552 0.11801013 -0.026377367 -0.024670174 -0.122906916 0.057630315
-0.10325117 -0.30788934 0.10127657 0.016983895 -0.03028457 -0.13141394 0.069451295 -0.04090083
-0.090311274 -0.06554036 -0.06025894 -0.008405238 -0.23445116 0.13509302 -0.22042479 -0.06207915
0.028004363 -0.18452956 -0.009116523 -0.026483592 -0.14497265 -0.11375055 0.03362995 -0.11178561
-0.21828046 -0.08735176 -0.087402806 -0.20139854 0.07629759 0.028930303 -0.004468022 0.07001603
-0.10993028 -0.16854526 0.00803712 -0.13404961 0.11608144 -0.11705588 -0.06533891 -0.022730788
0.06399653 0.2365483 0.028653434 0.031735618 0.012379722 -0.2659249 -0.01623885 -0.093419544
0.02942217 -0.10480701 0.021737402 -0.05943204 0.24830712 0.05071915 -0.022835482 -0.03734997
-0.11623595 -0.11416633 -0.017857581 -0.036544666 0.07445811 0.044350024 -0.047923412 0.13650577
