Assets/ML-Brains/BrainScenario07.onnx (onnx, 35829 bytes, 9 tensors)

action_model._discrete_distribution.branches.0.bias f4 [7]
-0.006968731 -0.013061154 0.014382819 0.03411646 0.008123007 -0.039301112 0.011060707
00000000: f459 e4bb 73fe 55bc eaa5 6b3c b3bd 0b3d
00000010: 5c16 053c 34fa 20bd f837 353c

action_model._discrete_distribution.branches.0.weight f4 [7, 64]
0.009709839 0.011425616 0.010490667 -0.039628055 -0.008544466 0.0468602 0.017164951 0.018192932
0.0046825483 0.011727285 0.0071028094 -0.019326316 0.020684246 -0.018505253 0.015556619 -0.024622511
-0.03111768 4.1757583e-05 0.015279265 0.008059365 0.009131583 -0.0315612 0.019905724 -0.005457006
0.08176455 -0.048335213 0.039008103 -0.008309144 -0.048751183 0.0051986375 0.038501974 0.011352944
-0.00063197565 -0.04328685 0.028985249 0.050585747 -0.027030544 0.0011757023 -0.019887606 0.023508556
0.066247486 0.019954922 0.0048704497 -0.02769743 -0.023021331 -0.0039825696 0.01874717 0.058322668
-0.013780095 0.022753207 0.027221033 0.0041535418 -0.055599295 0.015348986 0.043308154 0.02310447
-0.022040159 -0.00860629 -0.016358811 0.063351795 -0.020705355 -0.03568646 -0.03270104 0.0008107677
-0.046051115 0.0469259 -0.035713956 0.0044587622 0.028569864 0.02659077 -0.0050951787 -0.009880528
0.005980476 -0.02776458 0.025810167 -0.039993316 -0.06810714 -0.006495307 -0.04033582 0.029955711
0.03715966 -0.0069312644 0.00070390484 0.005127344 -0.003286874 -0.014305001 0.107630834 0.0019273909
0.028090866 -0.006416429 -0.0015786716 0.0094803255 -0.057647713 0.035343707 -0.0014033963 -0.035050325
-0.050695132 0.036049988 0.020989789 -0.0675979 0.04804656 -0.05195216 -0.007731259 0.0016712984
-0.0021579429 0.0362638 0.037207417 -0.05368995 0.0145482775 0.009715515 -0.05103336 0.03237429
0.014582393 0.002097973 -0.0044887634 0.02112236 -0.0063690026 -0.010140218 0.034952503 0.023907047
0.0110558 -0.0031603125 0.0063244384 0.07243549 -0.010828694 0.016998459 0.028926529 0.015137923
0.017417876 0.0022033127 -0.0067176125 -0.026649345 0.0017909624 -0.055925865 -0.027605714 -0.0071024257
-0.023125194 -0.015894836 -0.049413674 -0.006815231 0.07773549 -0.019448293 0.03602575 -0.018407924
-0.02340899 -0.021172354 -0.0028682048 -0.011744911 -0.025052631 0.017141735 -0.036621016 -0.03772905
0.03365956 0.037957996 0.0073387898 -0.009157791 -0.07460207 0.03047192 -0.03535483 -0.08853017
-0.014238285 -0.02057906 0.005747723 -0.096877255 0.04069415 0.0002334221 0.0031595975 0.016590824
0.028692642 -0.09218314 0.010195951 0.013050375 -0.008897298 -0.014459072 -0.018851828 -0.08622317
-0.04838697 -0.0647542 -0.00025216528 -0.016512353 0.020485375 0.0034130863 -0.07370447 -0.03665701
-0.018505538 -0.001632726 -0.038323507 -0.004590033 -0.023346197 -0.028465176 0.027683998 0.019754253
-0.008929331 0.040404744 -0.0067854305 0.040846843 -0.03398646 0.008077555 -0.055830576 -0.039762538
0.0076190475 -0.03203173 0.029734608 0.022096295 -0.029945673 -0.009374424 0.001481329 -0.0012732163
-0.024968041 0.02715138 -0.0027615072 -0.07137645 -0.0030743612 -0.0036076494 -0.0019918166 0.0029627273
0.0048728134 -0.037516423 0.01944444 -0.048981365 0.06241234 -0.056677613 -0.0061804825 -0.007651627
-0.015931033 -0.045854114 -0.039631188 0.053330354 0.019945692 0.025518162 -0.020686436 0.03879461
-0.06482027 -0.04381908 0.050969318 -0.011238883 -0.04345313 -0.011658587 0.002873209 0.0261243
-0.0021422668 -0.0039680977 -0.010827305 -0.036253367 -0.00011035701 0.031915464 -0.07956648 -0.0007345479
-0.016075443 -0.017937802 0.00668108 0.009473819 -0.0014794917 -0.029883737 -0.026771145 -0.01812821
00000000: 0416 1f3c 8232 3b3c 0ce1 2b3c 0751 22bd
00000010: 17fe 0bbc 7bf0 3f3d 839d 8c3c 5809 953c
00000020: 1070 993b cc23 403c afbe e83b 3952 9ebc
00000030: 0272 a93c 5498 97bc 30e1 7e3c 26b5 c9bc
00000040: 81ea febc dd24 2f38 e255 7a3c 6d0b 043c
00000050: a39c 153c 5146 01bd 5411 a33c afd0 b2bb
00000060: 2c74 a73d 25fb 45bd f6c6 1f3d 1323 08bc
00000070: 52af 47bd 5559 aa3b 3fb4 1d3d b301 3a3c
00000080: 2bab 25ba 8d4d 31bd 7972 ed3c 0033 4f3d
00000090: 296f ddbc 061a 9a3a 55eb a2bc 0495 c03c
000000a0: c3ac 873d 8178 a33c 4b98 9f3b b9e5 e2bc
000000b0: 3b97 bcbc 3780 82bb aa93 993c c0e3 6e3d
000000c0: e8c5 61bc ef64 ba3c a5fe de3c 6f1a 883b
000000d0: 16bc 63bd 507a 7b3c e463 313d 9645 bd3c
000000e0: 908d b4bc 6601 0dbc ea02 86bc 96be 813d
000000f0: 479e a9bc f72b 12bd 87f1 05bd b389 543a
00000100: 18a0 3cbd 5f35 403d cc48 12bd cf1a 923b
00000110: 590b ea3c e3d4 d93c 75f5 a6bb f0e1 21bc
00000120: def7 c33b 8b72 e3bc d86f d33c 08d0 23bd
00000130: c27b 8bbd 96d6 d4bb 2c37 25bd ae65 f53c
00000140: ba34 183d a91f e3bb 4186 383a 4703 a83b
00000150: 9868 57bb 865f 6abc 8e6d dc3d 82a0 fc3a
00000160: d11e e63c e840 d2bb 6eeb ceba 5e53 1b3c
00000170: 0220 6cbd 90c4 103d 2af2 b7ba ee90 0fbd
00000180: b3a5 4fbd 27a9 133d c7f2 ab3c c570 8abd
00000190: 78cc 443d cacb 54bd 8056 fdbb 780f db3a
000001a0: 466c 0dbb 5a89 143d ce66 183d fee9 5bbd
000001b0: e65b 6e3c d32d 1f3c 5b08 51bd e79a 043d
000001c0: fdea 6e3c 257e 093b 7a16 93bb cd08 ad3c
000001d0: 11b3 d0bb 2823 26bc 5b2a 0f3d b6d8 c33c
000001e0: 6323 353c 3f1d 4fbb 3c3d cf3b 0f59 943d
000001f0: d66a 31bc 5a40 8b3c 54f7 ec3c 0d05 783c
00000200: efaf 8e3c 7465 103b 6b1f dcbb ba4f dabc
00000210: babe ea3a 8512 65bd 6125 e2bc 77bb e8bb
00000220: 0c71 bdbc e335 82bc fe65 4abd 4d52 dfbb
00000230: c933 9f3d 0752 9fbc bd8f 133d 37cc 96bc
00000240: 36c4 bfbc a571 adbc 7ef8 3bbb ba6d 40bc
00000250: 2d3b cdbc d36c 8c3c ebff 15bd c789 1abd
00000260: 9bde 093d d879 1b3d 3b7a f03b 8f0a 16bc
00000270: f8c8 98bd 3fa0 f93c 3ad0 10bd 4e4f b5bd
00000280: b247 69bc 6b95 a8bc 6557 bc3b 9567 c6bd
00000290: e9ae 263d c5c2 7439 4011 4f3b 7be9 873c
000002a0: d50c eb3c 84ca bcbd eb0c 273c 3dd1 553c
000002b0: f9c5 11bc bee5 6cbc 266f 9abc c695 b0bd
000002c0: 6a31 46bd da9d 84bd 0d35 84b9 ea44 87bc
000002d0: f2d0 a73c 16ae 5f3b 5ff2 96bd a925 16bd
000002e0: ed98 97bc 3201 d6ba 1cf9 1cbd fd67 96bb
000002f0: 8640 bfbc cd2f e9bc 8dc9 e23c acd3 a13c
00000300: 544c 12bc 727f 253d 5158 debb 054f 273d
00000310: 6335 0bbd b957 043c 9aae 64bd 0bde 22bd
00000320: 34a9 f93b b433 03bd fe95 f33c 4a03 b53c
00000330: a150 f5bc 2f97 19bc 2729 c23a 0de2 a6ba
00000340: c789 ccbc 926c de3c 67fa 34bb d12d 92bd
00000350: 397b 49bb 506e 6cbb 2389 02bb 512a 423b
00000360: 1fac 9f3b d2aa 19bd f249 9f3c afa0 48bd
00000370: 15a4 7f3d c926 68bd a585 cabb 80ba fabb
00000380: cc81 82bc 86d1 3bbd 5054 22bd ee70 5a3d
00000390: 2665 a33c 770b d13c 9a76 a9bc 19e7 1e3d
000003a0: 7dc0 84bd a37b 33bd 34c5 503d 4b23 38bc
000003b0: e9fb 31bd a803 3fbc 734c 3c3b a102 d63c
000003c0: 4665 0cbb d106 82bb 0265 31bc 697e 14bd
000003d0: 786f e7b8 cab9 023d c0f3 a2bd ad8e 40ba
000003e0: a6b0 83bc 4cf2 92bc f6ec da3b 1438 1b3c
000003f0: 81eb c1ba bdce f4bc 294f dbbc 9d81 94bc

action_model._discrete_distribution.branches.1.bias f4 [2]
0.026551332 -0.02655133
00000000: 2e82 d93c 2d82 d9bc

action_model._discrete_distribution.branches.1.weight f4 [2, 64]
-0.038993828 0.016221069 0.0017119044 0.03135151 -0.006812794 0.028688604 -0.068978645 -0.054724444
0.028278137 0.062476605 0.002530567 0.05564447 -0.0032664197 -0.002472405 0.0025856867 0.009275097
0.0061594006 -0.008547835 -0.005259865 -0.009448548 0.026234651 0.00859289 -0.041207287 0.05224555
-0.017228767 -0.0019269378 -0.021792056 -0.0004215289 -0.073723115 0.00037449886 0.0001808924 -0.11297668
-0.023369761 0.030736983 -0.020198366 0.07139088 0.010053525 -0.01671989 0.075550824 -0.022040334
-0.05529887 -0.023798848 0.028706418 -0.028823506 0.0063244863 0.057121295 -0.033486485 0.017812787
-0.028186388 0.01726602 0.010259066 0.00973867 -0.013837224 -0.018371364 0.014842265 -0.015609152
-0.0013955442 0.012680408 -0.07486279 -0.06825701 0.010036108 0.0076116505 -0.051479522 -0.016682304
0.05792202 -0.020566829 -0.007973016 -0.038840845 -0.031329334 -0.025111446 0.04659046 0.05243841
-0.001508284 -0.07954019 -0.016435355 -0.042432807 -0.01011801 -0.01286211 0.017272426 0.014762492
-0.006129314 0.036244437 -0.031275023 0.015318422 -0.0040538507 0.0064672087 0.0012398716 -0.069986194
0.013721913 -0.0027655587 -0.008585946 -0.032501515 0.072082885 -0.013433968 0.019406594 0.11342284
-0.0012342285 -0.02884374 0.010893701 -0.06939621 -0.028266033 -0.0056623695 -0.06133264 0.032288402
0.051350173 0.02632719 -0.03533978 0.009387105 -0.0003849321 -0.029930664 0.03140821 -0.013591561
0.006780124 -0.028289668 -0.016428767 0.013205767 -0.0004841958 -0.018676616 -0.018856514 -0.0036239205
-0.018895574 -0.01807411 0.07962476 0.06546093 -0.045791414 0.0012178312 0.041552626 0.0076381136
00000000: feb7 1fbd 0ce2 843c fb61 e03a 716a 003d
00000010: dc3d dfbb 5d04 eb3c ad44 8dbd bd26 60bd
00000020: 8da7 e73c 78e7 7f3d dfd7 253b 75eb 633d
00000030: 6e11 56bb 1308 22bb a074 293b 94f6 173c
00000040: ccd4 c93b 380c 0cbc f25a acbb 15ce 1abc
00000050: 0dea d63c 31c9 0c3c f9c8 28bd 6eff 553d
00000060: 5823 8dbc 4e91 fcba 4185 b2bc a700 ddb9
00000070: 25fc 96bd 6358 c439 efad 3d39 5160 e7bd
00000080: f171 bfbc 20cc fb3c 0b77 a5bc 6235 923d
00000090: 8ab7 243c 27f8 88bc 64ba 9a3d ee8d b4bc
000000a0: 1181 62bd cdf5 c2bc b929 eb3c 461f ecbc
000000b0: a33d cf3b 05f8 693d 2029 09bd 1fec 913c
000000c0: 24e7 e6bc 7871 8d3c a415 283c f18e 1f3c
000000d0: 86b5 62bc 8b7f 96bc f92c 733c 87bd 7fbc
000000e0: b1ea b6ba 7cc1 4f3c aa51 99bd 55ca 8bbd
000000f0: 7d6e 243c 276b f93b 31dc 52bd 54a9 88bc
00000100: a43f 6d3d c47b a8bc 41a1 02bc 9417 1fbd
00000110: 3053 00bd 85b6 cdbc a3d5 3e3d a9c9 563d
00000120: 9db1 c5ba f8e5 a2bd 70a3 86bc 06ce 2dbd
00000130: 03c6 25bc 99bb 52bc e77e 8d3c 61de 713c
00000140: 6ad8 c8bb 0c75 143d 3d1a 00bd 1efa 7a3c
00000150: 2ad6 84bb e1ea d33b 3083 a23a ec54 8fbd
00000160: e0d1 603c 603e 35bb 11ac 0cbc 4f20 05bd
00000170: 31a0 933d 251a 5cbc 94fa 9e3c 3c4a e83d
00000180: d6c5 a1ba b549 ecbc 7e7b 323c 9a1f 8ebd
00000190: 2b8e e7bc 668b b9bb ef37 7bbd d840 043d
000001a0: 8f54 523d 1fac d73c 72c0 10bd 5fcc 193c
000001b0: b6d0 c9b9 2731 f5bc e5a5 003d 23af 5ebc
000001c0: cd2b de3b bcbf e7bc 9f95 86bc 005d 583c
000001d0: a9db fdb9 b4ff 98bc fa78 9abc 4c7f 6dbb
000001e0: e4ca 9abc 2810 94bc 4e12 a33d 6110 863d
000001f0: c78f 3bbd a29f 9f3a 1633 2a3d 2449 fa3b

discrete_action_output_shape f4 [1, 2]
7.0 2.0
00000000: 0000 e040 0000 0040

network_body._body_endoder.seq_layers.0.bias f4 [64]
-0.028472247 -0.020629112 0.043812443 -0.005184999 0.022908542 0.014905576 -0.027325744 0.030764975
-0.007274939 0.010272095 0.0026787596 -0.013660533 -0.0053305156 0.005170025 -0.004520217 0.01136252
0.012282283 -0.039190233 0.0036325436 0.02518054 0.011501454 -0.058495443 -0.00579817 0.03024521
-0.036519162 0.051946457 -0.03663104 -0.026662307 -0.039418597 -0.022390718 0.01975002 -0.04405412
-0.007817714 -0.022650056 0.03329802 0.06558134 -0.021188458 -0.011075248 0.005786382 0.03527382
-0.004775999 0.0064812573 0.005679548 -0.0060530654 0.007984074 -0.022618936 0.019819701 0.010188991
-0.053330507 0.04301531 -0.055960093 -0.013123573 0.05350785 -0.007163102 -0.015488713 0.0010246424
-0.0013694611 0.012883141 -0.0032119409 0.043323345 -0.03231603 -0.005129747 0.0063785566 0.015193705
00000000: a13e e9bc 62fe a8bc ad74 333d ede6 a9bb
00000010: b2aa bb3c 8436 743c 3dda dfbc d406 fc3c
00000020: 9d62 eebb 4a4c 283c 218e 2f3b 6ed0 5fbc
00000030: 9bab aebb 5069 a93b 541e 94bb dd29 3a3c
00000040: a13b 493c f085 20bd f80f 6e3b 6b47 ce3c
00000050: 9870 3c3c eb98 6fbd 93fe bdbb cdc4 f73c
00000060: 1e95 15bd cfc5 543d 6e0a 16bd e96a dabc
00000070: 6575 21bd bd6c b7bc cbca a13c 1872 34bd
00000080: de15 00bc 9c8c b9bc 8163 083d 824f 863d
00000090: 6b93 adbc f574 35bc b19b bd3b 487b 103d
000000a0: fc7f 9cbb ba60 d43b 801b ba3b cb58 c6bb
000000b0: a2cf 023c 594b b9bc ed5c a23c baef 263c
000000c0: 1771 5abd d230 303d 6936 65bd 4104 57bc
000000d0: 0c2b 5b3d 74b8 eabb 5fc4 7dbc 4b4d 863a
000000e0: 7d7f b3ba cf13 533c 6d7f 52bb d273 313d
000000f0: d05d 04bd 7017 a8bb 3603 d13b 05ef 783c

network_body._body_endoder.seq_layers.0.weight f4 [64, 54]
0.14806275 0.11499005 -0.25675806 0.004035515 0.24523714 -0.15393521 -0.18143405 -0.034767013
0.030151265 0.20859827 0.033288132 0.14975017 -0.31591764 0.29189333 -0.14618683 -0.070873946
-0.10546744 -0.21616673 0.06699036 -0.03479573 -0.24185005 -0.12370546 0.17012796 -0.056584258
-0.07662161 0.29853114 0.11192917 0.050164044 -0.21655065 0.15718567 0.2277295 -0.2875541
-0.07195038 0.27752432 0.20276976 -0.14685845 0.05225491 -0.13997597 0.17838576 0.15839188
0.03581976 -0.12168609 0.087027796 -0.1923465 0.063385785 0.03377065 0.057600074 0.10698857
-0.009448638 -0.065478206 -0.03476551 0.16567518 0.071573675 -0.057330836 -0.116045974 -0.111124806
-0.26826277 -0.11659926 -0.34664714 -0.17841592 -0.059690937 0.23068175 0.07140127 0.17568088
0.0042383596 0.14666794 -0.28437316 0.041587494 -0.15947936 -0.050819203 0.059968844 0.009841194
-0.10252339 -0.20407479 0.20979695 0.104070656 0.100425966 0.12118418 -0.16483839 -0.076118365
-0.17336546 0.03880784 -0.21136858 0.09253653 0.3806684 -0.09999875 -0.28944144 0.0679477
0.004686354 -0.11841863 -0.006374716 0.030676495 -0.20997556 0.06789274 -0.07622517 0.19593742
-0.047930688 0.078218825 -0.1898088 0.14655836 0.13816474 -0.10163533 0.09077289 -0.15594818
0.12784533 -0.028403135 -0.09993082 -0.020381488 -0.07756114 -0.09609115 -0.036032904 0.36535382
0.104537845 0.3400287 -0.14546931 0.021156846 -0.07450969 0.20773214 0.10590745 0.08949409
-0.12613311 0.06420525 0.0339552 -0.099772744 0.017671963 -0.118747704 0.0042045265 0.058674973
0.14826903 0.2575813 0.101199515 -0.035998236 -0.0016976955 -0.010166849 -0.1965787 -0.16143227
-0.0058982354 -0.19659503 -0.111063235 -0.017685182 0.13666111 -0.19029711 0.08125784 0.20668946
0.0358585 0.2037091 -0.10385618 -0.07677439 -0.016601512 0.26332548 0.15984641 -0.074670866
-0.06782265 0.0063838335 -0.2885174 0.07596698 0.102158636 0.09793804 0.09607865 -0.097344734
-0.08730201 -0.14629874 -0.15712072 -0.14005281 0.10187285 0.019718584 -0.051628213 -0.22454152
0.15883435 -0.05707273 -0.0014668523 -0.19444041 0.082358316 -0.022834793 -0.05389022 0.07949978
-0.10572288 0.013669082 0.08005829 0.11316761 -0.0030536898 0.04355474 -0.20467278 0.00086888095
0.04438605 -0.18173377 -0.21719593 -0.09653535 0.0028108642 -0.053618822 -0.13938546 0.2274254
-0.016066652 0.08871498 -0.23464316 -0.07494566 -0.040498786 -0.17302206 0.008289931 -0.003367985
-0.054774977 0.23966348 0.087077394 0.13386783 0.039259937 0.12402552 -0.023032516 0.12511577
-0.003992503 0.053913258 -0.073847465 0.13754486 0.10498408 -0.0048199147 0.034698658 -0.14024702
-0.103517435 0.05670314 -0.1301986 0.027352853 -0.030823262 -0.07245078 0.0619086 -0.07677794
-0.009787777 -0.10339886 -0.15531573 0.07299535 0.17867847 0.18630964 -0.014542233 0.03451567
-0.015781416 -0.0063538193 -0.1345842 0.017314456 -0.02093481 0.11212142 -0.14369524 0.294703
-0.06972168 0.047018938 0.023443313 0.0949388 0.20727085 -0.102658026 0.11633497 0.3060307
0.2159521 -0.28109726 0.11694273 -0.18897584 -0.010545131 -0.04516695 -0.073909275 0.08336707
00000000: c39d 173e e77f eb3d cb75 83be 5a3c 843b
00000010: 721f 7b3e 31a1 1dbe d9c9 39be db67 0ebd
00000020: c9ff f63c c99a 553e 2359 083d 1c58 193e
00000030: f5bf a1be 0b73 953e 00b2 15be 5c26 91bd
00000040: 50ff d7bd d05a 5dbe 3e32 893d f885 0ebd
00000050: 8aa7 77be 4a59 fdbd 0636 2e3e e5c4 67bd
00000060: caeb 9cbd 13d9 983e 1f3b e53d d078 4d3d
00000070: 74bf 5dbe 48f5 203e ec31 693e 4a3a 93be
00000080: b95a 93bd ab17 8e3e e0a2 4f3e 1062 16be
00000090: 3f09 563d dc55 0fbe c2aa 363e 7b31 223e
000000a0: beb7 123d 8f36 f9bd a13b b23d 7bf6 44be
000000b0: 68d0 813d 1853 0a3d 0eee 6b3d d31c db3d
000000c0: 76ce 1abc 7019 86bd 4866 0ebd c1a6 293e
000000d0: 3895 923d bdd3 6abd 83a9 edbd 6795 e3bd
000000e0: bd59 89be 98cb eebd bc7b b1be aab2 36be
000000f0: 7c7e 74bd d637 6c3e d43a 923d b0e5 333e
00000100: f0e1 8a3b 1f30 163e 5c99 91be a657 2a3d
00000110: 8f4e 23be cc27 50bd e4a1 753d f63c 213c
00000120: c8f7 d1bd fbf8 50be 03d5 563e ff22 d53d
00000130: 21ac cd3d 692f f83d 65cb 28be f2e3 9bbd
00000140: b786 31be f8f4 1e3d 0171 58be cb83 bd3d
00000150: f8e6 c23e 25cc ccbd ab31 94be 2a28 8b3d
00000160: fd8f 993b 7785 f2bd fee2 d0bb 464d fb3c
00000170: d503 57be 590b 8b3d f11b 9cbd d2a3 483e
00000180: f852 44bd 3131 a03d 3d5d 42be 6513 163e
00000190: 0f7b 0d3e 2f26 d0bd 23e7 b93d e1b0 1fbe
000001a0: e3e9 023e b1ad e8bc 88a8 ccbd 14f7 a6bc
000001b0: 60d8 9ebd 70cb c4bd 3d97 13bd a80f bb3e
000001c0: f017 d63d 3e18 ae3e e8f5 14be 1f51 ad3c
000001d0: 8998 98bd bcb7 543e 01e6 d83d ad48 b73d
000001e0: 0a29 01be 0b7e 833d 9c14 0b3d a755 ccbd
000001f0: cbc4 903c ff31 f3bd 20c6 893b 2b55 703d
00000200: d6d3 173e b2e1 833e b141 cf3d e372 13bd
00000210: 3585 deba db92 26bc ed4b 49be 804e 25be
00000220: fc45 c1bb 3550 49be 1f75 e3bd 84e0 90bc
00000230: e4f0 0b3e 3fdd 42be 836a a63d 67a6 533e
00000240: 5de0 123d 1e99 503e 8db2 d4bd e43b 9dbd
00000250: e5ff 87bc 99d2 863e c7ae 233e 0aed 98bd
00000260: 9ae6 8abd 7a2f d13b 8db8 93be 9394 9b3d
00000270: 8c38 d13d bd93 c83d e2c4 c43d ad5c c7bd
00000280: 65cb b2bd 56cf 15be 41e4 20be 016a 0fbe
00000290: b6a2 d03d de88 a13c 1b78 53bd 36ee 65be
000002a0: 79a5 223e 18c5 69bd 6543 c0ba 631b 47be
000002b0: 7aab a83d 0810 bbbc febb 5cbd c8d0 a23d
000002c0: 3d85 d8bd 49f4 5f3c 9af5 a33d 6bc4 e73d
000002d0: 6a20 48bb 7466 323d be95 51be 9dc5 633a
000002e0: 26ce 353d 6b18 3abe 9c68 5ebe 53b4 c5bd
000002f0: 7a36 383b 699f 5bbd 10bb 0ebe 34e2 683e
00000300: 369e 83bc 33b0 b53d 4c46 70be 1c7d 99bd
00000310: 0ee2 25bd b22c 31be 7ed2 073c 69b9 5cbb
00000320: ba5b 60bd 586a 753e a255 b23d a614 093e
00000330: 07cf 203d 1801 fe3d b0ae bcbc 591e 003e
00000340: 8bd3 82bb 26d4 5c3d 573d 97bd 8fd8 0c3e
00000350: e501 d73d 60f0 9dbb 2e20 0e3d ea9c 0fbe
00000360: f300 d4bd 8d41 683d c852 05be 1713 e03c
00000370: 1181 fcbc 1361 94bd df93 7d3d c13d 9dbd
00000380: ea5c 20bc c8c2 d3bd 160b 1fbe 967e 953d
00000390: 7df7 363e f4c7 3e3e 8c42 6ebc 4e60 0d3d
000003a0: 0748 81bc b333 d0bb 71d0 09be 0cd7 8d3c
000003b0: 7b7f abbc ea9f e53d d824 13be 50e3 963e
000003c0: 3dca 8ebd ee96 403d 310c c03c 466f c23d
000003d0: cf3e 543e 5f3e d2bd 0741 ee3d 0eb0 9c3e
000003e0: 8c22 5d3e fbeb 8fbe ac7f ef3d e282 41be
000003f0: 7cc5 2cbc fb00 39bd bf5d 97bd 5bbc aa3d

network_body._body_endoder.seq_layers.2.bias f4 [64]
0.024326868 -0.009046774 -0.011683087 -0.011136405 -0.009193787 -0.017431201 -0.010598867 0.0011830169
-0.057187274 0.03619434 -0.026245644 -0.019190408 -0.004302601 -0.060936242 0.02802533 -0.049440686
-0.012881214 -0.0023513574 -0.05290466 -0.035864405 -0.04128741 -0.008482389 -0.01610449 -0.010040524
-0.026998341 0.004863022 -0.03467695 0.0013042873 0.047539722 -0.027064651 -0.01775164 0.0061501088
-0.02164463 0.0010277039 0.027865391 0.053760882 0.001409957 -0.046158433 0.003980873 -0.017069329
0.00048432912 -0.01151339 -0.004727017 0.050752945 -0.033983912 0.009229722 -0.017635895 0.031576317
-0.013078476 -0.035389617 -0.043787256 -0.016653175 -0.0043920507 -0.029730676 0.01760464 -0.021065403
0.0014729028 -0.0072125066 0.015862627 0.028599668 -0.023992762 -0.012234202 -0.014876494 -0.021238085
00000000: 2449 c73c ec38 14bc 6b6a 3fbc 7875 36bc
00000010: 8aa1 16bc e1cb 8ebc dfa6 2dbc 760f 9b3a
00000020: 343d 6abd 8440 143d 1b01 d7bc 3435 9dbc
00000030: d5fc 8cbb 4898 79bd 6095 e53c 5182 4abd
00000040: ba0b 53bc 3b19 1abb 8fb2 58bd 8ee6 12bd
00000050: fd1c 29bd b8f9 0abc 90ed 83bc 0381 24bc
00000060: a02b ddbc fc59 9f3b 6b09 0ebd 9ff4 aa3a
00000070: 03b9 423d b0b6 ddbc e36b 91bc da86 c93b
00000080: 1450 b1bc 05b4 863a f645 e43c 5f34 5c3d
00000090: 4ece b83a a010 3dbd fc71 823b fad4 8bbc
000000a0: 8eed fd39 a8a2 3cbc 18e5 9abb 52e2 4f3d
000000b0: b732 0bbd 4338 173c 2779 90bc 2b56 013d
000000c0: 1b47 56bc b4f4 10bd 445a 33bd 3d6c 88bc
000000d0: 31eb 8fbb bf8d f3bc 9b37 903c 5a91 acbc
000000e0: 6b0e c13a e456 ecbb 57f2 813c da49 ea3c
000000f0: 788c c4bc f671 48bc 8abc 73bc 7efb adbc

network_body._body_endoder.seq_layers.2.weight f4 [64, 64]
-0.039498348 -0.12144002 0.309529 -0.018520512 -0.012927152 0.29685497 0.029951852 0.21679558
0.052283976 -0.20916271 0.06325375 -0.19104278 -0.21446355 -0.071882434 -0.2587709 0.119935706
0.026125409 0.011504318 0.026487311 0.19901274 -0.22798884 0.19765319 -0.06824996 0.11097794
0.008337797 0.090021916 -0.043039396 0.11306904 -0.25414807 0.06954763 -0.20474383 -0.11685724
-0.18980668 -0.16714302 0.07769574 -0.16167404 0.05130833 -0.11060801 0.034206584 -0.1321234
-0.16450635 0.077632755 -0.034901988 -0.16910553 0.024852034 -0.004323404 0.04289083 0.19501705
-0.07120206 -0.005113216 -0.17884879 0.10073167 0.14700404 -0.13684814 0.24783945 -0.017110635
-0.083182834 -0.011604453 -0.0344649 0.17166403 0.023926832 -0.07856915 -0.015170869 -0.064886525
0.075682215 0.057088614 -0.10795772 -0.16981928 0.05420025 -0.04974497 0.25249317 -0.116348
-0.0028405217 0.047388323 0.018419392 0.14732489 0.036583975 -0.048185565 0.066307604 -0.16654989
-0.03401898 -0.09032995 -0.09309938 -0.14407903 0.0056100152 -0.11461888 -0.25438073 -0.16215625
-0.008990324 0.2167251 0.10338306 0.045555647 0.15167445 0.10735716 -0.1791326 -0.06585398
0.047375713 0.05242837 0.092486925 0.08571341 -0.116867945 0.059425507 -0.076489575 0.08908688
-0.18088572 0.26598933 0.17678533 -0.23703852 -0.10484413 -0.21982926 0.015924174 -0.041348483
-0.08164628 0.004462379 -0.10025873 0.068226814 -0.10974478 0.05842423 -0.09942062 -0.0099445395
0.05073234 0.21637592 0.021328382 -0.13298522 0.0692424 -0.091544405 0.027403848 -0.036179233
0.12523873 -0.13521603 -0.05670759 0.086800806 0.07233314 0.027663128 0.022416547 -0.031882294
0.061104838 -0.09377737 0.09918967 -0.05543436 -0.12267041 -0.18881063 0.15852879 0.18334249
-0.04138616 0.20694786 0.0220002 -0.14002648 -0.24587874 -0.16187133 0.026404196 -0.18351904
-0.09938883 -0.0033459452 -0.07225544 0.17515078 -0.08772505 -0.021012502 -0.06934912 -0.029450612
-0.09423509 -0.11421787 0.035585653 0.072782345 0.19713214 -0.18968308 -0.011353127 -0.07784185
-0.18348221 -0.2353647 0.12641875 -0.0035559551 -0.028389355 0.011812318 -0.25404057 0.23398256
0.026960788 -0.22522618 0.3921434 -0.009493819 0.16355965 0.17862494 0.009549595 0.064520426
-0.16121465 -0.12321153 -0.003734568 0.030326594 0.2235144 -0.08112409 -0.06795983 0.044329163
0.057869233 0.021605063 -0.020707967 0.13484009 0.08427152 -0.015460944 0.033074632 -0.22251599
-0.07994503 -0.1348307 -0.01774687 0.11062766 0.22233713 -0.015290627 -0.22119991 0.090547316
-0.10951713 -0.052659426 0.036224067 -0.24245436 0.16735615 -0.11881257 0.01279287 -0.19145273
0.053220462 -0.10018355 0.003347336 -0.07590127 -0.14044562 0.084114425 -0.20033352 -0.23321155
-0.15705375 -0.070373714 -0.1393705 0.09537028 -0.06850985 -0.22150777 -0.08864446 -0.001303014
0.069918424 0.16431622 0.028215753 -0.25219122 -0.100466296 0.06611195 -0.17066443 -0.04023957
0.20673832 0.09146109 0.16077252 0.096414916 -0.22756313 0.07350931 0.23696859 -0.08979723
0.08695533 -0.2687941 -0.027705383 0.07971958 -0.020992612 0.03709068 0.009296351 -0.24991551
00000000: 05c9 21bd 8cb5 f8bd 967a 9e3e 54b8 97bc
00000010: 68cc 53bc 60fd 973e 965d f53c a9ff 5d3e
00000020: b927 563d c02e 56be 2f8b 813d b8a0 43be
00000030: 559c 5bbe 1937 93bd 9f7d 84be daa0 f53d
00000040: f404 d63c 9b7c 3c3c ebfb d83c ffc9 4b3e
00000050: e875 69be 9965 4a3e a3c6 8bbd 6748 e33d
00000060: 419b 083c 695d b83d 144a 30bd be90 e73d
00000070: b21f 82be fd6e 8e3d 5ea8 51be d952 efbd
00000080: af5c 42be 8a27 2bbe f21e 9f3d e18d 25be
00000090: af28 523d 7486 e2bd 341c 0c3d 5b4b 07be
000000a0: 5a74 28be ecfd 9e3d 63f5 0ebd 002a 2dbe
000000b0: 7e96 cb3c 57ab 8dbb 4cae 2f3d 8db2 473e
000000c0: 63d2 91bd c48c a7bb 2324 37be 684c ce3d
000000d0: 3a88 163e eb21 0cbe a0c9 7d3e 9a2b 8cbc
000000e0: c35b aabd 9b20 3ebc 112b 0dbd b2c8 2f3e
000000f0: 3402 c43c dde8 a0bd 3d8f 78bc 3ae3 84bd
00000100: 47ff 9a3d c0d5 693d f018 ddbd 1be5 2dbe
00000110: 1501 5e3d 62c1 4bbd c946 813e dc47 eebd
00000120: 0c28 3abb 421a 423d 44e4 963c 56dc 163e
00000130: 14d9 153d 3a5e 45bd 48cc 873d 0e8c 2abe
00000140: 7c57 0bbd e9fe b8bd e3aa bebd 7489 13be
00000150: 38d4 b73b 4ebd eabd 313e 82be 4a0c 26be
00000160: 274c 13bc 2fed 5d3e 7fba d33d 8f98 3a3d
00000170: 8c50 1b3e 12de db3d 896e 37be 74de 86bd
00000180: 090d 423d 21bf 563d c969 bd3d 838a af3d
00000190: 7658 efbd 2968 733d 91a6 9cbd 2f73 b63d
000001a0: 1b3a 39be c12f 883e 3707 353e 3aba 72be
000001b0: 85b8 d6bd ec1a 61be 6a73 823c 075d 29bd
000001c0: 2a36 a7bd 2639 923b 7354 cdbd 80ba 8b3d
000001d0: dfc1 e0bd 3f4e 6f3d 0a9d cbbd 6cee 22bc
000001e0: b7cc 4f3d a691 5d3e dcb8 ae3c 472d 08be
000001f0: f6ce 8d3d a27b bbbd 097e e03c ad30 14bd
00000200: 953e 003e 1276 0abe 3846 68bd 9fc4 b13d
00000210: 6623 943d c99d e23c e8a2 b73c 0297 02bd
00000220: 1149 7a3d 5a0e c0bd f423 cb3d 240f 63bd
00000230: a03a fbbd 9357 41be 5f55 223e 22be 3b3e
00000240: 8984 29bd 24ea 533e c339 b43c 1a63 0fbe
00000250: a3c7 7bbe 99c1 25be 9d4d d83c 6aec 3bbe
00000260: 5f8c cbbd a547 5bbb a9fa 93bd ba5a 333e
00000270: 31a9 b3bd 6922 acbc e906 8ebd 6942 f1bc
00000280: 54fe c0bd 0feb e9bd 43c2 113d e90e 953d
00000290: 02dd 493e 483c 42be 7702 3abc 8c6b 9fbd
000002a0: c3e2 3bbe 7203 71be eb73 013e 070b 69bb
000002b0: cb90 e8bc 7488 413c 9b11 82be 2099 6f3e
000002c0: dfdc dc3c b1a1 66be 05c7 c83e f78b 1bbc
000002d0: 2e7c 273e 75e9 363e e875 1c3c 4923 843d
000002e0: 7415 25be 5456 fcbd a7bf 74bb 7a6f f83c
000002f0: f5e0 643e 6324 a6bd 862e 8bbd 7f92 353d
00000300: 4a08 6d3d 1afd b03c c1a3 a9bc 8513 0a3e
00000310: 8c96 ac3d e64f 7dbc 4479 073d 3bdb 63be
00000320: 38ba a3bd 0f11 0abe e261 91bc c190 e23d
00000330: 58ac 633e 8a85 7abc 3b82 62be df70 b93d
00000340: 844a e0bd 69b1 57bd b05f 143d f545 78be
00000350: 695f 2b3e 0154 f3bd 3099 513c 2f0c 44be
00000360: b3fd 593d 082d cdbd fb5e 5b3b 2072 9bbd
00000370: fad0 0fbe 2f44 ac3d 3b24 4dbe 02cf 6ebe
00000380: b3d2 20be 1820 90bd 24b7 0ebe 7e51 c33d
00000390: e44e 8cbd efd2 62be 3a8b b5bd e5c9 aaba
000003a0: 6431 8f3d 8342 283e b924 e73c 351f 81be
000003b0: 46c1 cdbd b465 873d a8c2 2ebe 3fd2 24bd
000003c0: 36b3 533e f44f bb3d 8da1 243e 2f75 c53d
000003d0: 4f06 69be 0d8c 963d e5a7 723e 9ce7 b7bd
000003e0: a315 b23d 619f 89be 66f6 e2bc 0544 a33d
000003f0: b3f8 abbc 66ec 173d b94f 183c dae9 7fbe
