Assets/ML-Brains/BrainScenario01.onnx (onnx, 35829 bytes, 9 tensors)

action_model._discrete_distribution.branches.0.bias f4 [7]
0	0xbcabd79e	-0.020976838
1	0xbbc68452	-0.0060582543
2	0x3af77da2	0.0018882046
3	0x39c61d82	0.00037787488
4	0x3ccedb90	0.02525118
5	0xbc6ec43f	-0.014573156
6	0x3cae02f4	0.021241643

action_model._discrete_distribution.branches.0.weight f4 [7, 64]
0	0xbbff94e9	-0.007799734
1	0xbdb04514	-0.086069256
2	0x3bf30164	0.0074159373
3	0xbc5f3c65	-0.013625239
4	0xbc9f2d2d	-0.019430721
5	0xbc2690d6	-0.0101663675
6	0xbbc1522e	-0.005899689
7	0x3d549cce	0.051907353
8	0xbc519ef1	-0.012794242
9	0x3d1aca4a	0.037790574
10	0xbc42f47b	-0.011899109
11	0x3b9b842e	0.0047459817
12	0xbd0674dd	-0.032826293
13	0xbb38a896	-0.0028176657
14	0x3d08001b	0.033203226
15	0x3c1239da	0.008924926
16	0x3d12a7f8	0.03580472
17	0x3c9f9adc	0.019483022
18	0x3c1f4358	0.009720646
19	0xbc24adf3	-0.010051238
20	0x3cd3b82a	0.025844652
21	0x3cb6301c	0.022239737
22	0x3bdaa1dc	0.006672127
23	0x3c728099	0.014801168
24	0x3cf38ab5	0.029729227
25	0x3bd17977	0.0063926536
26	0x3ab3790c	0.0013692691
27	0xbd31ac72	-0.043377347
28	0x3d8275cc	0.06370124
29	0xbc7d6b1b	-0.01546743
30	0xbc6d5dd4	-0.014487702
31	0x3d119c56	0.035549484
32	0x3a42a25d	0.0007424707
33	0x3c697a96	0.014250418
34	0xbc848d78	-0.016180739
35	0xbd62b460	-0.0553478
36	0x3c179231	0.009251163
37	0xbcbf3bc4	-0.023343928
38	0xbd0f3aa4	-0.034968033
39	0x3d10d6a8	0.035360962
40	0x3af2352f	0.0018478985
41	0xbc4d6070	-0.0125351995
42	0x3d999086	0.07498269
43	0xbc2cc876	-0.0105458405
44	0x3c33a637	0.010964922
45	0x3c2770f8	0.010219805
46	0x3d0e46a1	0.034735326
47	0xbc106111	-0.008812205
48	0x3c894fd3	0.016761696
49	0xbc4d9906	-0.012548691
50	0x3ce339de	0.027737554
51	0xbbbf51f2	-0.005838626
52	0xbc819c11	-0.015821489
53	0xbd73f991	-0.059564177
54	0xbce2a54f	-0.027666716
55	0x3d0d3d2f	0.034482177
56	0xbc6e6fe8	-0.014553048
57	0x3d0dc67d	0.03461312
58	0x3cda74f7	0.026667101
59	0xbd11a3e7	-0.0355567
60	0x3c324a0b	0.010881911
61	0x3bfa565f	0.007639691
62	0xbb8c8ed0	-0.0042894855
63	0xbc1f987a	-0.009740943
64	0x3d3a7e07	0.045530345
65	0xbd9f38c3	-0.07774498
66	0x3adc3a26	0.0016801998
67	0x3d917ac5	0.071034946
68	0xbb92edd3	-0.0044839173
69	0xbd4603bc	-0.048343405
70	0x3c2bb16e	0.010479314
71	0x3d69ffb7	0.057128634
72	0xbcc4555a	-0.02396648
73	0xbc681731	-0.0141656855
74	0x3ca2682a	0.01982506
75	0xbd712d7b	-0.058881264
76	0xbbde9192	-0.0067922557
77	0xbb3648b8	-0.002781434
78	0x3c956fe8	0.018241838
79	0x3c9d7627	0.019221378
80	0xbb9e06cd	-0.004822588
81	0xbcdf7b85	-0.027280578
82	0x3b982bfd	0.0046439157
83	0xbc7a838d	-0.015290153
84	0x3d265b2b	0.04061429
85	0xbcc80ed4	-0.024421133
86	0xbd256e9f	-0.0403887
87	0xbce67e5a	-0.028136421
88	0xbc9cab44	-0.019124635
89	0xbcff54f2	-0.031168435
90	0xbbacf89a	-0.005278659
91	0x3d2bb399	0.041919325
92	0xbd14fa6a	-0.036371626
93	0xbd9a5e1a	-0.0753748
94	0xbc7da357	-0.015480838
95	0xbc862e6f	-0.016379563
96	0x3bbdf3ef	0.0057969014
97	0xbd9ac4ab	-0.07557043
98	0x3c01319b	0.007885362
99	0xbd432409	-0.047641788
100	0x3c3ebe44	0.011642043
101	0xbc716933	-0.014734554
102	0x3d291e25	0.041288514
103	0xbc923c13	-0.017850911
104	0x3c012b2f	0.007883831
105	0x3d182061	0.037140254
106	0xbc806b78	-0.015676245
107	0xbce9f191	-0.02855757
108	0x3bc9408e	0.0061417287
109	0x3cec430d	0.028840566
110	0x3c936fa7	0.017997576
111	0x3cbd9a99	0.023145007
112	0xbd59d767	-0.05318394
113	0xbc801cbb	-0.0156387
114	0x3d3f6ece	0.04673653
115	0x3c899607	0.016795171
116	0xbd856cfe	-0.06514929
117	0x3cce2242	0.02516282
118	0x3c34251a	0.010995174
119	0xbc69fbb2	-0.0142812
120	0x3ce11248	0.027474537
121	0xbd41f387	-0.047351386
122	0xbcd0018e	-0.025391366
123	0xbd07c0d7	-0.03314289
124	0xbc95e73b	-0.018298736
125	0xbc282d44	-0.010264698
126	0xbd88360b	-0.06650933
127	0xbcaac3fa	-0.020845402
128	0x3d258f0e	0.04041963
129	0x3d2b9723	0.041892182
130	0x3b132baf	0.0022456457
131	0xbc03647e	-0.008019565
132	0x3bd68f5f	0.006547853
133	0x3a977804	0.0011556153
134	0xbcd42007	-0.025894178
135	0x3c35ef50	0.01110442
136	0x3d091ca9	0.033474598
137	0xbbe6feb4	-0.007049406
138	0xbc53b56d	-0.012921673
139	0x3d295b5d	0.041346896
140	0x3b9aeaea	0.004727711
141	0x3c53b852	0.012922363
142	0xbc9d57bf	-0.01920688
143	0x3d159fb4	0.036529258
144	0x3d67dd0b	0.056607287
145	0xbcf767fe	-0.030200955
146	0xbd1e2e6e	-0.038618498
147	0x3d52641f	0.051365014
148	0x3b06c9e4	0.0020567114
149	0xbc7db1e7	-0.01548431
150	0x3d267bdf	0.040645476
151	0xbcd09bd6	-0.025464933
152	0x3ca82e4e	0.020529892
153	0xbc9d4ec7	-0.019202603
154	0x3c8b6235	0.017014602
155	0x3df8ac56	0.121422455
156	0x3b1544fd	0.0022776716
157	0x3cc8ed95	0.02452735
158	0xbb640249	-0.00347914
159	0xbd081006	-0.033218406
160	0xbca54e34	-0.020178892
161	0x3d8b5b09	0.06804473
162	0xbce20882	-0.027591947
163	0x3d6c3f5a	0.057677604
164	0xbd3e290c	-0.046425864
165	0x3cdd8e9b	0.027045539
166	0xbd2da04e	-0.042389207
167	0xbcefcadb	-0.029271534
168	0x3bf7b91f	0.00755991
169	0xbc59e0af	-0.013298198
170	0x3d4885ab	0.0489556
171	0x3c942156	0.018082302
172	0x3d633178	0.0554671
173	0xbcbc0e27	-0.022955967
174	0x3d66ea52	0.05637581
175	0xba24f880	-0.0006293133
176	0xba1eef42	-0.0006062874
177	0x3b23f24a	0.0025016242
178	0x3c8dbcc6	0.017301928
179	0xbc9f6df1	-0.019461604
180	0xbccbb650	-0.024867207
181	0x3d310093	0.04321344
182	0x3d02ae39	0.031904433
183	0x3c27673c	0.010217484
184	0xbbf4a214	-0.0074656103
185	0xbbe4a57d	-0.0069777356
186	0x3d0ac502	0.033879288
187	0xbc32c9df	-0.010912388
188	0xbc07ab4d	-0.008280587
189	0xbc570f7f	-0.013126253
190	0xbd2f00ed	-0.042725492
191	0xbc0cc3c4	-0.008591596
192	0xbc9a0ce3	-0.018804973
193	0x3d374836	0.0447466
194	0xbc006731	-0.007837103
195	0xbd13466f	-0.035955843
196	0xbd1de954	-0.038552597
197	0x3d55e772	0.052222677
198	0x3c26a0dd	0.010170189
199	0xbc95ef35	-0.01830254
200	0xbb013295	-0.0019713987
201	0xbd40bac0	-0.0470531
202	0xbb5776f9	-0.003287731
203	0xbd20b060	-0.039230704
204	0x3c909b62	0.017652217
205	0x3cbae9ae	0.022816505
206	0xbd237876	-0.039909802
207	0xbbb67494	-0.0055680964
208	0xbc611465	-0.013737773
209	0x3d12684a	0.03574399
210	0xbbb7e49a	-0.005611968
211	0x3caabd3f	0.020842193
212	0x3bcc0a41	0.0062268083
213	0x3c7ee2f9	0.015557044
214	0x3ce8616a	0.028366763
215	0xbcf5fc8a	-0.030027647
216	0xbd27513f	-0.040848967
217	0x3cf24b61	0.02957696
218	0xbcf6a2b0	-0.030106872
219	0x3d546839	0.051857207
220	0x3d03a73d	0.032141913
221	0x3d2ef05f	0.042709704
222	0xbcb8efe0	-0.022575319
223	0xbd142f86	-0.036178134
224	0xbd4f02fc	-0.050539955
225	0x3c4394bb	0.011937316
226	0xbd3e6bd8	-0.046489567
227	0x3d7035c0	0.05864501
228	0x3d1f79c5	0.038934488
229	0xbc186994	-0.009302516
230	0xbd40b6cf	-0.04704934
231	0x3d1935c0	0.037404776
232	0x3ca66be5	0.02031512
233	0x3afa4485	0.0019093907
234	0xbccb86e7	-0.0248446
235	0x3cb3a29d	0.021928126
236	0x3c321e1e	0.010871438
237	0x3d351e60	0.04421842
238	0xbd51451c	-0.0510913
239	0xbc313acd	-0.010817242
240	0x3c640e13	0.013919371
241	0x3d81e359	0.06342191
242	0xbbb70dc5	-0.0055863583
243	0x3af727b3	0.0018856436
244	0x3c96358c	0.01833608
245	0x3d5aa470	0.053379476
246	0xbc7913af	-0.015202447
247	0x3bf19ddd	0.007373555
248	0xbd236b9d	-0.03989755
249	0xbd6d6b16	-0.057963453
250	0x3c1c3cce	0.009535981
251	0x3d04d52f	0.03242987
252	0x3d1e946f	0.038715776
253	0x3d06d56e	0.032918386
254	0xbc8b2fd9	-0.016990589
255	0xbb82e2e6	-0.0039943336

action_model._discrete_distribution.branches.1.bias f4 [2]
0	0xbb540ff8	-0.003235815
1	0x3b541015	0.0032358218

action_model._discrete_distribution.branches.1.weight f4 [2, 64]
0	0x3d7e7bdf	0.06212985
1	0x3c50d2b3	0.012745547
2	0xbcaa2e22	-0.020773951
3	0xbcebc2f1	-0.028779479
4	0x3c6646c1	0.014054955
5	0x3ae6547c	0.0017572786
6	0xbd441dc6	-0.047879957
7	0x3da60eeb	0.08108314
8	0x3a840658	0.0010072691
9	0x3d0e8caa	0.034802116
10	0x3c89152e	0.016733732
11	0xbd469fcc	-0.048492238
12	0xba5832af	-0.00082472985
13	0xbcb4e276	-0.022080641
14	0xbc899434	-0.016794302
15	0xbc9108da	-0.017704416
16	0x3b12971a	0.0022367896
17	0xba490afd	-0.0007669179
18	0xbc8c01e9	-0.017090755
19	0xbcaa1e8a	-0.020766515
20	0xbcbac00c	-0.022796653
21	0xbbc92227	-0.0061381045
22	0x3b34eccd	0.0027606965
23	0xbce7fb97	-0.02831821
24	0xbd3a282f	-0.04544848
25	0x3d1f45a7	0.038884785
26	0x3ca0b664	0.01961822
27	0xbc3faaf1	-0.01169847
28	0x3de2c298	0.11072272
29	0xbd938901	-0.07203866
30	0xbce57f6b	-0.02801486
31	0xbd2afb8d	-0.041743804
32	0xbcfa1df1	-0.030531855
33	0x3cf3f915	0.029781858
34	0xbcb11795	-0.02161769
35	0x3cebfff3	0.02880857
36	0x3d06f90c	0.032952353
37	0x3c38ad56	0.011271795
38	0xbadf93a5	-0.0017057551
39	0xbc9911af	-0.01868519
40	0x3d2fd906	0.04293158
41	0xbc920216	-0.01782326
42	0x3cefe90f	0.029285936
43	0x3b3d65ef	0.0028899868
44	0xbc335020	-0.010944396
45	0xbd06a796	-0.032874666
46	0x3b7499d9	0.0037323146
47	0x3c694ecf	0.014239981
48	0xbbf4b6e0	-0.0074680895
49	0xbc2b9216	-0.010471841
50	0x3ca5db20	0.020246089
51	0x3cdd5f85	0.027023086
52	0xbc20e58c	-0.009820353
53	0x3d497bdd	0.04919039
54	0x3ca48472	0.020082686
55	0xbc718585	-0.014741306
56	0xbc25dd22	-0.010123523
57	0xbc9cdc86	-0.019148123
58	0x3d57286f	0.052528795
59	0x3ca2b4e7	0.019861652
60	0x3d26a9f2	0.040689416
61	0xbc4adb8a	-0.012381444
62	0xbbcd2dec	-0.006261578
63	0x3b99d68b	0.004694765
64	0xbce2d6c7	-0.027690304
65	0xbc07629e	-0.008263258
66	0x3ced21c7	0.02894677
67	0x3d131279	0.03590629
68	0xbd10da67	-0.035364535
69	0x3c807b7f	0.015683888
70	0x3cc43bff	0.02395439
71	0xbd899209	-0.06717307
72	0x3a976988	0.0011551837
73	0xbcb3de6a	-0.021956641
74	0x390c2096	0.0001336358
75	0x3d583814	0.052787855
76	0xbd066e8f	-0.03282028
77	0x3c74e72b	0.014947693
78	0x3c8cfd5d	0.017210657
79	0x3d0beae0	0.03415954
80	0xb9e4d02b	-0.00043642646
81	0x3c2784c8	0.010224529
82	0xbc6e1886	-0.014532214
83	0x3ca6ae7e	0.020346876
84	0xbc066106	-0.008201843
85	0xbaa25a40	-0.0012386516
86	0xbc7bbbf5	-0.015364637
87	0x3bfdff10	0.007751353
88	0x3d25216a	0.04031507
89	0xbd07ccaf	-0.033154186
90	0xbb8f792f	-0.00437846
91	0xbbb50d7b	-0.0055252886
92	0xbdf1123a	-0.117710546
93	0x3d97bcb8	0.07409042
94	0x3cd5a275	0.026078442
95	0x3cb30cbc	0.021856658
96	0x3d492013	0.049102854
97	0xbc985049	-0.01859297
98	0xbab494a3	-0.0013777207
99	0xbd0b00f3	-0.033936452
100	0xbcd130e9	-0.025536017
101	0x3b943359	0.0045227227
102	0xbbb3afc8	-0.0054836012
103	0x3c75f3fb	0.015011783
104	0xbd1a0977	-0.037606683
105	0xba5d15de	-0.00084337394
106	0xbcb8bfa3	-0.022552317
107	0xbcc82623	-0.024432248
108	0x3cbe98f1	0.023266288
109	0x3c919f1b	0.017776063
110	0xbb81746f	-0.0039506475
111	0xbd22e1dc	-0.039766178
112	0xbc84718f	-0.01616743
113	0x3b3fa4b3	0.0029242455
114	0xbc208646	-0.009797638
115	0xbc254ba1	-0.010088832
116	0xbca18926	-0.019718718
117	0xbd88b261	-0.06674648
118	0x3c20a334	0.009804536
119	0xbb5d5e6c	-0.0033778204
120	0x3c1ed99a	0.009695435
121	0x3cf0f9f1	0.029416056
122	0xbd4370b0	-0.04771489
123	0xba656dfd	-0.0008752046
124	0xbd152501	-0.036412243
125	0x3a2ba686	0.0006547946
126	0xbd058d68	-0.03260556
127	0xb85d858a	-5.2814874e-05

discrete_action_output_shape f4 [1, 2]
0	0x40e00000	7.0
1	0x40000000	2.0

network_body._body_endoder.seq_layers.0.bias f4 [64]
0	0xbc38e9b4	-0.011286188
1	0xbb78dba4	-0.0037972713
2	0x3b528ccc	0.0032127379
3	0xbcc2bdc4	-0.023772128
4	0xbca178a7	-0.019710852
5	0xbc521681	-0.012822748
6	0xbbd7f5c0	-0.006590575
7	0xbbd3c244	-0.0064623673
8	0xbcb8ab3d	-0.02254259
9	0x3c2d1b2d	0.010565561
10	0xbba6fd10	-0.0050960854
11	0xbd64d220	-0.055864453
12	0xbc9dd3e8	-0.019266084
13	0xbd210186	-0.039308093
14	0xbcfebf3e	-0.03109705
15	0xbb81727c	-0.003950415
16	0x3c6947f0	0.014238343
17	0xbb6649ba	-0.003513916
18	0xbc68ed54	-0.01421674
19	0xbd5450f1	-0.051835004
20	0x3c468d52	0.012118654
21	0xbd385b77	-0.045009103
22	0xbcdcf04d	-0.026970053
23	0xbc42af0d	-0.011882556
24	0x3ca55434	0.020181753
25	0xbd178b91	-0.036998335
26	0x3c6a6102	0.014305355
27	0xbbe40201	-0.0069582467
28	0xbd568f35	-0.052382667
29	0xbd0cf5a1	-0.034413937
30	0x3c560148	0.013061829
31	0xbcbcaf98	-0.023032948
32	0x3bb1e099	0.0054283855
33	0x3b99dd25	0.004695552
34	0xb9bd1b3c	-0.0003606918
35	0xbd4a2240	-0.04934907
36	0xbc56fc72	-0.013121711
37	0xbcb3ba73	-0.021939492
38	0xbce2c0c5	-0.02767981
39	0xbc9c49d2	-0.019078169
40	0x3cdb9ddf	0.026808677
41	0xbd0883f0	-0.03332895
42	0xbcd2ed9b	-0.025748065
43	0xbbc274db	-0.0059343404
44	0x3bba31fd	0.0056822286
45	0x3c5bfab7	0.013426474
46	0xbd001886	-0.031273387
47	0x3cf00d5c	0.029303245
48	0x3c6397a5	0.013891135
49	0xbd53ca71	-0.051706735
50	0xbd34eca8	-0.044171005
51	0xbc9770b3	-0.018486356
52	0x3cfa1e99	0.030532168
53	0x3b4b81c5	0.003105269
54	0xbc7472e6	-0.014919972
55	0xbd201a19	-0.03908739
56	0xbcae0dd7	-0.021246834
57	0x3b3e0706	0.0028995886
58	0x3cca2065	0.02467365
59	0xbbe65686	-0.0070293574
60	0xbbca3135	-0.0061704167
61	0xbbe0bf8e	-0.0068587726
62	0x3c4651f8	0.012104504
63	0xbb833484	-0.004004063

network_body._body_endoder.seq_layers.0.weight f4 [64, 54]
0	0x3e4e5b55	0.20152028
1	0x3c743080	0.014904141
2	0x3e01f8b5	0.1269253
3	0x3e29c9b0	0.16580844
4	0xbe758ec5	-0.23980244
5	0xbe1acad6	-0.15116438
6	0x3d098bcc	0.033580586
7	0xbe69719d	-0.22797246
8	0xbc136b24	-0.008997712
9	0x3cf280a9	0.029602366
10	0x3dedab37	0.11604922
11	0xbdf2a6c1	-0.11848212
12	0xbd5cde13	-0.053922724
13	0x3dd53577	0.10410588
14	0x3d9ae91f	0.075639956
15	0xbcb9af1e	-0.02266651
16	0xbdc3eb83	-0.09566405
17	0xbe949bba	-0.2902506
18	0xbe4b9b77	-0.19883524
19	0x3e714f71	0.2356546
20	0xbdfa80af	-0.12231576
21	0x3c2c6140	0.010521233
22	0xbde0b4c0	-0.10971975
23	0xbd445fc7	-0.047942903
24	0xbd4630c4	-0.04838635
25	0xbe0f4605	-0.13991554
26	0xbdadae63	-0.08480527
27	0xbd946a67	-0.07246857
28	0xbc9c5203	-0.019082075
29	0xbcac6d67	-0.02104826
30	0x3e22c121	0.15893985
31	0x3d9af86b	0.07566913
32	0xbe3ee364	-0.1864143
33	0x3ef61ba2	0.48067957
34	0xbe694297	-0.22779308
35	0xbda0a65f	-0.07844233
36	0xbe46b2df	-0.19404171
37	0xbe0b97c5	-0.13632114
38	0xbe905a44	-0.28193867
39	0xbd7a8e7f	-0.06117105
40	0xbdedfa1f	-0.116199724
41	0xbc8592e5	-0.016305396
42	0x3e29fca7	0.16600285
43	0xbbc17e94	-0.005904982
44	0x3c97243c	0.018449895
45	0xbe15645e	-0.14589068
46	0x3e1a28b4	0.1505459
47	0xbbf87058	-0.007581752
48	0x3e099374	0.13435155
49	0xbe655121	-0.2239423
50	0x3e3052e5	0.17219122
51	0xbe8cc79a	-0.27496034
52	0x3ca5c6ac	0.020236336
53	0xbd89a2ea	-0.067205265
54	0xbdf34b28	-0.11879569
55	0x3de4f631	0.1117977
56	0x3de41ee3	0.11138704
57	0x3eccf61d	0.4003152
58	0xbe8688ac	-0.26276147
59	0xbe4f9fea	-0.20275846
60	0xbdb36045	-0.08758596
61	0xbb58cf0b	-0.0033082392
62	0xbbc9bc4a	-0.006156479
63	0x3e477aef	0.19480489
64	0xbea3f59f	-0.32023332
65	0xbd654ab0	-0.05597943
66	0x3d89a387	0.067206435
67	0xbd40c25f	-0.047060367
68	0x3dd069d2	0.101764336
69	0x3e2d2403	0.16908269
70	0xbe041f4d	-0.12902565
71	0xbd884d95	-0.066554226
72	0x3e8aec03	0.27133188
73	0x3c9d4041	0.019195678
74	0xbe126571	-0.1429651
75	0xbc83ea81	-0.016103031
76	0x3cf8d4d8	0.03037493
77	0xbe628780	-0.22122002
78	0x3d363e88	0.04449323
79	0xbdde4d2e	-0.108545646
80	0x3cc7cd39	0.02438985
81	0xbd9e7266	-0.077366635
82	0xbdba7d5f	-0.09105944
83	0xbd8318e2	-0.064012304
84	0x3ab86381	0.001406774
85	0x3d5920d7	0.053009834
86	0xbd6e2141	-0.058137182
87	0x3cfa61a3	0.030564135
88	0xbde205ae	-0.110362396
89	0x3ea1d715	0.31609407
90	0xbda945ea	-0.08265288
91	0x3df12744	0.117750674
92	0xbd41e222	-0.047334798
93	0x3d956ea3	0.07296493
94	0xbcee0c98	-0.02905874
95	0xbde93c7f	-0.11388492
96	0x3dae2daf	0.08504807
97	0xbe22b554	-0.15889484
98	0x3e43296c	0.1905877
99	0x3d0ae493	0.03390939
100	0x3d8b2618	0.06794375
101	0x3d0cd30f	0.03438097
102	0xbda3af36	-0.07992403
103	0x3ea3bb1f	0.319787
104	0x3e236755	0.15957387
105	0xbc833dca	-0.016020674
106	0x3ca3c939	0.019993411
107	0x3d0a7033	0.033798408
108	0x3e02dd1a	0.12779656
109	0x3e50cd9e	0.20390937
110	0x3d22f1f8	0.03978154
111	0x3be79285	0.007067027
112	0x3d5aaaa8	0.053385407
113	0x3e92a0de	0.28638357
114	0xbe559f2c	-0.208615
115	0x3e18ae55	0.14910252
116	0x3e56853c	0.20949262
117	0x3d8a061b	0.06739446
118	0x3a3abfd4	0.00071239215
119	0x3e82ba8d	0.25532952
120	0xbd879844	-0.06620839
121	0xbba08513	-0.004898676
122	0xbe9fbb9f	-0.3119783
123	0xbb9dff43	-0.0048216893
124	0xbd00f402	-0.031482704
125	0x3da5bb61	0.0809238
126	0xbe53a5f4	-0.20668775
127	0x3c6ebf0b	0.014571915
128	0xbc0345e3	-0.008012268
129	0xbec9e8b8	-0.39435363
130	0x3e7b0a5e	0.24515674
131	0x3dd28667	0.102795415
132	0xbc80dd7f	-0.015730618
133	0xbd97e032	-0.07415809
134	0xbd19e4e6	-0.03757181
135	0x3e5f0e69	0.21782841
136	0xbe68251a	-0.22670403
137	0x3e5f6da7	0.21819173
138	0x3d19d243	0.037554037
139	0x3c4a1aa1	0.01233545
140	0xbce7214f	-0.028214125
141	0xbe5ca845	-0.21548565
142	0xbd24e944	-0.040261522
143	0x3dd8c85f	0.10585093
144	0x3d7f3db2	0.062314697
145	0xbe102070	-0.14074874
146	0x3dd2ff9f	0.10302662
147	0x3c6d22e9	0.014473655
148	0xbe245b12	-0.16050366
149	0xbe5f2f2b	-0.21795337
150	0x3dcdac81	0.10042668
151	0xbc7e7a62	-0.015532108
152	0xbd663278	-0.056200475
153	0x3e4a64c9	0.19765009
154	0x3d51c454	0.051212624
155	0xbe132b07	-0.14371882
156	0x3e3d0d0c	0.18462008
157	0xbb2fcab3	-0.00268237
158	0xbe03746e	-0.12837383
159	0xbe62efdd	-0.22161813
160	0xbdbc36b6	-0.09190123
161	0xbd0e3a1a	-0.03472338
162	0x3a077116	0.00051666924
163	0xbd8a3518	-0.06748408
164	0xbdc8a7ed	-0.09797654
165	0xbe5a62c9	-0.21326746
166	0xbc23ef66	-0.0100058075
167	0x3d761fd9	0.060088966
168	0xbcfdba14	-0.030972518
169	0xbdd2b3b7	-0.10288184
170	0xbe03f8a3	-0.12887816
171	0xbe38e9a2	-0.18057874
172	0x3d54c2a8	0.05194345
173	0x3c951ab7	0.018201215
174	0xbdeaab11	-0.114584096
175	0x3d2fa3ce	0.042880826
176	0xbde0f2aa	-0.109837845
177	0x3dad81a0	0.0847199
178	0xbdaea254	-0.085270554
179	0xbe4a6429	-0.1976477
180	0x3c54265b	0.012948598
181	0x3d416596	0.04721602
182	0xbb0ee830	-0.0021805875
183	0xbcc9cc0b	-0.024633428
184	0xbd938317	-0.07202738
185	0xbd8e53d4	-0.06949583
186	0xb933e87e	-0.0001715738
187	0x3c37fd20	0.011229783
188	0xbe198675	-0.14992698
189	0x3e07b8c2	0.13254073
190	0xbe014ef1	-0.1262777
191	0x3d919f39	0.071104474
192	0x3dee0d1b	0.116235934
193	0xbd85c1db	-0.065311156
194	0xbc8ab2f8	-0.016931042
195	0x3dbd2279	0.09235091
196	0xbe0a540c	-0.13508624
197	0x3d11755f	0.035512324
198	0xbe54114d	-0.20709725
199	0xbd577e63	-0.052610766
200	0xbd87802b	-0.06616243
201	0xbd3de4ef	-0.046360906
202	0xbd8786c0	-0.066174984
203	0xbc7bbbda	-0.0153646115
204	0xbccfae7b	-0.025351753
205	0xbbcd9ec0	-0.006275028
206	0x3ca6a726	0.020343374
207	0xbe0ed788	-0.13949406
208	0xbd262769	-0.04056493
209	0xbd6f8dd9	-0.058484886
210	0x3e6cecdb	0.23137228
211	0x3d7efd1b	0.0622531
212	0x3e329c87	0.17442523
213	0xbe2d8aba	-0.16947451
214	0x3dfe7249	0.12424142
215	0xbe24910f	-0.1607096
216	0x3ca77490	0.020441324
217	0x3c650910	0.013979211
218	0x3e0cd055	0.13751347
219	0x3db12c5d	0.0865104
220	0x3e087489	0.13325705
221	0xbdbcb4bc	-0.0921416
222	0x3d44ab32	0.048014827
223	0xbd91cb0c	-0.07118806
224	0xbb2d6902	-0.0026460295
225	0x3e271ab8	0.16318786
226	0xbe0b6044	-0.13610941
227	0xbe95d201	-0.29261783
228	0x3d9a5230	0.07535207
229	0x3d9937a5	0.074813165
230	0xbc9c1ae8	-0.019055799
231	0xbdd7da84	-0.105397254
232	0xbe37e22b	-0.1795737
233	0x3e8a5058	0.27014422
234	0x3e1d806b	0.15381019
235	0xbe584c63	-0.21122889
236	0xbdfc11d8	-0.12308091
237	0xbc9d2587	-0.019182933
238	0x3eeb3c62	0.45944506
239	0x3c6d01f1	0.014465795
240	0x3e0c3e29	0.13695587
241	0xbd950ac9	-0.07277448
242	0x3e859fb9	0.2609842
243	0xbd96d8e7	-0.073655896
244	0x3d8278db	0.063707076
245	0x3d6ce98c	0.057839915
246	0xbd1cb026	-0.038253926
247	0xbe55497c	-0.20828813
248	0x3c896456	0.016771477
249	0x3e0fa8de	0.14029261
250	0xbd87e1f4	-0.06634894
251	0x3c95cbff	0.01828575
252	0xbd510fd6	-0.051040493
253	0xbde0d224	-0.10977581
254	0xbe29f52e	-0.16597435
255	0xbdb65f66	-0.089049146

network_body._body_endoder.seq_layers.2.bias f4 [64]
0	0xbb6432e9	-0.0034820384
1	0x3bb95ddc	0.005656941
2	0xbcc9a7b4	-0.0246161
3	0xba808b78	-0.000980719
4	0x3c5b89c0	0.013399541
5	0x3c269bd9	0.010168993
6	0xbc0cce99	-0.008594179
7	0xbd03f872	-0.032219358
8	0xbcdd6bc6	-0.02702893
9	0x3c0985d5	0.008393724
10	0x3d2a6152	0.041596718
11	0xbaaeafd8	-0.0013327552
12	0xbd3de4c5	-0.04636075
13	0xbc541517	-0.012944481
14	0xbd657f77	-0.056029763
15	0xbd5c8154	-0.053834274
16	0xbc821a58	-0.015881702
17	0x3ce51599	0.0279644
18	0xbd1ce9b1	-0.038308803
19	0x3ca72ee7	0.020408107
20	0xbd4229e3	-0.047403228
21	0xbd2514bb	-0.040302973
22	0xbc15e8f6	-0.0091497805
23	0xbc460cd1	-0.012088017
24	0xbca177a4	-0.01971037
25	0xbbd46cae	-0.006482682
26	0xbca8f22c	-0.020623289
27	0x3c977250	0.018487126
28	0x3c5540de	0.013015954
29	0x3d033da3	0.032041203
30	0xbbdf25da	-0.006809932
31	0xbceadedd	-0.028670723
32	0xbcc10d86	-0.023566019
33	0xbb91edde	-0.004453405
34	0x3c68881a	0.014192605
35	0x3bcd402b	0.006263753
36	0x3b37677f	0.0027985272
37	0x3ce6feb7	0.02819763
38	0xbc84826d	-0.016175473
39	0xbbf03282	-0.0073302398
40	0x3c6c2c14	0.014414806
41	0xbc12169b	-0.008916522
42	0x3cc9459a	0.024569321
43	0xbd458706	-0.04822447
44	0x3c701e2c	0.014655631
45	0xbc5b5f87	-0.013389475
46	0x3c98da5d	0.018658811
47	0x3ad2ecc4	0.001609229
48	0xbc2288fb	-0.009920354
49	0xbcf9cd3a	-0.030493367
50	0x3cfe125d	0.031014616
51	0xbd140837	-0.036140647
52	0xbce57587	-0.028010143
53	0x3cd2d303	0.025735384
54	0xbd204e5b	-0.039137226
55	0xbc5c4be8	-0.013445832
56	0xbd339ad6	-0.043848835
57	0xbc4065df	-0.011743038
58	0x3ca14d15	0.019690076
59	0x3c175bbd	0.009238181
60	0xbc85c745	-0.01633037
61	0xbd8240b6	-0.06359999
62	0x3bdb6bbc	0.0066961925
63	0xbd8b03d2	-0.06787838

network_body._body_endoder.seq_layers.2.weight f4 [64, 64]
0	0x3e50871a	0.20364037
1	0xbeaa37d5	-0.3324572
2	0x3d602d60	0.054730773
3	0xbd890a19	-0.06691379
4	0x3d5b63f2	0.053562112
5	0xbe50cc96	-0.20390543
6	0xbe2f7d73	-0.17137699
7	0x3e928729	0.28618744
8	0xbb154bca	-0.002278077
9	0xbdd32bd0	-0.10311091
10	0x3d735bc9	0.059413705
11	0x3e2ba46f	0.16761945
12	0xbdcfaa3e	-0.10139893
13	0x3e6113b0	0.21980166
14	0x3e39d425	0.18147333
15	0x3e5990f8	0.21246707
16	0xbdf1591a	-0.11784573
17	0x3dd7ebd3	0.10543027
18	0xbe06b8bc	-0.13156408
19	0xbe1c54c9	-0.15266718
20	0xbdce9931	-0.10087813
21	0xbd7f1283	-0.062273514
22	0xbde8db94	-0.11370006
23	0xbd5e715a	-0.05430732
24	0xbdc87afe	-0.09789084
25	0x3d918b9e	0.07106708
26	0xbd286e23	-0.04112066
27	0x3db24de9	0.087062664
28	0x3e7794bb	0.2417783
29	0x3c91ef6b	0.017814359
30	0x3cbeedac	0.02330669
31	0xbe00c181	-0.12573816
32	0x3dcf39fd	0.10118482
33	0x3c2159e1	0.009848089
34	0x3d6ef2a2	0.05833686
35	0xbe17aa9c	-0.14811176
36	0xbc39f4f7	-0.011349908
37	0x3dbd3689	0.092389174
38	0xbd56e581	-0.052464966
39	0xbe9307cc	-0.28716886
40	0xbe39eff9	-0.18157949
41	0x3e843450	0.2582116
42	0xbdc1941b	-0.09452077
43	0x3d7cf943	0.061761152
44	0x3e601bec	0.21885651
45	0x3dad7e17	0.08471315
46	0xbe3744e4	-0.17897373
47	0x3e54bbb4	0.20774728
48	0x3d878a25	0.06618146
49	0xbe57946e	-0.21052715
50	0x3c1cf105	0.009578948
51	0x3d779d96	0.06045302
52	0xbc8a5f49	-0.016891139
53	0xbd38a2f6	-0.045077287
54	0xbdddf8dc	-0.10838482
55	0xbd885c01	-0.06658173
56	0xbe7a0548	-0.24416077
57	0xbdffbf0b	-0.124876104
58	0xbde42b09	-0.11141021
59	0x3cd8abe7	0.026449157
60	0x3da4ddb1	0.08050097
61	0x3cbd3362	0.02309579
62	0x3adf8238	0.0017052358
63	0xbe819bea	-0.25314265
64	0x3ceb8bc9	0.028753178
65	0xbd938239	-0.072025724
66	0x3d63fcf5	0.05566116
67	0x3c01b944	0.007917706
68	0xbdf15a35	-0.11784784
69	0x3c629402	0.013829233
70	0xbd8a8919	-0.067644306
71	0xbe3ef95c	-0.1864981
72	0x3db5ed0b	0.08883103
73	0x3dc98129	0.098390885
74	0x3dfe96f4	0.12431136
75	0x3d55cfca	0.052200116
76	0xbd59ba4c	-0.053156182
77	0x3e55e10b	0.20886628
78	0xbe364cde	-0.1780276
79	0xbbde506f	-0.006784491
80	0x3dafa7d1	0.0857693
81	0x3e5267cc	0.20547408
82	0x3c0f1551	0.00873311
83	0xbd9a3bb4	-0.07530919
84	0xbd959334	-0.073034674
85	0x3d1c811d	0.03820907
86	0x3be544ca	0.0069967257
87	0xbe716522	-0.23573735
88	0xbddec484	-0.10877326
89	0x3e0fbdc8	0.1403724
90	0xbc9df814	-0.019283332
91	0x3ce32be0	0.027730882
92	0xbdffbc28	-0.1248706
93	0x3e2a2ff9	0.16619863
94	0x3dac52d5	0.084142365
95	0xbe8ae200	-0.2712555
96	0xbc429ef4	-0.011878718
97	0x3cc54ce8	0.024084523
98	0x3c8aefd4	0.016960062
99	0xbdc5f122	-0.09665133
100	0xbcc1e8b5	-0.023670534
101	0x3d3e125f	0.04640424
102	0xbdf42056	-0.1192023
103	0x3dc6db07	0.09709745
104	0xbd79522f	-0.060869392
105	0x3e2a69f1	0.16641976
106	0xbda8620a	-0.082218245
107	0xbea4315c	-0.32068908
108	0x3d40bd22	0.04705537
109	0x3e84963d	0.25895873
110	0xbd634a45	-0.05549075
111	0xbe42c976	-0.19022164
112	0xbe3d0733	-0.18459778
113	0xbdb9d4b2	-0.090737715
114	0xbe94ec10	-0.2908635
115	0xbe0f41fa	-0.13990012
116	0x3d6cadb7	0.057782855
117	0x3d0ce9aa	0.034402527
118	0x3b6162a9	0.0034391081
119	0xbc9f0299	-0.019410418
120	0x3dcf9557	0.10135906
121	0xbd10b6ac	-0.03533046
122	0xbd828e5c	-0.06374809
123	0xbd6eb656	-0.058279358
124	0xbe53a8aa	-0.20669809
125	0xbda45f62	-0.08026005
126	0xbd47ad81	-0.04874945
127	0x3e300981	0.17191125
128	0xbe947eb7	-0.29002926
129	0x3d870e66	0.06594543
130	0xbdf55cca	-0.11980589
131	0x3e688a3f	0.22708987
132	0xbde09972	-0.10966767
133	0xbd4de082	-0.050262935
134	0x3df9890d	0.121843435
135	0x3e3e286b	0.18570106
136	0xbe11263e	-0.14174744
137	0x3d9cbf78	0.07653707
138	0x3d4a52bb	0.049395304
139	0x3e4e2307	0.2013055
140	0x3b65abf6	0.0035045124
141	0xbdeeb1fb	-0.11655041
142	0xbe2ed09a	-0.17071763
143	0x3c75680c	0.01497842
144	0xbd5f48d6	-0.05451282
145	0xbcbce98a	-0.023060579
146	0x3dc8c583	0.09803297
147	0x3e319e1b	0.17345469
148	0x3db09cde	0.0862367
149	0xbe0c0cf1	-0.13676812
150	0x3e7bf08a	0.24603477
151	0xbdbd1b60	-0.09233737
152	0xbdaa0675	-0.08302013
153	0x3e13eef5	0.14446624
154	0x3c8fb515	0.017542401
155	0xbe3010d5	-0.17193921
156	0xbde8ca5b	-0.11366721
157	0xbe5d3ae3	-0.21604495
158	0x3e74cc40	0.2390604
159	0xbd8bf517	-0.068338566
160	0xbd11d705	-0.03560545
161	0xbd451df2	-0.04812426
162	0x3bf0d525	0.0073496276
163	0xbde5cb8c	-0.11220464
164	0x3db5df6b	0.08880504
165	0xbe1f564b	-0.15560262
166	0x3cc6859e	0.024233636
167	0xbd5b03a6	-0.053470276
168	0x3e1777d9	0.14791812
169	0x3dab622e	0.08368336
170	0x3e405b25	0.18784769
171	0x3d48f605	0.049062748
172	0xbdabbed6	-0.083860084
173	0x3c9ae28c	0.018906854
174	0xbdc0b602	-0.09409715
175	0xbe229f01	-0.15880968
176	0x3dc9853f	0.09839868
177	0x3dc274fa	0.09494968
178	0xbd3956f7	-0.04524895
179	0xbdae5e1c	-0.08514044
180	0xbd425e33	-0.047453117
181	0x3d5d9fac	0.054107353
182	0xbdbadd76	-0.091242716
183	0x3d8a4101	0.0675068
184	0x3b6bdf30	0.0035991184
185	0xbdf5fa93	-0.12010684
186	0xbe7b136a	-0.24519125
187	0xbd36d2f0	-0.04463476
188	0xbe7b678b	-0.24551217
189	0x3e000003	0.12500004
190	0xbd8ef6b1	-0.069806464
191	0xbdd397a4	-0.103316575
192	0xbcdbcfd1	-0.026832493
193	0x3d5a8628	0.053350598
194	0x3dbe1588	0.092814505
195	0xbd855ef5	-0.06512252
196	0xbdca835a	-0.098883346
197	0xbd360086	-0.044434093
198	0x3e2693b9	0.16267289
199	0xbdaf4338	-0.08557743
200	0x3c5d583f	0.013509809
201	0xbcdb8bdf	-0.026800094
202	0xbd503d44	-0.050839677
203	0x3c2b0094	0.01043715
204	0x3e45bb30	0.19309688
205	0xbe427fa1	-0.18993999
206	0xbdde4b73	-0.108542345
207	0x3d5811e6	0.052751444
208	0xbd1e7843	-0.03868891
209	0x3cd230de	0.025658067
210	0xbe15fab2	-0.14646414
211	0xbd12e412	-0.035862036
212	0x3d54bd14	0.05193813
213	0x3bcab77a	0.006186423
214	0xbd1aed89	-0.037824187
215	0x3dd462fb	0.103704415
216	0xbe8fcfc9	-0.28088215
217	0xb9ea23c5	-0.00044658608
218	0xbd46cdf7	-0.048536267
219	0xbdac689c	-0.0841839
220	0xbc1b25d5	-0.009469469
221	0xbd7fbdad	-0.06243675
222	0x3e53ecae	0.20695755
223	0xbe10ef6f	-0.14153837
224	0xbd0c5d6c	-0.03426878
225	0xbe3a550f	-0.1819651
226	0xbcaf14d6	-0.02137224
227	0xbb0c143f	-0.0021374372
228	0xbd4279d3	-0.047479462
229	0xbd0b971b	-0.034079652
230	0xbd7411c8	-0.05958727
231	0x3e1c27b5	0.15249522
232	0x3e10e1b5	0.141486
233	0x3d5157cd	0.051109124
234	0xbe10fba8	-0.14158499
235	0x3e6c4c77	0.23076044
236	0xbe82afa1	-0.2552462
237	0x3d0cf6e2	0.034415133
238	0x3e863dfc	0.26219165
239	0xbe4ffaef	-0.20310567
240	0x3e2814db	0.16414206
241	0x3b0cd584	0.002148957
242	0xbe585110	-0.21124673
243	0x3df6a13a	0.1204247
244	0x3da7022b	0.081547104
245	0xbcd39684	-0.025828607
246	0x3d3dd4a8	0.046345383
247	0x3d09282d	0.03348558
248	0xbd8e1a4d	-0.0693861
249	0xbd6ade28	-0.05734077
250	0x3d048d10	0.03236109
251	0xbd8e3a41	-0.06944705
252	0xbd9592dc	-0.07303402
253	0xbdef42c0	-0.116826534
254	0xbd453b96	-0.04815253
255	0xbe5bbc5b	-0.2145857
