Assets/ML-Brains/BrainScenario03.onnx (onnx, 35829 bytes, 9 tensors)

action_model._discrete_distribution.branches.0.bias f4 [7]
000000 74 45 be 39 3c 21 94 3c 39 0d 60 3c a7 2e 96 bc
       0.0003629137 0.018082254 0.0136750275 -0.018332792
000010 0f 3c 50 3c bb bf 96 bc 37 bd 04 3b
       0.012709632 -0.018401971 0.0020254382

action_model._discrete_distribution.branches.0.weight f4 [7, 64]
000000 af 28 84 bc c2 89 db 3c ea 7b d8 bc f4 d7 a8 bc
       -0.01613268 0.026799086 -0.026426274 -0.020610787
000010 ec 0e d2 bb db 4f ce 3c ef f7 ae bb 36 7b 69 3d
       -0.00641047 0.025184562 -0.0053396146 0.05700227
000020 47 81 a1 bc 83 b1 de 3a f4 05 0f 3c 2e 1b 24 bc
       -0.019714965 0.0016990158 0.008729447 -0.010016246
000030 25 9c 23 bd de eb 19 bd 12 54 9c 3c 83 3d 81 bc
       -0.039943833 -0.037578456 0.019083057 -0.015776401
000040 33 42 07 bc 25 15 84 3d 59 e4 82 bc 48 39 6d 3d
       -0.008255529 0.064493455 -0.015978025 0.057915956
000050 32 a1 39 bd 59 30 ee 3b 7c da b4 3c 49 32 93 ba
       -0.045319743 0.007268947 0.022076838 -0.0011230196
000060 4a fd 30 3c d6 80 16 3d 46 98 b7 bc 33 10 24 bc
       0.010802576 0.03674396 -0.022411477 -0.010013628
000070 69 71 91 bd 71 19 e9 3c ce 4d f7 bc 07 37 a6 3c
       -0.071017094 0.028454514 -0.030188467 0.020289911
000080 d9 3f d6 3c 57 77 a1 3c 40 ca 17 bc 04 80 53 bc
       0.026153492 0.019710226 -0.009264529 -0.012908939
000090 a5 25 5b 3c 08 71 dc 3c 59 4f 07 b9 0f 03 91 3c
       0.013375674 0.026909366 -0.00012904163 0.017701654
0000a0 ce a5 99 bc 0d b4 01 3b 5f ad df bc 62 70 e9 3b
       -0.01875582 0.0019791157 -0.02730435 0.007123993
0000b0 e3 1f 2f ba 90 a8 a8 3b 71 5d 00 3c 0d f7 14 bd
       -0.00066804717 0.0051470473 0.007834778 -0.03636842
0000c0 89 78 a7 3c 28 3e 7b 3b 2f a6 08 bd aa 63 22 3d
       0.020443218 0.0038336609 -0.03336161 0.03964583
0000d0 aa f4 65 bc c9 5e 75 bc 4d d5 8c 3c 06 3e 23 b9
       -0.014035383 -0.014976212 0.017191553 -0.00015567997
0000e0 ce b7 2f 3d d5 e0 bc bc ed 00 98 bb d8 78 34 3d
       0.0428999 -0.023056427 -0.0046387822 0.044060558
0000f0 b6 c5 03 bd 6a 34 30 bd 30 be 54 ba bc 41 54 bb
       -0.032170974 -0.043018736 -0.00081154983 -0.0032387814
000100 c1 3d d6 bc 1f 33 28 3d de b3 6a 3c a9 07 50 3b
       -0.026152493 0.041064378 0.01432511 0.0031742847
000110 a6 14 52 3d bf 8e ab 3d 9e 46 55 3c e8 ca df bb
       0.051289223 0.08376836 0.013017325 -0.006829608
000120 ab 47 8b 3c 48 23 24 bb f6 25 eb 3c 7d af 0b 3d
       0.017001947 -0.0025045443 0.028704625 0.034102906
000130 f9 4b 7d bc ad d7 3c 3c 56 13 43 3d 74 a7 4a bc
       -0.015460008 0.0115260305 0.047625862 -0.0123690255
000140 7a 92 37 bc 8c f9 c7 3b bc 7a c9 3c c1 8f d1 bc
       -0.011204356 0.0061027464 0.024594657 -0.025581243
000150 a7 79 9a 3c 36 56 df ba 4e e8 f3 bb 29 da 70 bc
       0.018856836 -0.0017039243 -0.0074434644 -0.014700451
000160 0e ed 2c 3c 76 0f be bb 2d 90 8a 3c 84 a1 b5 3b
       0.010554565 -0.005800183 0.016914451 0.005542936
000170 36 55 3e 3d 49 56 81 bc 35 03 f5 3a f0 22 08 3d
       0.046467982 -0.015788214 0.0018692972 0.033236444
000180 8a f4 dc bc 8b 6a df 3c 5b 86 18 3d 33 7f 9b bc
       -0.026972074 0.027272483 0.037237506 -0.018981552
000190 99 2d 8a 3c fc 47 e2 bc fe 70 02 3d 6c 82 50 bc
       0.016867446 -0.027622215 0.03184604 -0.0127264075
0001a0 f8 ac 6d 3b b5 a8 85 3d a5 51 81 bb 6a 73 0c 3d
       0.0036266427 0.06526319 -0.0039465004 0.034289755
0001b0 09 62 9a 3c 31 33 2e bd 0f 03 69 3c 42 dd 69 3b
       0.018845575 -0.04252929 0.014221921 0.0035684858
0001c0 db aa 1a 3b cc 5e e0 bc c9 42 f7 3c 63 74 d7 3c
       0.0023600373 -0.027388953 0.030183213 0.026300615
0001d0 13 31 1c bd ee 7d bb bc a0 ec 0c 3d d6 1f 31 3c
       -0.03813274 -0.022887196 0.03440535 0.010810813
0001e0 90 a3 8b 3d 64 7b 14 bc 24 b8 18 3c 25 6a 12 3d
       0.068183064 -0.009062622 0.009321246 0.03574576
0001f0 d0 cc b3 3c ba 19 a7 bc e8 71 40 3c 8c 37 53 bd
       0.021948248 -0.02039801 0.011745907 -0.051566646
000200 87 8e 9a 3d 91 4f 88 3c 36 97 50 bb 4d f6 08 3b
       0.07546716 0.016639503 -0.003182841 0.002089876
000210 28 08 8f 3a ee f4 13 3d 86 8e 93 bb b3 99 97 bd
       0.0010912465 0.036122255 -0.004503074 -0.07402363
000220 a3 28 d0 3c 7d b9 0b 3c 53 7e 1c bd 35 10 0e bc
       0.025410002 0.008528111 -0.03820641 -0.008670856
000230 c5 53 d5 bc 3f f5 40 3d da cc 67 bb 24 7b 7b bb
       -0.026040921 0.047108885 -0.0035369904 -0.0038372958
000240 d0 5f 29 3c 18 9f f5 3c cd af ca bd 41 9c 5e bd
       0.010337785 0.029983088 -0.098968126 -0.054348234
000250 be 1d 1e 3d eb 02 e2 b9 46 11 21 bb f6 37 84 3c
       0.038602583 -0.00043108253 -0.0024576946 0.016139966
000260 e9 eb cd bc 8d ef 75 bd 93 ca 9a 3c b1 63 86 bc
       -0.025136905 -0.060042907 0.018895423 -0.016404958
000270 b2 d0 67 bb 2b 58 9f bd ff 4f fc 3c 9f b4 7f 3a
       -0.0035372195 -0.077804886 0.030799864 0.00097543927
000280 dd 31 68 bb 83 26 34 bd a4 44 1c bd 3d 45 c3 bb
       -0.0035430111 -0.04398204 -0.0381514 -0.0059591816
000290 68 e7 11 bc 95 3e 6a 3b 1e de 7a 3d e5 9c c9 ba
       -0.008905269 0.0035742868 0.061246984 -0.0015381841
0002a0 3e 5b aa 3b 14 ef 12 bd 5b 53 6c bb d4 08 0e bd
       0.005198865 -0.035872534 -0.0036060426 -0.034676388
0002b0 5c 9e 12 3d fc fe 14 3d 82 07 8b bd 37 01 c2 bb
       0.035795555 0.036375985 -0.067885414 -0.005920555
0002c0 27 66 89 bb b1 68 04 3c f4 a5 a1 3c 9d 41 ef 3c
       -0.0041930857 0.008081601 0.019732453 0.029206092
0002d0 cb 81 93 3c ce 81 b3 3c 66 c2 4e 3c 23 95 2d bd
       0.018006226 0.021912482 0.01261959 -0.042378556
0002e0 dc 39 6f bc cb bd 8d bc e2 43 80 bc ea ae 19 3d
       -0.014601197 -0.017302414 -0.015657369 0.037520327
0002f0 89 a2 80 3d 93 72 ca bb 63 b0 0c 3d ab 7e 07 3d
       0.06281001 -0.006178209 0.034347903 0.033079784
000300 0a 00 c5 bc 48 70 f0 ba f1 5c c0 3c d6 55 8a bc
       -0.02404787 -0.0018344009 0.023481818 -0.016886633
000310 f9 a7 2c 3c ee 17 d0 bc a0 59 12 bc d3 2c 40 bc
       0.010538095 -0.025402036 -0.008932501 -0.011729437
000320 a7 b5 d6 bb 2e ca f1 bc 17 97 e8 bc 66 8b 25 3c
       -0.0065524164 -0.029515352 -0.028392358 0.010104036
000330 50 92 1a 3b b2 0e 80 3d f1 b2 90 3b 52 33 06 3c
       0.0023585744 0.06252803 0.0044158627 0.008190947
000340 51 7f 73 bb 95 ba 12 bc 66 88 ff bc fb 95 09 3d
       -0.0037154744 -0.008955617 -0.03119297 0.0335903
000350 d4 76 17 bc cd 4c 8b 3c 8b ed 48 3d 01 a0 d7 3b
       -0.009244639 0.017004395 0.049054664 0.0065803532
000360 59 f9 97 bc 63 7f 70 bc 13 02 c3 bc 74 e6 5c bc
       -0.018551515 -0.014678809 -0.0238047 -0.013482679
000370 de 2b 98 3b 07 6d c2 3c 45 4f a9 3d 15 a6 08 3d
       0.0046439013 0.023733629 0.082670726 0.033361513
000380 b7 ea 94 3c 20 ed 8c 3a ff fb d4 3c d6 66 99 bc
       0.018178327 0.0010751821 0.025999067 -0.018725794
000390 1d 56 13 bd bb b9 88 bc 0a cb 03 3c a6 96 8a 3b
       -0.035970796 -0.016690126 0.008044014 0.0042293845
0003a0 b0 63 99 3c 8a 19 da bb 48 b4 f8 b6 ca 69 4f bd
       0.018724293 -0.0066558765 -7.4119635e-06 -0.050637998
0003b0 22 4a 0c 3b 32 2c 86 3c 97 9d 68 3c 6a 00 9e 3c
       0.0021406491 0.016378496 0.014197729 0.019287307
0003c0 d1 50 c6 3c 4c c4 cc bb 27 cc 9b bc a3 02 dc bc
       0.024208458 -0.0062489863 -0.019018246 -0.026856726
0003d0 5d 4b 72 3d ea 90 bf 3a 5e a5 c4 3c ab e7 fa 3b
       0.059153903 0.0014615331 0.024004634 0.0076570115
0003e0 d1 a0 ac bd d7 24 a0 bc 67 a4 c4 bc d2 5a 2a 3c
       -0.08429111 -0.019548817 -0.024004174 0.01039763
0003f0 5c 50 1d 3b fa 9f fb 3c 88 31 2b 3c 72 93 06 bd
       0.0024004197 0.030715931 0.010448821 -0.03285546

action_model._discrete_distribution.branches.1.bias f4 [2]
000000 89 78 e4 3b 8d 78 e4 bb
       0.0069723767 -0.0069723786

action_model._discrete_distribution.branches.1.weight f4 [2, 64]
000000 30 36 96 3d a1 80 32 3c ab 40 03 bd 68 52 88 bc
       0.07334554 0.010894925 -0.032044094 -0.016640857
000010 6b 50 e2 bb 0b 74 10 bd be d8 81 bc 96 e0 c5 bc
       -0.006906559 -0.035266917 -0.015850421 -0.024154942
000020 c6 3e a9 3c 7c 68 97 3c c4 96 43 bd 12 08 f2 bc
       0.020659816 0.01848244 -0.047751203 -0.029544864
000030 87 dd b0 bc b5 f6 5d bc 52 83 2d 3d 5e d7 26 bd
       -0.021590007 -0.013547589 0.042361565 -0.040732734
000040 3f 06 67 bd e8 3c f9 3c 29 30 9e bc d9 b2 f4 3c
       -0.05640244 0.03042455 -0.019310074 0.029870437
000050 40 c4 f4 bb 81 61 a1 3d 46 95 0d 3d d8 e9 93 3d
       -0.007469684 0.078799255 0.034566186 0.072223365
000060 c6 fe c9 3a 90 dd 26 bc 8f eb 12 3d fd d2 24 bd
       0.0015411011 -0.010184661 0.035869177 -0.040240277
000070 89 17 30 3c 24 51 df bc 18 b4 a2 bc 43 47 71 3d
       0.010747799 -0.02726037 -0.019861266 0.05890585
000080 ca e2 86 3d a1 4d 7c 3c b2 66 2f 3c c6 0a 26 3d
       0.06586225 0.015399368 0.010705637 0.040537618
000090 2f 71 15 bc 46 d9 56 3d cf 4e c4 3c ea b8 d3 3c
       -0.009121223 0.0524533 0.02396336 0.02584501
0000a0 df e9 3b bd 18 f4 da bb 1f c6 26 3c b6 31 53 bd
       -0.045877334 -0.0066819303 0.010179072 -0.05156108
0000b0 f1 5a 8e 3c a3 93 7d 3a a3 7d c5 bc bf 49 2b bc
       0.017377349 0.00096731837 -0.02410776 -0.010454594
0000c0 f1 31 92 bc f3 63 88 bc aa de 7d bc 0f 69 b4 3c
       -0.01784608 -0.016649222 -0.015494982 0.022022752
0000d0 53 e3 11 bd 66 7e f6 3c 47 b4 76 3c d1 f9 1d bd
       -0.035617184 0.030089568 0.01505763 -0.03856832
0000e0 f7 86 49 3d 94 79 17 bd 5e 82 12 bd b7 8d a8 3c
       0.049200978 -0.03698118 -0.03576886 0.020575387
0000f0 09 d9 f0 3b 92 ca 11 bc 51 fc 2f 3c 4e c6 81 3d
       0.0073500914 -0.008898394 0.010741309 0.06336652
000100 df 70 81 bd f5 2c 52 bc c5 90 8d 3d b1 56 ad 3c
       -0.063203566 -0.012828101 0.06912378 0.021159502
000110 02 6f 87 3c 8e 04 15 3d 83 73 72 3c d8 c1 ef 3c
       0.016532425 0.036381297 0.014798048 0.029267237
000120 f3 71 e6 bc 3c 45 94 bc 10 bc 71 3c c8 75 27 3c
       -0.028130507 -0.01809942 0.01475431 0.010220952
000130 2d 64 07 3d c1 2d b6 3c 89 c1 3f bd 4b 3e 23 3d
       0.03305452 0.022238614 -0.04681543 0.03985433
000140 f7 d3 88 3d 8d b1 15 bd d5 5d 37 3d 80 9a e4 bc
       0.06681054 -0.03654628 0.04476722 -0.027905703
000150 b9 f6 8f bc 8b e5 91 bd b5 5d 8d bd 67 de 81 bd
       -0.017573701 -0.0712386 -0.06902639 -0.06341248
000160 84 6f 69 3c ce 6f 8a 3c 8c 12 36 bd ca 59 2a 3d
       0.014247779 0.016899016 -0.04445128 0.041589536
000170 9f d9 cf bc cb 00 a4 3c 5e bc b6 3b bf 68 63 bd
       -0.025372325 0.02001991 0.0055766543 -0.055519816
000180 33 7c 61 bd 8b d9 a9 bc 07 83 e6 bb 69 37 3f bd
       -0.055050086 -0.020733615 -0.0070346626 -0.046683703
000190 95 b5 4f 3c 60 47 86 bd 46 c3 fd ba bf 36 0b bc
       0.01267757 -0.065565825 -0.0019360564 -0.008496939
0001a0 93 db f8 3c 93 bc ec 3c 91 47 e6 ba 02 f5 5b 3d
       0.030378139 0.028898513 -0.0017568936 0.053700455
0001b0 c5 99 b7 bc 2a 2d 80 3b a8 2b 8e 3c 10 62 e9 3c
       -0.02241219 0.003911634 0.017354801 0.028489143
0001c0 91 5f c9 3c 32 a4 23 bc 88 fd 26 3d 36 c2 0a bb
       0.024581702 -0.009987878 0.04076913 -0.0021172888
0001d0 49 ea ec 3c a2 71 d1 bc 44 af d4 bc 26 ef ee 3c
       0.02892031 -0.02556688 -0.02596248 0.02916677
0001e0 3b 17 43 bd 5b 75 1d 3d c0 35 fd 3c 94 72 55 3c
       -0.047629576 0.038441997 0.030909419 0.013027806
0001f0 25 04 b6 bc 0d 29 a2 3c c8 36 f4 3b a8 4c 60 bd
       -0.022218773 0.019794965 0.0074528195 -0.054760605

discrete_action_output_shape f4 [1, 2]
000000 00 00 e0 40 00 00 00 40
       7.0 2.0

network_body._body_endoder.seq_layers.0.bias f4 [64]
000000 71 b0 2f 3d 94 6f bf 3c 74 4f 29 bc c4 fb 14 3d
       0.042892877 0.023368634 -0.0103338845 0.036372915
000010 57 c4 12 bd 9f 0d 7f bc 2d e6 43 3c 25 6a a9 bc
       -0.035831776 -0.015567212 0.011956734 -0.020680496
000020 14 70 f5 bb 34 c7 a7 bc ae 45 51 3c be a7 95 39
       -0.0074901674 -0.02048073 0.012772961 0.00028544472
000030 6a 01 80 3c f2 3e 20 3d ab 6a a1 3b 58 6b d3 bb
       0.015625674 0.03912253 0.004926046 -0.0064520054
000040 d1 14 47 3b ed 20 85 3c c2 7a 91 bb 2f fe 9b 3c
       0.0030377398 0.016251052 -0.0044396827 0.019042103
000050 b0 12 2a bc d4 fa 22 bd cc 8c 0b bc a3 2f 8a bc
       -0.010380432 -0.03978999 -0.008517455 -0.016868418
000060 d2 65 7f 3b ad 58 ba bd 00 8d 24 bd bf eb da 3c
       0.0038970602 -0.09098945 -0.04017353 0.02672374
000070 f8 1a 65 bd 5b dd 10 3d 61 d4 87 bb 49 6e a4 bc
       -0.055933923 0.03536735 -0.0041451906 -0.02007212
000080 73 f8 ce 3c cf 48 14 3c 11 3e 30 bd ef 55 04 3d
       0.025264954 0.009050562 -0.04302794 0.032308515
000090 33 95 05 3c 3e 07 21 bd a1 f2 a8 bc 85 73 2a 3d
       0.008153248 -0.039313547 -0.020623507 0.041614074
0000a0 1a ca cf 3a 23 88 41 3c e8 0a 97 bb d7 46 06 3c
       0.0015853078 0.011812243 -0.0046094544 0.0081956005
0000b0 1f e7 87 3a c9 8c 30 bd a1 11 34 bc d8 f3 0a 3d
       0.0010368562 -0.043103013 -0.010990531 0.033923954
0000c0 be 5b 44 bc 36 27 9c bd 39 2e f8 3c 60 ad b3 3c
       -0.011984764 -0.076246664 0.030295478 0.021933258
0000d0 42 ea 3f 3c 44 1f d7 3c 1c ee 29 3c 64 1a 93 3d
       0.011713566 0.026260026 0.010371711 0.07182768
0000e0 ce 2c 2d bb cc 4b 85 3c 18 c9 9c bc 2c 96 10 bd
       -0.002642441 0.016271494 -0.019138858 -0.035299465
0000f0 70 ef 36 bc 5c c1 36 3d ff 03 2e bc 05 44 51 bc
       -0.011165485 0.044617996 -0.01062107 -0.012772565

network_body._body_endoder.seq_layers.0.weight f4 [64, 54]
000000 d2 26 1d bc d1 88 84 bb 3b 8c c0 bc ce e0 c1 bc
       -0.009591775 -0.00404463 -0.023504367 -0.023666766
000010 89 07 0a be 8f f5 87 3e f8 fa e9 bc 5e 67 34 3d
       -0.13479437 0.26554534 -0.028562054 0.04404389
000020 d2 b6 12 be b0 bd 49 bd 4b 9a bf bd 98 24 18 3e
       -0.14327553 -0.049253166 -0.09355601 0.1485771
000030 4b 50 2a be 1a 77 a7 3e ee 48 46 be 1b 31 19 bd
       -0.16632192 0.32708055 -0.19363758 -0.037400346
000040 f1 9c 7a be ae 61 fd 3d 5a e0 1b bc b5 2a 11 bd
       -0.24473931 0.123721465 -0.009513939 -0.03544112
000050 4b 10 b7 bd 8c b6 25 bd f4 de 81 3e c8 e5 9d 3b
       -0.089386545 -0.040457293 0.25365412 0.004818652
000060 06 de 8c be 9f ae 2e 3e a9 b5 0f 3e e3 7e 39 be
       -0.2751314 0.170588 0.14034142 -0.1811481
000070 69 95 6d 3e f9 d8 bd bd 63 5c 68 bd 49 0e 84 3a
       0.23201527 -0.092699 -0.05672873 0.0010075058
000080 92 dd 3b be 99 dc 91 3e 2c 08 a7 bb 36 ea 75 3d
       -0.18346241 0.28488615 -0.0050974097 0.060037814
000090 bb 46 71 3e 5c 3f 7c 3d bb c5 55 3d 7e 05 4b bd
       0.23562138 0.06158386 0.052190524 -0.049565785
0000a0 18 2f ab 3e f3 61 82 3c ac f5 5b 3e 6d 78 60 bd
       0.33434367 0.015915846 0.21480435 -0.054802347
0000b0 75 85 a0 bc eb b9 9f be 0b b1 df 3d b0 9a 91 3d
       -0.019594887 -0.31196532 0.1092244 0.071095824
0000c0 96 c2 f2 3d 8c 1c ff 3b 66 de 80 3d f6 24 ca bd
       0.118535206 0.0077853855 0.06292419 -0.09870331
0000d0 b5 2f 65 be 05 55 12 3e 39 25 88 bc 62 e6 81 be
       -0.2238148 0.14290245 -0.016619312 -0.2537108
0000e0 14 f2 14 3d 81 5a a4 3d 89 b3 9b 3c ef 12 46 3e
       0.036363676 0.08025075 0.019006507 0.1934316
0000f0 e7 55 5d 3e b4 b0 80 3e 2c 4a 45 3c 43 27 76 3b
       0.216148 0.25134814 0.01204161 0.0037560023
000100 b3 46 d5 bc f4 de e2 bd 51 e2 85 be 61 a3 51 bc
       -0.026034689 -0.11077681 -0.26149228 -0.0127953
000110 76 61 a0 3d 73 99 0e 3e 5e de 25 3e a6 0e a5 3e
       0.07831089 0.13925724 0.16198108 0.32237738
000120 fa 95 76 bd cf 4c c5 bd 1a 90 0d be ff b6 e7 3d
       -0.060201623 -0.09633791 -0.13824502 0.113142006
000130 e9 cc 22 3e 35 af 0a 3e 4d a2 82 bd 7a d1 4b bc
       0.1589848 0.13543399 -0.06378613 -0.01244008
000140 f3 ee c6 3d 44 4e fb 3c ae 2c e3 bd 4b ca 60 be
       0.09713545 0.030676968 -0.11092506 -0.21952169
000150 60 a2 ee 3c 17 43 0a be 5e eb ae bc 6f d5 88 3d
       0.02913016 -0.13502155 -0.021352466 0.06681334
000160 88 75 20 be 48 54 cd bd 76 0f c2 3d 3f 79 27 3e
       -0.15669835 -0.10025841 0.09475605 0.16354845
000170 21 30 b7 bd 40 aa 7d 3d 5b 54 36 3e 5d 68 b3 3d
       -0.08944727 0.06192994 0.17805617 0.0876014
000180 8f de 67 bd 91 43 93 3d 2c d2 ca bc bc eb 6a bd
       -0.056608733 0.07190622 -0.02475842 -0.05735372
000190 4d 9e e5 3c 2b 02 fb bd f0 37 75 be 15 b1 11 bc
       0.028029585 -0.12256273 -0.2394712 -0.008892317
0001a0 2e ec 07 be 12 dd 21 3e 31 af 5a 3e 48 07 08 be
       -0.13273689 0.15806988 0.21355893 -0.13284028
0001b0 0f 7f b3 3a f1 9c ba 3c b7 8f d7 bc 0b ad 79 be
       0.0013694483 0.022779914 -0.026313646 -0.24382417
0001c0 80 13 06 3b bb b5 a5 bd 69 2b 96 3d 77 71 87 3d
       0.00204584 -0.08091303 0.073324986 0.066134386
0001d0 3f 5b 1c 3e a1 ba 15 be f9 5d 82 bc e9 27 1d 3d
       0.15269183 -0.14621975 -0.01591395 0.03836814
0001e0 df 29 0d be ff 4c 6f 3d e9 c0 83 bd c6 a4 f3 ba
       -0.13785504 0.05842304 -0.06433279 -0.0018588535
0001f0 7e 24 da bd c4 6c c2 bd 0b aa bb bd 48 77 c3 3e
       -0.106514916 -0.09493402 -0.091632925 0.38176942
000200 22 8a b1 3d 31 2f 79 bd 59 90 b0 3e 61 75 3c be
       0.08668925 -0.06083602 0.3448513 -0.18404151
000210 93 09 8a 3d 61 a6 41 bd f4 df a0 3d 63 3f be 3d
       0.067401074 -0.047277812 0.07855216 0.09289434
000220 00 59 51 be 54 f1 12 3d e2 38 ac bc 5f 8b 99 bd
       -0.20444107 0.03587468 -0.021023218 -0.07497286
000230 24 f9 93 be f1 a8 1c 3d 83 51 47 be b7 61 2a bd
       -0.28901017 0.038247053 -0.19464688 -0.041597094
000240 a5 0a ac be 83 b2 11 3d a8 04 ad bd 39 07 ce 3d
       -0.3360187 0.035570633 -0.08448154 0.10059971
000250 e1 7e 2a 3c 00 0f 33 be 2c de 40 3e ad df 94 3e
       0.010406227 -0.17486191 0.18834752 0.290769
000260 db 7a 39 bd 8a 7e 17 be 01 41 48 bc f5 8d 97 3d
       -0.04528318 -0.14794365 -0.012222529 0.07400123
000270 f4 92 0f be 60 48 76 3d dc a3 b4 3d 1a c1 6c be
       -0.14020902 0.060127616 0.08820316 -0.23120537
000280 79 c2 1b be 1d ec 36 bd f2 53 6c 3d c6 91 15 be
       -0.15210904 -0.04465877 0.057697244 -0.1460639
000290 e7 aa d0 3d 3f 05 41 bc 8f 76 d7 bd 7f 9b f0 3b
       0.10188847 -0.011781036 -0.1052066 0.0073427553
0002a0 85 b5 72 be 09 7a a7 3d ba 28 67 3e 2f 60 34 3c
       -0.23702057 0.08177573 0.2257413 0.01100926
0002b0 47 2e 3d be 4c 1f 9c 3e 28 4f 16 3c 00 af 81 3d
       -0.18474685 0.30492628 0.009174146 0.06332207
0002c0 96 65 a0 3c 7f 49 27 be 21 ca 10 3e d0 67 c6 bc
       0.01957969 -0.1633663 0.14139606 -0.024219424
0002d0 be d3 0e be 15 14 1d 3e c8 c0 d7 bd 28 d7 84 3e
       -0.1394796 0.15339692 -0.10534817 0.259454
0002e0 b4 34 cc 3b 86 88 bb bd b2 ef 12 3d 56 0c 0f 3b
       0.0062318686 -0.09156899 0.035873123 0.002182742
0002f0 aa b5 fe 3c 0b 16 04 3d 22 4a 37 be dd f2 b3 3d
       0.031092484 0.032247584 -0.17899373 0.08786557
000300 d0 d1 61 3e 37 b3 60 3e b0 67 c0 3d d7 bd 81 3d
       0.22052693 0.21943365 0.09394777 0.06335037
000310 85 6e 8f 3e d4 91 14 be 61 22 12 be ad 9b 06 3e
       0.28014007 -0.14508754 -0.14270927 0.13145323
000320 f7 b7 e9 bc dc ea 98 bc 9d ea c1 bd 43 4d cd 3c
       -0.028530104 -0.018666677 -0.09468577 0.025061255
000330 cc 58 5e be 57 49 95 bd e1 4b 26 be da 1f 80 bd
       -0.21713561 -0.07289379 -0.16239883 -0.06256075
000340 aa 36 c2 3d cc 44 2c be da ad 3b bd 5f 93 97 3c
       0.094830826 -0.16823119 -0.045820095 0.01850289
000350 1c 58 cc 3d ec 4b 1e 3c e0 1a 73 3c fe 0a 21 3e
       0.09977743 0.009661656 0.0148379505 0.1572685
000360 6d e1 86 bd 5b c8 e2 bd a1 d4 04 be 77 c0 80 bd
       -0.06585965 -0.11073371 -0.12971736 -0.0628671
000370 a6 8d 01 bd 5d 8e 91 bb 59 0b 13 bd 1d eb 7d 3e
       -0.031629227 -0.00444202 -0.035899494 0.2479672
000380 cb aa 19 3d f2 3b 07 3d 68 ee 85 be 6a 23 4e 3d
       0.037516396 0.033016153 -0.26158452 0.050326742
000390 49 33 de bd 94 19 ce bd ab 18 4e 3e 08 d2 3a be
       -0.108496256 -0.100634724 0.20126598 -0.18244183
0003a0 32 f7 e6 bd 79 96 99 3e cd a4 51 3d 02 d4 c9 bd
       -0.112776175 0.29997614 0.051182557 -0.098548904
0003b0 ca e4 40 be 46 1e 0f be 4b 05 6e be 03 e8 7b 3e
       -0.18837276 -0.13976392 -0.23244207 0.24600224
0003c0 06 75 35 be 54 49 55 be 54 cb c1 3d 24 ac 34 3e
       -0.17720422 -0.20828754 0.0946261 0.17643791
0003d0 ba 7b 63 3e b2 89 66 be 27 36 53 be 8b 76 b6 3d
       0.22215167 -0.22513464 -0.20626126 0.08909329
0003e0 41 cc 9d bd 73 33 76 be c7 67 31 bd 6a 43 04 be
       -0.07704974 -0.24043064 -0.04331186 -0.12916341
0003f0 fa 99 bd 3d a2 a9 29 be 4d 12 b0 bd 63 1f 20 be
       0.09257884 -0.16568616 -0.085972406 -0.15636973

network_body._body_endoder.seq_layers.2.bias f4 [64]
000000 ed 4d 1d 3c 19 66 ea bc b4 4d a3 bc 56 a0 95 bd
       0.0096010985 -0.028613137 -0.019934513 -0.07305972
000010 d7 b2 ae 3c 30 bb f0 bb 5c 71 20 bd ea 09 e8 3b
       0.021325512 -0.0073465332 -0.039170608 0.00708126
000020 8e d6 ea 3c d9 bb 5e 3b b4 ef a7 bc da 44 07 bd
       0.02866676 0.0033986478 -0.020500042 -0.033024646
000030 40 91 bb 3b 56 24 f0 bc e3 ae 6a 3c 5a 5f ec bc
       0.0057241023 -0.029314201 0.014323923 -0.02885406
000040 3a 45 b8 3c 7e 99 11 3d 15 81 a6 3c 0b f5 46 3c
       0.022493947 0.035546772 0.020325223 0.012143384
000050 fb 47 b3 bc de a4 75 3c 47 ad a8 3b 2e cd 8a bc
       -0.021884909 0.014992921 0.0051476094 -0.01694354
000060 df 00 62 bd 33 2c 1b bd 05 38 2c bc ac 77 1b bc
       -0.055176612 -0.03788395 -0.010511403 -0.009488981
000070 d2 f5 1d 3c f3 10 b9 bc 76 d1 66 3c 54 ab 85 3c
       0.009641128 -0.02259109 0.014088025 0.016317047
000080 2a 7a 00 bc 98 8f 1d bc a4 82 63 bc 49 aa 99 bb
       -0.007841626 -0.009616755 -0.013886128 -0.004689489
000090 fd 6a c2 bc 64 1a 81 3b 1c 46 df ba bf 07 ec bc
       -0.023732657 0.0039399136 -0.0017034444 -0.028812287
0000a0 81 ca 97 3b 82 e2 f0 3b 17 e0 d0 bc bf 31 8b bc
       0.0046322946 0.0073512206 -0.02549748 -0.016991494
0000b0 d7 4d 38 bd 97 d8 07 bd 6b 90 7d bc f8 2e 2a bd
       -0.04499611 -0.03316554 -0.015476326 -0.0415487
0000c0 44 23 37 bd b3 41 81 bd dc 6a 42 bd 6e cb 8d bc
       -0.044711366 -0.06311359 -0.04746519 -0.017308917
0000d0 9c c7 f1 bc b1 77 46 bd 12 27 04 bd f8 ec 87 3b
       -0.029514126 -0.04845399 -0.032263823 0.004148122
0000e0 e4 e6 43 3c 42 78 05 bc cf 44 a4 bc 6c cf 1f 3c
       0.011956904 -0.0081463475 -0.020052342 0.009754043
0000f0 30 a2 65 3b 37 eb 9b 3c d3 20 21 bd f1 ec 9b 3a
       0.0035039298 0.019033058 -0.039337944 0.0011896176

network_body._body_endoder.seq_layers.2.weight f4 [64, 64]
000000 b9 79 98 be 39 42 f2 bd d4 a0 de 3d 85 4c ba 3d
       -0.29780367 -0.11829037 0.10870519 0.09096626
000010 ce a4 92 bd 97 60 27 be 42 52 cb be ef a4 5d 3d
       -0.0716034 -0.1634544 -0.39711195 0.05411237
000020 4e 4b 36 3d f2 f0 f2 bd d0 0b c4 3d 0d ef 1c 3e
       0.04450541 -0.11862363 0.095725656 0.15325566
000030 86 4a 0e 3e bc f6 06 3c 7e 93 9d bc fd 41 04 3e
       0.13895616 0.008237537 -0.019235369 0.12915798
000040 6d 94 7e 3d cd 5e 24 be 9e c4 06 bd b8 99 b6 3d
       0.06215327 -0.16051789 -0.032902353 0.08916038
000050 87 1d 52 bc 80 9a 26 be 48 c8 b5 bc c2 79 ec bd
       -0.012824423 -0.16269875 -0.022190228 -0.11546661
000060 d7 57 cc bd f2 b3 74 bc b0 1c a0 3c de f7 38 bd
       -0.099776916 -0.01493548 0.01954493 -0.04515826
000070 db 83 03 3e d3 ae 9d 3d 67 15 07 be 23 0f e8 3d
       0.12843268 0.07699361 -0.13191758 0.11331012
000080 fb a2 ae be 29 6e 05 3d 77 43 a1 bb a5 5d 0f be
       -0.3410872 0.03257576 -0.0049213725 -0.14000566
000090 7b 95 84 3c 72 c4 0c bc 5f d5 33 3e 81 f2 cd bd
       0.01618456 -0.008591758 0.17561863 -0.100560196
0000a0 0f 59 11 3e 8f 7b 4d 3e 5c b5 3e be e4 c6 8e 3d
       0.1419413 0.20066665 -0.1862387 0.06971529
0000b0 14 59 10 be a3 78 a0 bc cc d6 da 3d 00 77 10 3d
       -0.1409648 -0.019588774 0.106855005 0.035269737
0000c0 cb 05 c8 bd f3 37 7c bc 65 1b 44 be 41 52 e2 bc
       -0.0976673 -0.015394199 -0.19151075 -0.027627112
0000d0 32 23 9d 3c 45 30 32 3e 04 6f 16 3e 47 1a 24 be
       0.019181821 0.17401226 0.14690787 -0.16025649
0000e0 3a 46 50 bd 6a 27 32 3d a9 a5 4d bd c1 45 ce bd
       -0.050848223 0.04349462 -0.050206814 -0.10071898
0000f0 d9 53 d8 3c 17 7e ff 3d a2 0f be 3d 98 1d 26 be
       0.02640717 0.124752216 0.092803255 -0.16222227
000100 91 25 77 be 5a 8b e9 bd 6f 6c 89 be bf 9b 6f 3c
       -0.24135424 -0.11403532 -0.2684054 0.014624535
000110 04 29 15 be 25 3e 15 be 88 e5 48 bd 4b 1c 0b be
       -0.14566427 -0.14574488 -0.049047023 -0.13585012
000120 bf 41 f5 bc f0 aa 20 3c c7 a3 1a bd 14 24 0f bd
       -0.029938577 0.00980638 -0.037753846 -0.034946516
000130 63 f7 0a be 9d 14 34 3e 32 70 2f bc 6b e5 a4 be
       -0.13570933 0.17585988 -0.010707902 -0.32206282
000140 ef ba 27 bd 63 ce 60 bd a9 eb 04 3e ea ab 57 be
       -0.04094976 -0.054884326 0.12980522 -0.21061674
000150 a9 96 48 3e 26 7e bd 3d fa d7 43 be 6f 44 14 3e
       0.19588722 0.092525765 -0.19125357 0.1447923
000160 3e 42 4e bc 03 26 bc 3d ab bb ee bc 8e 7b ac 3d
       -0.012589036 0.09186938 -0.029142221 0.08422004
000170 06 45 ca b8 df ed b4 3c c0 bc ca be 78 79 0d be
       -9.644967e-05 0.022086082 -0.3959713 -0.13815868
000180 90 84 8a 3c e1 89 f7 bd 21 f1 f9 3d 19 2d 15 bd
       0.016908914 -0.12086845 0.12204195 -0.03641996
000190 13 31 89 bd cd 38 65 ba 1e a4 85 3d e4 e2 0f be
       -0.06698813 -0.0008744121 0.065254435 -0.14051396
0001a0 f7 17 12 3e b5 e1 c6 bd f2 6e e1 3d bf 06 b4 bd
       0.14266954 -0.09711019 0.11007489 -0.08790349
0001b0 6c 9d 2e 3b 0f 6e 40 3e 66 77 db bc bd 6b 25 bd
       0.0026644124 0.18791984 -0.026790332 -0.04038595
0001c0 e8 3e 4f bd 9a 17 f8 bd 1e 1d 1a be 12 9b 52 3d
       -0.0505971 -0.12113877 -0.1505017 0.051417418
0001d0 3e 2a 14 bb ab 76 63 bd 40 d7 a1 3c 1c 3d 3a bc
       -0.0022608186 -0.055533092 0.01975596 -0.011367109
0001e0 11 26 4f 3e b8 2a 62 bc 49 85 10 be a5 4c 66 3d
       0.20229365 -0.01380413 -0.14113344 0.056225438
0001f0 21 0f 14 3c 1f 86 b0 bd 42 bf 2d be 5d 62 83 3e
       0.00903681 -0.086193316 -0.1696749 0.25660983
000200 15 69 06 be ad 08 2f bd 10 12 eb bc 79 cf 78 be
       -0.13126023 -0.042732883 -0.028695136 -0.24297895
000210 22 07 8c 3d 7a df 2a 3d 32 49 ca 3c 44 8e b0 ba
       0.06837298 0.04171703 0.024693105 -0.0013470133
000220 31 a9 04 3e e6 19 3a bd 38 80 e5 3d 9a 01 06 3e
       0.12955166 -0.045434855 0.112060964 0.13086548
000230 19 a4 f7 3c b0 59 22 bd 7b 1a 03 be 3b 81 7a 3d
       0.030229615 -0.039636314 -0.1280307 0.0611584
000240 9e 97 0a 3e e5 21 a8 3d 4d 46 c2 bd 3e 46 56 bb
       0.135344 0.0820959 -0.09486065 -0.0032695676
000250 1f 47 a5 3c 27 17 10 3e 87 68 99 bd a3 47 ad bd
       0.020175515 0.14071332 -0.0749064 -0.08460929
000260 de 7d d9 3d ed 9b 0e 3c 19 81 c8 3d a6 b6 80 3d
       0.106197104 0.008704168 0.097902484 0.062848374
000270 dc 53 a1 bd b8 24 84 3d da 02 3b bd c0 df e3 bd
       -0.07877323 0.06452316 -0.045657016 -0.11126661
000280 49 ac dc 3d 77 7a e0 bd bd 31 13 be 7e 5b 60 3e
       0.10775048 -0.10960858 -0.14374442 0.21909901
000290 d0 1f e4 bd 0c 22 99 3d af 06 f4 3d 60 ff d5 bd
       -0.1113888 0.07477197 0.11915337 -0.104490995
0002a0 7d 23 90 bd 85 88 9a be 1c 3b 90 be f0 71 12 bc
       -0.07038019 -0.3018228 -0.28170097 -0.008938298
0002b0 6f 15 26 bc ad 87 30 bd f2 3d 87 3e 1f 59 8c 3d
       -0.010136946 -0.04309814 0.26414448 0.06852936
0002c0 65 a5 a9 bd 6d 92 4a 3e 0e b7 a4 bc f9 6c 3c be
       -0.082835 0.1978242 -0.020106819 -0.18400945
0002d0 ed a9 a0 be ae a6 1b bc b6 b2 b5 be 91 4e 1c 3d
       -0.31379643 -0.009500189 -0.35487908 0.038160864
0002e0 47 08 74 be c3 7a a4 3d 23 77 d2 3c c1 c0 9a 3c
       -0.23831283 0.080312274 0.025691574 0.01889074
0002f0 47 98 24 3e 02 12 76 bd ad 08 a6 be 41 d0 4c bd
       0.16073714 -0.060075767 -0.32428494 -0.050003294
000300 d9 c5 09 3e 08 e9 e4 bc 01 8d 82 bc d2 b4 b3 3d
       0.13454379 -0.02794315 -0.015936377 0.08774723
000310 8a 98 18 be 57 9e 4b be 50 84 de 3d d0 bd 04 bd
       -0.14901939 -0.1988462 0.1086508 -0.03240758
000320 74 19 28 3c c2 78 4d bd 37 f2 77 be 4c 36 cd bd
       0.010259975 -0.05016399 -0.24213491 -0.10020122
000330 9c 11 94 bd d0 98 05 bd 61 e7 0f 3d 40 30 84 3d
       -0.07229921 -0.032616436 0.03513277 0.064545155
000340 42 91 b4 3d 10 62 47 3d 16 b0 2b 3e 8f 10 12 3e
       0.08816768 0.048677504 0.1676639 0.14264129
000350 ed 4c 43 be ce 6d ed bc 1c c7 93 bb 18 44 00 bd
       -0.19072314 -0.028983023 -0.0045098197 -0.03131494
000360 73 d8 82 bd 57 71 a4 ba 0b 18 d7 3d 21 b9 a5 bc
       -0.06388941 -0.0012545985 0.10502633 -0.020229878
000370 22 eb 68 bd fe b6 3f 3d 20 b4 ed bd be 12 e7 3c
       -0.056864865 0.046805374 -0.11606622 0.02820718
000380 20 d9 f4 bc 7e eb 72 3b 25 79 60 3d 79 fc 6b 3e
       -0.02988869 0.0037066634 0.054803032 0.2304553
000390 6a 8a 91 3c d8 2d 33 3d b7 fa a9 3d 7e 90 8a 3d
       0.017766196 0.043744892 0.08299773 0.06765841
0003a0 3d f5 73 bc fb 67 40 3d d4 b3 8d 3e 4c 92 94 bd
       -0.014890012 0.046974164 0.2767626 -0.072544664
0003b0 5c 51 7d be 2e ff ad 3d c0 3b 2d be 72 27 d5 3e
       -0.24738067 0.08495937 -0.16917324 0.41631657
0003c0 f6 bd 99 bd aa c6 a6 bd 4b ee 52 3b 69 a8 5e be
       -0.07506935 -0.08143361 0.003218549 -0.21743931
0003d0 38 ee dd 3d df c1 55 3d 8a 40 b1 bd 0c 62 02 be
       0.10836452 0.052186843 -0.08654888 -0.12732714
0003e0 8a e5 52 be 60 08 51 3e 11 44 03 be b7 bf 72 be
       -0.20595375 0.20413351 -0.12818934 -0.23705946
0003f0 52 39 16 3e 62 41 9f bd 14 72 4a 3e 85 15 94 bd
       0.14670303 -0.07776143 0.1977008 -0.07230667
