Assets/ML-Brains/BrainScenario09b.onnx (onnx, 35829 bytes, 9 tensors)

action_model._discrete_distribution.branches.0.bias f4 [7]
-0.027431367 0.00337661 -0.0038361629 0.03411571 0.024967046 -0.05676877 0.03621951
00000000: bfb7 e0bc 1e4a 5d3b 2268 7bbb eabc 0b3d
00000010: b187 cc3c 5f86 68bd e95a 143d

action_model._discrete_distribution.branches.0.weight f4 [7, 64]
-0.046036024 0.07980163 -0.013500932 -0.0070046233 0.09383503 0.024323087 0.017253142 -0.025488434
-0.036083233 0.01940737 0.03584611 0.0623422 -0.030911967 0.010032785 -0.061456192 -0.03861199
0.015536327 0.01348853 -0.09818058 0.047911674 -0.02902744 -0.058266077 0.08063192 -0.015696881
0.030149655 0.013310034 -0.038353756 -0.008711437 0.029727278 0.025002807 -0.025431601 0.00088974286
0.0408052 -0.09948141 -0.011706743 -0.06981613 -0.040377665 0.055756137 0.027090712 -0.0147846835
-0.07924593 0.037848055 0.040475477 0.010109926 -0.068536244 -0.0463337 0.040997803 -0.018607887
-0.041913256 0.0014266096 0.034290902 -0.008112561 -0.13673505 -0.106558666 0.04667977 0.0012197685
-0.022601089 0.021620587 -0.015626002 0.051522404 0.026374724 -0.031416666 0.09123777 -0.031472586
0.0508137 -0.03208543 0.045259155 0.030717518 0.071515895 -0.031499617 0.036763113 0.051558677
0.06433519 0.039132994 -0.09093484 -0.021025216 0.060052287 -0.014100132 0.066151515 0.052425534
-0.071063206 -0.02526197 0.007838142 0.0044028005 0.046345353 -0.01021945 0.010870646 -0.005188241
0.077541865 0.033744294 0.009795676 0.07846285 -0.024281515 -0.004170785 -0.029778257 -0.03910317
0.042194434 0.007738547 0.013024276 0.036261827 0.0002464533 -0.07929737 -0.039477754 0.0851946
0.084664755 -0.009641714 -0.027093222 0.006615389 -0.035643015 -0.03037273 -0.045883935 0.05613389
0.018874304 0.031209506 -0.00794126 0.00854645 0.021465015 0.062323917 0.0054195006 -0.02614175
0.02553796 -0.006999228 -0.08063057 0.006782306 -0.0047086435 0.04894556 0.02413969 0.045974176
0.056396753 -0.053923503 -0.07278512 -0.039030194 -0.06104299 0.011876848 -0.018204842 -0.08486356
0.056815606 0.10245836 0.020616468 -0.052857023 -0.009746152 -0.00044413764 0.0042775725 0.051578827
0.053607088 0.019509627 -0.014048702 -0.031488094 0.015163223 0.026815366 -0.12550081 0.004748556
0.060014464 0.03257705 -0.0051482604 0.058552776 -0.04625478 -0.037628245 -0.070169285 -0.047705475
0.07215532 -0.029196704 0.042140357 0.09269284 -0.03990874 -0.033601772 -0.0032617257 -0.008873265
-0.008309866 -0.020231811 -0.020777738 0.043476157 0.014898656 -0.03592171 0.046413448 0.016760394
-0.117586136 0.027128339 0.023855304 0.009788802 -0.034400936 -0.01897574 -0.045987997 -0.015342193
0.06675291 0.0036181207 0.02777356 -0.021771383 0.013381049 -0.0075384467 0.017163886 0.029327739
-0.026211075 -0.039022174 -0.022617275 0.0030126849 0.033964038 -0.016380306 -0.03983584 0.027438095
0.015439398 0.018643916 0.040185522 -0.01976071 -0.002687297 0.0579719 0.007448559 0.027626256
-0.15207128 -0.02475221 0.009588526 -0.016291037 0.00094072503 -0.032570746 -0.004541599 -0.059884496
-0.0011572964 -0.06886021 0.0061197877 -0.11582033 -0.048581157 0.057192426 -0.034509696 0.07555909
-0.051320802 -0.037985157 -0.10611351 -0.023471102 0.10625562 0.04098847 0.006893738 -0.11669926
0.017820239 0.046603203 0.016670946 0.022761738 -0.0216852 -0.006109734 -0.037411314 -0.07031782
-0.015711693 0.04116829 0.032931425 0.046801202 -0.023818053 -0.0047064 0.0023749422 0.057388406
-0.026260443 -0.023526946 -0.048215356 -0.025027229 0.007493523 -0.068210304 -0.06687575 -0.010950971
00000000: 4590 3cbd 096f a33d 0333 5dbc 0a87 e5bb
00000010: 952c c03d 3641 c73c 7656 8d3c 1fcd d0bc
00000020: 03cc 13bd 34fc 9e3c 5fd3 123d 895a 7f3d
00000030: 183b fdbc 8d60 243c 7db9 7bbd 9b27 1ebd
00000040: 148c 7e3c fffe 5c3c e612 c9bd 083f 443d
00000050: f4ca edbc 69a8 6ebd 5922 a53d bf96 80bc
00000060: 69fc f63c 5412 5a3c d418 1dbd 6aba 0ebc
00000070: 9f86 f33c b0d2 cc3c ef55 d0bc a23d 693a
00000080: 5a23 273d e9bc cbbd a4cd 3fbc c2fb 8ebd
00000090: 0d63 25bd 8c60 643d 57ed dd3c 753b 72bc
000000a0: b14b a2bd 9006 1b3d 9dc9 253d 1aa4 253c
000000b0: bb5c 8cbd 68c8 3dbd 50ed 273d 916f 98bc
000000c0: 3cad 2bbd 13fd ba3a 9e74 0c3d 8cea 04bc
000000d0: 4604 0cbe 6e3b dabd 4933 3f3d a4e0 9f3a
000000e0: eb25 b9bc a81d b13c 1a02 80bc 2809 533d
000000f0: ce0f d83c c3ae 00bd deda ba3d 66e9 00bd
00000100: 0722 503d 036c 03bd aa61 393d 4ea3 fb3c
00000110: ed76 923d be05 01bd eb94 163d 312f 533d
00000120: 2bc2 833d eb49 203d 0c3c babd 133d acbc
00000130: 63f9 753d 3d04 67bc 727a 873d 28bc 563d
00000140: 9689 91bd 31f2 cebc 8d6b 003c 5e45 903b
00000150: a0d4 3d3d 7b6f 27bc cb1a 323c 1f02 aabb
00000160: 45ce 9e3d 7537 0a3d 0b7e 203c 21b1 a03d
00000170: 07ea c6bc 15ab 88bb 88f1 f3bc a52a 20bd
00000180: 12d4 2c3d a393 fd3b c663 553c 4887 143d
00000190: 6736 8139 a966 a2bd 6db3 21bd 827a ae3d
000001a0: b764 ad3d 48f8 1dbc 9bf2 ddbc e8c5 d83b
000001b0: 69fe 11bd 3bd0 f8bc cbf0 3bbd a6ec 653d
000001c0: 499e 9a3c 14ab ff3c 0f1c 02bc 6906 0c3c
000001d0: 66d7 af3c 5d47 7f3d 1196 b13b 3927 d6bc
000001e0: fc34 d13c c859 e5bb a421 a5bd 1b3e de3b
000001f0: f74a 9abb 247b 483d 99c0 c53c 6b4f 3c3d
00000200: 4800 673d e4de 5cbd 5d10 95bd 20de 1fbd
00000210: 3708 7abd 1c97 423c 5222 95bc f2cc adbd
00000220: 7bb7 683d b0d5 d13d dee3 a83c 9b80 58bd
00000230: 53ae 1fbc 25db e8b9 e12a 8c3b 5244 533d
00000240: 1b93 5b3d a7d2 9f3c 872c 66bc a9f9 00bd
00000250: 2b6f 783c e6ab db3c 4983 00be c699 9b3b
00000260: bad1 753d 836f 053d bdb2 a8bb 09d5 6f3d
00000270: a775 3dbd 1320 1abd eab4 8fbd d166 43bd
00000280: 2bc6 933d ed2d efbc 5e9b 2c3d bed5 bd3d
00000290: 5977 23bd 03a2 09bd adc2 55bb 2c61 11bc
000002a0: 1b26 08bc 2fbd a5bc 1336 aabc 0e14 323d
000002b0: 7e19 743c a522 13bd 071c 3e3d 184d 893c
000002c0: 00d1 f0bd 403c de3c 336c c33c 3661 203c
000002d0: ffe7 0cbd 0373 9bbc e95d 3cbd d25d 7bbc
000002e0: c0b5 883d fe1d 6d3b 6085 e33c e659 b2bc
000002f0: 303c 5b3c 1305 f7bb 479b 8c3c ba40 f03c
00000300: 9cb8 d6bc b7d5 1fbd dd47 b9bc 7770 453b
00000310: e01d 0b3d fe2f 86bc e82a 23bd dbc5 e03c
00000320: 87f5 7c3c 20bb 983c 9399 243d 36e1 a1bc
00000330: 5d1d 30bb f173 6d3d 0b13 f43b 7550 e23c
00000340: 93b8 1bbe 26c5 cabc 3119 1d3c c874 85bc
00000350: fd9a 763a e768 05bd b2d1 94bb 7249 75bd
00000360: 6cb0 97ba 9506 8dbd 8088 c83b 3633 edbd
00000370: 09fd 46bd 9b42 6a3d 0a5a 0dbd b9be 9a3d
00000380: c335 52bd 5396 1bbd 0a52 d9bd 7846 c0bc
00000390: 8c9c d93d 87e3 273d dee4 e13b 0600 efbd
000003a0: c0fb 913c 00e3 3e3d 8291 883c d376 ba3c
000003b0: 29a5 b1bc 2a34 c8bb 9b3c 19bd ca02 90bd
000003c0: cfb5 80bc 15a0 283d 1ae3 063d 9eb2 3f3d
000003d0: 141e c3bc 2538 9abb eba4 1b3b 1b10 6b3d
000003e0: 2420 d7bc 95bb c0bc 777d 45bd e705 cdbc
000003f0: 3a8c f53b d8b1 8bbd 27f6 88bd b46b 33bc

action_model._discrete_distribution.branches.1.bias f4 [2]
0.026515646 -0.026515698
00000000: 5737 d93c 7337 d9bc

action_model._discrete_distribution.branches.1.weight f4 [2, 64]
0.08965931 -0.05879271 0.0024073194 0.032442555 -0.05010353 0.0021739048 -0.015959349 -0.012421039
0.009079561 0.049703665 -0.00748673 0.03864576 0.020918874 -0.032965545 0.004158524 -0.06787645
-0.10198706 -0.060403526 0.029010924 -0.050880503 -0.049688246 0.052521694 -0.074540496 -0.07049037
-0.07750652 0.06109439 -0.0030289178 0.012719516 0.013192919 0.054190584 0.10020849 -0.007479643
0.019683987 -0.1181473 0.10593724 0.07465976 0.02559284 -0.05539311 -0.08748486 -0.016057108
-0.00094179984 0.01971932 -0.023565765 0.020646144 0.006953267 0.014606388 -0.072259195 0.094640575
0.05909529 0.04335398 -0.0008033982 -0.046318687 -0.010744109 0.006755501 -0.02697551 0.040101554
0.114891455 -0.0072836243 -0.053384222 -0.01421182 -0.04708585 -0.062350314 -0.006030392 0.023506554
-0.09175987 0.059474565 0.016073912 -0.021246241 0.03693386 -0.011298803 0.042593665 -0.0054977485
-0.016042143 -0.04336687 0.0031158193 -0.052426685 -0.03324207 0.033097476 -0.02062506 0.04905789
0.09405597 0.05372552 -0.05841296 0.07577114 0.04312258 -0.05268091 0.07678868 0.033677053
0.06884776 -0.043067656 -0.0047176527 -0.043769713 -0.028037008 -0.04950364 -0.09140162 -0.033859327
-0.029628962 0.119156875 -0.06905473 -0.04358765 -0.0487361 0.01342159 0.07509418 0.039059766
-0.0052230535 -0.022910355 0.012159156 -0.030526558 0.0014153542 -0.009057916 0.06801508 -0.07522133
-0.047042336 -0.046813134 0.008406031 0.040714208 0.015698593 -0.0011145864 0.046836235 -0.026859878
-0.112728395 0.021770936 0.049571227 0.012901046 0.043269776 0.04345499 0.0064101066 -0.029379547
00000000: 4d9f b73d a0d0 70bd 1ec4 1d3b 7ce2 043d
00000010: 5c39 4dbd 1278 0e3b 2ebd 82bc 9d81 4bbc
00000020: 70c2 143c 1296 4b3d 3e53 f5bb 044b 1e3d
00000030: 0f5e ab3c e106 07bd 3a44 883b cf02 8bbd
00000040: 97de d0bd b069 77bd 51a8 ed3c 1368 50bd
00000050: e785 4bbd fd20 573d b0a8 98bd 415d 90bd
00000060: bdbb 9ebd 1c3e 7a3d cf80 46bb 8465 503c
00000070: 1d27 583c f2f6 5d3d 1c3a cd3d cb17 f5bb
00000080: 5040 a13c 36f7 f1bd a0f5 d83d 37e7 983d
00000090: 13a8 d13c e3e3 62bd 432b b3bd 328a 83bc
000000a0: 1ee3 76ba 698a a13c fe0c c1bc 1a22 a93c
000000b0: 3bd8 e33b a24f 6f3c a1fc 93bd ebd2 c13d
000000c0: e70d 723d f193 313d 249b 52ba aab8 3dbd
000000d0: 0f08 30bc 405d dd3b bffb dcbc 8741 243d
000000e0: 364c eb3d 78ab eebb 6aa9 5abd b2d8 68bc
000000f0: 18dd 40bd 0b63 7fbd 989a c5bb d190 c03c
00000100: 99ec bbbd 9a9b 733d 70ad 833c 990c aebc
00000110: f647 173d 9d1e 39bc b276 2e3d 7526 b4bb
00000120: d06a 83bc 76a1 31bd c632 4c3b 5dbd 56bd
00000130: d628 08bd 3891 073d e3f5 a8bc edf0 483d
00000140: 6ba0 c03d 4a0f 5c3d 6e42 6fbd e62d 9b3d
00000150: 4da1 303d f0c7 57bd 6243 9d3d f3f0 093d
00000160: 0e00 8d3d b667 30bd 8a96 9abb df47 33bd
00000170: dead e5bc 54c4 4abd c630 bbbd 14b0 0abd
00000180: 70b8 f2bc 8508 f43d 916c 8dbd f788 32bd
00000190: 819f 47bd 3be6 5b3c faca 993d 22fd 1f3d
000001a0: 2626 abbb 7fae bbbc 3237 473c d512 fabc
000001b0: 6883 b93a a767 14bc 7e4b 8b3d a40d 9abd
000001c0: 77af 40bd 21bf 3fbd 73b9 093c f1c3 263d
000001d0: 569a 803c 5017 92ba 5ad7 3f3d 3f09 dcbc
000001e0: 25de e6bd f658 b23c 330b 4b3d e95e 533c
000001f0: a63b 313d dcfd 313d df0b d23b 60ad f0bc

discrete_action_output_shape f4 [1, 2]
7.0 2.0
00000000: 0000 e040 0000 0040

network_body._body_endoder.seq_layers.0.bias f4 [64]
-0.025520233 -0.03227759 0.06379851 -0.017886814 -0.029276798 0.09506774 0.012044252 -0.048609775
0.070825525 -0.004461206 -0.06816473 -0.019759947 0.00065409986 0.03591757 -0.045599055 0.010073683
0.0086193895 0.024443258 -0.04378863 -0.062900014 0.027177075 0.030574817 0.02153025 -0.032515686
-0.032624494 -0.042985838 -0.039731227 -0.069865584 -0.038931355 -0.012752578 0.009165979 -0.028252592
0.039927095 -0.019678492 0.022391029 0.03613374 -0.041249994 -0.03296941 0.013602694 -0.0045164544
-0.022300119 0.025749955 -0.00656559 -0.052971292 -0.05229204 -0.0019710357 -0.005193125 -0.029572165
-0.04642567 -0.0067657535 -0.01877323 0.050185412 -0.040926017 0.012431884 0.01919585 0.014484125
0.02179023 0.0147297755 -0.008603484 -0.029044695 0.01649885 -0.04210375 -0.038401786 -0.003184743
00000000: cf0f d1bc 8235 04bd cba8 823d 5e87 92bc
00000010: e5d5 efbc e0b2 c23d 4155 453c 0b1b 47bd
00000020: f90c 913d 4f2f 92bb f399 8bbd 9ddf a1bc
00000030: e677 2b3a 4d1e 133d 13c6 3abd 170c 253c
00000040: 5738 0d3c 3a3d c83c b55b 33bd b9d1 80bd
00000050: 75a2 de3c 0a78 fa3c 3560 b03c 2b2f 05bd
00000060: 43a1 05bd eb11 30bd 36bd 22bd b015 8fbd
00000070: 7c76 1fbd 30f0 50bc e72c 163c fb71 e7bc
00000080: 988a 233d ca34 a1bc 646d b73c f900 143d
00000090: c1f5 28bd ef0a 07bd d5dd 5e3c c4fe 93bb
000000a0: bdae b6bc 92f1 d23c 2924 d7bb 6df8 58bd
000000b0: 2e30 56bd 7e2c 01bb 172b aabb 5341 f2bc
000000c0: d828 3ebd 41b3 ddbb 51ca 99bc 388f 4d3d
000000d0: 0aa2 27bd 1aaf 4b3c 9d40 9d3c d34e 6d3c
000000e0: 6d81 b23c 2855 713c a1f5 0cbc 24ef edbc
000000f0: 9928 873c fb74 2cbd 314b 1dbd 1fb7 50bb

network_body._body_endoder.seq_layers.0.weight f4 [64, 54]
0.015809214 -0.037049234 0.050504323 0.022445722 0.05859983 -0.1264748 0.08564552 -0.1658164
-0.088853136 -0.19260474 0.114998125 0.026291873 0.09360942 0.10787573 -0.15022288 -0.062373273
0.023808416 0.0062440163 0.11690786 -0.2516101 0.10872774 -0.0237609 -0.120045446 -0.0417357
-0.10471868 0.048811033 0.10417592 0.06354825 -0.1907172 0.062133525 0.076358974 -0.06568614
-0.045617383 0.062014163 -0.32569572 -0.03161406 -0.21108717 -0.006663305 -0.049240883 -0.085802056
0.1339574 -0.20745695 0.21917792 -0.15870629 0.20787312 -0.04931154 0.005068041 0.30168763
-0.19915839 0.040888138 -0.15965317 0.053133585 -0.12019608 -0.071031265 -0.13172907 -0.02237322
0.17518838 0.024330145 0.07977543 -0.0124909775 0.12124418 -0.05995676 -0.010849622 0.0714234
0.09698025 -0.17206782 -0.06060978 0.026213095 0.3258962 -0.09586569 -0.18106195 0.271939
0.057691045 -0.066049054 0.02049211 -0.103608996 0.014704079 -0.016689084 -0.1613847 0.13823964
-0.024302762 -0.07981589 -0.21942773 0.028591204 -0.2235393 0.052161053 -0.34097448 -0.11693973
-0.00054021244 -0.115830086 -0.07377719 -0.21291776 0.15103774 -0.19099656 -0.00979702 -0.086787336
-0.029067416 0.14977936 -0.0880528 -0.0138376495 0.15554416 -0.08786198 -0.009537854 0.21965094
-0.110806 -0.03604162 -0.17385337 -0.39274913 0.07049063 -0.02276744 -0.03375303 0.05304972
-0.10735398 0.20731148 -0.084326476 0.06989826 0.19339441 0.073900014 0.118984185 0.13826768
-0.07282139 0.005760498 -0.20619269 -0.051143702 0.27197328 0.15064882 0.036109775 -0.060687285
0.046755552 -0.26832473 -0.0069546467 0.06827398 -0.0023702937 -0.13861834 0.039348558 0.04107967
-0.0023486703 -0.04630315 -0.20568432 -0.22675635 -0.18580563 -0.216429 0.077439204 0.16378093
-0.11367894 0.2323299 0.23304133 0.05312896 0.029980686 0.34514308 -0.0119693875 -0.12241501
-0.24187185 -0.04840852 0.19860123 0.18483229 0.008070337 0.14456846 0.32295555 0.016869336
0.37453422 0.10359354 0.23109603 -0.337537 0.14821161 -0.2057098 -0.086659536 -0.04590331
-0.2014752 0.06293818 0.10714808 -0.25073284 0.25225362 -0.095923215 0.21022409 0.072597556
-0.017149284 -0.1296638 0.0063459245 -0.18654759 -0.14728077 0.1498129 0.20675722 -0.100952625
0.02330263 0.21666916 -0.06448482 -0.15479478 0.043778863 -0.19075617 0.04025091 -0.16915002
0.0207635 0.04883042 -0.17106622 0.4370373 -0.05092757 0.24126545 0.08790362 0.09624593
0.031057637 0.12703368 0.10982029 0.17222938 0.02804313 -0.15021735 -0.26362342 -0.12485622
0.3703905 0.05484875 -0.27876517 0.09741016 -0.013276251 -0.20885769 0.02195883 0.05019989
-0.1675406 -0.020651724 0.14411746 -0.030997274 -0.19926481 0.08174951 -0.05615659 0.16880871
0.040503673 0.20374 -0.09729517 -0.28845832 0.14943187 0.067926295 -0.109212264 -0.13909768
0.10315282 0.019606406 -0.15793595 -0.030163087 -0.15292847 -0.36134145 0.18381335 -0.090101995
0.31892687 -0.10369166 -0.19189094 -0.1259128 0.054080393 -0.19597445 0.1154708 0.014674273
-0.16824754 0.14605965 -0.04081991 0.020907259 0.13802345 -0.021343352 -0.19605866 -0.23209292
00000000: 5382 813c f0c0 17bd 9fdd 4e3d 17e0 b73c
00000010: 6006 703d 9c82 01be eb66 af3d c6cb 29be
00000020: a2f8 b5bd 2d3a 45be 2384 eb3d 0e62 d73c
00000030: 4cb6 bf3d f3ed dc3d 07d4 19be 1e7b 7fbd
00000040: de09 c33c 9b9a cc3b 636d ef3d 0ad3 80be
00000050: a6ac de3d 38a6 c2bc 63da f5bd 0ef3 2abd
00000060: bf76 d6bd 14ee 473d 2f5a d53d 9625 823d
00000070: 5f4b 43be b97f 7e3d 1862 9c3d 7486 86bd
00000080: 4bd9 3abd 9002 7e3d 97c1 a6be bf7d 01bd
00000090: 3c27 58be db57 dabb cfb0 49bd fdb8 afbd
000000a0: 212c 093e 986f 54be 2d70 603e e783 22be
000000b0: b1dc 543e e6fa 49bd cf11 a63b cd76 9a3e
000000c0: 2df0 4bbe 527a 273d 1f7c 23be 9aa2 593d
000000d0: 5d29 f6bd d778 91bd fce3 06be 0b48 b7bc
000000e0: 9564 333e 0350 c73c 4d61 a33d f5a6 4cbc
000000f0: de4e f83d 3895 75bd 9dc2 31bc 6e46 923d
00000100: 959d c63d 8c32 30be f641 78bd d8bc d63c
00000110: dedb a63e 3b55 c4bd 4e68 39be 973b 8b3e
00000120: 724d 6c3d ba44 87bd 12df a73c f430 d4bd
00000130: 61e9 703c 8cb7 88bc 0842 25be b18e 0d3e
00000140: 9616 c7bc 8376 a3bd aab1 60be 1a38 ea3c
00000150: 7ce7 64be d4a6 553d 3594 aebe 197e efbd
00000160: 0b9d 0dba 5338 edbd 7f18 97bd 1d07 5abe
00000170: a3a9 1a3e 9a94 43be ae83 20bc 8fbd b1bd
00000180: ca1e eebc c35f 193e 0755 b4bd 4fb7 62bc
00000190: f846 1f3e fbf0 b3bd a944 1cbc 2dec 603e
000001a0: 42ee e2bd 61a0 13bd 9e06 32be 6a16 c9be
000001b0: 645d 903d c882 babc 9e40 0abd aa4a 593d
000001c0: 67dc dbbd 7649 543e 5cb3 acbd d226 8f3d
000001d0: 2f09 463e e458 973d fbad f33d 0b96 0d3e
000001e0: 6223 95bd 8fc2 bc3b 2d24 53be 0f7c 51bd
000001f0: 1540 8b3e af43 1a3e d8e7 133d 3b93 78bd
00000200: c082 3f3d dc61 89be cee3 e3bb 3ad3 8b3d
00000210: ee56 1bbb f7f1 0dbe f42b 213d 2843 283d
00000220: 26ec 19bb 5fa8 3dbd e99e 52be d132 68be
00000230: d543 3ebe 909f 5dbe 7298 9e3d 30b6 273e
00000240: 81d0 e8bd e4e7 6d3e 63a2 6e3e c19d 593d
00000250: 0e9a f53c 98b6 b03e 401b 44bc b9b4 fabd
00000260: 41ad 77be 0348 46bd 1f5e 4b3e ad44 3d3e
00000270: 7239 043c c109 143e 6e5a a53e 9031 8a3c
00000280: f3c2 bf3e da28 d43d 70a4 6c3e a6d1 acbe
00000290: c9c4 173e 97a5 52be 8e7a b1bd 1c05 3cbd
000002a0: 844f 4ebe bce5 803d 7470 db3d 0e60 80be
000002b0: 6327 813e 6473 c4bd fc44 573e 07ae 943d
000002c0: a87c 8cbc 96c6 04be 79f1 cf3b 5506 3fbe
000002d0: c5d0 16be 8e68 193e 2ab8 533e 40c0 cebd
000002e0: 28e5 be3c 85de 5d3e 9e10 84bd 8682 1ebe
000002f0: 7751 333d 9655 43be 23de 243d aa35 2dbe
00000300: 3718 aa3c 6802 483d fc2b 2fbe 5ac3 df3e
00000310: 6d99 50bd 4a0e 773e d006 b43d 961c c53d
00000320: 966c fe3c 1e15 023e 76e9 e03d e65c 303e
00000330: b5ba e53c 94d2 19be a6f9 86be 9eb4 ffbd
00000340: d3a3 bd3e 15a9 603d 4fba 8ebe fa7e c73d
00000350: a284 59bc cade 55be 01e3 b33c 669e 4d3d
00000360: c38f 2bbe ce2d a9bc 8793 133e ffed fdbc
00000370: 130c 4cbe 496c a73d 7404 66bd 31dc 2c3e
00000380: 2ee7 253d 38a1 503e b142 c7bd cfb0 93be
00000390: ab04 193e f11c 8b3d aeaa dfbd 9f6f 0ebe
000003a0: c941 d33d 9d9d a03c f6b9 21be 9418 f7bc
000003b0: 4899 1cbe bf01 b9be 9139 3c3e 6587 b8bd
000003c0: 624a a33e 4b5c d4bd 0f7f 44be 49ef 00be
000003d0: 6783 5d3d 87ad 48be f47b ec3d 5d6c 703c
000003e0: 1549 2cbe a990 153e c732 27bd b345 ab3c
000003f0: 0556 0d3e 41d8 aebc 9ac3 48be c4a9 6dbe

network_body._body_endoder.seq_layers.2.bias f4 [64]
0.060927723 0.006038464 0.019678377 -0.08900433 -0.008167834 -0.03559898 -0.007082228 -0.049521886
0.04214846 -0.019843288 -0.024399305 0.039914146 -0.022621075 -0.044953223 -0.048557546 0.02097991
0.037529554 -0.043133516 -0.0062864865 0.004669375 -0.04058359 0.008207129 0.005384436 -0.042916026
-0.03405597 0.021509264 -0.02107918 0.018569637 0.0061652437 -0.0130552985 -0.03228165 0.0125900945
0.057303052 -0.048917856 0.041153744 0.05233568 0.08394511 -0.024704866 -0.055723123 -0.004627595
-0.03425082 0.001237364 0.05143942 -0.02752343 0.0011182744 0.0059113116 0.015924618 -0.050391413
-0.012641377 0.019089408 0.024567986 -0.017332755 0.021666005 -0.0066859443 -0.060871333 -0.015963359
0.02653221 -0.036321737 -0.057663307 -0.09372627 -0.043389555 -0.011616096 -0.05253737 -0.016023261
00000000: 598f 793d 4fde c53b 8c34 a13c e747 b6bd
00000010: 61d2 05bc 3cd0 11bd 0912 e8bb 76d7 4abd
00000020: dda3 2c3d 648e a2bc 0de1 c7bc 047d 233d
00000030: d54f b9bc df20 38bd 47e4 46bd 0fde ab3c
00000040: 97b8 193d c5ac 30bd dffe cdbb 8e01 993b
00000050: fa3a 26bd 3277 063c ec6f b03b b7c8 2fbd
00000060: 467e 0bbd 3234 b03c 3fae acbc 5a1f 983c
00000070: d005 ca3b e4e5 55bc c339 04bd af46 4e3c
00000080: 9bb6 6a3d 175e 48bd d490 283d f05d 563d
00000090: 6aeb ab3d dc61 cabc ee3d 64bd 15a3 97bb
000000a0: 964a 0cbd 0c2f a23a 24b2 523d d178 e1bc
000000b0: 1093 923a adb3 c13b 5874 823c 3a67 4ebd
000000c0: c71d 4fbc 6461 9c3c cd42 c93c 6cfd 8dbc
000000d0: e87c b13c c415 dbbb 3854 79bd 97c5 82bc
000000e0: 145a d93c 1ac6 14bd 5c30 6cbd 8ff3 bfbd
000000f0: 3fb9 31bd 7051 3ebc 6d31 57bd 3743 83bc

network_body._body_endoder.seq_layers.2.weight f4 [64, 64]
0.011867564 -0.022802526 -0.023167484 -0.1344551 -0.12210606 0.046340004 0.17838876 -0.09556314
0.12466058 0.038494494 -0.18802097 -0.27986103 0.025412798 0.24956773 0.16859467 0.037716225
-0.022108585 0.18102922 0.14301981 -0.12991701 0.12230503 0.29060072 0.06776953 -0.028126683
0.09161982 -0.24872366 -0.06365498 -0.20953915 -0.14699721 0.04201196 0.1910431 0.024207205
-0.037237022 -0.07037107 0.0018562858 -0.15082929 0.12033645 -0.12597002 0.15924363 0.12783024
-0.07112541 0.016482841 0.067363955 -0.06612367 -0.15321165 -0.13100654 0.06729816 0.14379711
-0.1468134 0.065899536 -0.117879406 0.110826895 0.07852531 0.039555505 0.1715041 0.023166722
0.04706099 -0.030397365 0.015607394 0.14215703 -0.09065225 0.05897112 -0.01741642 0.038629666
0.15844722 0.046691373 -0.11310307 0.04409507 0.13269863 0.14237858 -0.14883922 -0.07255581
-0.09794583 -0.20513695 0.16979581 0.035588432 0.04320883 0.030545475 -0.18733162 -0.14460532
-0.02281794 0.08057189 0.08420116 0.02331168 0.09849893 -0.11437968 -0.24996388 0.12784089
-0.015032391 0.10373814 0.16036421 0.09321413 -0.097731106 -0.16830076 -0.11763533 -0.24403018
-0.15237069 -0.22127609 -0.19008179 0.16423139 0.19072363 0.21373077 0.21662915 0.11531834
0.23956093 0.052469376 0.17269005 -0.030538484 0.074246354 -0.066114746 -0.15181728 0.10514964
-0.08503818 0.066061325 0.16053978 -0.1078271 0.25527978 0.0037397102 -0.02852748 -0.14389108
0.0939449 -0.0032818564 -0.0005000973 0.09975753 0.19040635 -0.05219424 0.1541434 0.16689867
-0.031577975 -0.03221564 -0.01414361 0.2021889 -0.20912133 -0.08436216 -0.0560369 0.12453587
0.17941335 -0.09023884 0.036156625 0.041615695 -0.37014514 0.2213467 -0.02414201 -0.112378694
-0.08705134 -0.15843564 0.1808547 -0.045306813 -0.05625287 0.06697589 -0.010796383 -0.061404455
0.011474374 -0.16536938 -0.13643338 -0.15703484 0.021559812 0.14531189 0.16215761 0.19640987
-0.2594285 -0.16849807 -0.048303947 0.09284636 0.05104132 -0.0053640604 -0.22198962 -0.29107237
0.075049445 -0.009304181 0.11070733 -0.24751048 -0.12171624 -0.14376743 -0.13963227 0.018303305
0.072745055 0.18965209 -0.106527284 -0.0354667 0.15751922 -0.2727384 -0.10485265 0.18033996
-0.18094946 -0.008273189 0.11645301 -0.012381651 -0.032983862 -0.0057462533 0.091668986 -0.18023796
-0.05167243 0.02039716 0.069244675 -0.072162904 -0.04976889 -0.043873675 -0.12930445 -0.08413949
0.09275997 0.08270461 0.15412684 -0.014517184 -0.2269551 -0.12397659 0.013813986 0.19404799
0.018739808 -0.025663925 -0.08911342 -0.14394715 0.0698705 -0.120520905 0.2926687 -0.10729651
-0.08262328 0.09876555 -0.10103979 0.18388136 -0.13818076 0.09901437 0.26009724 -0.13276374
-0.15441094 0.0770363 0.08991386 -0.046731304 -0.1775332 -0.047391217 -0.19385827 -0.20450497
-0.16783619 -0.041938964 0.00055030297 0.07708619 -0.0020197504 -0.00022493258 0.10961957 -0.008249307
0.034944687 -0.05912608 0.0043847407 -0.09818188 0.062845625 0.02508731 0.07806019 -0.103699975
-0.062920004 -0.017485188 -0.20206 -0.10880309 0.30054784 -0.18405323 -0.16378424 0.14313154
00000000: 2c70 423c 5dcc babc bcc9 bdbc 99ae 09be
00000010: be12 fabd 04cf 3d3d 8bab 363e 9cb6 c3bd
00000020: 0c4e ff3d 67ac 1d3d 9288 40be f249 8fbe
00000030: 802e d03c af8e 7f3e 15a4 2c3e 547c 1a3d
00000040: 101d b5bc b95f 393e c973 123e f708 05be
00000050: 0f7b fa3d 9ec9 943e c0ca 8a3d ee69 e6bc
00000060: 2ca3 bb3d 6ab1 7ebe 8b5d 82bd 6e91 56be
00000070: 7086 16be bc14 2c3d cda0 433e 304e c63c
00000080: d985 18bd b51e 90bd 9e4e f33a fe72 1abe
00000090: f572 f63d 49fe 00be c310 233e eee5 023e
000000a0: 33aa 91bd 0607 873c 1df6 893d d96b 87bd
000000b0: 84e3 1cbe 9426 06be 9ed3 893d 8d3f 133e
000000c0: 4056 16be 56f6 863d c26a f1bd 36f9 e23d
000000d0: e1d1 a03d f404 223d c59e 2f3e 23c8 bd3c
000000e0: 06c3 403d e503 f9bc 28b6 7f3c 9d91 113e
000000f0: e3a7 b9bd b38b 713d e1ac 8ebc 243a 1e3d
00000100: fd3f 223e 743f 3f3d 95a2 e7bd 089d 343d
00000110: 26e2 073e b1cb 113e 4f69 18be 2498 94bd
00000120: d397 c8bd 6c0f 52be f4de 2d3e 2dc5 113d
00000130: befb 303d 813a fa3c dcd3 3fbe 6b13 14be
00000140: b0ec babc e002 a53d a871 ac3d 23f8 be3c
00000150: cfb9 c93d e53f eabd 88f6 7fbe b9e8 023e
00000160: 6b4a 76bc a974 d43d 8436 243e 0de7 be3d
00000170: 3f27 c8bd 0957 2cbe cbea f0bd 0ce3 79be
00000180: 1007 1cbe 3396 62be cda4 42be 462c 283e
00000190: 0e4d 433e 3ddc 5a3e 08d4 5d3e 062c ec3d
000001a0: 764f 753e 21ea 563d a9d5 303e d82b fabc
000001b0: 790e 983d 2b67 87bd fd75 1bbe b258 d73d
000001c0: 7f28 aebd 294b 873d 8a64 243e 74d4 dcbd
000001d0: 08b4 823e ed15 753b 76b2 e9bc 2f58 13be
000001e0: 2f66 c03d 6a14 57bb f618 03ba ad4d cc3d
000001f0: e2f9 423e a1c9 55bd c4d7 1d3e 7ce7 2a3e
00000200: e857 01bd 8cf4 03bd 9aba 67bc 9b0a 4f3e
00000210: e723 56be 11c6 acbd f386 65bd aa0c ff3d
00000220: 22b8 373e 24cf b8bd f818 143d 3875 2a3d
00000230: aa83 bdbe b6a8 623e 77c5 c5bc cd26 e6bd
00000240: f947 b2bd f43c 22be f931 393e a393 39bd
00000250: 6969 66bd a82a 893d 50e3 30bc 3d83 7bbd
00000260: 03ff 3b3c 9756 29be 31b5 0bbe becd 20be
00000270: 349e b03c a4cc 143e a50c 263e ab1f 493e
00000280: d0d3 84be c28a 2cbe 5cda 45bd 3b26 be3d
00000290: b410 513d 00c5 afbb 3f51 63be 7007 95be
000002a0: 86b3 993d 9070 18bc 86ba e23d 6373 7dbe
000002b0: 5d46 f9bd c537 13be c3fb 0ebe d0f0 953c
000002c0: 5cfb 943d 2834 423e fa2a dabd 8845 11bd
000002d0: b84c 213e 5ea4 8bbe fcbc d6bd 0aab 383e
000002e0: d14a 39be 458c 07bc ea7e ee3d 69dc 4abc
000002f0: 161a 07bd 114b bcbb f3bc bb3d 4d90 38be
00000300: 78a6 53bd f217 a73c 27d0 8d3d 25ca 93bd
00000310: 77da 4bbd e2b4 33bd 6368 04be 5351 acbd
00000320: f0f8 bd3d 0961 a93d 6dd3 1d3e 7cd9 6dbc
00000330: eb66 68be 70e7 fdbd 0f54 623c 84b4 463e
00000340: 3a84 993c 273d d2bc 1981 b6bd e266 13be
00000350: 4418 8f3d aad3 f6bd acd8 953e 46be dbbd
00000360: 6536 a9bd 9845 ca3d f3ed cebd 654b 3c3e
00000370: 427f 0dbe 0cc8 ca3d 772b 853e 38f3 07be
00000380: e71d 1ebe 35c5 9d3d c224 b83d 5369 3fbd
00000390: 43cb 35be 4b1d 42bd c882 46be c069 51be
000003a0: 40dd 2bbe 31c8 2bbd 3542 103a 5ddf 9d3d
000003b0: ca5d 04bb e1db 6bb9 3a80 e03d 1a28 07bc
000003c0: 2922 0f3d 302e 72bd dfad 8f3b 9513 c9bd
000003d0: 35b5 803d e783 cd3c 05de 9f3d a760 d4bd
000003e0: 34dc 80bd 193d 8fbc d1e8 4ebe 28d4 debd
000003f0: 68e1 993e 7378 3cbe 0eb7 27be 1391 123e
