Assets/ML-Brains/HouseBehaviourScene7T03.onnx (onnx, 82684 bytes, 9 tensors)

action_model._discrete_distribution.branches.0.bias f4 [7]
000000 ec ec 39 3c 63 ab 84 bc 21 c8 e6 3b 73 c4 35 39
       0.0113479905 -0.016195005 0.0070429 0.00017334688
000010 06 b0 dd 3c 98 44 ce bc c2 1c 55 3b
       0.027061474 -0.025179192 0.0032518362

action_model._discrete_distribution.branches.0.weight f4 [7, 128]
000000 e6 a6 20 bc e2 c1 c1 bc af de d9 bb 17 2b 05 3b
       -0.009805417 -0.02365202 -0.0066488604 0.0020319873
000010 a6 8e f4 3c ed ec 1c 3c 9a ee 11 bd d2 b3 83 3b
       0.029853176 0.009577972 -0.03562794 0.004019239
000020 4f fc a5 3c 2e 61 b5 bb a1 3d 03 bc c4 c7 d3 3b
       0.020261912 -0.0055352664 -0.008010299 0.006463023
000030 dd 87 0c bb da 8c 13 3c d2 57 96 bb d8 68 3d 3d
       -0.0021443286 0.00900575 -0.0045881057 0.046242565
000040 ed a8 0c 3c f2 3c 81 ba ac b6 2c 3b 0f 8c d7 3b
       0.008585197 -0.0009860082 0.0026353998 0.0065779756
000050 29 75 b6 3c 9f 3d 03 3d d8 72 33 3c 2b 59 dc 3a
       0.022272663 0.03204119 0.010952674 0.0016811242
000060 bb 8f 26 3c 07 0d c4 bc c1 ae 54 bc da a2 7b bc
       0.010166104 -0.023931993 -0.012981118 -0.015358651
000070 b2 bc 88 3c a8 c0 27 ba 19 ca 1e bc 60 49 4c 3c
       0.01669154 -0.00063992525 -0.0096917385 0.012468666
000080 7a 98 92 3c c9 f5 4e bc f6 c7 4b 3b f3 c9 9c 3c
       0.017894972 -0.012631842 0.0031094528 0.019139266
000090 dc e4 01 bb 55 33 06 bd b9 2e 3a 3b 6b 2d b9 ba
       -0.0019820249 -0.032763798 0.0028409197 -0.0014127915
0000a0 4d ff 76 3c 61 ac c6 bc 90 92 79 3b 37 76 ea bb
       0.015075517 -0.024252119 0.0038081743 -0.0071552056
0000b0 61 1b 4b 3c 91 9c df bb f9 01 92 bc fb b4 91 bc
       0.012396664 -0.006824084 -0.017823206 -0.017786494
0000c0 bc 0e 9b 3b 09 4f 85 3c 60 65 0c bd 54 fc 26 bc
       0.004731981 0.016273038 -0.034276366 -0.010191996
0000d0 50 17 3e 3c 25 90 ff 39 bd 24 b6 bc ff 94 03 bc
       0.011602238 0.00048744786 -0.022234315 -0.008031129
0000e0 3d e3 5c 3c 84 8c 21 bc 72 7c 98 3b 8f af 9b 3c
       0.013481912 -0.009860162 0.004653507 0.019004611
0000f0 ed f2 12 bc 5b c0 4d bc f7 60 3e 3b 09 c4 9f 3c
       -0.008969051 -0.012558068 0.0029049495 0.019502657
000100 7f ea 29 3b 3c 79 29 3c 6f 56 e3 3a 39 e8 f6 3b
       0.0025927124 0.010343846 0.0017344485 0.0075350073
000110 cf 77 ab bc e2 b2 60 bd 91 11 af bc 05 c9 c9 3a
       -0.020931153 -0.054858096 -0.021370681 0.0015394991
000120 3d 18 ee 3b 36 7b 10 3d ff 4c 6b bc 92 f9 87 3c
       0.007266073 0.035273753 -0.014361619 0.016598497
000130 ae 31 cc bc 43 c9 85 bc 0c a6 9b ba 01 87 3a bd
       -0.024926033 -0.01633132 -0.0011875047 -0.045538906
000140 69 a8 e7 3c 47 68 9d bc 81 18 14 3d ae 17 8a 3c
       0.028278546 -0.019214762 0.03615618 0.016856994
000150 78 ab 98 3c 8c 5b 32 bc 6d a5 e7 3b ad b6 61 bc
       0.01863645 -0.010886084 0.007069281 -0.013776463
000160 f2 45 8c bb 43 ac 16 3c 32 ae 17 bc b1 78 00 3c
       -0.004280799 0.009196344 -0.00925784 0.007841275
000170 f1 43 91 3b 3a 38 03 3b ac 4a 99 3c 35 7b c0 3c
       0.004433148 0.0020022527 0.018712364 0.02349625
000180 2e 9b 09 3c d6 57 a2 3d 55 ef e8 3c 92 a3 46 3d
       0.008398814 0.079269096 0.028434435 0.048495837
000190 9f 71 1a bc 95 64 54 3c 6f 3e 4c bc b3 64 8d bc
       -0.009426503 0.012963434 -0.012466057 -0.017259931
0001a0 28 60 b0 bc ac 44 fa bc 3a 12 3f 3a 7e 4c 01 3c
       -0.021530226 -0.030550323 0.0007288788 0.007891772
0001b0 e4 bb 2b bb 2a cb a4 3b b4 64 6b 3a c3 00 8b 3b
       -0.002620452 0.005029102 0.00089795445 0.004242034
0001c0 63 38 a3 3b 8b 0d 45 ba ba fc 1e bb 6b 7c d7 3c
       0.004981087 -0.00075169717 -0.0024259523 0.026304444
0001d0 41 fa aa 3a b8 ce 14 bc 94 f6 01 3b c2 04 a3 3c
       0.0013044552 -0.009082489 0.001983081 0.01989973
0001e0 f2 42 fe 3c 50 46 03 bc ce 70 5c bc 07 7d 88 3c
       0.031037781 -0.008012369 -0.013454629 0.01666118
0001f0 fb 0f 68 bb 9a 6d 07 bc fe f6 9d bb b6 3c 80 3b
       -0.0035409916 -0.008265877 -0.0048207035 0.0039134873
000200 40 5e 81 bc d1 b2 f1 3b dd 49 08 bb 74 bf 53 3c
       -0.015792012 0.007376053 -0.002079598 0.012924064
000210 b2 ec 99 3c 67 a5 ca 3a 76 67 ab 3c 90 59 06 3c
       0.018789623 0.0015460671 0.020923357 0.008200064
000220 86 bb 83 bc b5 8b a2 bb 1a 3c b0 bb 58 a1 b5 bb
       -0.01608063 -0.004960502 -0.0053782584 -0.0055429153
000230 fb b8 77 bc b2 b3 39 3c 8f 79 24 3d dc fb cb 3c
       -0.015119786 0.011334347 0.04015499 0.02490037
000240 1b 40 30 3b f0 b9 2f 3c 23 db ae 3c 92 a1 d7 bb
       0.0026893679 0.010725483 0.021344727 -0.00658054
000250 06 08 e2 3b 35 4b 4f bc 56 f5 a9 ba 67 1c 5f bc
       0.006897929 -0.012652208 -0.0012966793 -0.0136176115
000260 9e a5 71 bc c3 70 12 bc a7 bb bc bc a8 f1 44 bc
       -0.014748959 -0.008938017 -0.023038698 -0.012020506
000270 2c 79 68 b9 27 d2 a8 3c ab 06 35 3c ad 24 3d 3c
       -0.00022170384 0.020608021 0.011048953 0.011544389
000280 e4 13 30 ba 0e 2d a1 3b 23 0f 8a 3c 89 e9 96 3b
       -0.0006716831 0.004918701 0.01685292 0.0046054763
000290 04 a6 09 3b 3f 2d dc 3c 31 87 5b 3a 26 e2 e1 3a
       0.0021003494 0.026877044 0.0008374332 0.0017233535
0002a0 ea 51 8a bc 4f b3 5d 3d 14 5b bd 3b 63 ee 9b 3b
       -0.016884763 0.05412608 0.0057786796 0.0047586425
0002b0 0d 72 f1 bc 5b f8 90 3b 9c e2 49 3d 73 80 0e bb
       -0.029473329 0.0044241375 0.049288377 -0.0021744042
0002c0 d7 73 83 bc 6c a9 5a 3c 20 7b 81 3c f8 f3 09 3a
       -0.016046448 0.013346057 0.01580578 0.00052624894
0002d0 c4 d8 eb bb 26 80 a9 3b 19 2b 41 3b 15 58 7a bc
       -0.0071974713 0.005172747 0.002947515 -0.015279789
0002e0 c0 a0 15 bc 73 43 05 3c 98 e7 5a bc 10 10 f8 bb
       -0.009132564 0.008133757 -0.01336088 -0.007570274
0002f0 df 63 9d bb 45 e9 5e 3c 19 90 b4 3c 0e dc fc bb
       -0.0048031653 0.0136054205 0.022041367 -0.0077166623
000300 f2 e1 5a 3b fd 64 20 3d 59 03 f2 bc 6e 02 2c 3c
       0.0033398834 0.03915881 -0.029542612 0.010498626
000310 62 20 0a 3d 47 55 8a 3b 99 40 93 bc 68 36 07 b9
       0.03372229 0.0042215916 -0.017975139 -0.00012894871
000320 64 03 94 3c ae 9a 40 bb ed 03 24 3d 20 7a 04 3c
       0.018068023 -0.0029389071 0.040042806 0.0080857575
000330 c4 93 c9 3b d6 1b 0a bd 21 95 7f bc 95 40 8b bb
       0.0061516482 -0.033717953 -0.01559952 -0.004249642
000340 4f db c7 bc 28 62 d2 3c d9 dd e2 3b 75 12 a5 bc
       -0.024396567 0.02568157 0.006923419 -0.020150403
000350 6c 5a 51 3c 3c 47 07 bc 95 b8 32 3c 99 52 8e ba
       0.012777906 -0.00825673 0.010908266 -0.0010858356
000360 d4 5c 9a 3c 9f 29 af bb 57 06 75 3c 8b 1b 76 bb
       0.018843092 -0.005345538 0.014955125 -0.0037553038
000370 f8 f6 62 3b a7 a4 38 3d 73 a4 0c bc 53 e7 6c bc
       0.0034632068 0.0450789 -0.00858413 -0.014459449
000380 42 83 4d 3c 56 93 d2 bb 65 9b d0 3b 27 bb e6 bc
       0.012543501 -0.006426255 0.0063661807 -0.028165413
000390 45 bc 36 b9 f4 99 7e 3c ff 37 a3 3c a2 b1 17 3d
       -0.00017427008 0.015539635 0.019924162 0.03703464
0003a0 42 bd 85 3c 79 e1 ce bc a2 97 13 bb c4 fe 63 bc
       0.016325597 -0.025253998 -0.00225208 -0.013915721
0003b0 90 b6 36 3c ae 78 c4 3b 24 36 86 3c ac 3f ce bb
       0.011151925 0.0059958315 0.016383238 -0.0062942114
0003c0 f4 05 03 3c 6e db a4 bc 84 81 7c bc 2a 4d 2c bc
       0.007997025 -0.020124163 -0.015411738 -0.010516444
0003d0 74 2b 2b bc eb 3e 00 3c 04 84 f8 bc 7e 92 cb 3b
       -0.010447372 0.007827501 -0.030336387 0.0062125316
0003e0 f5 d8 40 3c 55 f2 0e bd a8 6d 80 3a f7 4a a5 3a
       0.011770477 -0.034899075 0.0009798305 0.0012610842
0003f0 a3 ef 10 3d 6f b6 f4 3c 1e cb 01 bc 8d ed 48 bc
       0.035384785 0.029872147 -0.007921962 -0.012263668

action_model._discrete_distribution.branches.1.bias f4 [2]
000000 3b 12 f5 3b 43 12 f5 bb
       0.00747898 -0.0074789836

action_model._discrete_distribution.branches.1.weight f4 [2, 128]
000000 8b a4 21 bb b3 99 94 3c 61 17 82 3b a6 5c ee bb
       -0.0024664726 0.018139696 0.003970072 -0.007274228
000010 f2 c5 6a bc 33 7d fa bb fe 9d 61 3c d3 35 c9 3b
       -0.01432942 -0.0076443194 0.013770578 0.0061404496
000020 3e 4f 70 3c 3f 5d 00 3c 0a 1c 72 bc b0 66 35 3b
       0.01466733 0.007834732 -0.014777193 0.0027679615
000030 a6 f1 84 bb 70 11 ab bb fe de 89 bd cc 82 c7 3a
       -0.004057127 -0.0052205846 -0.067319855 0.0015221476
000040 28 25 b0 bc 8c ee 82 3c da 21 17 bd 50 4f 6a ba
       -0.021502092 0.015982889 -0.036897518 -0.000893821
000050 a8 a8 1a 3b e2 eb 78 ba 22 af 48 3c af 88 b9 3c
       0.0023599062 -0.00094955985 0.012248786 0.022648184
000060 e4 5c 80 3c ee ce 58 3d ba a3 5f 3c 39 b4 12 bb
       0.015669294 0.05293172 0.013649875 -0.0022385253
000070 7d 32 de 3b ee 8c 31 bb 6f a5 b5 bc 28 a9 68 3c
       0.006780921 -0.0027092057 -0.022173611 0.014200486
000080 bd 29 1c 3b e9 2a fe bb d2 0b b0 bc 09 d0 db bb
       0.002382859 -0.00775658 -0.021490011 -0.0067081493
000090 a4 36 95 3b aa b2 90 3c 97 ec 51 bc a8 39 e8 3b
       0.004553633 0.017663319 -0.012812755 0.0070869513
0000a0 5f 94 c2 3b b6 5c 30 bd d2 6f 41 bc 7d aa e6 3b
       0.0059380974 -0.043057166 -0.011806445 0.0070393668
0000b0 eb fb 8d bc 86 95 4b bc e9 28 87 bd 63 30 0e 3d
       -0.017332038 -0.012425786 -0.065996 0.034714114
0000c0 76 fc c3 3b a0 76 fa bc a4 fd 8a 3c f4 86 4c 3b
       0.0059810234 -0.030574143 0.016966648 0.0031208368
0000d0 3f b0 4c 3a 61 73 76 3b a7 65 44 bb a6 91 b7 ba
       0.0007808245 0.0037605392 -0.0029967816 -0.0014005199
0000e0 8b 5e 80 bb 19 b1 ae bb c2 2d 89 bc 92 9d c3 bb
       -0.0039175204 -0.0053311703 -0.016745452 -0.0059697116
0000f0 03 56 23 bc be 47 59 bc 24 20 f9 bb 7f 8f b7 3c
       -0.009969237 -0.013261734 -0.0076027084 0.022407291
000100 af 02 c1 3b a1 23 8e 3c 6d 34 66 3a fd 68 96 bb
       0.0058902125 0.017350974 0.0008781616 -0.0045901523
000110 2e be 11 3d c6 e9 c7 3c a3 e5 70 bc 5b 2a fd bb
       0.03558176 0.024403464 -0.014703187 -0.0077259964
000120 ef 2a 8b 3c 50 66 b6 bc fe c5 27 be d3 90 0e bc
       0.016988246 -0.022265583 -0.16384122 -0.008701521
000130 8e 00 99 3b 25 29 9d 3c c7 66 21 3c c7 4e 2b bd
       0.0046692556 0.019184658 0.009851164 -0.041823175
000140 96 ad b6 3c 67 b0 86 38 72 fc b3 ba e3 51 17 3c
       0.02229957 6.4224754e-05 -0.0013731851 0.009235832
000150 68 19 3b 38 21 3c 71 bc 86 2f 1a bb a1 7e 84 bb
       4.4607936e-05 -0.0147238085 -0.0023526861 -0.0040434157
000160 c0 5f 0b bd 08 cb 84 bc 01 7f 1e 3d 75 9a 9c 3b
       -0.03402686 -0.016210094 0.03869534 0.004779155
000170 fe a2 19 bc a3 17 19 3d cf f0 7c 3c e3 78 9e 3c
       -0.009377239 0.037376057 0.015438273 0.019344753
000180 18 9e 44 bc ff 96 83 3b 0e 88 cb 3c 56 d4 cd bc
       -0.012000583 0.004015803 0.02484515 -0.025125664
000190 3d 84 86 3b e7 b0 70 ba 87 0c 67 3c 72 9f 21 bd
       0.0041051195 -0.0009181634 0.014102108 -0.0394587
0001a0 90 cc f5 3b ac 73 02 bd a9 eb f9 3b ac f1 7d bc
       0.0075011924 -0.031848595 0.00762697 -0.015499514
0001b0 05 21 00 3c d6 6a 85 3c 3c 87 40 bb e7 b4 d1 bb
       0.0078203725 0.016286295 -0.002937748 -0.006399739
0001c0 a0 95 c6 ba 70 74 6c bb 57 65 9f bc bb 35 17 3c
       -0.0015150793 -0.0036080144 -0.019457502 0.009229119
0001d0 de e4 06 bd 22 e4 7b ba 15 21 cc 3c 87 5c d7 bb
       -0.03293311 -0.00096088846 0.024918118 -0.0065723094
0001e0 4b 12 c1 bc ad 8f 12 3a bf 2d b1 3c d6 69 5c 3c
       -0.023568293 0.00055908674 0.021628259 0.013452968
0001f0 12 b4 91 bc d3 da b1 3b a4 39 39 3c 70 e6 9e 3c
       -0.01778606 0.005427697 0.0113052465 0.01939699
000200 e7 43 84 b9 6f 89 12 bc 6d 61 31 bc c7 e0 e6 3c
       -0.00025227593 -0.0089439 -0.010826451 0.028183354
000210 b2 91 ec 3b b2 19 e3 3b b0 c2 36 bb 62 ec 96 bb
       0.0072195167 0.0069305534 -0.002788704 -0.0046058157
000220 c6 9e d0 3b 04 51 5c 3c fc f6 26 bb 30 58 0b bc
       0.0063665835 0.01344705 -0.0025476804 -0.008504912
000230 2b 05 dd 3c f6 19 2b 3b 76 fd 89 3d 7b d0 39 3c
       0.026980003 0.0026108003 0.06737797 0.0113412095
000240 35 a9 16 3c ce 47 c3 3b f9 26 9e 3c 1f b7 90 3a
       0.009195616 0.0059594875 0.019305693 0.0011040902
000250 d3 d1 96 bb fe dd de 3b c4 cb 45 bb fc 2a f5 bc
       -0.0046026497 0.006801366 -0.0030181268 -0.029927723
000260 91 0e 81 bc 26 0f 2d bd ef e0 8a ba 7c 26 e5 bc
       -0.015754016 -0.042250775 -0.00105956 -0.027972452
000270 29 42 d9 bb 6c da c9 bb f6 16 da 3c 8d a0 e8 bb
       -0.0066302014 -0.006160071 0.026622277 -0.0070992173
000280 92 a2 09 bb 5e e5 26 3a 0d 16 f6 bb bc bf ba bb
       -0.002100144 0.0006366576 -0.007509953 -0.005699126
000290 bb 2c 04 3c fc 00 da bc 93 89 bd bb 0c 5d 6c 3b
       0.008067305 -0.026611798 -0.0057842224 0.0036066202
0002a0 c3 cc 78 3c a1 8b fd 3c 50 50 0d bc ea 91 5d 3c
       0.015185538 0.03095037 -0.008625105 0.013523558
0002b0 3e 2d 54 3c a3 d3 76 3c b5 13 7e 3d ad 28 24 bd
       0.01295024 0.015065107 0.062030513 -0.040077854
0002c0 62 80 41 bc 6b 7c e1 3c 68 6f 58 3c 62 03 c9 3c
       -0.011810394 0.027525147 0.013210155 0.024537746
0002d0 00 a2 1b 3c d4 6b c8 38 cd 57 cc 3b 2b 3b fa bb
       0.009499073 9.556828e-05 0.0062360526 -0.007636448
0002e0 2d 34 71 3c 3c c2 7d 3c 07 d4 ab 3c 4a 54 b2 3c
       0.014721912 0.015488204 0.020975126 0.021768708
0002f0 65 e0 2e 3c af 1a 50 ba 0f a9 81 3c 71 6d 80 bc
       0.010673617 -0.00079385465 0.015827684 -0.015677186
000300 98 07 0d bb c0 7c 7a bc b1 d5 94 bc 40 a0 85 3c
       -0.0021519419 -0.015288532 -0.018168302 0.016311765
000310 d1 e7 c2 bc ea 7e 40 bd 0d bc b3 3c 83 72 20 3c
       -0.02379218 -0.046996035 0.021940256 0.009792927
000320 2f fa ba bc 4c e8 88 3c e7 49 17 3e fb da f7 3b
       -0.022824375 0.01671233 0.14774285 0.0075639463
000330 ef e4 a7 bb 9b 68 0c bb 53 27 7b bc db 85 5e 3d
       -0.0051237266 -0.0021424654 -0.0153292 0.054326873
000340 36 4b 89 bc 81 51 15 3c 03 e1 33 3b 5f 99 1c 3c
       -0.016759496 0.00911367 0.002744735 0.009558051
000350 4f 3d d2 3b 0a e6 c2 3b 81 d5 04 bc 88 fc 3b 3c
       0.006416 0.005947833 -0.008107544 0.011473782
000360 52 ee 60 3c 86 98 f3 3a 1a 8e 2a bd b8 f7 e3 ba
       0.013728695 0.0018584884 -0.041639425 -0.0017392552
000370 57 48 88 3c cd c6 36 bd f9 7b 06 bc 62 ed 0f 3b
       0.016636057 -0.044623185 -0.008208268 0.002196156
000380 f7 71 80 3b 92 f1 49 bc c0 5d 76 ba 63 ee 0c 3c
       0.0039198357 -0.012325661 -0.0009398125 0.008601758
000390 c4 3f 36 3c f8 9e bf 3c 72 df f9 bc 7e b1 5f 3d
       0.011123601 0.023391232 -0.030502055 0.05461263
0003a0 22 bb 63 bb 98 0b be 3c be cf 64 bc d0 90 9d ba
       -0.003474899 0.023198888 -0.013965545 -0.0012021307
0003b0 05 2d dc bc 94 b2 93 bc 73 0e c3 bc ef ae b3 3b
       -0.026876936 -0.018029489 -0.0238106 0.0054835
0003c0 3b 6d eb 3b 26 b7 1d 3c ec e0 c2 3c e7 b5 06 3d
       0.007184652 0.0096261855 0.023788892 0.03288832
0003d0 f6 db cf 3c 9b 1f eb bb 39 3c a2 bc fc 04 e1 3b
       0.02537344 -0.0071753985 -0.019804107 0.0068670493
0003e0 d9 fc 80 3b 95 df c1 bc cc 70 89 bc 6c 1a 26 bc
       0.003936392 -0.023666183 -0.016777419 -0.010138135
0003f0 fb 3b 35 3c 81 2e ff 3b 40 cb 1a bc aa 77 fb 39
       0.011061664 0.007787526 -0.009447873 0.00047963607

discrete_action_output_shape f4 [1, 2]
000000 00 00 e0 40 00 00 00 40
       7.0 2.0

network_body._body_endoder.seq_layers.0.bias f4 [128]
000000 0d 3c d8 3a db 24 41 bc e3 66 ad bc 31 07 ca 3b
       0.0016497389 -0.011788572 -0.021167224 0.006165408
000010 29 df a4 3c 90 0c 65 3d df 87 2c bd 4d 0e aa 3b
       0.020125942 0.055920184 -0.042121764 0.005189693
000020 54 86 74 3d e4 a2 c1 bc c5 aa b5 3b 6c fd 3a 3b
       0.059698418 -0.023637243 0.005544039 0.00285324
000030 e2 4d 04 bc c6 68 9e bb ed 9d b4 3c 0b 87 13 bd
       -0.008075209 -0.0048342673 0.022047961 -0.03601746
000040 0a 91 8c bb 88 76 50 bc 00 22 ae 3c cf 08 03 bc
       -0.004289751 -0.012723573 0.021256447 -0.007997706
000050 fa 8e b9 bc d2 0c 8b 3c d5 bb cb bb 2e 2c 64 3d
       -0.022651184 0.016973887 -0.0062174597 0.055706196
000060 35 75 3c bd 08 6c 00 3c d5 6e 08 bd ea aa 11 bc
       -0.046010215 0.007838257 -0.033308823 -0.008890847
000070 99 6d 9e bc 06 00 24 3c 6b 93 bd bc 80 16 0d bc
       -0.01933937 0.010009771 -0.023141583 -0.008611321
000080 0b ff 99 3c ae 1a 65 3b a4 3e 92 3c 5a f1 38 bc
       0.018798372 0.003495853 0.017852135 -0.011288011
000090 c7 69 ad 3c 4c 6f f4 3c 18 76 05 3c ad 84 20 bd
       0.021168603 0.029838227 0.0081458315 -0.03918903
0000a0 d7 b7 49 3c e6 7e e1 bc 72 5c f1 bc 57 03 19 3a
       0.012311897 -0.02752633 -0.029463027 0.00058369845
0000b0 68 b0 7a bc cf 7f 92 bc 99 21 a6 3b fd 5d 63 bc
       -0.015300848 -0.01788321 0.005069923 -0.013877389
0000c0 58 1f a2 bc 76 dd 79 bc 2d 9e 13 3c 19 6a 0f 3c
       -0.019790336 -0.015250554 0.00900988 0.008753323
0000d0 3a af bf bb c0 5b 68 3c 4e e1 15 3c 02 53 f3 b9
       -0.005849746 0.014182031 0.009147955 -0.00046410417
0000e0 5f 2f f2 bb 05 34 91 3d d6 d2 51 3c bf 01 4b bd
       -0.007390901 0.0709 0.012806615 -0.049562212
0000f0 e3 41 46 bd 37 d8 c7 bc a7 18 7d 3d 31 8e 49 bc
       -0.04840268 -0.024395091 0.06179109 -0.0123019675
000100 39 cd 9b bc f3 04 b0 bc 6e e2 08 bd cb a6 3c 3d
       -0.019018756 -0.021486735 -0.033419065 0.046057504
000110 1c 0e 54 3b d7 a8 40 3c 4d 55 bc 3c e2 92 34 3d
       0.0032357043 0.011759005 0.022989893 0.04408539
000120 f8 b7 0b 3d e5 93 6d bd 1c 66 83 bc aa c7 ab 3b
       0.034110993 -0.05800237 -0.0160399 0.0052423077
000130 fc 2d e3 3b 5c 09 98 3c 96 eb f5 bc 4b e8 8c 3c
       0.006932972 0.01855915 -0.030019563 0.01720061
000140 65 c3 32 bd 36 76 48 bd 9a 35 0c bc 88 46 3b bd
       -0.043643374 -0.04894086 -0.0085577015 -0.04572156
000150 0b 10 f1 b8 5a be 2f bb 9a e4 70 3c 33 ba d3 bc
       -0.00011494764 -0.002681634 0.01470294 -0.025845623
000160 c8 e4 57 bc 9c b8 91 bc 1a 75 ff bb 8c 73 20 3b
       -0.013177104 -0.017788224 -0.007795942 0.0024482934
000170 b4 31 85 3c 69 4d 8d 3c f2 9e 5f 3d 29 67 86 3c
       0.016259052 0.017248826 0.05459494 0.016406612
000180 ed 59 87 bc 55 1b 45 bc f5 75 02 bd 7a 39 2e 3d
       -0.016522372 -0.012030442 -0.031850774 0.042535283
000190 59 ad df bc ec 18 6c 3c 38 35 09 bc ac 66 fc 3b
       -0.027304338 0.014410239 -0.008374505 0.007702669
0001a0 92 85 0e bd fe ff 53 bd 61 b8 29 bd 54 61 38 3c
       -0.03479535 -0.051757805 -0.041435603 0.011253674
0001b0 d9 93 a3 3b c6 53 46 3b 1f ca 96 3d bb f4 3e bd
       0.00499199 0.0030262335 0.0736277 -0.046620112
0001c0 7f 70 4a bd ce c2 69 bd c3 76 32 3c 40 ef 88 bc
       -0.04942369 -0.057070546 0.010892573 -0.016715646
0001d0 da dc b9 ba e6 c2 a5 3c f6 7a 80 3c d5 98 35 3d
       -0.0014180199 0.020234536 0.015683632 0.044335205
0001e0 ee 81 8e ba 3d c9 99 3c 27 85 14 bc 9f c5 9b bc
       -0.0010872462 0.018772716 -0.009064949 -0.019015132
0001f0 a7 18 3b bc df 78 3c bd 18 03 5b bd 29 70 7e bb
       -0.011419452 -0.04601371 -0.053469747 -0.0038824177

network_body._body_endoder.seq_layers.0.weight f4 [128, 17]
000000 ab 75 78 be 10 0e 9d be 8c 3c 01 3f 25 20 2f 3d
       -0.24263637 -0.3067479 0.5048301 0.042755265
000010 00 5a 15 3e c8 e4 0f 3e ed 06 b2 3e f1 e7 86 be
       0.14585114 0.14052117 0.3477091 -0.26348832
000020 48 84 45 bf 37 f6 8b 3e a2 4f e4 3d e5 fd e8 3d
       -0.7715497 0.27336285 0.11148001 0.113765515
000030 9b 6a 8a 3e ea eb 42 3e 36 44 53 bd 34 7c 88 be
       0.2703446 0.19035307 -0.051578723 -0.2665726
000040 9f 06 d6 bd e0 86 a6 be c5 dc b7 be 1b 74 24 be
       -0.104504816 -0.32524776 -0.3591062 -0.16059916
000050 e0 14 50 3a d4 d1 c6 3c f7 79 36 3d 7f be 36 3e
       0.0007937681 0.024269976 0.04454991 0.17846106
000060 fa 8e 79 3e 94 fc a2 3e cc 7b b3 bc 52 4a 67 bc
       0.24370947 0.31833327 -0.021909617 -0.01411684
000070 7c b7 04 bd b4 42 c4 bb 6f a2 63 be a3 e3 d9 3d
       -0.032401547 -0.005989397 -0.22229932 0.106391214
000080 9e 7e 0b be d5 40 de 3d 5e 0d 58 be b8 b2 2b be
       -0.1362252 0.108522095 -0.21098849 -0.16767395
000090 52 30 10 bd dd 18 2c be ad aa 35 bd 5c ff 49 be
       -0.03520233 -0.1680636 -0.044352222 -0.19726318
0000a0 56 39 02 be 0e dd 88 3d 3e de 1c bd 61 3e 38 3d
       -0.12717184 0.06682788 -0.038297884 0.044981364
0000b0 c2 63 bf 3d 72 d1 0e 3e a6 72 b4 3d c1 44 5c be
       0.09345199 0.13947085 0.0881093 -0.21510603
0000c0 56 59 03 bf ef a3 d2 3d 4c d4 51 3e 79 70 fa be
       -0.5130819 0.10285174 0.20491141 -0.48913935
0000d0 ab 22 4e 3e b8 db 13 3d f8 98 8f 3b 91 69 83 be
       0.20130412 0.036098212 0.004382249 -0.25666478
0000e0 01 5c fe 3d 4d e8 8d 3e 86 20 c0 bd e1 5d dd be
       0.12419892 0.27716294 -0.09381203 -0.43235686
0000f0 4e 15 99 3d fd 24 18 3e aa 70 9f 3d 23 50 16 3e
       0.07474767 0.1485786 0.07785161 0.14679007
000100 dd 9e 72 3e e6 bf c8 3e b4 27 be 3c f3 e2 8b be
       0.23693414 0.39208907 0.023212291 -0.27321586
000110 33 8a 7f 3e 50 36 09 bf c8 45 06 be 88 f9 27 3e
       0.24955063 -0.535985 -0.13112557 0.16403782
000120 76 7d f4 bd 6d 7b 98 3d b2 5b bb be d0 0e 92 3d
       -0.11937992 0.074454166 -0.36593395 0.071317315
000130 9f 42 f7 bd 73 39 16 be 37 f0 bf bd b8 59 6b be
       -0.12073254 -0.14670353 -0.09371989 -0.22983444
000140 29 2a 56 3c 2b 4f bb 3c 63 ac be be e7 3d 58 3c
       0.013071575 0.022864899 -0.37240896 0.013198352
000150 99 48 2f 3d d9 10 3c 3e 90 4f ff be 7d 0e 88 be
       0.042793844 0.18365802 -0.4986539 -0.26573554
000160 c3 54 22 3e 32 1b ce bd 1b 8c 52 3e 08 66 ac 3d
       0.15852647 -0.10063781 0.20561258 0.084178984
000170 8d 22 93 bd 0d 1b 3a be 64 e8 7a 3c 25 aa a7 3e
       -0.071843244 -0.18174382 0.015314195 0.32746997
000180 d7 23 29 be 08 b6 31 be b5 5e 2a be 96 40 c3 be
       -0.16517578 -0.17354596 -0.1663769 -0.38135213
000190 b0 e3 7d be a2 28 a1 bc e8 26 74 be 20 7f 07 bd
       -0.24793887 -0.019672696 -0.23842967 -0.03308022
0001a0 50 f8 e2 be 2f c6 cb be 28 dc b5 bd c0 32 91 3d
       -0.44330072 -0.3979964 -0.08879882 0.07089758
0001b0 0f b1 38 be 1a 48 13 3e 78 33 05 be 90 8f be be
       -0.18036292 0.14382973 -0.13007915 -0.37218904
0001c0 01 33 f8 3d c4 da 99 bb 7e 18 7e be df c2 8f be
       0.12119103 -0.0046952683 -0.2481403 -0.28078362
0001d0 50 e4 9f 3d 24 65 83 be fb 59 60 be 70 dd b2 bd
       0.07807219 -0.25663102 -0.21909325 -0.08733642
0001e0 38 52 4f 3c 48 40 6b bd 57 b6 98 3e bd d5 cc 3e
       0.01265388 -0.05743435 0.29826614 0.4000682
0001f0 e4 73 e6 bc f1 ca db be 81 23 36 be 1b 2e f4 3d
       -0.028131433 -0.4292827 -0.17786981 0.119228564
000200 37 4b 76 be b9 7b 06 3e ed 47 0f 3f 5c 19 85 3d
       -0.2405213 0.13133134 0.55969125 0.064989775
000210 98 19 4d 3e 69 6b 80 3e cb a8 16 3f 28 0d 2b 3e
       0.20029294 0.25081947 0.5885131 0.16704237
000220 71 6c 03 3e 71 6a f0 3e 2b c6 5e 3e 79 43 67 bd
       0.12834336 0.46956208 0.21755283 -0.05646083
000230 27 91 92 3d ee 51 51 be 45 46 a5 bd d1 43 57 3e
       0.07156592 -0.2044141 -0.080700435 0.21021964
000240 29 03 0f be 6d 66 08 be a6 0f ee be 17 99 19 3e
       -0.13966049 -0.13320322 -0.46496314 0.14999805
000250 45 04 e4 3e 8b da 4c 3e 92 db 73 bc 39 fa 87 bd
       0.44534507 0.20005243 -0.014883893 -0.06639523
000260 c3 b6 72 be 6c ab 06 3e cd d8 1e 3d 65 90 20 be
       -0.2370253 0.1315133 0.038780976 -0.15680082
000270 ba 76 94 3d 0f 2c 9d 3e f0 82 c2 bd 58 e5 83 3e
       0.07249208 0.30697677 -0.094976306 0.25760913
000280 06 b5 02 bf 24 d6 4a 3e af 12 10 be 9e 36 59 bd
       -0.5105747 0.1980825 -0.14069627 -0.053030603
000290 f8 e6 a3 be bb 6b b2 bd e2 82 b4 bc 5e 81 fe 3e
       -0.32012153 -0.08711954 -0.022035066 0.49708074
0002a0 6b b0 3b b9 fb b0 51 3e d6 f4 57 bd 85 e4 65 3d
       -0.0001789943 0.20477669 -0.052723728 0.056126136
0002b0 28 be a4 3e bd 81 92 3e 75 28 9f be 26 d9 31 3e
       0.32176328 0.28614607 -0.31085554 0.17367992
0002c0 e5 81 f9 be 70 c0 bd 3e 38 91 14 3e 1e ef 94 be
       -0.48731914 0.3706088 0.14508522 -0.29088682
0002d0 4b 92 f0 3a e2 d9 52 be 0e 5f a7 bc b7 8b 70 be
       0.0018354146 -0.20590928 -0.020431068 -0.23490797
0002e0 9b ce 0e 3d 3a 23 b7 3e bd 8d 10 be eb e8 df 3e
       0.034865003 0.35769063 -0.14116569 0.4373239
0002f0 98 46 8e be 78 1c fe bd e5 1a bf 3b 8c 91 8b 3c
       -0.27788234 -0.12407774 0.0058320635 0.017037176
000300 f5 98 f1 be df 19 8b be 69 2d f8 be fa 0f 23 bd
       -0.4718701 -0.27168176 -0.48472145 -0.03981016
000310 a4 ed 76 3e 19 14 80 be 4c 0d f3 bb f1 ed 8f be
       0.2411409 -0.25015333 -0.0074173566 -0.28111222
000320 e5 7f 36 3d 49 b5 01 bf 71 14 59 bd 8f d9 58 be
       0.044555563 -0.50667244 -0.05299801 -0.21176742
000330 d9 dd dd bd 18 00 d3 3e 4b ef c2 bd f4 ca cf be
       -0.1083333 0.4121101 -0.09518298 -0.40584528
000340 2b 4b e8 3d 97 2e f9 3e c7 8a 04 3e 1d 17 ca be
       0.11342462 0.48668358 0.12943564 -0.3947076
000350 ce 7c 0d 3e 19 32 22 bd ba 8e 58 3e 89 54 97 3d
       0.1381714 -0.039598558 0.21148196 0.07389171
000360 e1 c7 b3 bd 5d 51 ad be d9 42 fc be fc d6 4d be
       -0.08778358 -0.33851138 -0.4926975 -0.20101541
000370 83 fd a0 bd 63 79 88 3e 64 62 7e 3e 89 a9 35 3c
       -0.078608535 0.2665511 0.2484222 0.011087784
000380 4d ba f0 3e a9 7b e5 be 1b 1f c2 be 89 3c 4c 3e
       0.47017136 -0.44820908 -0.37914357 0.19944967
000390 84 8d 84 3b 46 03 3b be 7f 2d 57 bd a9 54 36 be
       0.0040451903 -0.18262967 -0.052533623 -0.17805733
0003a0 a9 91 c1 3c 3b 7f 78 3e 10 64 73 3e d6 c9 f0 bd
       0.023629026 0.24267285 0.2376864 -0.11757247
0003b0 67 3d db bc 43 eb 04 3e fd 72 04 3e 86 31 ca 3e
       -0.026762677 0.1298037 0.1293449 0.39490908
0003c0 e4 b7 f3 bd 39 5f f4 bc 1c 2a a4 3d 5f 44 32 3e
       -0.11900309 -0.029830562 0.08015844 0.17408894
0003d0 d0 13 b1 3d 1f dc 06 be 29 74 67 3e ee 2f be bd
       0.08646357 -0.13169907 0.22602905 -0.092864856
0003e0 d6 30 f6 3d e3 25 c4 3e e2 3e bf 3e d1 1e 89 be
       0.120210335 0.38310155 0.37352663 -0.26781324
0003f0 84 6c 96 3e a2 f8 0e be 75 32 e9 bc ea 9c fb 3e
       0.29379666 -0.13962033 -0.028466443 0.49143153

network_body._body_endoder.seq_layers.2.bias f4 [128]
000000 95 70 34 bd 68 08 6b 3c f6 ff c0 bc 90 45 d8 bc
       -0.04405268 0.014345266 -0.023559552 -0.026400357
000010 5c 57 47 3c 5f 5c 8a bc 58 e9 83 3c b5 c3 9e bc
       0.012166824 -0.01688975 0.016102478 -0.01938043
000020 d7 60 ca bb 10 94 b8 bc e1 9e c1 bc 85 ab 1e bd
       -0.006176095 -0.02253154 -0.02363533 -0.038737793
000030 b4 66 32 b9 92 b8 ab bc 68 7e 99 3c d0 31 96 3c
       -0.00017013663 -0.020962033 0.018737033 0.0183343
000040 71 8a 32 3d 32 79 44 bc 04 bf 92 3c 2d 86 40 bb
       0.04358906 -0.011991786 0.017913349 -0.002937685
000050 0c 93 ec bb 88 d3 11 3c d9 79 de 3b 4c 75 0b bb
       -0.007219678 0.008900531 0.0067894277 -0.0021279631
000060 37 28 b7 bb 69 83 32 3d 24 52 6d bc ba 69 e6 37
       -0.005589511 0.043582354 -0.014484916 2.746737e-05
000070 1d b3 02 bc 0f 5a 71 bc 36 70 34 3c cb d6 11 3c
       -0.007977274 -0.014730944 0.011013081 0.008901308
000080 20 67 43 bc c3 1c df bc 5f 3a d4 bc 70 e3 c8 bb
       -0.011926442 -0.027235394 -0.02590674 -0.0061306283
000090 eb ce 0d bd ee 9a 4e 3c c9 c5 bb bc 6c fb 4f bc
       -0.03462116 0.01261018 -0.02292146 -0.012694221
0000a0 b1 de cc bb 26 c4 d6 3c 7f 2e f6 bc 28 ea 2f bb
       -0.006252133 0.026216578 -0.030051468 -0.002684245
0000b0 b0 80 11 bd 44 23 a2 3b a8 32 d3 3b 59 16 0c 3d
       -0.035523117 0.0049480516 0.0064452477 0.034201
0000c0 14 b5 a9 bc d5 f3 3d bc 37 29 85 bb ef ca 0d bd
       -0.020716228 -0.011593779 -0.004063751 -0.03461736
0000d0 b7 82 c9 bc 32 10 c1 b9 f2 28 02 3d d0 94 36 3b
       -0.024598463 -0.00036823895 0.03177733 0.0027859695
0000e0 ad a4 2d bc 37 76 c0 bc dd 06 f5 3b 6b 75 fd bc
       -0.010598344 -0.02349387 0.007477625 -0.030939778
0000f0 a1 47 43 bc 91 f3 a3 bc 87 39 86 bc 73 2e 47 bc
       -0.011918933 -0.020013602 -0.016384853 -0.01215707
000100 c0 21 95 bc 52 c9 ad 3c f7 43 49 bc 89 ee 0d 3b
       -0.01820457 0.021214161 -0.0122842705 0.002165707
000110 cc 02 ae bb 22 09 85 3c 87 7b c3 3a df a1 8e bc
       -0.005310392 0.016239706 0.0014914133 -0.01741117
000120 42 9d aa bb 32 75 ef 3b a7 5a aa 3c 6f 56 1e bc
       -0.005206735 0.007307672 0.02079518 -0.009664162
000130 f8 75 c2 bc ac 11 5d 3c 95 4b 08 bc 3a 03 ba 3a
       -0.023737893 0.013492983 -0.008318801 0.0014191635
000140 6c 65 b4 ba fc 83 db 3b b6 62 16 3c 7a ee ca 3b
       -0.0013763136 0.0066990834 0.009178808 0.0061929794
000150 e7 1d f2 3c 91 1f fd bc d6 6c 9a bc b3 fe 0e bd
       0.029555274 -0.030898841 -0.018850725 -0.03491087
000160 93 98 90 bc a9 01 14 3c 87 49 c7 3b 18 42 16 bc
       -0.017650878 0.009033599 0.006081763 -0.009171031
000170 60 bd f5 bc 28 bc 25 3d b2 38 31 bb 57 d1 2a bb
       -0.029997528 0.040462643 -0.002704185 -0.0026064718
000180 35 38 a7 bc 8d 01 6a 3d 51 d0 9c 3c 2a 34 a6 bc
       -0.020412544 0.057130385 0.019142302 -0.020288546
000190 b7 77 92 3b 1d 6e 0f bc 17 9a e6 3c d4 b8 dd 3b
       0.0044698375 -0.00875428 0.028149648 0.006766418
0001a0 16 4e 99 bb 0f 68 35 3b 70 34 ea 3c 0f b2 ee 3b
       -0.004678498 0.0027680432 0.028589457 0.00728441
0001b0 2c 27 53 bc f1 b6 b3 bb 56 a9 2a bc 91 16 12 bd
       -0.012887757 -0.005484455 -0.010416349 -0.035666052
0001c0 15 59 ff bc 79 e3 15 3a 0c 82 28 39 d2 84 fb bb
       -0.031170407 0.0005717795 0.00016070175 -0.0076757455
0001d0 bc dd c3 3c 43 35 03 bd cd 41 96 3c a6 85 d6 bc
       0.023909442 -0.032033216 0.018341923 -0.026186775
0001e0 14 34 c0 bb 98 9a 18 bb 9f 80 11 bc 5c 7e d5 bb
       -0.005865583 -0.0023285504 -0.008880763 -0.0065153074
0001f0 45 e7 88 3b e3 e0 27 3d 92 c9 8e bc 9e 15 7b bb
       0.00417796 0.040985953 -0.0174301 -0.0038312445

network_body._body_endoder.seq_layers.2.weight f4 [128, 128]
000000 2d e2 31 3d 90 c7 83 3c 37 d6 3a 3d e7 36 8f 3d
       0.04342859 0.01608637 0.045614447 0.06992894
000010 19 ec 4c be 2b 72 48 3e 73 36 bc 3d cf b6 ca bc
       -0.20011939 0.19574802 0.09190073 -0.024745373
000020 a6 00 f7 bd 98 03 c6 bd a5 b2 39 bd 06 fc d9 3d
       -0.120606706 -0.09668654 -0.045336384 0.10643773
000030 58 22 62 bb 3f ec fc bc 56 aa 96 bd 22 1d c5 3c
       -0.0034505334 -0.03087437 -0.07356708 0.024061743
000040 4e 76 dc bd f0 37 05 be a4 42 5e 3d 79 82 35 bd
       -0.10764752 -0.1300962 0.054262772 -0.04431388
000050 ac eb 96 3c 30 6d ac bc 3f 0f 34 bc 16 f2 11 be
       0.018422924 -0.021048158 -0.010989963 -0.14252505
000060 78 e9 00 3d 1e 75 3c bd ef e9 06 3e e4 3e 72 bd
       0.031472653 -0.04601013 0.13175176 -0.05914201
000070 73 99 52 bc 13 bb 3d 3d a3 a7 3c be 21 ac 89 bd
       -0.012853968 0.046320986 -0.18423323 -0.06722284
000080 b7 8a 32 3e 10 de 92 3d f8 f0 19 3d 03 8d 9d 3d
       0.17435728 0.07171261 0.03758332 0.076929115
000090 ee b4 03 bd 1f 36 8d bd b3 03 ab bd 60 00 ef 3d
       -0.03215497 -0.068950884 -0.08350315 0.116699934
0000a0 b0 3a a8 bc 66 93 c5 3d 3f 31 21 be 2d cd 06 bd
       -0.020535797 0.09647255 -0.15741442 -0.032910515
0000b0 71 d3 32 be 43 aa 98 bd 35 66 3a 3d 1d 49 2b be
       -0.17463471 -0.0745435 0.04550763 -0.16727109
0000c0 d3 b9 0e bd 0a 20 97 3e 00 7c 29 be 3e 66 28 3e
       -0.034845185 0.2951663 -0.16551208 0.16445252
0000d0 db 13 0a 3e 3e 80 94 bd bf ba 65 bd 37 ef 14 bb
       0.13484137 -0.07251023 -0.056086298 -0.002272559
0000e0 c6 cc fc 3b af c6 f8 bd 1c 7f 01 be ec 5b 56 3d
       0.0077148406 -0.12147271 -0.12646145 0.052333757
0000f0 32 26 d2 bd 01 04 b7 3d b4 2e bd bd 8c 19 e9 3d
       -0.102611914 0.089363106 -0.092374235 0.11381826
000100 19 33 b1 bd 28 a1 56 3d 52 1f 82 3d f3 a5 66 3d
       -0.08652324 0.052399784 0.0635363 0.056310605
000110 4b 5f 18 be a9 0a ab 3b e9 6d 21 be 22 26 33 3d
       -0.14880101 0.0052197766 -0.15764584 0.04373754
000120 3c 7c 13 3d 29 46 88 3d c9 ce 08 3d c2 cb 76 3d
       0.03600715 0.06654007 0.03340033 0.060252912
000130 bf 63 d1 bc 1c a1 e8 3b b2 19 af bd a3 5e 2b bc
       -0.025560258 0.007099284 -0.08549823 -0.010459575
000140 74 4a da bd 4f 3f 8b 3d f4 98 b5 3d b4 03 e8 bc
       -0.10658732 0.067991845 0.08867064 -0.028322078
000150 c0 6d f8 bd 8e 58 a3 bd 7a ca e0 3c 6f 6b 22 3e
       -0.12130308 -0.07975875 0.027440298 0.15861295
000160 e6 fb a2 bd 12 93 ae bd 01 84 5d 3e df b3 29 bd
       -0.07958202 -0.08524145 0.21632387 -0.041431304
000170 86 f0 d0 bd c7 e6 46 3d 64 77 48 bd f1 d3 32 3e
       -0.10202126 0.04855993 -0.048941985 0.17463662
000180 d9 5d ee 3c d3 76 f1 bd 5b 9c ce bd e6 32 8e bd
       0.029097484 -0.11790242 -0.10088416 -0.06943302
000190 c5 d5 81 3d 48 7f b5 bd ad cb 0a bd 15 e3 24 3e
       0.063396014 -0.088621676 -0.033885647 0.1610225
0001a0 62 43 cf 3d 3a d6 c1 3d cc 0f e5 3d a0 21 90 3d
       0.10120274 0.094646886 0.11184654 0.070376635
0001b0 4c 29 a4 bd 09 bd 63 3d 1a b8 a1 bc 41 b9 8f 3c
       -0.08015689 0.0556002 -0.019741107 0.01754439
0001c0 9a f1 89 3d 3a 89 1a bd 7c a5 80 bc 42 5a 90 3d
       0.06735535 -0.037728526 -0.01570391 0.07048465
0001d0 34 ec 8a bc b6 95 6f be 28 9b d8 3d bd 28 95 3d
       -0.016958334 -0.23396954 0.10576469 0.07283161
0001e0 0f 92 23 3c 2c 04 08 bc e7 0d 3c 3d d2 43 df bd
       0.009983554 -0.008301776 0.045911696 -0.109016076
0001f0 be 35 e9 bd 1e 0e d8 bd 15 d8 de bc d6 04 79 3e
       -0.11387204 -0.10549568 -0.027202645 0.24318251
000200 3d 72 4c 3d e9 e6 62 3d 5f 3e ec 3d e6 b9 10 bd
       0.049913634 0.055395994 0.11535334 -0.035333537
000210 c7 ce 27 3d e4 8a 12 be 43 10 92 3d 22 ef 81 3c
       0.040968683 -0.14310795 0.07132008 0.015861098
000220 9c 19 59 bd b2 7d 3e bd 51 62 eb 3b 7c cb 53 3c
       -0.05300294 -0.04650659 0.007183351 0.012926932
000230 ad 1c 40 be 36 51 8c 3b 77 ba 27 3c 69 e6 17 3d
       -0.18760939 0.004282142 0.010237328 0.03708497
000240 f6 4a 31 be 32 39 98 3d fe 14 c0 3d b6 f2 bd 3d
       -0.17313752 0.07432784 0.09379004 0.09274809
000250 04 7e be bc 14 8d 6d bd a4 05 b5 3d a4 29 4f 3e
       -0.023253448 -0.05799587 0.088389665 0.20230728
000260 f8 a1 63 bc 68 f8 f2 bc 93 ab ab 3d b1 14 9f bd
       -0.013893597 -0.029659465 0.083823346 -0.077676184
000270 41 fb 4c bd 50 fa 25 be 9d 17 b0 3d 30 2c e7 3d
       -0.050044302 -0.16208768 0.08598254 0.11287725
000280 e2 28 30 bd 1e 1a e1 bb 2e 18 38 bd 96 a8 2c bd
       -0.04300774 -0.0068695685 -0.044944935 -0.042152964
000290 c7 9f 4e 3d c7 7d 15 bb b6 57 85 bc 4c 7b 06 3d
       0.050445344 -0.0022810565 -0.016277175 0.03283243
0002a0 96 41 c1 3d dd 66 3e 3a 8f 70 63 bd 79 9e b1 3b
       0.09436338 0.00072632526 -0.055527266 0.0054205027
0002b0 30 7a 5f 3d cc d2 1b 3c 19 8d 9b bc 18 72 0a be
       0.054559886 0.009510707 -0.018988179 -0.13520086
0002c0 73 e5 59 3d ea 65 46 3d 29 af ed 3d c6 96 f3 bd
       0.053197335 0.048437037 0.11605675 -0.11893992
0002d0 69 51 da 3d 2a e9 9b bc 9b 51 68 3c ed 51 96 3d
       0.10660059 -0.01903208 0.0141796125 0.07339845
0002e0 f2 25 57 3d bf ba 00 3c 13 2f d3 bd 86 b8 19 bd
       0.05252642 0.007857024 -0.10311713 -0.03752949
0002f0 39 7a ff bc 32 8e 51 bc 27 f1 22 3c 1b 94 cc 3b
       -0.03118621 -0.01279025 0.0099451905 0.0062432415
000300 5d de 09 be 40 dc 89 3c 16 e6 c4 bd df 0f 40 be
       -0.13463731 0.016828656 -0.09614198 -0.18756054
000310 c3 06 a7 3d 09 66 e0 3d 23 61 27 3d 20 db 6b 3d
       0.081555866 0.10956962 0.04086412 0.05758202
000320 be 1d c8 bc 19 6c fc 3b e7 0b c9 3d 88 4e b0 3c
       -0.024428245 0.007703316 0.09816723 0.021521822
000330 71 44 12 3d 75 c0 44 bd 61 8b 43 bd 82 af 06 3d
       0.035709802 -0.048035104 -0.047740344 0.03288222
000340 45 38 67 be 2d 1a 6d bb 7a 04 d5 3d c4 8e 93 3d
       -0.22580059 -0.0036178932 0.104012445 0.07204965
000350 7c 14 79 3d 28 ca 1a 3b 06 3e 2b bc 64 31 68 bd
       0.06081055 0.002361903 -0.010451799 -0.056687728
000360 af 64 c4 3c 73 82 1a bd 55 c0 82 bc c9 03 09 3d
       0.02397379 -0.037722062 -0.015960852 0.033450875
000370 10 03 01 bd 3b 34 25 3d 05 1f bf 3d f9 26 df bd
       -0.03149706 0.040333014 0.093320884 -0.10896105
000380 14 9c d1 3b e2 df 31 3d 8f 0c 8f 3c 14 b8 42 3d
       0.00639678 0.043426402 0.017462043 0.04753883
000390 af c2 1f 3e d1 2e c8 bd 0d 81 69 bd e7 b8 f1 bd
       0.1560161 -0.097745545 -0.057007838 -0.118028454
0003a0 9b 37 53 bd fe eb 95 bc d9 aa 9b bd 49 ab e4 bd
       -0.0515667 -0.018301006 -0.07600946 -0.111654826
0003b0 c6 a9 0d bc f2 03 76 3d d2 f0 ae 3d 0e de 3e 3d
       -0.008646434 0.060062356 0.085420266 0.046598487
0003c0 b9 17 92 3d c5 8e 81 3c e4 b7 91 bd ea c3 d4 bc
       0.07133431 0.015815148 -0.071151525 -0.025972325
0003d0 9e fa 04 bd 89 b3 16 3d 68 1d 92 3a 52 93 56 3d
       -0.03246557 0.03679231 0.001114768 0.05238659
0003e0 86 35 ba 3d fa b3 3d be ab 7f 1e 3d 0e 64 77 bd
       0.0909224 -0.18525687 0.038695972 -0.060398154
0003f0 46 3c 12 bc 95 6d 8f be c9 b9 a6 3d b8 32 c6 3d
       -0.008925503 -0.28013292 0.081409045 0.096776426
