Assets/ML-Brains/HouseBehaviourScene7T04.onnx (onnx, 83196 bytes, 9 tensors)

action_model._discrete_distribution.branches.0.bias f4 [7]
000000 34 2f 15 3c 8a 2c a1 3c c9 e6 52 ba d0 34 e1 3b
       0.009105492 0.019674558 -0.0008045254 0.006872751
000010 7f 7a 66 3b a8 c7 b2 bc 03 e1 39 bc
       0.0035168228 -0.02182372 -0.011345151

action_model._discrete_distribution.branches.0.weight f4 [7, 128]
000000 7d ed 68 3c a4 63 cc 3b 1b ef 21 be 66 de 04 3d
       0.014216778 0.006237464 -0.15813868 0.03243866
000010 a3 4e 3b 3c fc 47 02 3d 52 72 da bb 9a ea af ba
       0.011432323 0.03180693 -0.00666646 -0.0013421357
000020 0b 62 89 3d f1 25 2e bc 88 63 03 3c a0 4d c6 3b
       0.06708153 -0.010629163 0.008019336 0.006051734
000030 89 ea 9c 3c 90 e4 4e 3d cf 23 01 bc a2 0f 53 3c
       0.019154804 0.050510943 -0.007882073 0.012882145
000040 de 4a 4c bc 48 23 bd 3c ae 2d d3 3c 04 4b b0 3c
       -0.012469022 0.023088112 0.025778618 0.021520145
000050 29 78 18 3c c4 4b 7e bb d1 32 07 bd 8b f4 6d 3c
       0.009305992 -0.0038802484 -0.033007447 0.014523636
000060 d2 cf 11 bd 24 3f af bb 51 64 65 3d 3c e0 6f bb
       -0.035598584 -0.005348103 0.056003872 -0.003660216
000070 ab 1a 9c 3c e1 87 a5 bd 9b 70 93 ba 72 8b 1f bc
       0.019055685 -0.080825575 -0.0011248769 -0.009737836
000080 aa a1 c3 bc 0e f1 24 be ea fb 85 3c c1 2a 2b 3c
       -0.023880798 -0.1610758 0.016355474 0.010447205
000090 cf ef 5b bc 8e 86 fb 3b c5 78 d0 bb 76 4c e0 3c
       -0.013423874 0.0076759523 -0.006362053 0.02738021
0000a0 f9 2d 9a bb 25 d5 f5 bc ce 47 ba bc 2f db 43 bd
       -0.0047051874 -0.030008862 -0.022739317 -0.04781645
0000b0 5c b7 ff bc d9 30 1d bc 73 1d 32 3c 98 73 f0 bb
       -0.031215362 -0.009594166 0.010871279 -0.0073379986
0000c0 c2 c5 80 3c f4 85 13 3d d4 53 c3 3c f6 09 e3 3b
       0.015719298 0.03601642 0.023843683 0.0069286777
0000d0 43 f9 02 3b f2 4e cf bc 7b 20 14 bc 04 b8 43 bd
       0.0019984997 -0.025306199 -0.009040947 -0.047782913
0000e0 a0 2d 9a bc ee d7 6a 3c ec 62 b6 bc 67 06 df bc
       -0.018820584 0.014333708 -0.022263967 -0.027224733
0000f0 43 90 62 3c b5 2a aa bc e5 af 69 bd ce c0 54 3e
       0.01382834 -0.020772317 -0.05705251 0.20776674
000100 2b 72 94 bc fe f5 68 3d 2d 7c b9 3c 7d 59 cb 3c
       -0.018120846 0.05687522 0.02264222 0.024822945
000110 53 ae a3 3d ec b9 e7 bb a4 36 59 3c 08 f5 35 bb
       0.07992234 -0.007071724 0.013257656 -0.0027764458
000120 67 3d 3a bc f7 91 13 3d c3 81 33 ba 7f 0b 20 3c
       -0.0113671785 0.036027875 -0.0006847644 0.009768366
000130 43 d0 0c 3d 98 40 37 3d 3c 3c 00 bd 9a 89 ff 3c
       0.0343783 0.044739336 -0.031307444 0.031193543
000140 55 2d 84 bd 6b ce de 3c d9 29 ab 3c 22 16 7a bb
       -0.06453959 0.027198037 0.020893978 -0.0038160165
000150 d5 c5 8e bb ea a2 1b 3d 52 7b 2e bc 14 a8 84 3c
       -0.0043570795 0.037997164 -0.010649519 0.016193427
000160 2f 17 12 3d cf 89 ff 3c 4d 68 3b bc 9f 37 0f bc
       0.03566664 0.031193642 -0.011438441 -0.008741288
000170 17 69 9b bd e4 9b 75 3c 25 0a 09 3c 65 b4 27 bc
       -0.07588404 0.0149907805 0.008364235 -0.0102358805
000180 0d 41 07 3d 8b 55 cc bc e1 64 5d 3c ca 64 fa bc
       0.03302102 -0.024943134 0.013512821 -0.030565638
000190 f3 bd 94 3c 15 4a 54 3c 53 79 92 bc 3b cf 65 bd
       0.018156981 0.012957116 -0.017880118 -0.056105834
0001a0 d4 3e b3 bb 1e a4 6b 3c 93 22 0a bd 79 f7 0a 3c
       -0.005470136 0.01438239 -0.03372438 0.008481854
0001b0 4f 21 52 3c 64 81 3b 3b 73 50 3e bd 88 83 8b 3a
       0.012825324 0.0028611058 -0.04646344 0.0010644058
0001c0 db 8f 0c 3c f3 77 2e 3b 76 1c 4a 3c 9b 67 3c bc
       0.00857922 0.0026621788 0.012335887 -0.011499311
0001d0 1c e4 7a bd da c5 58 3c 43 7a e9 bd ec 0b 28 bc
       -0.0612527 0.013230765 -0.11400273 -0.010256749
0001e0 3f f6 96 bb ab b7 12 bd ec a9 9f 3c 27 f4 1b 3d
       -0.0046069915 -0.03581969 0.019490205 0.03807464
0001f0 52 2a cb 3c 06 3f 5d bc f0 64 1a 3c b6 a6 a2 bc
       0.024800453 -0.0135037955 0.009423479 -0.019854885
000200 54 06 08 bb 30 f3 0c bd e9 37 a9 3a cf c2 07 bb
       -0.0020755725 -0.03441161 0.0012910339 -0.002071548
000210 e1 24 1a 3d d9 e4 0f b9 8d 07 8b 3c ba d7 75 bd
       0.037632827 -0.00013722795 0.016971374 -0.060020186
000220 88 ff 70 3b 35 31 eb bc 78 06 fa bc 0e 49 b5 3c
       0.0036773402 -0.028709987 -0.030520663 0.022129562
000230 9b ed e4 ba fa 6b 72 3b 82 47 94 3b b6 54 1b bc
       -0.0017465831 0.0036990629 0.004525126 -0.009480646
000240 56 4e a3 bc a4 66 03 3c 0b da c1 bc c0 11 94 bb
       -0.019934814 0.008020077 -0.023663541 -0.0045187175
000250 c4 1c 03 3b df a1 37 3c 7f 5d 20 bd 51 a3 1d bd
       0.002000616 0.011208027 -0.039151665 -0.03848583
000260 5a 9d be bb 96 67 2b 3b a8 7a 9f 3c 93 10 63 bb
       -0.0058170976 0.0026154271 0.019467667 -0.003464733
000270 f0 82 aa bb cb c1 e7 bc c2 bf 9b bb 7e ad 02 bc
       -0.0052035972 -0.02829065 -0.004753084 -0.007975934
000280 d0 4c c0 3c ac 22 af 3d 30 0e 31 3c c8 20 f5 ba
       0.023474127 0.08551535 0.010806605 -0.0018701786
000290 0b 42 13 3c 16 ff 1b bc a7 2e 80 bc ed 85 24 bc
       0.008987914 -0.009521266 -0.015647246 -0.010041696
0002a0 29 ca 0b bc 26 2b 0c 3c 6f 47 b4 3c 6c 59 b4 bc
       -0.008532085 0.008555209 0.022006718 -0.022015296
0002b0 e3 3a 5e bd 2a 17 5d 3c 3e df 43 3d a7 6b 8b 3c
       -0.054255378 0.013494292 0.047820322 0.017019106
0002c0 39 7d b4 3b 8a 24 92 bc de 11 ef 3b be e2 bc bb
       0.0055080918 -0.017839689 0.007295831 -0.0057643345
0002d0 e0 8e ef bc a1 89 96 3b ff 5d 11 bc 36 eb 46 3b
       -0.029242933 0.0045940434 -0.008872508 0.00303526
0002e0 bb e5 2d bd f3 44 06 bd 43 29 80 bc b8 a1 3e 3c
       -0.042455416 -0.0327806 -0.015644675 0.011635236
0002f0 48 4c 83 3c 6f 85 09 bc b0 a8 e3 bc aa 38 aa bd
       0.016027585 -0.008393629 -0.027790397 -0.08311589
000300 f5 9f c2 3c c9 5a 0c bc 0e af 99 bb 29 3c 1c bd
       0.023757914 -0.008566567 -0.0046900576 -0.03814331
000310 42 10 34 bc 4d a6 2d 3c 72 4b 99 3b 71 0d 64 bd
       -0.010990204 0.010598731 0.0046781832 -0.05567688
000320 4d 25 13 bc f4 7a ee bb 10 78 4d 3c cc 36 9c 3b
       -0.008981061 -0.0072778407 0.012540832 0.0047672745
000330 5d ec 8f 3c e1 04 31 3d 16 98 31 3c a4 28 9f 3d
       0.017568761 0.043217544 0.010839483 0.077714235
000340 a9 70 1a 3d de 50 a9 bc a8 2e d5 3b 08 ab b8 bb
       0.037705097 -0.020668443 0.006505806 -0.005635623
000350 2d b8 67 bd ed 84 0a 3d 12 a6 54 bc 3d bc 10 3c
       -0.056572128 0.033818174 -0.012979047 0.008833942
000360 e6 94 aa bc a3 db 15 3d 0c 41 65 bb 5c 61 80 bc
       -0.020822953 0.036586415 -0.0034981398 -0.015671425
000370 81 53 27 3c f5 a6 51 bd 84 04 02 3d 34 98 6b 3c
       0.01021278 -0.051184613 0.031742588 0.01437955
000380 52 c8 9b bc c1 fd 6a 3b 23 c7 a8 bb 43 41 f4 3c
       -0.019016419 0.0035856816 -0.005150692 0.029816275
000390 05 64 88 bd c7 de b7 3c 09 a7 22 39 a8 04 b0 bc
       -0.06659702 0.022445096 0.0001551175 -0.021486595
0003a0 99 4e 02 3d 8e fa 18 3c 9d d9 8a 3c 25 24 02 bb
       0.031813238 0.009337081 0.01694947 -0.001985797
0003b0 e9 8a 07 3c 1b 4c 30 bd 10 90 47 3d a9 83 af bb
       0.008272865 -0.04304133 0.048721373 -0.0053562713
0003c0 dd 59 bb bc 23 42 19 bc 4c e2 c8 3a f2 3b 85 3c
       -0.022869999 -0.009354147 0.0015326231 0.016263936
0003d0 fb fe 1d 3d 51 49 bb 3c bb c8 da 3b a9 d0 9c 3a
       0.038573246 0.022862108 0.006676761 0.0011964041
0003e0 0b ce cf 3c 07 94 fe ba ad 2c d0 bc aa 3d ad bd
       0.025366804 -0.0019422778 -0.025411928 -0.08459027
0003f0 d2 7e 79 bc 90 41 f8 3b a3 ac 1f bc 98 00 76 3c
       -0.01522799 0.007576175 -0.00974575 0.01501479

action_model._discrete_distribution.branches.1.bias f4 [2]
000000 9d 5b a1 bc a8 5b a1 3c
       -0.019697005 0.019697025

action_model._discrete_distribution.branches.1.weight f4 [2, 128]
000000 ee 21 51 3c 44 4c 64 3c f8 6c 88 3d a6 ef cb ba
       0.012764437 0.013934199 0.06661409 -0.0015559092
000010 97 62 54 bc f5 54 ae ba c6 55 7d 3c ea 06 8a bc
       -0.012962959 -0.0013300466 0.0154623445 -0.016849
000020 12 43 b0 bb 8d c6 7d bc 07 b5 47 ba 2f 9a 41 bc
       -0.005379089 -0.015489233 -0.0007618223 -0.011816545
000030 00 c5 a8 3b ad 51 f9 3b 3e d8 66 bc ad 85 e3 bc
       0.0051504374 0.0076086135 -0.014089642 -0.027773703
000040 ce 2a 3c bc 3f ac 6b bc 2f 4a a3 3c 3b ea e8 bb
       -0.011484815 -0.014384328 0.019932834 -0.0071080006
000050 8f 0f c9 bc 2f 1a fe 3a bc 17 56 3b 8f bf bd bc
       -0.024543552 0.0019386465 0.0032667955 -0.023162631
000060 5c 8f 87 3c 1d ef 89 3a e1 fa 19 bd 93 47 c0 bc
       0.016547851 0.0010523532 -0.037592772 -0.02347163
000070 6d 77 2c 3c 15 6a c4 3c 3e be a4 bc 40 6e 45 bb
       0.01052652 0.023976365 -0.020110246 -0.0030125529
000080 00 9b 7b 3a 68 b0 7e 3d 3c c1 f9 3b 59 f7 88 bc
       0.0009597987 0.062179953 0.0076219123 -0.016719507
000090 9b c5 08 bb 46 f2 c6 ba bd 17 8b bc b5 a6 99 3c
       -0.0020869735 -0.0015178404 -0.016979093 0.01875625
0000a0 2b 34 f3 bc 6a 60 25 3d 6e 9f 0f bc 78 7b f9 3c
       -0.029687962 0.04037515 -0.008766038 0.030454382
0000b0 99 c3 26 3d 95 ec 4c bc 5b 2b 4b bb 62 19 63 ba
       0.04071388 -0.012507577 -0.0031001184 -0.0008663145
0000c0 b8 cc 3a 3c c5 72 d3 3b 34 4d 47 3d 6b 0e cc bc
       0.011401348 0.0064528906 0.04865761 -0.024909219
0000d0 75 2d 04 3a 6d d8 c5 3c b3 04 cd 3c 52 ad e8 3c
       0.0005042174 0.024151051 0.025026655 0.028402958
0000e0 ba eb 96 bd a5 0a 8a 3b 3c e8 b1 bc 7a a9 55 3a
       -0.0736918 0.0042126947 -0.021717183 0.0008150559
0000f0 57 47 80 3d 92 86 90 3c 8c 68 13 3d 9e a2 a4 3d
       0.06263607 0.017642293 0.035988376 0.08038829
000100 50 29 1d 3d 25 34 0b 3d 6b 6c 12 bd 4f eb cb 3c
       0.038369477 0.033985276 -0.035747927 0.024892477
000110 03 87 9f 3b a3 48 1f 3c 80 84 d9 3a 01 5c 72 3c
       0.0048683896 0.009721908 0.0016595274 0.014792443
000120 a2 41 62 3c 50 11 e9 bc 9e 71 54 3c 31 cb 91 3c
       0.013809593 -0.028450638 0.012966542 0.017797085
000130 12 57 13 3d bf 21 95 3b b7 b2 2d bd 70 60 ee 3d
       0.03597171 0.004551142 -0.042406764 0.11639488
000140 91 be 51 3c c8 e7 97 3b 7b d6 cd 3c d5 e8 b3 3b
       0.012801782 0.004635785 0.025126686 0.005490402
000150 3c 26 8f bd ee 9d 51 bd 05 5c 79 bd 70 27 33 3b
       -0.069897145 -0.051176004 -0.060878772 0.002733674
000160 ff 4d 6a 3c c9 f9 9d 3d e1 7a 01 bd 97 09 d7 3b
       0.014300822 0.07713658 -0.031611327 0.0065624225
000170 54 76 4e bc 9f 0b 4b bc bc d3 1f bc 12 9c b7 ba
       -0.012601454 -0.012392907 -0.009755071 -0.0014008305
000180 17 44 03 3d e8 72 78 3b 30 7d 15 3d 85 62 9b bc
       0.032047357 0.0037910286 0.03649634 -0.018967876
000190 de b4 bd 3c b2 7c 09 3c 41 07 b4 bc a0 75 bd bb
       0.023157533 0.008391546 -0.021976115 -0.0057818443
0001a0 3b 8e ed ba 4d 4e 1f 3c 93 2d 2b ba 26 41 94 bd
       -0.0018124053 0.009723258 -0.00065299234 -0.072389886
0001b0 fb 31 33 b9 f3 d1 2a 3c a9 7b 84 3c 10 2a 8a 3a
       -0.0001708939 0.010426032 0.016172247 0.00105411
0001c0 5d 3b b7 3b d4 0f 80 bb c2 aa db 3c e0 8f 4d bd
       0.0055917935 -0.003908137 0.026814822 -0.050186038
0001d0 0f 79 5f bc a0 a6 88 bb 61 4e c8 3d d0 73 c1 3c
       -0.013639702 -0.004170254 0.097805746 0.023614794
0001e0 c6 69 81 3c fe 91 a8 bd a7 d0 ff bb 6f d3 22 3c
       0.015797507 -0.08230971 -0.0078068557 0.009938105
0001f0 d4 8c 87 bc f8 2e 6d bc a9 f4 23 bc ab 56 61 bc
       -0.016546644 -0.01447653 -0.010007062 -0.013753573
000200 dd 10 bb bc 03 a4 92 bb 12 51 c1 bd 33 28 dc bb
       -0.02283519 -0.004475118 -0.09439291 -0.0067186593
000210 e7 86 9e 3c d4 28 b0 bc 33 00 f8 bb b4 2e fc 3b
       0.019351436 -0.021503843 -0.007568383 0.007695997
000220 a7 cd 63 3b 8f cb 2f 3b dd 91 ae 3c be fe 9a 3b
       0.003476003 0.0026824211 0.021309787 0.0047300747
000230 65 ca 70 bc 15 e2 be 3a a3 f8 43 3c 72 bf f9 3c
       -0.014696692 0.0014563227 0.011961135 0.030486796
000240 91 d9 9e 3b fa 16 d1 3b a6 c0 5e bc e5 55 25 3c
       0.0048477133 0.006380913 -0.013595736 0.01009128
000250 f0 bf c5 3c 72 fd a7 3b 1e 10 be bc 55 65 fd b9
       0.024139374 0.0051266486 -0.023201045 -0.0004833142
000260 3b da 39 3c 78 48 5a 3c e0 9d 19 3d a9 b4 a6 3c
       0.011343534 0.013322942 0.037504077 0.020349817
000270 41 ac aa 3a 0a 43 1b bd 11 8f 8e 3c 6f c0 31 bc
       0.0013021306 -0.03790573 0.017402204 -0.010849102
000280 2d fe 9a bb fa 95 b4 bd c2 3a ae bb a3 32 d7 3b
       -0.004730007 -0.08817668 -0.005317063 0.0065673157
000290 05 61 e7 3b bb fd 52 bb a9 c2 06 3d 65 3f a0 bc
       0.007061126 -0.0032194692 0.032900486 -0.019561479
0002a0 38 5d 8a 3c 0e 9d 67 bd 4f 1c a9 3c a8 17 fd bc
       0.016890153 -0.056546263 0.020643381 -0.03089507
0002b0 22 15 0a bd db 2f 09 bb cf 56 2a 3c 33 54 5f bc
       -0.03371156 -0.0020933065 0.010396673 -0.0136309145
0002c0 40 80 13 bc 6d bd 0d bc 42 3f 0d bd 21 69 ac 3c
       -0.009002745 -0.00865112 -0.034484155 0.021046223
0002d0 09 3f d2 bb c0 a3 d5 bc 74 6f 13 bd 90 cf 3f bc
       -0.006416206 -0.026079059 -0.03599496 -0.011707202
0002e0 87 6e 8a 3d 79 d0 96 bc eb 3d 2e 3c 2a 25 b6 3c
       0.06759363 -0.018409954 0.01063488 0.022234518
0002f0 c6 37 8b bd 06 00 32 bc 05 d3 46 bd cf 4e 86 bd
       -0.06797747 -0.010864263 -0.048541088 -0.06558
000300 75 6f c8 bc 0b 8e fa bc 5d cf c3 3c 45 8c 56 bc
       -0.02446721 -0.03058531 0.02390259 -0.013094966
000310 d0 57 df bb 60 2e 79 bc 16 26 bd bc 2d 15 02 bd
       -0.006815888 -0.015208811 -0.02308945 -0.031758476
000320 30 26 88 3a 97 21 c8 3c df 2b 6a bb 41 f5 0b bb
       0.0010387357 0.02443008 -0.0035731716 -0.00213559
000330 ac cc 05 bd 27 22 07 bc bf fd 1c 3d 2a 78 d8 bd
       -0.032665893 -0.008247889 0.03832793 -0.105697945
000340 ad 03 96 bb fb 83 9e bb 6a 77 33 bb 30 02 77 bc
       -0.004578075 -0.0048375106 -0.0027384409 -0.015076205
000350 d4 d5 18 3d 2d 7f 45 3d f5 a9 3f 3d 76 d6 76 3c
       0.037313297 0.048216987 0.046792943 0.01506578
000360 29 32 00 bd 9d ef a9 bd eb c1 2e 3d d6 86 a4 ba
       -0.031297836 -0.08297656 0.042665403 -0.0012552391
000370 e0 03 9f 3c ea 3c 66 3c d1 0e 9c 3c 31 c3 05 3c
       0.019411027 0.014052609 0.019050034 0.008164213
000380 be 4c 9e bc 45 43 e5 bb c3 0e 55 bd 46 b2 aa 3c
       -0.019323703 -0.0069965445 -0.05201603 0.02083696
000390 c1 4f ea 3a ab 7a 5b ba 9c 5d 5f bc d3 c8 b2 3a
       0.0017876552 -0.0008372466 -0.013633158 0.0013640173
0003a0 41 f6 1e 3c bb dd 8f bb 90 eb 44 3c 45 e2 a9 3d
       0.009702266 -0.004390446 0.012019053 0.082951106
0003b0 15 f7 10 3c 6e ba e3 bb 29 c9 b6 bc b4 d6 4e 3a
       0.008847971 -0.0069497144 -0.022312718 0.00078902696
0003c0 b8 7d b2 ba ba 92 e9 ba 45 83 50 bb ce 4f 59 3d
       -0.0013617789 -0.0017820217 -0.0031816524 0.053054623
0003d0 8b c3 87 3b 27 12 2c 3c 5a 0c d2 bd 0f b6 45 3b
       0.0041431836 0.010502375 -0.10256262 0.003016833
0003e0 c2 59 bc 3b a8 7a a2 3d 7f 25 1c 3c 1a 75 77 bb
       0.0057480047 0.07933551 0.009530424 -0.0037759007
0003f0 70 17 a4 3a 6d 01 b3 bb 06 d7 03 3c 9a 22 2a 3c
       0.0012519192 -0.0054628165 0.008046871 0.010384226

discrete_action_output_shape f4 [1, 2]
000000 00 00 e0 40 00 00 00 40
       7.0 2.0

network_body._body_endoder.seq_layers.0.bias f4 [128]
000000 20 ed 97 bc c5 9e 29 ba 6a 4a 5a bc c6 6f dc 3b
       -0.018545687 -0.0006470497 -0.013323406 0.0067271916
000010 90 bb 0e 3d 96 c3 07 bd b0 c1 1d 3c b4 9c 25 3c
       0.034846842 -0.03314551 0.009628698 0.010108162
000020 6d f6 52 3b 10 0b 51 3c d3 c0 99 3c 08 7d d5 3d
       0.0032190338 0.012758985 0.018768704 0.104242384
000030 97 49 ce bb 0f 68 7b 3d 43 87 06 3d 1a 02 3e bc
       -0.0062953937 0.061378535 0.03284384 -0.011597181
000040 5e 37 e4 3c 45 d0 8c bc 9d 24 02 3d 0f dd 10 3c
       0.027858432 -0.017189154 0.0317732 0.008841767
000050 94 f9 3b 3d 9e a2 95 3d 10 45 bb 3c 24 e1 38 3d
       0.045892313 0.073064074 0.02286008 0.045136586
000060 8d 3f cd bc 7e a0 3f 3d 07 f5 d6 bc 02 1d 05 3d
       -0.025054717 0.046783917 -0.026239885 0.032498367
000070 22 a4 eb 3c 6c a2 cc bc cc 8b cf bc fc eb 07 bd
       0.028764788 -0.024979793 -0.025335215 -0.033184037
000080 88 c4 2b 3d 86 cf c8 3d 6b a9 8c 3c 22 08 c5 bc
       0.041935474 0.09805207 0.017170629 -0.02405173
000090 cc 21 e2 bc 9f ff 89 bc 1e 0e a6 3c 5b 4a 94 3d
       -0.027604006 -0.016845522 0.020270403 0.07240745
0000a0 ae 41 af 3c 70 26 66 3c 38 08 db bc 16 c5 8a 3c
       0.021393623 0.01404725 -0.026737317 0.016939681
0000b0 18 6b d8 bc 5e 92 8d 3c 4a f8 8f 3c d1 af a8 bc
       -0.026418254 0.017281707 0.017574448 -0.020591648
0000c0 50 98 83 bc f4 f5 3f 3c fc e5 b0 3c c8 c9 3a bc
       -0.01606384 0.011716355 0.02159404 -0.011400647
0000d0 7d 47 95 bc 18 6b eb bc 0e 6c 02 3d 3e 82 8f bb
       -0.018222565 -0.02873759 0.03184133 -0.0043795398
0000e0 e9 11 10 ba 99 c5 f9 bc a1 1e 96 bc 5b dc 25 3d
       -0.0005495833 -0.03048973 -0.018325152 0.04049335
0000f0 ca 7b 8e 3d 42 ef d4 3d 4b fc 1d 3d f7 26 f8 3b
       0.06957205 0.10397197 0.038570683 0.0075730043
000100 9a 21 28 3d 31 b3 01 bc 6e 79 2a 3d 07 1d 2f 3d
       0.04104767 -0.007916258 0.04161971 0.042752292
000110 1f a2 fe 3c 5c 7f c4 3c c7 89 00 bd 02 5d 35 3c
       0.031083165 0.023986511 -0.031381395 0.011069538
000120 bc 40 1c 3d 61 46 f6 bb 41 9b 6b 3c 63 ce 96 3c
       0.038147673 -0.007515714 0.014380277 0.01840896
000130 0a db 25 3d c4 16 26 bd 67 de ae 3d 31 78 d1 bc
       0.040492095 -0.040549055 0.08538514 -0.025570007
000140 87 6c cb 3a f2 4a 00 3d f6 35 87 bc ea d2 6e 3d
       0.0015520015 0.031321473 -0.016505223 0.058306612
000150 58 78 a5 bc cc 05 93 bb de b0 38 bc c9 a7 a1 bc
       -0.020198986 -0.004486775 -0.011272637 -0.019733327
000160 66 6e 29 bb 37 89 28 3b 73 b0 e7 bb 50 64 ab 3c
       -0.0025853156 0.0025716552 -0.007070595 0.020921856
000170 84 95 94 bc 34 29 2c 3d ee 95 2a bd 4b 98 17 3d
       -0.0181377 0.04203148 -0.04164689 0.037010472
000180 9b 62 8d bd 77 9d 4c 3c 05 3a 74 3c 9e 2d 35 3d
       -0.06903573 0.012488714 0.014906411 0.044232957
000190 03 fb e8 3c a5 29 87 bc e1 68 9d bc bc 67 ec 3b
       0.028440004 -0.01649935 -0.01921505 0.0072145145
0001a0 6b 63 4e bb 09 1d 30 bb 9c 3f 57 3d 1a 85 4a 3d
       -0.0031492363 -0.0026872775 0.052550897 0.04944334
0001b0 99 93 59 bd 23 87 1a 3d 06 0f 8c 3d f0 e9 88 3c
       -0.053119276 0.037726533 0.06838803 0.016713113
0001c0 b6 15 c1 3d cf db cc 3d 1e 24 10 bd c5 43 4c bd
       0.09427969 0.10002863 -0.035190694 -0.049869318
0001d0 33 d5 56 3d 5d ca f4 3d b9 1a d0 3d e6 ca ab 3d
       0.052449416 0.1195266 0.10161347 0.08388309
0001e0 39 ba 89 3a ff f5 21 bc ce af 4a bb cd 2e cc bc
       0.0010507769 -0.00988531 -0.0030927542 -0.02492466
0001f0 29 f8 0d 3d e0 28 41 3c 46 3e 1a bc 7b 8f 05 3d
       0.034660492 0.0117895305 -0.009414261 0.032607537

network_body._body_endoder.seq_layers.0.weight f4 [128, 18]
000000 30 26 12 3d 96 e7 d3 3d 73 19 00 3d b6 78 ea 3e
       0.03568095 0.10346906 0.03127427 0.4579522
000010 78 93 15 3e 45 a6 c8 bd 99 b5 9d 3e 3b 27 97 3e
       0.14607036 -0.097973384 0.3080261 0.29522118
000020 92 ee 6f 3e b7 4f b9 3d e6 5c df bd ec d0 a2 3e
       0.23430851 0.090484075 -0.10906391 0.3180002
000030 f5 1e 90 3e bd 3c 20 be 9e 5d 78 3e 59 f0 88 3d
       0.28148618 -0.1564817 0.24254462 0.06686468
000040 9e 81 11 3e 56 81 f8 be a3 79 d3 3e a5 e5 23 be
       0.14209601 -0.48536175 0.4130374 -0.16005571
000050 f6 c0 d6 bc 0f ac 30 3e 8c 73 4b be 8d 96 d8 3d
       -0.026215058 0.17253135 -0.19868296 0.1057559
000060 bb 01 34 3d 85 7a 64 bd 42 f6 c7 3d 83 0e 50 3e
       0.043946963 -0.055780906 0.09763767 0.20318036
000070 48 d8 8b 3e 53 f2 dd 3d 7f 1a a5 3e 0c 90 aa be
       0.27313447 0.10837235 0.32246777 -0.33313024
000080 61 54 9c bd a0 43 b8 3d 34 5b 59 3e af 91 b2 be
       -0.076332815 0.089972734 0.21226197 -0.34876773
000090 0b 7c fe 3c ab d6 c6 bd ad ec a3 be bd 86 4c be
       0.031065008 -0.097089134 -0.32016507 -0.19973274
0000a0 a1 f5 66 bd 49 11 0c 3c 45 11 99 be a3 f1 a4 3e
       -0.056386594 0.008549043 -0.29895988 0.32215604
0000b0 78 05 4b be 42 ce f6 3b 18 87 68 be 3c b1 12 bd
       -0.19826305 0.007531912 -0.22707784 -0.035813555
0000c0 46 6f d4 3d 3a 54 35 be ff e0 29 3e 56 59 9c 3e
       0.10372786 -0.17707911 0.16589735 0.30536908
0000d0 82 62 28 3e 22 ee 13 bd 05 06 05 3c 54 10 8f 3e
       0.16443828 -0.036115773 0.008119111 0.27942145
0000e0 12 76 39 3e b0 37 53 bd 79 78 08 be 5c 25 c6 bc
       0.18111446 -0.05156678 -0.13327207 -0.024187736
0000f0 2e a5 d7 3d 0b 2a 68 3e 3d 1c b6 be f1 1b ba 3d
       0.105295524 0.22672288 -0.3556842 0.09087361
000100 b8 90 9c bd 09 2e eb ba 1c 42 cf 3d 06 b0 02 be
       -0.076447904 -0.0017942797 0.10120031 -0.1276246
000110 f6 5a f4 3e 5a 95 3c 3e c2 90 82 be 2b 95 37 3d
       0.47725648 0.18416348 -0.25501066 0.044819992
000120 49 50 c2 3e 91 45 4d be 90 c8 6d be 61 a0 09 be
       0.37951878 -0.20046069 -0.2322104 -0.13440086
000130 62 f1 7b 3e be ea 31 3e b5 67 41 3e 09 60 28 be
       0.24603799 0.17374703 0.18887217 -0.16442885
000140 e0 98 ff 3d 8a a9 2b bf a5 9d 1f 3c fb 7e e2 bd
       0.124803305 -0.6705557 0.009742175 -0.11059376
000150 56 aa 90 be 40 4b 92 be a7 04 f2 be 26 6a d9 bc
       -0.28254956 -0.28573036 -0.47269174 -0.026539873
000160 8c 65 a6 3c 61 df b3 3e b1 a4 97 be 03 5b ae 3e
       0.020312093 0.35131362 -0.29617837 0.3405381
000170 e2 b9 85 be 34 42 80 3e 40 78 bd 3d f9 20 8d be
       -0.2611838 0.2505051 0.092514515 -0.2756422
000180 35 b6 41 3e ad 25 96 3e c1 55 a6 3e df 1b a7 bc
       0.18917163 0.2932562 0.324873 -0.020399032
000190 a1 37 89 3c 91 32 f3 be 8d 67 b6 3e f9 f1 83 be
       0.016750159 -0.47499517 0.35625878 -0.25770548
0001a0 de 14 97 be 87 36 9c bc 12 35 99 3c 7b 9c 07 3e
       -0.29508108 -0.01906897 0.018702064 0.13243286
0001b0 86 1d 86 3d c0 7c f3 bd 58 1e 84 be d4 da eb bd
       0.065486 -0.118890285 -0.258044 -0.115163475
0001c0 44 2f fc bd 8c e8 e4 bd d1 13 7a 3e 20 59 41 bc
       -0.12313703 -0.11177167 0.24421622 -0.011801034
0001d0 ee b5 9d 3e 57 77 1b 3c 7f bf 49 bd e5 7a 42 3e
       0.30802864 0.009488902 -0.04925489 0.18992193
0001e0 7b 98 7b be 1c 87 c1 3e 9c 90 c5 bd 74 5f 02 bd
       -0.24569885 0.37798393 -0.09646723 -0.031829312
0001f0 54 8b a9 bd 35 f0 d1 3e 9e fa 17 3d f4 74 8c 3e
       -0.08278528 0.41003576 0.03710424 0.27432978
000200 be b4 bc 3c e3 96 ac 3e fd c9 15 bf 8b b5 a0 bd
       0.023035403 0.33708867 -0.58511335 -0.078471266
000210 cc 1b f7 be 77 c7 00 3e 87 06 11 3d dd 44 32 bd
       -0.48263395 0.1257609 0.035406616 -0.043522704
000220 63 1f 5e 3c 38 f7 44 3e 51 a7 21 bf 75 bd 84 bd
       0.013557288 0.19234931 -0.6314593 -0.064814486
000230 6c 9d 79 bd 38 74 e5 be ca 0e 0d 3e 13 cb 08 be
       -0.060941145 -0.4481523 0.13775173 -0.13358717
000240 11 9b ad be 7f 37 09 3f f5 db 40 be 7c 46 0d be
       -0.3390737 0.53600305 -0.18833907 -0.13796419
000250 84 ab 78 3e 54 86 90 be d1 73 e1 be 28 3a 81 3d
       0.24284178 -0.28227484 -0.44033673 0.063099205
000260 8e 27 8e bd 7f 18 fd be 7a f8 54 3d 97 0b ab be
       -0.06941138 -0.49432752 0.05199478 -0.3340728
000270 e4 c2 c9 3e 55 5d 93 3e f6 88 b4 3e 4f e8 e3 be
       0.39406502 0.28782144 0.35260743 -0.44513175
000280 72 5a 1f 3e 82 a2 3c 3e 50 ff 10 bd 2c 89 88 3e
       0.15561846 0.18421367 -0.035399735 0.26667154
000290 d1 7a 85 3e 13 96 20 bd 0e 9f fe bc b2 9e bf 3e
       0.26070264 -0.039205622 -0.031081703 0.37425762
0002a0 6f cc 76 be e4 fa 8f 3e 21 dd 28 3e 49 94 9c be
       -0.24101423 0.28121102 0.16490604 -0.30581883
0002b0 c5 87 c9 bd 22 af 3e be de 2c 1a bc 35 8e 4d 3d
       -0.09840349 -0.18621495 -0.009410111 0.050184447
0002c0 bf fb 77 be af ae 2c bd 60 68 e0 3d 02 f9 17 bd
       -0.24217127 -0.04215878 0.10957408 -0.037102707
0002d0 96 7b 46 be 62 74 27 be 4e 8a bd be a7 f4 4f bd
       -0.19383082 -0.1635299 -0.3701958 -0.050770428
0002e0 10 a1 81 be 08 46 aa 3d b9 a9 7d 3e 1e d3 57 bd
       -0.25318193 0.08314139 0.24771775 -0.05269157
0002f0 be 8c 09 3e c3 31 9a 3e ac 75 61 3e 4e c6 6f 3e
       0.13432595 0.3011609 0.22017545 0.23415491
000300 3f fc 4e be 20 b7 cc be 14 bd 4b 3e c9 72 d5 3e
       -0.20213412 -0.39983463 0.19896346 0.41689137
000310 f1 bf bc 3d 3b 49 52 be d1 b8 ff 3c 63 b4 26 be
       0.092162974 -0.20535748 0.031216057 -0.1627975
000320 43 7f 1c 3e 13 3a 19 bd f2 1e bd bd 2f ff 86 3e
       0.15282921 -0.0374089 -0.09234418 0.26366565
000330 fd d2 ac bd 09 81 c1 be 39 ba 28 be 73 47 b5 bc
       -0.0843868 -0.3779376 -0.16477288 -0.022128796
000340 a5 47 02 3f b0 cd 7d 3d f4 ee 7c 3e 07 fb f8 3d
       0.5089057 0.061963737 0.24700528 0.12157255
000350 43 ba c8 3e 59 c4 78 3d 69 5b ae 3d 55 87 11 3e
       0.39204606 0.060734127 0.08513529 0.14211781
000360 4c 49 a0 3e a0 b5 18 bc 67 24 76 be d8 28 7a 3e
       0.3130592 -0.0093206465 -0.24037324 0.24429643
000370 88 37 c7 3d af 6f 61 be 66 1a c3 3e 18 b3 db bd
       0.097273886 -0.2201526 0.38106078 -0.10727519
000380 44 cb ee 3c 1b 87 73 3e 46 88 5d 3e 7f 76 38 be
       0.029149659 0.23782007 0.21634015 -0.18013953
000390 b0 14 03 3e 33 4c f8 bd d9 f2 ae 3d 8b b2 dd bd
       0.1280086 -0.12123909 0.08542413 -0.1082507
0003a0 7a ba 07 bf 07 b5 49 be 3c b7 52 3e 36 be de bd
       -0.53018916 -0.19697963 0.20577711 -0.108761236
0003b0 a8 95 f7 bd 53 01 76 bd b1 47 a8 3e 7f da f5 3d
       -0.120890915 -0.060059857 0.32867196 0.120045654
0003c0 3f 9e 00 3c 0d 0e de 3d 0f 24 71 be d8 9b 62 3e
       0.007850229 0.10842524 -0.23548912 0.22129762
0003d0 e5 26 05 3e 7f b5 2d 3e 55 bf 7c be 12 60 a3 be
       0.13003118 0.16963767 -0.24682362 -0.31909233
0003e0 a0 a7 4c be 3e 6b fc bc ba 02 38 3e a2 47 e3 3d
       -0.19985819 -0.030812856 0.1796979 0.11097647
0003f0 b2 4e 67 3e 6c bd 8a 3e bc a3 cb 3d 0c f9 2c be
       0.22588614 0.27097642 0.09943339 -0.16891879

network_body._body_endoder.seq_layers.2.bias f4 [128]
000000 28 56 a9 bc 58 ed 37 bc e9 f8 a4 3c c5 dc 68 3c
       -0.020670965 -0.011226021 0.02013822 0.014212792
000010 95 1f 41 3d de 0d 12 bb 7a d7 76 bb dd 03 82 bc
       0.04714926 -0.0022286098 -0.0037665055 -0.015870983
000020 5e 4b 16 3d de 3b 3a 3b 12 ee 45 3d 11 c6 0f 3b
       0.03669297 0.0028417031 0.048322745 0.0021938125
000030 ab 00 57 bb e7 7b 01 3b 9f b7 22 bb 92 34 19 3d
       -0.0032806795 0.001975769 -0.0024828685 0.03740365
000040 5c 96 81 bc 89 6f 28 bc a8 f3 b4 3b 08 1f 11 3d
       -0.015818767 -0.010280498 0.00552221 0.035429984
000050 06 c8 d0 3c ad f0 01 3c 5f ff 8d bc af 98 5e bc
       0.025486004 0.007930917 -0.017333684 -0.013586207
000060 cc cc 28 bc 4c 7c 06 bb ae f5 2a 3c 4a e8 02 3c
       -0.010302734 -0.0020520864 0.010434551 0.007989952
000070 4b 47 8c bb 6c 65 99 bc d2 93 d6 3c 15 92 b6 bb
       -0.0042809597 -0.01872512 0.026193533 -0.0055716136
000080 43 06 35 bc e1 b8 12 3d 98 bb 65 bc 77 eb 45 bc
       -0.011048856 0.035820846 -0.014021777 -0.012080065
000090 a7 98 6c bc dc 9f 1f bc f2 94 38 3b f4 74 03 bc
       -0.014440692 -0.009742703 0.002816495 -0.008023489
0000a0 ca d9 92 bb 85 33 eb bc 83 81 a8 bc 78 d1 e0 bb
       -0.004481529 -0.02871109 -0.020569568 -0.006860908
0000b0 62 74 8e 3c 36 80 a1 bc 7f 44 c2 3b d1 91 a2 bc
       0.01738948 -0.019714456 0.0059285755 -0.019844921
0000c0 0a 08 b3 3b 34 00 27 3c 6c bf 13 bc 64 35 65 3c
       0.005463605 0.0101929195 -0.0090178065 0.01398978
0000d0 3d 83 c0 bc b2 73 96 bc b0 36 af bc 7b 5a 80 3a
       -0.02350008 -0.018365715 -0.021388382 0.000979259
0000e0 05 d8 20 3d 56 39 ba 3c ec 57 6d ba 72 57 b6 bc
       0.039268512 0.022732418 -0.0009053934 -0.022258494
0000f0 0b 51 cc 3c 47 76 e9 bb 0b 9a a8 bc 0f 5c 8e 3d
       0.024940988 -0.0071246955 -0.020581266 0.069511525
000100 db f9 b4 bc 08 41 0f 3b ba e7 76 3d 16 df ba bc
       -0.022091797 0.002185883 0.060279585 -0.022811454
000110 75 08 d4 3c b6 e4 b4 bc 10 8c c6 bc 82 dd 19 3c
       0.025882939 -0.022081714 -0.024236709 0.0093911905
000120 b6 17 97 3b 7b 12 8e 3c 09 37 be bb 92 b7 20 bd
       0.004610981 0.017342797 -0.0058049005 -0.039237566
000130 d8 45 df bb 8f 7e cb 3c 73 09 02 ba fb d0 c6 3c
       -0.006813746 0.024840621 -0.00049605145 0.024269572
000140 34 6a 4d bc d5 3a 0a 3b 81 52 f2 3b 60 f0 8d bc
       -0.012537528 0.0021092196 0.007395089 -0.017326534
000150 1f 29 92 bb 6e ea 5f 3d 4a e2 e8 3c 88 4a 8c 3c
       -0.0044604684 0.05466693 0.028428216 0.017125383
000160 1e 76 50 3c 26 08 bd 3c 86 d7 0c 3c 06 12 88 bc
       0.012723474 0.023075175 0.008596307 -0.016610157
000170 91 3e 55 3a ab 99 2f 3d a2 a2 47 3d 34 b2 86 bb
       0.00081346283 0.04287116 0.048739083 -0.004110599
000180 ac 4c 4b 3c 51 e4 cb 3c 4b 08 6e 3c c6 88 dc 3c
       0.012408417 0.024889143 0.014528344 0.026920687
000190 c6 a3 9f 3b 8f 81 b7 ba 79 bb 73 bc c8 e3 a1 3c
       0.0048718182 -0.0014000403 -0.01487624 0.019761935
0001a0 ca 9c 7d bb 24 d8 15 bc 0e dc 96 bc ae 62 00 3d
       -0.003869819 -0.00914577 -0.018415477 0.03134411
0001b0 43 6e 12 bc d6 49 d1 bb 3a 81 2c 3d 1c aa c5 bc
       -0.008937421 -0.0063869758 0.042115428 -0.024128966
0001c0 13 e3 60 bc 33 e3 21 3c d4 57 c4 bb 6f 34 d6 3c
       -0.013726014 0.009880829 -0.0059919152 0.02614805
0001d0 3d 90 1c 3c 36 5a 80 bc a4 a0 9c 3c 23 c6 82 bc
       0.009555873 -0.015668016 0.019119568 -0.01596362
0001e0 24 11 57 39 8c cf 2c bb 24 93 6d bc ee c1 05 3d
       0.00020510383 -0.0026368825 -0.014500413 0.03265565
0001f0 7e 0f 9a bc 9b 51 22 bc 09 d1 13 bc 4d 15 2c bc
       -0.018806215 -0.009907152 -0.009022006 -0.010503125

network_body._body_endoder.seq_layers.2.weight f4 [128, 128]
000000 6a 10 c9 3c b5 84 0d 3c 10 23 df 3c 39 95 ce bd
       0.02454396 0.008637597 0.027238399 -0.10087056
000010 a9 5a 94 bc 8a 66 86 bd 96 27 ab 3d 98 b5 69 3d
       -0.018109636 -0.065625265 0.0835716 0.057057947
000020 08 0a 3f 3d 19 d0 4c 3d 7a 96 c7 bd 00 29 55 be
       0.046640426 0.050003145 -0.09745498 -0.20816422
000030 64 f8 d0 bd b1 e5 f9 3d f7 43 fc 3d ce 59 d4 3d
       -0.10203627 0.12202013 0.12317651 0.103686914
000040 d3 8a 07 bd cc 48 da bd 9d 6a d1 bd f7 5b 8b 3c
       -0.033091377 -0.10658416 -0.10225413 0.017011626
000050 19 93 56 3d 64 12 ad 3b fe 5b 76 3c 4d 29 66 be
       0.052386377 0.0052817333 0.015036581 -0.22476692
000060 64 55 8d 3d 56 e1 e3 3d 81 25 ea 3d a1 79 f3 bd
       0.069010526 0.11126964 0.114329346 -0.11888433
000070 53 16 b0 bc f6 43 41 bd a6 71 2d 3e 5e a2 ad 3d
       -0.02149502 -0.047183953 0.16937885 0.08478235
000080 42 41 a6 3c 90 86 a0 bd a5 22 58 bd 7a 6f 84 bc
       0.02029479 -0.07838166 -0.052767415 -0.016166437
000090 66 93 6f 3d f7 83 86 3d f7 93 8d bc 85 25 a7 bd
       0.05849018 0.06568139 -0.01728247 -0.08161453
0000a0 57 da 5d 3d 52 f5 c5 3c e3 3d b8 bd e9 10 6d bd
       0.054163303 0.02416483 -0.08996179 -0.057877455
0000b0 41 9f 33 bd 10 ca 10 3d 33 f3 a9 3d 6f 50 a3 bd
       -0.04385305 0.03534895 0.0829834 -0.07974326
0000c0 cd 31 08 3d be 4e 85 3b 27 b8 87 3e db ab 15 3e
       0.03325062 0.0040682247 0.26507685 0.14616339
0000d0 1a 38 a5 3c 2c 64 d5 bd 72 d0 56 bd 0b 87 92 3d
       0.020168353 -0.10419497 -0.052444883 0.07154664
0000e0 43 3d 4f 3e 20 ce c0 3d 50 78 03 bd 57 02 a9 bd
       0.20238213 0.09414315 -0.03209716 -0.082523994
0000f0 f8 3d f2 3d 06 bf e3 bd dd 28 0c 3e fa e6 8a 3d
       0.11828226 -0.11120419 0.13687463 0.067823365
000100 c3 a3 47 be c1 54 5b be bf 6f 04 bd b1 b8 0b 3e
       -0.19496064 -0.2141905 -0.032333132 0.13644673
000110 a2 e2 7e bd eb d3 8c be e5 64 ab 3b e6 43 8d 3d
       -0.062227853 -0.2750543 0.0052305334 0.06897716
000120 7e 74 18 be cf 6d 5d 3d d3 3c b8 3d 13 ee ab 3c
       -0.14888188 0.0540598 0.08995976 0.020987546
000130 3f e8 52 3d 82 52 c7 3c 23 17 18 3e 12 da 34 be
       0.05149102 0.024331335 0.14852576 -0.17661312
000140 5e 3c 38 3e 23 c6 04 be c1 2c 88 bd 07 91 ce 3d
       0.17991778 -0.12966208 -0.06649161 0.100862555
000150 e7 61 23 bd a2 ae 30 be 97 2e ef 3d 7d b9 fa bd
       -0.03988829 -0.17254117 0.11678808 -0.1224241
000160 fc 26 69 bd 8e e8 83 3e 91 5c e2 bd 8d 06 30 be
       -0.056921944 0.25763363 -0.11052812 -0.17189999
000170 82 97 87 3c 65 ab 1c bd 10 68 86 3d 5d c4 dc 3d
       0.016551737 -0.038249392 0.06562817 0.10779641
000180 35 df 7e 3d 25 ce 97 bd 3a 1c d0 3d c9 89 ae 3d
       0.062224586 -0.07412366 0.10161634 0.08522374
000190 73 77 36 3d 51 d3 34 bc b1 40 5f bd 8f b5 c7 bd
       0.04454751 -0.01103671 -0.054505054 -0.097514264
0001a0 60 01 9e bd 91 95 b3 3c 98 d9 8f bb a5 f5 10 be
       -0.07715106 0.021921905 -0.004389953 -0.14156206
0001b0 85 83 17 3d 41 87 68 bd b3 16 e9 3c 89 76 2f bd
       0.03699066 -0.056769613 0.028453207 -0.042837653
0001c0 95 e7 be bd 46 27 17 3d 45 77 fc 3c 0b bd 87 bd
       -0.093215145 0.03690269 0.03081859 -0.06627854
0001d0 87 43 7b 3e 2a 94 bc bc 63 d9 75 bd 11 b5 e4 bd
       0.24537478 -0.023019869 -0.06002177 -0.11167348
0001e0 6f 3a ce bd 0d 65 31 3d 01 a8 86 bb 51 1b a1 bb
       -0.10069739 0.04330926 -0.004109383 -0.0049165864
0001f0 b9 40 a5 3d 56 cb 7a bc 13 da 29 3d 21 23 07 3e
       0.080689855 -0.015307268 0.041467737 0.13196994
000200 38 e2 20 bd 83 a0 49 bd 32 77 4d bd ba 85 f2 bc
       -0.03927824 -0.04922534 -0.0501625 -0.029604781
000210 b3 d8 09 3e dc 06 c2 3d c1 7e 44 be b3 54 aa 3d
       0.1346157 0.094739646 -0.19188978 0.08316936
000220 a8 15 17 3e 8d 0e e4 bc e4 c6 03 b9 96 5e cb bd
       0.14754355 -0.02783897 -0.00012567226 -0.0993015
000230 00 7e 2f 3d 49 79 ec 3d 5b 7e 05 bc 70 69 fe 3c
       0.042844772 0.11546571 -0.008147801 0.031056136
000240 54 9d 7c bd e8 2b a4 3d 20 da a7 bd 0d 65 d7 bd
       -0.061673477 0.08016187 -0.08195901 -0.10517321
000250 c2 08 ab bd 20 6e de bd b1 4a bc 3d 1e 22 b8 bd
       -0.0835128 -0.108608484 0.09193934 -0.08990882
000260 23 de 11 3d 3e 74 a9 bd 21 2f 00 be be f4 35 be
       0.035612237 -0.082741246 -0.12517978 -0.17769143
000270 f0 c4 29 3e 00 2d ee 3d 1a 9e 37 3e 48 10 a7 bc
       0.16579032 0.11629677 0.17931405 -0.020393506
000280 a0 9d 4e 3c d1 cc 88 3c 3b 8c 2a 3e f5 6b 29 be
       0.012610823 0.016699227 0.16655056 -0.16545089
000290 7f 4f 56 be e9 12 2d bd 7d 63 64 be 3a 10 e0 3c
       -0.20928763 -0.042254362 -0.22303577 0.027351487
0002a0 7c 55 15 bd 2a eb 67 3d c6 32 a3 3c 47 93 44 bd
       -0.036458477 0.056620754 0.019921672 -0.047992017
0002b0 a7 f3 e7 3c c8 c8 1a 3e 60 79 2b be 5a 8e 35 3e
       0.028314425 0.15115654 -0.1674552 0.17730084
0002c0 c6 d4 c5 bc 96 96 38 bd 38 a8 b0 3d 67 41 4b bd
       -0.02414931 -0.045065485 0.08625835 -0.04962292
0002d0 34 87 d0 bd 09 2f bd 3d 5e 6b b2 bd 94 6a 95 bc
       -0.10182038 0.09237487 -0.08711885 -0.018239297
0002e0 64 49 2d 3d 31 6f e2 bd cc ae ad bd 1b 79 1f 3d
       0.04230632 -0.11056364 -0.084806055 0.038933855
0002f0 0f d1 38 3d 6e 7d 11 be ed 9a 19 3d 96 04 6d 3d
       0.04512125 -0.14208004 0.037501264 0.0578657
000300 2d fa 32 be 81 26 19 3d fc 26 82 be 2b 46 1a be
       -0.17478247 0.037390236 -0.25420368 -0.1506583
000310 52 20 b1 3d 4c 5e cb 3c 2f 02 38 3e be 30 3c 3e
       0.08648743 0.024825238 0.17969583 0.18377969
000320 4b 6d 05 3e 3c 40 62 bd 1a cc 2e be e4 22 ab 3d
       0.13029973 -0.05523704 -0.17070046 0.08356264
000330 79 1f d5 bd 83 67 51 3d 94 57 0f 3c 98 9d c4 3d
       -0.104063936 0.051124107 0.008748908 0.09600371
000340 23 0b 21 be 3f 89 40 3d 1e fa c2 bd bf 93 46 bd
       -0.15726905 0.047005888 -0.09520362 -0.048480745
000350 10 34 fe bc d2 b9 38 bc fb e3 ef bb 94 06 b9 3c
       -0.031030685 -0.011274772 -0.0073208786 0.022586145
000360 84 c0 06 3e a3 ba 4d 3d e9 79 40 3c d1 d9 0a 3d
       0.13159376 0.05022682 0.011747816 0.033899132
000370 29 ed 7e 3c 77 90 9f bc 9f 13 5f bd 20 e2 31 bd
       0.015559473 -0.019478066 -0.05446207 -0.04342854
000380 33 8b 63 bd 81 c2 16 3d 0e d0 06 3d 58 3b 10 3a
       -0.055552673 0.036806587 0.03291326 0.0005502007
000390 d9 a6 55 bc f8 a0 f3 bd cf 43 64 be c2 24 19 3e
       -0.013040268 -0.11895937 -0.22291492 0.14955428
0003a0 48 46 00 3e e1 0d aa bd 3e ef a2 bc 9e 33 b4 bd
       0.1252681 -0.083034284 -0.01988947 -0.08798908
0003b0 07 39 cc bd bf d9 cc 3d a1 80 bc bd aa 43 b2 bc
       -0.099718146 0.10002469 -0.092042215 -0.02176078
0003c0 d9 c7 03 3e cf 4a ef 3d 55 5e f1 3c 82 78 69 bc
       0.12869205 0.116841905 0.029463926 -0.014249923
0003d0 70 52 1b bd e9 90 7e 3d 81 c1 a4 bd d3 bf 42 be
       -0.037920415 0.062149916 -0.080447204 -0.19018488
0003e0 3f 2f 63 3c 91 48 1c be d8 8f 86 3d 1b d4 b2 3d
       0.013866245 -0.15262057 0.06570405 0.08731862
0003f0 19 6f 0b bd 0e 4b 1a 3e 39 54 e0 bc e7 1b c4 bc
       -0.034041498 0.15067694 -0.02738391 -0.023939086
