Assets/ML-Brains/HouseBehaviour_Test01.onnx (onnx, 4059 bytes, 7 tensors)

action_model._discrete_distribution.branches.0.bias f4 [7]
-0.009998297 0.0016906105 -0.0061896266 0.015803477 0.0027632855 -0.009182747 0.001512812
00000000: e6cf 23bc 7a97 dd3a 5ad2 cabb 4b76 813c
00000010: 3d18 353b 3c73 16bc 8c49 c63a

action_model._discrete_distribution.branches.0.weight f4 [7, 20]
-0.008032676 -0.014732097 -0.036803838 0.009433707 0.006696985 -0.014613807 0.0015389198 -0.04402831
-0.031993415 0.00874928 -0.015196644 -0.0030888473 -0.0013714915 -0.019126935 0.004999365 -0.032043234
-0.0035268688 -0.0076032276 -0.019791884 0.040231537 0.02533464 -0.002041037 0.037101068 -0.013664324
-0.0035098235 0.0019958732 -0.019540738 0.010311397 0.0053308927 -0.041633602 0.013513425 0.031336177
0.0126595115 0.04034135 -0.054664534 0.0014958986 0.006865381 -0.04031797 -0.026253339 -0.0423979
-0.01023978 0.008939738 -0.019860534 0.054495387 0.0056665074 0.011683409 -0.0062518935 -0.013892083
-0.03600679 0.02127556 0.008609672 0.022957211 -0.017522028 -0.0007026199 0.019978976 -0.0006047306
-0.05192136 -0.022474362 -0.0072113536 -0.03467552 0.03235233 0.021359907 -0.0010969214 -0.012531341
0.01669272 0.003429185 0.036125712 -0.026953442 -0.051447365 -0.048856627 0.00074748683 -0.035561804
-0.021609647 0.015712058 0.034348704 0.0019553525 -0.054064915 -0.011007055 0.026144093 -0.04004939
-0.016395291 -0.015198043 -0.012021739 -0.039623365 0.022785181 -0.03737906 0.025696557 0.005653511
0.026078032 -0.0054948824 -0.033952333 -0.009175375 0.023803776 -0.009771768 0.025415763 -0.017432641
-0.004593562 0.047994126 -0.02447108 0.0015946513 -0.02530212 -0.0012554228 -0.010903014 -0.011984652
0.0027270324 0.027217656 -0.013430409 -0.036401447 -0.033733092 -0.01080948 0.024072766 0.018025808
0.017974146 -0.0025870262 -0.012404223 -0.024636548 -0.014313296 0.011606465 0.012900505 -0.03199696
0.020553011 -0.030166319 -0.026554013 -0.044373807 0.04312507 0.015835233 0.010014044 0.020362027
0.0031543376 0.01931311 0.010481217 0.024578594 -0.03862026 -0.008492891 0.03919045 0.029464422
0.013710056 -0.048881836 -0.018795852 -0.025315661
00000000: 7c9b 03bc e55e 71bc 9fbf 16bd d68f 1a3c
00000010: 6272 db3b c06e 6fbc 94b5 c93a 0757 34bd
00000020: 870b 03bd 2459 0f3c 58fb 78bc 426e 4abb
00000030: 9ec3 b3ba 17b0 9cbc b7d1 a33b c43f 03bd
00000040: 0a23 67bb 7f24 f9bb 9722 a2bc d3c9 243d
00000050: 978a cf3c ebc2 05bb 4af7 173d 54e0 5fbc
00000060: 1105 66bb 32cd 023b e613 a0bc 22f1 283c
00000070: c5ae ae3b ff87 2abd 6a67 5d3c 5d5a 003d
00000080: d769 4f3c f93c 253d ebe7 5fbd 0712 c43a
00000090: fdf6 e03b 7524 25bd 3e11 d7bc 6ca9 2dbd
000000a0: c0c4 27bc fb77 123c 8fb2 a2bc 8e36 5f3d
000000b0: 1cae b93b c56b 3f3c afdc ccbb 9f9b 63bc
000000c0: db7b 13bd 154a ae3c 950f 0d3c c310 bc3c
000000d0: 5b8a 8fbc 0630 38ba f3aa a33c c986 1eba
000000e0: 7eab 54bd 271c b8bc 384d ecbb eb07 0ebd
000000f0: e083 043d f9fa ae3c 93c6 8fba 4150 4dbc
00000100: 2cbf 883c 2dbc 603b 8ef8 133d 77cd dcbc
00000110: 79ba 52bd e31d 48bd fef2 433a 41a9 11bd
00000120: b706 b1bc 93b6 803c 3ab1 0c3d 5f25 003b
00000130: 2c73 5dbd ef56 34bc 232c d63c d40a 24bd
00000140: 6b4f 86bc 3601 79bc d4f6 44bc 1c4c 22bd
00000150: fda7 ba3c c91a 19bd 9681 d23c 1641 b93b
00000160: 99a1 d53c 6a0e b4bb 9a11 0bbd 5054 16bc
00000170: 2300 c33c c419 20bc b834 d03c e6ce 8ebc
00000180: 9785 96bb 7d95 443d 9377 c8bc 9e03 d13a
00000190: 6446 cfbc 008d a4ba 8ea2 32bc 465b 44bc
000001a0: 03b8 323b 90f7 de3c 380b 5cbc af19 15bd
000001b0: b62b 0abd 3f1a 31bc 4034 c53c dcaa 933c
000001c0: 843e 933c 198b 29bb 153b 4bbc 96d2 c9bc
000001d0: 5182 6abc 0b29 3e3c a45c 533c 3f0f 03bd
000001e0: ca5e a83c 5b1f f7bc cd87 d9bc 4fc1 35bd
000001f0: eaa3 303d e4b8 813c f211 243c 44ce a63c
00000200: 01b9 4e3b 8736 9e3c 69b9 2b3c 0c59 c93c
00000210: 4730 1ebd c425 0bbc 2a86 203d 5f5f f13c
00000220: 25a0 603c 5238 48bd c2f9 99bc ca62 cfbc

action_model._discrete_distribution.branches.1.bias f4 [2]
0.021886885 -0.021886885
00000000: 204c b33c 204c b3bc

action_model._discrete_distribution.branches.1.weight f4 [2, 20]
0.0011552883 -0.011378821 0.007527596 -0.054553304 0.022255218 0.0020253262 -0.026138503 0.011402585
-0.000821641 -0.020309476 0.010718656 -0.010763785 -0.022831462 0.008904475 0.035122275 0.006980692
0.025085872 -0.023536386 -0.032858185 -0.06088697 -0.0390176 -0.026290817 -0.0054286513 0.04020455
-0.015917366 -0.017426154 -0.040652573 -0.015424169 -0.044389956 0.019118546 0.028364923 -0.00495845
0.02801043 -0.036407713 -0.022523621 -0.014150996 -0.037771646 -0.009421225 -0.031091006 0.014948364
00000000: 0b6d 973a 3c6e 3abc 0daa f63b 4973 5fbd
00000010: 9350 b63c 56bb 043b 6a20 d6bc e8d1 3a3c
00000020: 6563 57ba 0f60 a6bc 4d9d 2f3c 965a 30bc
00000030: 0c09 bbbc 13e4 113c 60dc 0f3d 4abe e43b
00000040: e380 cd3c 61cf c0bc 4e96 06bd 9e64 79bd
00000050: ebd0 1fbd d75f d7bc d4e2 b1bb 87ad 243d
00000060: 2365 82bc 4bc1 8ebc 5083 26bd a7b5 7cbc
00000070: 3ed2 35bd 7f9e 9c3c 8e5d e83c 7e7a a2bb
00000080: 2176 e53c 4120 15bd 7583 b8bc 94d9 67bc
00000090: 71b6 1abd 7b5b 1abc 91b2 febc fce9 743c

discrete_action_output_shape f4 [1, 2]
7.0 2.0
00000000: 0000 e040 0000 0040

network_body._body_endoder.seq_layers.0.bias f4 [20]
0.018694015 -0.00907486 -0.003098574 0.051369768 -2.0878203e-07 -0.00038882598 -0.0032962142 0.0054926006
0.014979465 -0.017253995 -0.007212114 -0.010161427 0.0053388253 0.014803445 0.014458339 -0.014844821
0.0004157157 0.011257486 -0.0017483245 0.0052438304
00000000: 3124 993c b9ae 14bc 7211 4bbb 1b69 523d
00000010: 912d 60b4 57db cbb9 4c05 58bb 46fb b33b
00000020: 6e6c 753c 4058 8dbc 9953 ecbb 1d7c 26bc
00000030: 50f1 ae3b 268a 723c abe2 6c3c b137 73bc
00000040: 6bf4 d939 5271 383c 0928 e5ba 70d4 ab3b

network_body._body_endoder.seq_layers.0.weight f4 [20, 10]
0.072135955 0.63307804 -0.24522406 0.28509292 0.5746767 0.05215365 0.07660064 0.25173542
-0.26029328 -0.11022651 -0.14419092 0.02231004 -0.093519345 -0.25242734 -0.04699399 -0.059321906
0.16667877 0.08467264 0.19318654 0.45390135 0.42546552 -0.8359577 -0.37828612 -0.16394195
-0.17423339 0.26321647 0.16335687 0.3014485 0.19050887 0.025093373 0.123405226 0.12703682
0.43795475 0.05918601 0.22418432 -0.12415929 -0.32048124 -0.44133064 0.15759112 0.39898777
0.07885404 -0.46497306 -0.036190554 -0.6009416 -0.47869766 0.78587097 -0.47657982 -0.16978677
0.2816175 -0.2009506 0.05459247 -0.75505257 -0.15030558 -0.037159048 0.12181841 -0.36669478
-0.10544128 0.32833847 0.1546703 -0.53973734 0.04130065 -0.6285236 -0.049516972 -0.0546171
-0.2977508 -0.32272252 0.6060514 -0.007913275 -0.015075316 0.6382519 0.035308592 -0.0028660987
0.14681612 -0.24113989 -0.6499898 0.17853194 0.000333848 0.22370364 -0.19340393 0.5854226
0.0021859668 -0.4247079 0.15505072 -0.05199587 0.2847327 -0.042381193 0.31477228 0.26663432
-0.16281688 -0.030899698 0.3318311 0.30370548 0.012909089 0.14066592 -0.027997231 -0.3544627
-0.13072748 0.13312513 0.120734766 -0.18709975 0.6115445 -0.49659237 -0.24305922 0.317918
-0.026638234 -0.42633393 -0.21466462 -0.09724879 -0.3885998 -0.04648447 0.19209804 -0.3376591
0.06504757 -0.11204079 -0.23143265 -0.034754284 0.06623906 -0.08557803 0.4495215 -0.007578417
0.21502985 0.3235869 -0.15082619 0.44303733 -0.09543921 -0.048509385 0.42981592 -0.12723875
-0.048114493 -0.4843798 -0.3870457 0.19451228 0.2501483 -0.15357853 0.65328777 -0.28700712
0.18226165 1.2051672 -0.19307327 0.17321369 0.13107015 0.3384255 -0.28941163 -0.16486764
0.015562206 -0.16815376 0.14816493 -0.20125069 -0.12584311 0.2636066 -0.29974857 -0.07341494
0.24389866 -0.34809607 -0.45841715 0.35688648 0.12638684 -0.5099809 0.26243818 0.3420019
0.14701417 -0.16053385 -0.24622774 -0.10936926 -0.31317934 0.0013476905 -0.33588454 0.016370151
-0.05838768 -0.45471334 -0.040165547 -0.5715245 0.25094378 0.45287034 0.032240316 -0.5870774
0.651084 -0.38453674 -0.0036775856 -0.117937185 -0.24653244 -0.27683362 0.2471396 -0.43227965
0.038125724 -0.020725902 0.4337465 -0.3585051 -0.25855526 -0.6301212 -0.09648245 -0.12901036
-0.011335787 0.4927353 0.22067404 -0.1515616 -0.4003269 0.358325 -0.43833607 -0.18351112
00000000: 04bc 933d 6711 223f 041c 7bbe b3f7 913e
00000010: 031e 133f 119f 553d cce0 9c3d 77e3 803e
00000020: 2945 85be 70be e1bd c9a6 13be 8cc3 b63c
00000030: 1287 bfbd 283e 81be c57c 40bd 87fb 72bd
00000040: d7ad 2a3e d968 ad3d b1d2 453e c265 e83e
00000050: 9ed6 d93e 5301 56bf b8ae c1be 66e0 27be
00000060: 3d6a 32be 4fc4 863e 0647 273e 7557 9a3e
00000070: c214 433e 9e90 cd3c e1bb fc3d f115 023e
00000080: 9b3b e03e 086d 723d 9390 653e 3a47 febd
00000090: 1e16 a4be 17f6 e1be 915f 213e 2048 cc3e
000000a0: 3a7e a13d f310 eebe 8c3c 14bd 4fd7 19bf
000000b0: dc17 f5be d72e 493f 4502 f4be 95dc 2dbe
000000c0: 2b30 903e fec5 4dbe 5b9c 5f3d 204b 41bf
000000d0: b5e9 19be 1634 18bd ee7b f93d 6bbf bbbe
000000e0: 99f1 d7bd fb1b a83e e461 1e3e 3a2c 0abf
000000f0: df2a 293d ece6 20bf 4fd2 4abd 2eb6 5fbd
00000100: cb72 98be e33b a5be 2f26 1b3f aea6 01bc
00000110: 75fe 76bc 7a64 233f be9f 103d 28d5 3bbb
00000120: f756 163e 60ed 76be bb65 26bf 14d1 363e
00000130: 5208 af39 9112 653e ae0b 46be 41de 153f
00000140: 7042 0f3b 5073 d9be 9ec5 1e3e 9ff9 54bd
00000150: 7cc8 913e e797 2dbd d529 a13e 4b84 883e
00000160: 78b9 26be 5d21 fdbc c4e5 a93e 497f 9b3e
00000170: a580 533c ba0a 103e 735a e5bc 237c b5be
00000180: 6ddd 05be f451 083e ca43 f73d 1497 3fbe
00000190: 2e8e 1c3f 5b41 febe 84e4 78be 26c6 a23e
000001a0: 6d38 dabc 7148 dabe 0bd1 5bbe 602a c7bd
000001b0: 8ef6 c6be 8066 3ebd 59b5 443e a7e1 acbe
000001c0: a937 853d a475 e5bd aefc 6cbe 825a 0ebd
000001d0: 58a8 873d 8943 afbd af27 e63e 5f54 f8bb
000001e0: c930 5c3e 2fad a53e 2e72 1abe cad5 e23e
000001f0: a275 c3bd c7b1 46bd d510 dc3e e04a 02be
00000200: b413 45bd a100 f8be db2a c6be 3a2e 473e
00000210: 7013 803e b143 1dbe de3d 273f 99f2 92be
00000220: cca2 3a3e eb42 9a3f 00b5 45be ee5e 313e
00000230: 4137 063e 1b46 ad3e c32d 94be 10d3 28be
00000240: 9ff8 7e3c 8030 2cbe 8cb8 173e a914 4ebe
00000250: 04dd 00be 72f7 863e a578 99be 925a 96bd
00000260: 92c0 793e a639 b2be a7b5 eabe d3b9 b63e
00000270: 8d6b 013e 1c8e 02bf 4c5e 863e df1a af3e
00000280: e28a 163e fc62 24be 2023 7cbe fefc dfbd
00000290: 0b59 a0be fda4 b03a 0ff9 abbe b21a 863c
000002a0: ec27 6fbd 30d0 e8be a184 24bd 6e4f 12bf
000002b0: b47b 803e 9fde e73e 6c0e 043d b44a 16bf
000002c0: 71ad 263f 00e2 c4be a603 71bb 0d89 f1bd
000002d0: 0073 7cbe 23bd 8dbe 2a12 7d3e c253 ddbe
000002e0: b829 1c3d 5ec9 a9bc 0514 de3e fb8d b7be
000002f0: 5b61 84be 9f4f 21bf 9798 c5bd 4b1b 04be
00000300: bdb9 39bc cd47 fc3e 60f8 613e f732 1bbe
00000310: a6f7 ccbe 6076 b73e 966d e0be 57ea 3bbe
