Assets/ML-Brains/HouseBehaviourScene7T02.onnx (onnx, 81660 bytes, 9 tensors)

action_model._discrete_distribution.branches.0.bias f4 [7]
00000000: 1dca 553b d33b 1bbb e76b 23ba 9e9b 08bc
00000010: 63c0 943c 89a5 e9bb b234 813b
0.003262169 -0.002368678 -0.0006234035 -0.008337883 0.018158143 -0.007130329 0.0039430493

action_model._discrete_distribution.branches.0.weight f4 [7, 128]
00000000: 25aa 5b3b 4c28 2cbc e2ac 0e3b c399 443d
00000010: 32ff 443d c4e1 3bba e745 a63b f90f f73c
00000020: 5f85 ed3b 6030 c13c 4594 b1bc 4307 cbbc
00000030: 06ac 0ebd 5ca9 083d 5602 3f3d 8590 85ba
00000040: 3ab0 e8bc 46df 993c 0406 3dbc 2295 87bd
00000050: 3272 783b a6dc 143d 88ba 523c 5eb1 4fbd
00000060: 8e35 8b3d 62bf 01bd b35d 043c e254 143d
00000070: 1ddc ab3b 30c4 08bd c8ba 27bd 2b28 10bc
00000080: 209d 823c 96fd b7bc d908 ed3b 3471 153d
00000090: dd72 853b 0808 6a3b 040e bebc 8718 383a
000000a0: 592e c0bc 833a 9abc 0ab7 0cbc dff2 65bc
000000b0: a410 3e3c 198d f4bc a783 903c 8f92 973c
000000c0: c9f0 4ebd 1dc1 6dbc 716a 823c dd38 8b3c
000000d0: e764 0dbd 8c4a 353c d045 01bc 1605 33bc
000000e0: 69c9 03ba c978 32bc 1a0d 42bc bb43 273b
000000f0: 9177 773c dff3 5dbb 99cf 02ba 6aa9 ce39
00000100: 4fbf 5b3c 2eb5 14ba caf8 953c 213f 113b
00000110: df5b 37bb 73d6 8f3c b962 703c 796e 2ebd
00000120: 120f a3bc b81a 1bbc 13b4 193d 2dc3 86bc
00000130: 944e 5ebc 0a2a 6dbc 6bc5 9b3b 8f27 bd3c
00000140: 48a3 d7bc e5fe 403a a51d f83c 7861 733c
00000150: 7d13 b9bc 956f 893b 7deb e6bb 6c30 1e3c
00000160: 8b04 3f3c 3764 e0bb 8016 30bd 5433 943c
00000170: 0268 d13c 982b 7bbc a887 c9bb 6845 ba3c
00000180: 510c 483d 3ca3 913c 760c d63b 91d0 d13c
00000190: ec6c 26bd 5549 d839 1271 b339 bc8a c83c
000001a0: 2a89 483c a6e1 143c 86f4 61bc 878f 63ba
000001b0: e0e6 193b 5074 ccbb 1ea8 2d3c f9d4 71ba
000001c0: d8f2 9cbc f6e3 3c3d bc8b 16bc 1c0e 25bb
000001d0: abd7 013c 90cd b1bb c5c3 2d3d 65f8 03bb
000001e0: 8bb0 583c f84a 663c 9dd3 6f3c 97fe 823c
000001f0: ffec 5a3c 6fb9 6cbc 622c 1bbc 4b7a 3fbd
00000200: 97da 61bc d4eb f03b 14ee b8bc f0cf 91bc
00000210: 2192 3abd dea5 00bb 4c1f 2dbc 776c 10bd
00000220: ef12 153d d37c 2c3c 0cbe bf3b cdc7 963c
00000230: bf1c f53c 27a4 61bc e4ef d5bc 7b0a 7f3b
00000240: 0088 073c 2e7f f33c 2d78 8b3c bf17 833d
00000250: 7416 4139 c2f9 3b3d aba1 5ebc c429 b0bc
00000260: f76f 003d b584 eb3a 5b5d 44ba 94bd 333d
00000270: b7e8 e7bb 03ee c8bc 4dc0 be3c 1099 ed3a
00000280: da80 56bb 6e23 90bb bccb 8f3a 723e 0ebd
00000290: 3a2f aebc 3c36 da3b ccce 083d 337f 2dbc
000002a0: 592d 733c 335a 11bd 40d3 843b 0158 ec3b
000002b0: 3f72 b33c 3e84 a63c f37c 23bc d5cd d439
000002c0: 88ab 473d e944 953b 5114 803a 39ea 883b
000002d0: bea1 0b3c 6074 57bc 96e7 fcbb 2ca9 a5b9
000002e0: b597 c8bb 648d 853c 0cc6 103d 1754 243c
000002f0: 9e75 8cbc 4fcc cbba 8a25 123d 3cb5 d73c
00000300: 46e5 07ba 9671 cbba a963 c93b 08d8 043d
00000310: 4026 83bc bea3 b33b 7721 253c ed66 54bd
00000320: 585e 0d3b 9fd7 63bc 801a b13a 959b 11bc
00000330: 8247 64bb 040a 043d 1f59 bc3d 350c 863c
00000340: 60a2 c8ba f9eb 1b3c e0af 7fbc 2134 bcbc
00000350: e773 d83c cb97 1b3c 95ef 113c 261c 8ebc
00000360: 7888 cf3b b914 333c 9338 193d 5aff 97bc
00000370: 7bc1 32bb 06ad 973c fba3 393c 85cf 843c
00000380: e235 d1bc 003a 4fbb e9b2 e239 76bf dfbc
00000390: 73ff c63c a9d4 45bc 7185 943b b46c 58bd
000003a0: 9396 10bc 38c4 013d 9792 f4bc 6670 66bc
000003b0: 4324 453b 8914 17bc 1b98 11bc 3c47 05bd
000003c0: 77b4 ef3c f1bd b1bd 566b 743c d37f 9d3b
000003d0: f479 383c 9562 bcba 67a2 9ebc 2223 a23a
000003e0: 1b5e ce3b b79a d8bb 88bc 20bc ce15 a2bc
000003f0: 1314 c83b 393e 84bc 37d6 443c a13a 053d
0.0033518162 -0.010507654 0.0021770527 0.0479982 0.048094936 -0.00071671256 0.005074251 0.030158984
0.007248565 0.023582637 -0.021677146 -0.024783736 -0.034832023 0.03336464 0.046633087 -0.0010190165
-0.028404344 0.018783223 -0.011537079 -0.06620242 0.0037909863 0.03634324 0.012861855 -0.05070626
0.06797324 -0.031676657 0.00807898 0.036213763 0.0052447454 -0.033390224 -0.040949613 -0.008798639
0.015944064 -0.022459786 0.0072337207 0.036484912 0.0040725307 0.0035710353 -0.023200043 0.0007022698
-0.0234596 -0.018826729 -0.008588562 -0.014034956 0.011600647 -0.029852437 0.017640902 0.018502502
-0.0505226 -0.014511374 0.015919896 0.016994888 -0.034520056 0.011065137 -0.00789018 -0.010926506
-0.0005027266 -0.010893055 -0.011843944 0.0025522548 0.01510419 -0.0033867282 -0.0004990041 0.00039417605
0.013412311 -0.000567275 0.018307108 0.0022162872 -0.0027978343 0.017558312 0.014671975 -0.042585824
-0.019904647 -0.009466819 0.037525248 -0.016450489 -0.013568539 -0.014475355 0.0047537587 0.023090152
-0.026322976 0.0007362201 0.030287573 0.014854781 -0.0225923 0.00419421 -0.0070471154 0.009655099
0.011658798 -0.006847884 -0.042990208 0.018090881 0.02556229 -0.015330218 -0.0061502047 0.022738174
0.04883987 0.017778032 0.006532247 0.025612148 -0.04063122 0.00041253367 0.00034225784 0.024480216
0.012239734 0.009087002 -0.013791209 -0.000868075 0.002348356 -0.0062394515 0.010599164 -0.0009225156
-0.019158766 0.046115838 -0.009188589 -0.0025185412 0.007924954 -0.0054261163 0.04242303 -0.0020137068
0.013225685 0.01405596 0.014637855 0.015990539 0.013362168 -0.014448508 -0.009471031 -0.046747487
-0.013785026 0.0073523317 -0.022574462 -0.017799348 -0.045549516 -0.0019630115 -0.010566544 -0.03525969
0.03639501 0.010527807 0.005851513 0.01840582 0.029920934 -0.013772047 -0.026115365 0.003891616
0.008272171 0.02972373 0.017025078 0.064010136 0.00018414279 0.045892484 -0.013588349 -0.02150429
0.031356778 0.0017968627 -0.00074907177 0.043881968 -0.0070773023 -0.024527555 0.023285056 0.0018127281
-0.003273061 -0.004398755 0.0010970752 -0.03472752 -0.021262754 0.0066592973 0.033400342 -0.010589409
0.014842355 -0.03548641 0.0040535033 0.0072126393 0.021905063 0.02032673 -0.009978521 0.00040589148
0.04874757 0.004555334 0.000977168 0.004178312 0.008522449 -0.013150305 -0.007718037 -0.00031597295
-0.0061216005 0.016302772 0.035345122 0.010029814 -0.017145928 -0.001554856 0.03568033 0.026331536
-0.0005184006 -0.0015521522 0.0061459136 0.032432586 -0.01600945 0.005482166 0.010078779 -0.05185597
0.0021571126 -0.013906389 0.0013511926 -0.008887191 -0.003483266 0.032236114 0.09196686 0.016363243
-0.0015307181 0.0095167095 -0.015605897 -0.022974076 0.026422454 0.0094966395 0.008907218 -0.017347407
0.006333407 0.010930234 0.03740747 -0.018554378 -0.0027275968 0.018515121 0.0113306 0.016212234
-0.025538389 -0.0031620264 0.00043239378 -0.027312975 0.02429173 -0.012074628 0.004532509 -0.052838042
-0.008824962 0.03168127 -0.029855056 -0.014064884 0.0030081428 -0.009221205 -0.008886362 -0.032538638
0.029260857 -0.086788066 0.014918169 0.0048064976 0.011259545 -0.0014372641 -0.019364549 0.001237009
0.0062978393 -0.0066102403 -0.009810574 -0.019785788 0.0061059087 -0.016142951 0.012013963 0.032526616

action_model._discrete_distribution.branches.1.bias f4 [2]
00000000: 11e8 8b3b 09e8 8bbb
0.004269608 -0.004269604

action_model._discrete_distribution.branches.1.weight f4 [2, 128]
00000000: 34d6 6ebc 7c4c 5d3c c042 b6ba 3f34 36bb
00000010: 6f18 843c edbb 16bb 5724 6f3b 6d8d 9cbb
00000020: c691 f7bd 62ec d13c e5cf 22bc 8afe a6bc
00000030: 18e5 1a3d 46ca d53c e401 13bc f7f9 7c3c
00000040: e602 efbc cdca adbc 07b7 a53b a166 083d
00000050: d11a b5bb dcdc b7bc 6932 54bc ebf0 07bd
00000060: b84c 653c b382 903c 7c8a 30bb 8661 97bc
00000070: 1107 0bbc 10c2 59bc c779 b33a ed72 7d3b
00000080: 43fa 17bc 39d4 24bc 0479 853c 8449 6f3c
00000090: a6e1 ca3b c7ff 023d f8fc 12bc d66a 6d3c
000000a0: 1a67 70bc c281 c4bb bca3 fabb 63ff 99bc
000000b0: 5b63 5a3b 0145 45bb 9a94 17bc 0a2b 2d3c
000000c0: d01d ae3c 5b66 a8bb cdd9 5fbc b931 63bb
000000d0: da76 ecbb 9243 fbbb 2658 19bb 54d5 6bbb
000000e0: 9201 353c 78d3 85bc f689 5f3d eee7 d93c
000000f0: 9f22 793c e0cf 723c 6ba4 a9bd 85c6 15bd
00000100: 029a ffbb b26b e7bb ad1f e13c 828f 3e3b
00000110: 594f 4cbc a741 32bb b867 213c 9299 a43b
00000120: 1b23 04bc ee6d cc3b 0100 003d 698f 693b
00000130: 75cb c0bb 070b 4fbb 07a1 7ebd 85cd 8abc
00000140: 6cd3 d3bb a4ac 703c 103e 853c 282c 983c
00000150: e88c 423d a880 fa3a 9fba 9c3c 7bf0 3abc
00000160: d394 29bc 10c5 60bd c016 563c acd7 e1bb
00000170: 7150 d83b 5f12 9fbc 7a5d 55bc 930b 933c
00000180: 3ae9 653b 2a7d 20bc 5ebe 10bc 1207 053c
00000190: b0c0 c2bc b782 d63c 2b96 2ebd cac9 34bd
000001a0: 79c7 823c 9a10 433c 6071 42bc a86c 39bc
000001b0: 328a 0b3c e53a a7ba 5751 a4bc 9eb5 34bd
000001c0: 7f41 5d3c 2036 f8bc 2fbd 15bc afd0 433b
000001d0: b2fe 43ba 688b b33c c773 ffbb f5c5 933c
000001e0: 71f5 b03c 1138 7ebc 04f7 cbbb 2122 c6bc
000001f0: b8eb 83bb a33d 443c 618b 183c aa6a 70bc
00000200: ea07 5e3c 1ae3 2e3a 6823 b83b e50b 7d3c
00000210: 850a 42bc 2c6c 003c 1e16 32bc b0f0 a63a
00000220: cd89 0a3e 82e9 23bd 8b85 4d39 90fe 813c
00000230: aa30 bdbc 7d5f 96bc ffcd 9a3c 3e2d 17bc
00000240: 0dbf c43c a6db 173c 2b19 bcbb 30be eabc
00000250: ec16 d9bb d4c3 b23c b592 9b3c 0b3e 083d
00000260: 7442 c4bc 6311 bebc 72cc 18bc dd50 863c
00000270: ed21 31bb 580a 7d3c 31e0 9dbb 532b c5ba
00000280: 4376 053d ba78 4e3c 4d95 97bc e1e8 3cbc
00000290: 44d5 7fbc 638b 80bd 9dac 94bc 3b0f d73b
000002a0: 319e 143d 1f82 323c 2301 343b 04ba 423c
000002b0: 8594 d73b 8619 123c 25f1 48bc acb8 8dbc
000002c0: c3b4 c6bc b3f6 5c3c 7955 ab3c 7054 2dbc
000002d0: 3d62 7c3c f40a 11bc f39a 2e3c 4bca 09bb
000002e0: 09ab 1e3c b2e4 073c 2f51 89bd 3c7e c5bc
000002f0: cea6 bbbb c5fd 40bc 8854 e53d f0e0 bd3c
00000300: 003a dd3b 891f 993b 3fac 8abc bb8f 4f3c
00000310: e6b4 493b 5f26 90bc f2f8 03bc 14ac 31bc
00000320: 7605 913c 6887 cabb 26e7 c2bc acfa 223a
00000330: 72a4 133b 4560 77bb c734 873d 8ebd 5d3c
00000340: 35ae 7e3c 7f4b 91bc 5540 f7bc 3920 90bb
00000350: f008 66bc 95a5 533c 3ac7 afbc 2f99 21bb
00000360: 5d3d a53b c565 153d 12d0 c1bc 747b 093c
00000370: 3806 d5bc 12f3 b73c c977 6f3c 55d9 24bd
00000380: d36e bb3b 3557 c83a 44e2 613b cf8d 733c
00000390: bb4d 993c c046 40bd 55ba 913d d55f 3b3d
000003a0: d674 dcbc e8a9 8bbc 76a8 b73a 466c e7bb
000003b0: 6653 abbb 8687 77bc 428c 90bc ddc7 593d
000003c0: afff 793a 9b0e 183d b2ba 4e3b 15e3 1abc
000003d0: 03dc b53c 4551 893b 667d 05bc 4a70 80bc
000003e0: c50c 363b 3843 3b3c 8818 8e3b 0d3f ab3c
000003f0: 38f0 293d a4d3 82bc 774a 023c 32ba 443c
-0.014577437 0.013507005 -0.0013905391 -0.0027802137 0.016124932 -0.0023000196 0.0036490166 -0.0047776015
-0.12088351 0.025625411 -0.009937261 -0.020385046 0.037816137 0.026097428 -0.008972619 0.015440456
-0.029176187 -0.021214867 0.005057219 0.033301 -0.0055268784 -0.022444181 -0.012951472 -0.03318874
0.013995342 0.017640447 -0.0026938012 -0.01847912 -0.0084855715 -0.013290897 0.0013692909 0.0038673237
-0.009275976 -0.010060363 0.016293056 0.01460493 0.00619145 0.03198221 -0.008971445 0.014490804
-0.014673019 -0.0059969136 -0.007648913 -0.018798536 0.003332338 -0.0030100944 -0.009251738 0.010569343
0.02125445 -0.005139155 -0.013662768 -0.0034667088 -0.0072163166 -0.007667967 -0.0023398488 -0.0035985308
0.011047738 -0.016336188 0.05457493 0.02659985 0.015206008 0.014820069 -0.08283313 -0.036566276
-0.0078003416 -0.007062399 0.027480925 0.0029077237 -0.01247009 -0.0027199776 0.009851389 0.00502319
-0.00806501 0.0062386906 0.031250004 0.0035638458 -0.005883629 -0.0031592266 -0.062165286 -0.016943702
-0.0064644124 0.014689598 0.016264945 0.018575743 0.04749766 0.0019111829 0.019131957 -0.011409874
-0.010350424 -0.054875433 0.013066947 -0.006892165 0.0066013862 -0.01941794 -0.013022775 0.017949855
0.003508164 -0.009795466 -0.00883445 0.0081193615 -0.023773521 0.026185377 -0.04262368 -0.044137754
0.015964257 0.011905814 -0.011867851 -0.01131741 0.008516835 -0.0012758641 -0.020058317 -0.044118516
0.013504385 -0.030299246 -0.009139343 0.0029879024 -0.0007476612 0.02191706 -0.007795784 0.01803873
0.02160141 -0.015516297 -0.006224515 -0.024186196 -0.0040259026 0.011977586 0.009310574 -0.014673868
0.013551692 0.0006671414 0.005619455 0.01544473 -0.011843328 0.00783829 -0.010869531 0.0012736525
0.1352913 -0.040017612 0.00019600072 0.015868455 -0.023094494 -0.01835608 0.018897055 -0.009227095
0.024016881 0.009268677 -0.005740305 -0.028655142 -0.006625047 0.021821894 0.018990854 0.033262294
-0.023957469 -0.02320165 -0.009326087 0.01639598 -0.0027028278 0.015444361 -0.0048179855 -0.0015042819
0.032583486 0.012602026 -0.01850381 -0.011530132 -0.015614811 -0.06276586 -0.018148715 0.006563095
0.036283676 0.010895281 0.0027466498 0.01188517 0.006578984 0.008917218 -0.012264525 -0.017299972
-0.024256116 0.013486552 0.02091478 -0.0105792135 0.015404281 -0.008852709 0.01065706 -0.0021025117
0.009684333 0.008294271 -0.06704938 -0.024108045 -0.005726672 -0.011779253 0.11197764 0.023178548
0.006751299 0.0046729487 -0.016927836 0.012668545 0.003077799 -0.017596422 -0.008054959 -0.010844249
0.0177028 -0.0061806925 -0.02379186 0.00062171626 0.0022528437 -0.003774659 0.06601863 0.013533963
0.015544464 -0.017736195 -0.030182043 -0.0043983725 -0.014040217 0.012917896 -0.021457303 -0.0024657955
0.0050427155 0.036474008 -0.023658786 0.00839125 -0.026003942 0.022454772 0.014615961 -0.040246326
0.0057199984 0.0015284779 0.003446714 0.014865353 0.018713823 -0.046942472 0.07115618 0.04574569
-0.02691118 -0.017048791 0.0014011997 -0.0070624677 -0.0052284477 -0.015107995 -0.017645005 0.05316912
0.0009536696 0.037123304 0.0031544385 -0.009453555 0.022199636 0.0041905963 -0.008147573 -0.015678544
0.0027778607 0.0114296 0.0043364204 0.020904088 0.041488856 -0.015970059 0.007952324 0.012007283

discrete_action_output_shape f4 [1, 2]
00000000: 0000 e040 0000 0040
7.0 2.0

network_body._body_endoder.seq_layers.0.bias f4 [128]
00000000: 8ece 61bc e443 8ebc f72d 2a3d 5b8f bf3c
00000010: 5d1d 92bc 330b 4e3c e30b 303d 1476 a9bc
00000020: 4efd af3c bb6c 443c cb0b 4eba f940 7d3c
00000030: 63dd 57bb d797 a63b 1ce9 663b 0376 f33b
00000040: f899 3bbc 4a54 fdbc 6c06 f6bc 7aec 9d3b
00000050: f1af b1bc c165 0b3d 8d70 d33c 981e 743c
00000060: cf28 b9bc 5f4c 8c3c ace4 adbc 4474 1e3d
00000070: f894 70bc 329b 72bc acc4 a3bb 245f 473c
00000080: e635 783d e3c6 663a 7a68 073c a6dc 883a
00000090: 8157 ccbc 2169 7cbc 1bca 033c 76d7 fabc
000000a0: a7de dfbc 82b9 0f3b 8f40 fb38 fefa e93b
000000b0: e3cb 553d cf63 d63c 4123 1cbc 6406 35bc
000000c0: 0ffb f739 18d6 8bbc 845d ca3c a3ed 613c
000000d0: fa81 433d fb12 a53c 1100 b5bc 7b2b 513d
000000e0: 971b babc 7c48 26bd b283 98bc e503 e5bc
000000f0: cc45 06bc d2b6 2e3c 39f7 b4bc 0075 bbbc
00000100: 89ab 4e3d ce0b 583c 903c 333d fbb4 a73c
00000110: b9d9 483c 569a 583d 25f7 fc3b 0ceb b4bc
00000120: 38ce ec3c c97d a13b a41a b13c 158f 9a3c
00000130: 579a c43b bdca 03bd d5f5 79bc b6f3 523d
00000140: a6dd bfbc 9d7f 0bbc 1d98 153a 41df 1dbd
00000150: 826b 31bb d2f8 653d e6e2 3ebc a9ec ee3b
00000160: f225 083d cea6 f9bb d5ab 4e3d 4189 debc
00000170: ecb5 893c b977 a53c 327b f63b 12ed 573c
00000180: 88e2 4f3a df1a 03bd d186 3abc 8acb 6b3c
00000190: 867a 173b 19f3 cc3d 4b19 943c 86aa a0bc
000001a0: 48fe 613c 97cc 133d 0657 f9bb dc5a 633d
000001b0: b228 913c 69d2 a5bb 734c 0d3c 2f24 643c
000001c0: 3e6f 4a3d c8b5 5e3d f2fb a93b 267e cd3c
000001d0: 4717 23bc 78ef 203d e7c7 2a3b 04ac 8a3c
000001e0: 1c16 193d 3086 ab3b b3ab cf3c 11c9 d73c
000001f0: a3d2 cdbb c80d 883c 35db 0f3c adfc fc3c
-0.013782157 -0.017366357 0.04154774 0.023383787 -0.017836267 0.012575912 0.042980086 -0.020686187
0.02148309 0.011988814 -0.00078600337 0.015457385 -0.0032938353 0.0050840187 0.003523416 0.0074298396
-0.011450283 -0.030923981 -0.030032359 0.00481945 -0.02169034 0.034032587 0.025810504 0.014899872
-0.022602467 0.01712626 -0.021227203 0.0386851 -0.014683954 -0.014807509 -0.0049978103 0.012168679
0.060598277 0.000880344 0.008264655 0.0010441735 -0.024944069 -0.015405924 0.008043791 -0.030620318
-0.027327849 0.002193064 0.00011980638 0.0071405163 0.052196395 0.02617064 -0.00952989 -0.011048887
0.00047298564 -0.017069861 0.024702795 0.013789567 0.047731377 0.020150652 -0.022094758 0.051066857
-0.022718234 -0.04059647 -0.018617485 -0.027955959 -0.008195352 0.010663705 -0.022090541 -0.022882938
0.050456557 0.013186408 0.04375893 0.02047204 0.01225894 0.05288156 0.0077198916 -0.022084735
0.028906927 0.004928325 0.021619149 0.018867055 0.005999844 -0.03217577 -0.015256365 0.051501952
-0.02342112 -0.008514312 0.00057065656 -0.03854299 -0.0027072136 0.056145497 -0.0116507765 0.0072913957
0.033239312 -0.0076187616 0.05045684 -0.027165057 0.01681038 0.02019869 0.0075220102 0.013179081
0.0007930179 -0.03200805 -0.011384682 0.014391789 0.00231138 0.10007305 0.018078467 -0.019612562
0.0137935355 0.036083784 -0.007609251 0.055506572 0.0177196 -0.0050604832 0.008624184 0.0139246425
0.049422495 0.05437258 0.005187505 0.025084566 -0.00995428 0.039290875 0.0026059092 0.016927727
0.0373746 0.0052345023 0.025350427 0.026340993 -0.0062812134 0.016608134 0.00878029 0.030882204

network_body._body_endoder.seq_layers.0.weight f4 [128, 15]
00000000: 0ad9 043e ccca 3f3e 9254 bebe d383 503e
00000010: 5839 9abe 5cb7 b7be 2b70 d5bd be3e db3e
00000020: 0318 7e3d 049e 8a3c f63f 033e 6434 2d3c
00000030: aacc 94be aa05 99be aca5 213d 3001 113e
00000040: d948 8fbe bf81 cebc d409 05be ee73 82be
00000050: 42ef ae3d 6c4b 2c3c 5dc8 2c3e 94c7 843e
00000060: 38fa c43c 5011 66be f2a9 073f 56c6 c6bd
00000070: efa6 0abe 54f4 283e 5cf4 333e 4484 5cbe
00000080: 1d3c 0b3e e25f c3be 09b2 6c3e 964d a3bd
00000090: 8b5a f5be 24ef 863d 7911 66be 7252 f53c
000000a0: bb20 063e 20a3 12be f561 83be 9520 b3be
000000b0: f771 4d3b 71f7 4a3c 8f37 b83e c302 503e
000000c0: 789c 5f3e 5444 493d e84a 52bd 8c0d 43bb
000000d0: 68c9 d33c 7c30 a4be 0516 b2bd e709 a8be
000000e0: 48fd e6be c075 c8bd 862c a83e 247e 47bd
000000f0: 1ac4 1bbd d5ad 84be 9711 7d3e cae0 9abe
00000100: 32aa 3d3e 5671 36be 303a 853c 8a15 8d3d
00000110: a86b ed3e 69ca a3be 5806 a0be ecba 263e
00000120: 4a1b 18bc 974d 3f3e 4e1c 1e3d e5b8 c63e
00000130: 75ee 67bd 9c14 113e 0876 1fbe 5d07 2dbb
00000140: 4d1c 05bf a0c4 0b3f a331 0dbf 4623 66be
00000150: 2ce9 763d 2e1b 12be 56d6 56be 68bb 53be
00000160: ebb1 1cbe 97dd 00bf e454 fabe 03c1 68be
00000170: 08dc 913e a3a5 043f ef3c a93e 90c2 09be
00000180: a05e 9f3d 8277 a33e 4f39 883d d017 013e
00000190: 4813 623c 8789 1ebd b0bb f43e c03b 1bbf
000001a0: b6dc 3fbe 1e43 5bbe 51fa 983e 94c8 683e
000001b0: e707 8b3e 7592 033e 7ecf 623e 3973 43be
000001c0: ca1d 303e 0da5 3ebe da85 0f3d a377 473d
000001d0: 9bfd bcbd 7001 dfbb b9cc 603e e546 bb3b
000001e0: d6d4 7cbd 85a8 093f ade4 44be cd42 793d
000001f0: d106 bd3b f73c 063f 090b 39bd 7195 8bbe
00000200: 5094 3cbc 738a d6bc b75d 333e ea1f 0d3f
00000210: bf4e a03e e185 68be b84b 1d3f af2e f33d
00000220: 32c8 14bc 9c8d 873e 4929 1ebf fa46 c73d
00000230: b950 213e 2d05 ed3d ddeb 373e e78f ffbd
00000240: 86dc e13d 5619 d6be 671d c0be 287e b8be
00000250: 0e7a 873e 8a5b 6c3e 6d6e f7bd 9e7a 253e
00000260: 448e 1fbf b596 153e 8048 6cbd 3959 9b3e
00000270: 79f9 13bf eab6 50be 1188 2cbd fdf7 973e
00000280: 7d9c 44be 1aa0 7abe 51d2 4c3d 2d70 8a3e
00000290: 6d07 20bd f2e5 0a3f 4c43 1ebe 5b5f 203d
000002a0: ac50 90be ef67 723e 9b1b b2bd 9c0f 7f3e
000002b0: c83b 0bbf 9a01 b73b fa76 bf3d 99a8 e23e
000002c0: f4e5 cabe 7e27 eabd 6145 c0be cd1c 35be
000002d0: 4b8a 59bd 05ad cf3e b96f 06bd 77af 6f3e
000002e0: 8507 a93e 7ee2 d23e 6ede 8a3d 4679 453d
000002f0: b2f4 28be 85a8 8e3d 9ee5 593c 59be 39be
00000300: a993 1bbe be38 e33e 5f8c f4be 374f be3c
00000310: 2f6f 8a3e b7a1 72be 7488 d83e 9b3f a33e
00000320: 05f0 003f 5cb6 3a3f a79a 553d 1f6a d93b
00000330: 1e69 9a3e 92a6 8ebc 719d bc3d 2180 90be
00000340: 9bef 52be 1ad6 b1bc 1122 923e 2df9 d23e
00000350: 5fc4 cebd 09ed e6bd 3382 2bbe a3c3 cbbb
00000360: 36ce f0be 41c5 0ebe b546 8a3e 37f1 01bd
00000370: 2fcf c73d a173 453d d50c 0fbf afc2 c3bd
00000380: 3c55 bb3e 4837 b3be 6446 7e3e d3ad bf3d
00000390: c972 7c3d dd2b d13e 3383 f73c 2ba9 1fbe
000003a0: 256f b6be 65a9 093e fdfc fdbc 084b 0bbc
000003b0: 8903 b2be 7238 b3be 21dc 7d3e cafe 613e
000003c0: 727a 6b3e c0f6 82be 0092 233e ad5f 763c
000003d0: 61e8 fcbd fac8 edbe 7472 80ba d681 9a3e
000003e0: 5b48 293e e6b7 3f3e b563 873e da50 f63e
000003f0: 8021 cfbe 977e a7be e888 873e 1528 363e
0.12973419 0.18729705 -0.37173897 0.20362787 -0.30121875 -0.3588208 -0.10421785 0.42821306
0.062034618 0.01692105 0.12817368 0.010571573 -0.29062396 -0.29887134 0.039464638 0.14160609
-0.27985266 -0.025208352 -0.1299203 -0.25479072 0.085417286 0.010516029 0.16873308 0.25933516
0.024045095 -0.22467542 0.5299369 -0.09705798 -0.13540243 0.16499454 0.17573684 -0.2153483
0.1359715 -0.3815909 0.2311479 -0.07973783 -0.4792064 0.06588581 -0.22467603 0.02994654
0.13098423 -0.1432004 -0.25660673 -0.34985796 0.0031348446 0.012388096 0.35979888 0.20313554
0.21837032 0.04913743 -0.051340967 -0.0029762713 0.025852874 -0.3206824 -0.08695606 -0.32820055
-0.45115113 -0.09788084 0.3284647 -0.04870428 -0.038028814 -0.25913873 0.24713741 -0.30249625
0.18521956 -0.17816672 0.016263098 0.06888874 0.46371198 -0.31990364 -0.3125484 0.16282243
-0.00928385 0.18681942 0.038601212 0.38812938 -0.056623895 0.14168018 -0.15572369 -0.0026402094
-0.5199631 0.545969 -0.55153865 -0.22474393 0.060280964 -0.1426818 -0.209802 -0.20676959
-0.15302245 -0.5033812 -0.4889289 -0.22729878 0.28488183 0.5181524 0.330543 -0.13453126
0.0778172 0.31927115 0.06651556 0.1260674 0.013798542 -0.038705375 0.47799444 -0.60638046
-0.18736538 -0.21412322 0.29878476 0.22732764 0.27154467 0.12848838 0.22149464 -0.19086923
0.17198864 -0.1861765 0.03503976 0.04869808 -0.09228059 -0.0068055913 0.21953095 0.0057152384
-0.061726414 0.53772765 -0.19227858 0.06085472 0.005768635 0.52436775 -0.04517654 -0.27262452
-0.01150997 -0.026189065 0.17516218 0.5512682 0.31310079 -0.22707321 0.6144366 0.118741386
-0.009080933 0.26475227 -0.61781746 0.097303346 0.1575345 0.11573253 0.17961068 -0.12478619
0.1102839 -0.41816205 -0.37522432 -0.3603375 0.26460308 0.23081794 -0.12081609 0.16160056
-0.62326455 0.14608271 -0.05768633 0.3034151 -0.5780254 -0.20382276 -0.04212195 0.29681388
-0.1920032 -0.24475136 0.05000526 0.27038708 -0.03906958 0.5425712 -0.15455359 0.039153438
-0.28186548 0.2367246 -0.086966716 0.24908298 -0.54388094 0.0055849077 0.09348865 0.44269255
-0.39628565 -0.11433314 -0.37552932 -0.17686768 -0.053110402 0.4056169 -0.03282139 0.23406778
0.3301355 0.41188425 0.06780706 0.04821136 -0.16499594 0.06965736 0.013299374 -0.18139018
-0.15193047 0.44379228 -0.47763345 0.023231132 0.2703795 -0.23694502 0.42291605 0.31884465
0.5036624 0.7293451 0.05214944 0.006634965 0.30158323 -0.017413411 0.09209717 -0.28222755
-0.20599215 -0.021708537 0.28541616 0.4120573 -0.100960486 -0.112756796 -0.16748886 -0.00621839
-0.47032326 -0.13942434 0.2700707 -0.03172418 0.09756314 0.048205975 -0.55878955 -0.09558617
0.36588466 -0.35003114 0.2483154 0.09359326 0.061632905 0.40853778 0.030213928 -0.15591876
-0.35631672 0.13443525 -0.031004423 -0.008501776 -0.34768322 -0.35004002 0.24791004 0.2206985
0.22995928 -0.2557888 0.15973663 0.015037459 -0.1234901 -0.46442395 -0.0009799735 0.30177182
0.16531508 0.18722495 0.26443258 0.4810856 -0.40455246 -0.32713768 0.2647164 0.17788728

network_body._body_endoder.seq_layers.2.bias f4 [128]
00000000: 4676 6cbc 9384 0fbc 57fe d8bc 0189 e93c
00000010: b292 3c3a 23cd 91bc 6039 a0bc 7649 51ba
00000020: 1eba 453c 4d56 9d3c e082 3c3c f37d f1ba
00000030: 9c74 f43c 82d4 d63c 1446 6b3d 7de3 683c
00000040: b0bb 273d 3f34 be3c c4d5 84bc db26 653c
00000050: 451c 8a3c 02e3 4c3c 3aa2 49b9 df36 d8b9
00000060: 4352 1e3c f291 8cbb 8c49 b03b d60e 643c
00000070: 72df 66bc 146a e53b af21 b13b 8825 b9ba
00000080: f4b6 afbc 563b 023a 54d5 40bb cad7 603c
00000090: 9e05 2bbc 497f 383c fa13 0bbb e694 b03b
000000a0: 6e1c 423c aeec e2bb d1c1 6f3c 211f 79bc
000000b0: 01ee 0f3b c404 9bbc 046a 703c 320b 7f3c
000000c0: 9b63 503c d9f1 1fbc a7d3 5fbc 9114 7bbc
000000d0: 8bff a53b ebb6 a7bb 6ffc c2bc 053b 713c
000000e0: 2d8b 40bc c282 bcbc c9f6 183d a524 d53b
000000f0: 54e0 2b3c 7157 19bc 233e 8d3c c76b 9b3c
00000100: 61de 3b3b f2af c6bc 53cb a33b 9d9f 82ba
00000110: 9c88 863b 13f9 dfbb 7961 b5bc f7b1 893c
00000120: 65e2 d9bb 9b60 06bc 59e2 b33c c4ab d7bc
00000130: 0d87 1bbc bd88 2c3c 8b8d 1c3d d6d1 c6bb
00000140: 2df7 0dbc a02a b13c fdc0 803c 1ea8 97bb
00000150: 20c0 9d3c 0028 26bc 7879 23bc a41e 7b3c
00000160: cb85 81bc 3f40 393d cd51 9abc c27a 293b
00000170: f208 aa3c 6532 a53b 348c d53b 7f9b 013c
00000180: d602 efba 153c cebc 0da2 9ebc c299 63bc
00000190: 9ddc b23c d01f 813c f9f9 253b e683 503c
000001a0: ca4d 77bc 57bb d23c f439 ac3b 4789 e83b
000001b0: 6ba3 2ebc 0385 43bc b2d7 c4ba 4459 b53c
000001c0: 2617 9cbb 2604 313b ba57 4b3a 8f45 b6bc
000001d0: 8949 63bc f5ba 423b 8366 863b 5627 a33c
000001e0: 0171 85bc dfcc 073c 7d2f 46bc 214f a13c
000001f0: f7c8 b0bb 36c4 15bc 9e99 f6bc e52b 82bb
-0.014432495 -0.0087596355 -0.026488466 0.028507711 0.000719349 -0.017798012 -0.019558609 -0.0007983664
0.0120683 0.01920619 0.011505812 -0.0018424377 0.02984076 0.026224378 0.05743988 0.014214394
0.040950477 0.023218272 -0.016215213 0.013986315 0.016859183 0.012505295 -0.00019229288 -0.00041239613
0.009663167 -0.004289859 0.005379861 0.013919553 -0.014091359 0.007001171 0.0054056267 -0.0014125565
-0.021449544 0.0004967948 -0.0029424028 0.013723323 -0.010438351 0.011260816 -0.0021221624 0.005388844
0.0118475985 -0.006925187 0.014633612 -0.015205176 0.002196193 -0.01892317 0.014673714 0.015566634
0.01271906 -0.009762251 -0.013661302 -0.015324728 0.0050658635 -0.005118241 -0.02380201 0.014723544
-0.011751932 -0.023011569 0.037344728 0.0065046125 0.010490496 -0.009359227 0.017241543 0.01897229
0.0028666484 -0.02425382 0.0049986034 -0.0009965781 0.0041056406 -0.006835112 -0.022141205 0.016808493
-0.006649303 -0.0082017435 0.021958517 -0.026327021 -0.009492648 0.010530648 0.038220923 -0.006067495
-0.008664888 0.02162677 0.015717024 -0.0046281954 0.019256651 -0.010141373 -0.009977691 0.0153271295
-0.015810868 0.045227285 -0.018837834 0.0025860523 0.020756219 0.005041408 0.0065169577 0.007910608
-0.0018235098 -0.025175134 -0.019364381 -0.013891639 0.021833712 0.01576224 0.0025325997 0.01272676
-0.01509423 0.025724096 0.005255932 0.007096443 -0.010659079 -0.011933568 -0.0015017895 0.022137292
-0.0047635017 0.002701053 0.0007756908 -0.022249965 -0.013872513 0.0029713486 0.004101576 0.019916218
-0.016289236 0.008288591 -0.012096283 0.019691052 -0.0053950506 -0.009141019 -0.030102547 -0.003972518

network_body._body_endoder.seq_layers.2.weight f4 [128, 128]
00000000: 81bc aa3c 84fd 07bd aef8 d93d e9f5 c93c
00000010: 76dd 3e3e da73 343e 3dcc 8b3c d99f 303c
00000020: 538e babc c566 d23d fbf3 bb3d bbea babd
00000030: 64cd be3d c063 5abd de59 babd 3df2 eabd
00000040: 559a 9b3d f474 4cbc 20ab bb3d c0fa d73b
00000050: 3e48 96bd 42a8 aabd cc55 21be 0c6b bbbd
00000060: d3b6 95bb b3b3 ad3c 52b1 0cbd d7c4 63bd
00000070: 4679 3d3e 06ec c43c 46fa c03d 86e6 163d
00000080: d6ec ff3d 595d 78bc 7f07 d23b 375d ec3d
00000090: 5221 f1bd 50ea 0c3d 9349 0e3e 0695 023e
000000a0: 9657 193d 0bc9 29be 40df 0dbe 304f dc3d
000000b0: 2fd5 213c f280 46be 6228 a4bd cb88 11bd
000000c0: 1fab 253e ea8c 9fbd 2e2f f3bd 590b 5dbc
000000d0: c1ad a93c e9b0 1ebd 09f9 1e3d 61ed 063e
000000e0: 478e 2cbd 50ca bebd fd13 aebd 5066 563e
000000f0: 348d a53d 2efa a3bd 99df 32bd 80ef 0b3e
00000100: 3488 9d3c 1a5b 003d b961 9fbd ab37 813d
00000110: b8e3 8bbd 84e3 3a3d df93 893b eebf e4bd
00000120: a968 acbd e6a7 01be 903f ab3d 5f24 1bbe
00000130: 27ba 4f3d f85e dbbb 64bc 133d 2676 293d
00000140: fb60 713c 56c6 1cbe 28f9 54bd 30a6 cb3d
00000150: ffb3 95bd a2b4 f03c 64fe 6d3e bccb 87bc
00000160: bb93 7cbb 49af 2fbe 840a 5b3c eb91 f03d
00000170: 4e5c 8b3d 2a45 7dbd b94d b23c 0b7b 53bd
00000180: 46e5 543d d720 0ebe adf2 873d 77e5 133c
00000190: b707 f93d ef04 b03d d227 36bd c961 703d
000001a0: e278 1cbe 4a2a 8a3d ad24 b03d 9bcb 9fbd
000001b0: 2d45 e53a f2e7 17bd e9f7 26be 60d4 aa3d
000001c0: 0a20 b4bd cef4 363d 7fad 47bc 7324 4bbe
000001d0: 8643 ad3d 0fcf a83c aa3b 143d d7b8 5ebe
000001e0: 50b6 c1bd b176 3bbd 6a4d 1dbe db24 5dbd
000001f0: 6a57 e53d 14e4 383d 58e8 32bd d77e a7bb
00000200: 1188 c5bd 40ae 983d e5b5 b13e e9fd ae3d
00000210: 1543 60be bc27 19be c62a a73c b063 42bd
00000220: b32b 66bc 2147 8dbd ee1d babd 268b 263e
00000230: 3aef 5a3d 19f4 413d 7fff e5bc aa7b 183d
00000240: 6471 a7bd 7613 c9bd a3e1 1fbe 456a 873d
00000250: 0153 ecbd 7654 ea3d c0b5 5b3e 3806 e6bd
00000260: bedc 273e 5dfa 0c3e 4bbf 29bc 8911 383c
00000270: 19a8 8c3d e34d 0c3e a935 5a3d d77d 573d
00000280: b06f ecbd 2a4d 0f3e dee9 7fbd 7aa5 dd3d
00000290: 3c54 ca3d 3a57 4abd 3e27 133e 1736 c3bb
000002a0: 47eb e3bd 3805 82bd 1eb4 a4bd a94b 40bd
000002b0: 808a c83d 5389 44bc e556 123d 2ded 023d
000002c0: e3ff adbd 828e 6cbd aa3b 0d3e ab86 373d
000002d0: 1ee8 7abd b38a c4bd ec41 203d 011b 9e3c
000002e0: 2e4e 8eba 3f71 77bd e769 f33d b0d8 4fbd
000002f0: ae04 b03d e604 1f3e ebdd 5a3b 8883 1f3e
00000300: 09c9 073d 8b0a 7e3d 60d7 873d 875c 003e
00000310: 4ffd 8f3d 1766 da3c 07bf 393d d149 9fbd
00000320: 43f7 a83b 0c2d 10be a33c bfbd e1b4 febc
00000330: 59db 36be 2a8e eebd 39de 8c3b adcb bb3d
00000340: 0079 c1bd f5cf 7bbd 12e6 01bd d22c 24bb
00000350: 7eb5 81bd 44fc 183c 53f8 7a3d 39af 90bd
00000360: 3d2a 183d 8ef1 f43d 3a54 16be 2489 19bd
00000370: cdbe a73d a29f ee3a 7ffc 513d 51ea 04bd
00000380: cc4d 073e 17b6 873d 118d 3a3b b304 09be
00000390: b982 3dbd ae4e ab3d e28c fe3d 2bdc c83d
000003a0: ebf8 963b cd72 3b3c f26e edbd a8c0 1dbe
000003b0: c0a7 85bc fe69 4ebc ab4c b13d 6f7a 13bd
000003c0: 7c2b 923d d596 d23c 5665 11bd ec3b 38bd
000003d0: 4f7a 19bd 506e 183e f43f 2a3e e665 cb3d
000003e0: 212a 063d 8b46 503d 6c7b 0dbe fbb1 46bd
000003f0: 9ce6 423c ad11 dbbd 86b8 ef3d 021a 28bc
0.020841839 -0.033200756 0.10643135 0.024653392 0.18639168 0.17622319 0.017065162 0.010780298
-0.022772944 0.10273508 0.09177395 -0.091268025 0.09316519 -0.053317785 -0.09099172 -0.114719845
0.07597796 -0.012479056 0.09163499 0.006591171 -0.07337998 -0.08332874 -0.15755385 -0.09151277
-0.0045689135 0.021203851 -0.034348793 -0.055607643 0.18503293 0.024038326 0.09422736 0.036840938
0.12496345 -0.015158975 0.006409585 0.11541217 -0.117739335 0.034403145 0.13895254 0.1275216
0.037437044 -0.16580598 -0.13854694 0.10757291 0.009877487 -0.19385126 -0.08015515 -0.035530847
0.16178559 -0.07790549 -0.11874233 -0.013491475 0.020712735 -0.038742933 0.038811717 0.1317649
-0.042127874 -0.09315932 -0.08499906 0.20937467 0.08083573 -0.08006702 -0.04367027 0.13665581
0.019229986 0.03133688 -0.07782311 0.06309446 -0.06830543 0.045627132 0.004198536 -0.1116942
-0.084184 -0.12661704 0.08361733 -0.15150593 0.050714638 -0.0066946708 0.036068335 0.04137244
0.014732595 -0.15310034 -0.051995426 0.09943807 -0.07309722 0.029383007 0.23241574 -0.01657664
-0.0038540203 -0.1715671 0.013369206 0.11746582 0.06804715 -0.061833538 0.021765577 -0.051631015
0.051976465 -0.13879715 0.066380836 0.009026877 0.121596746 0.08594691 -0.04447157 0.058687005
-0.15280488 0.06746347 0.08600745 -0.078025065 0.001749193 -0.037086435 -0.16305508 0.083412886
-0.087951735 0.044667058 -0.012187361 -0.19838123 0.08460145 0.020606546 0.036189713 -0.21750198
-0.094586015 -0.04576749 -0.15361562 -0.053990226 0.111983135 0.045139387 -0.04367861 -0.005111556
-0.09645093 0.074551105 0.34709087 0.08544523 -0.2190059 -0.14956564 0.020406138 -0.04745835
-0.014048505 -0.068983324 -0.0908774 0.16264018 0.0534508 0.04735193 -0.028075932 0.03722731
-0.081759244 -0.09818165 -0.15613417 0.06612066 -0.11539269 0.11441891 0.21456051 -0.11231655
0.163928 0.13767381 -0.010360549 0.011234649 0.068679996 0.13701586 0.05327383 0.052610245
-0.1154474 0.1399428 -0.062478893 0.10822578 0.09879348 -0.049399592 0.14370438 -0.0059573757
-0.1112886 -0.06348652 -0.08042167 -0.046947155 0.09792042 -0.011995631 0.0357274 0.03196447
-0.08496072 -0.057753094 0.13792291 0.044806164 -0.06125652 -0.09596767 0.039125368 0.019299986
-0.001085704 -0.060410734 0.11885434 -0.05074376 0.085946426 0.15529212 0.0033396434 0.15577519
0.033150706 0.062021773 0.066328764 0.12535296 0.07030737 0.026660008 0.045348193 -0.07777751
0.005156429 -0.14079684 -0.093377374 -0.03109211 -0.17857112 -0.116482094 0.004298952 0.091697074
-0.09446907 -0.06147762 -0.031713553 -0.002505113 -0.06333445 0.009337489 0.061271977 -0.07064671
0.037149657 0.119601354 -0.14680567 -0.037484303 0.08190689 0.0018205533 0.05126619 -0.032450024
0.13213271 0.06626528 0.002846543 -0.13380699 -0.046267245 0.08364616 0.12429215 0.09807619
0.00460731 0.011440945 -0.11593427 -0.15405524 -0.016315341 -0.012598513 0.086572014 -0.036005434
0.071372 0.025706688 -0.035497032 -0.04497902 -0.03747016 0.14885831 0.16625959 0.09931545
0.03275502 0.050848525 -0.13816613 -0.04850958 0.011895802 -0.10696731 0.11705117 -0.010260107
