Assets/ML-Brains/HouseBehaviourScene8T01.onnx (onnx, 83196 bytes, 9 tensors)

action_model._discrete_distribution.branches.0.bias f4 [7]
0.010864505 0.014872503 0.0035443539 0.008794893 -0.00618133 -0.023692809 -0.00090588524
00000000: 0901 323c ccab 733c 6448 683b 7418 103c
00000010: c18c cabb 6c17 c2bc ee78 6dba

action_model._discrete_distribution.branches.0.weight f4 [7, 128]
0.01841773 -0.0051272083 -0.14373018 0.01970758 0.0019179503 0.018791271 0.002703831 0.0014759712
0.06425058 0.0077436524 -0.0001418825 0.0072486843 0.0046816044 0.030969953 -0.0077154585 0.006535342
-0.01954736 0.015704045 0.045431916 0.010809482 0.0036023927 -0.00024749912 -0.013260866 0.0133439535
-0.024552034 -0.0024849372 0.042748895 -0.00097622443 0.0078322105 -0.07249211 -0.004820333 -0.0044083027
-0.028695373 -0.1472274 0.0027507134 0.011737669 -0.012529348 0.050428413 -0.013016074 0.03349292
-0.00010942474 -0.0018164291 -0.024196474 -0.03616266 -0.029143987 0.0111423945 0.017371258 -0.006493246
0.0033958165 0.029758772 0.013040242 0.00681239 -0.000219359 -0.014779515 -0.016135495 -0.05748408
-0.019531507 0.0062474394 -0.017214786 -0.024775457 0.007287749 -0.0067968336 -0.04348988 0.20123935
-0.012382973 0.05440175 0.050941724 0.011897282 0.05779254 -0.000243764 0.018471723 0.021717973
0.0075930916 0.023094084 0.005354882 0.015974319 0.02123541 0.023269152 -0.07300649 0.050825793
-0.0468841 0.02365886 0.009079716 -0.0010402375 -0.011835257 0.05137351 -0.0006087596 0.005226401
0.027857015 0.03277647 -0.015402714 -0.0042590545 -0.07036142 0.021594688 0.007510952 -0.018605132
0.034030687 -0.007045406 -0.020773374 -0.014306203 0.02619581 0.00808138 -0.017023228 -0.037619963
-0.00066167326 0.016678989 -0.018509783 0.0005712333 0.0050612176 0.008795742 -0.029186843 -0.0017512956
0.001733294 0.0076070824 0.010716628 0.009423801 -0.05566428 0.016210739 -0.10557793 -0.03062496
0.0031297766 -0.036836486 0.0065000164 0.031590175 0.009843185 -0.045575447 0.0020727338 -0.022390755
0.016719576 -0.022475492 0.006949632 -0.010893545 0.026943777 0.000853411 0.005934909 -0.054411877
-0.0056444597 -0.03572146 -0.035857543 0.0132130105 -0.0057879975 -0.0014246354 0.011305588 -0.013012518
-0.02318917 0.0084469635 -0.0071503157 -0.008041979 -0.009865328 0.004270359 -0.027963843 -0.023508344
0.016510544 -0.014695016 0.031952936 -0.008113511 0.0076440754 -0.010429258 0.002533499 -0.004404832
0.017851267 0.09477837 0.01036181 -0.00574513 -0.01018993 -0.018070359 -0.007818399 0.012786011
-0.011331494 0.009880676 -0.015070863 -0.00022663773 -0.032757413 0.025464747 0.03335362 0.0064977487
-0.0058143013 -0.008705489 0.019294318 -0.0005560371 -0.01220735 0.01568642 -0.003920872 -0.00038322026
-0.028999163 -0.020546377 -0.006199199 0.011453594 0.016919369 -0.04760113 -0.008208743 -0.12040456
0.010180462 -0.026482454 -0.008511605 -0.023640338 -0.017256014 0.014264222 0.009816679 -0.05015442
-0.0077420427 -0.014905455 -0.009158846 0.019413128 0.030483702 0.022855952 0.037776724 0.069577456
0.022733256 -0.016471876 -0.007063504 -0.0022097249 -0.036594722 0.018055145 -0.026695399 0.0074831303
-0.014505862 0.056177862 0.0014487158 -0.0009191254 -0.0048305592 -0.04404032 0.023899246 0.005221211
-0.014743601 -0.006039073 0.009218649 0.012592222 -0.07394804 -0.00365249 -0.0069328058 -0.017776504
0.021780768 0.0084989015 -0.0017956536 -0.0034599588 0.019690247 -0.03297968 0.03601013 0.006202174
0.005390614 -0.019722223 -0.007723444 0.017939396 0.037910856 0.011710216 0.026687514 0.0002755618
0.020716261 -0.03790332 -0.025411217 -0.07982157 -0.025252245 0.0005876285 -0.016118642 0.013185323
00000000: c8e0 963c 2402 a8bb 012e 13be ca71 a13c
00000010: bc63 fb3a 27f0 993c c232 313b 6075 c13a
00000020: cf95 833d 77be fd3b 4bc6 14b9 5f86 ed3b
00000030: 2568 993b b3b4 fd3c f5d1 fcbb 6c26 d63b
00000040: c921 a0bc c5a5 803c d116 3a3d 411a 313c
00000050: 1f16 6c3b c5c2 81b9 1a44 59bc 99a0 5a3c
00000060: 5921 c9bc 54da 22bb 7719 2f3d 50e9 7fba
00000070: ac52 003c be76 94bd e2f3 9dbb 8673 90bb
00000080: 8f12 ebbc c8c2 16be 5045 343b 5a4f 403c
00000090: e547 4dbc 068e 4e3d 5f41 55bc df2f 093d
000000a0: f67a e5b8 3f15 eeba af37 c6bc 4c1f 14bd
000000b0: 5fbf eebc 978e 363c 2b4e 8e3c 4cc5 d4bb
000000c0: 598c 5e3b abc8 f33c bda6 553c 783a df3b
000000d0: bc03 66b9 c725 72bc 962e 84bc 6d74 6bbd
000000e0: 8a00 a0bc 52b7 cc3b 0606 8dbc e6f5 cabc
000000f0: 12ce ee3b f9b7 debb 7222 32bd b011 4e3e
00000100: f4e1 4abc 5fd4 5e3d 45a8 503d d1ec 423c
00000110: dfb7 6c3d e79a 7fb9 0352 973c e4e9 b13c
00000120: 78cf f83b ce2f bd3c 0278 af3b 93dc 823c
00000130: e2f5 ad3c f39e be3c 6d84 95bd b52e 503d
00000140: 8b09 40bd 3ad0 c13c 17c3 143c 9458 88ba
00000150: aae8 41bc 086d 523d 2a95 1fba 3b42 ab3b
00000160: 6534 e43c 9f40 063d aa5b 7cbc 8a8f 8bbb
00000170: a619 90bd 58e7 b03c 6f1e f63b ca69 98bc
00000180: c363 0b3d 26dd e6bb ec2c aabc 9164 6abc
00000190: 9898 d63c c467 043c 4c74 8bbc 6417 1abd
000001a0: 2474 2dba 60a2 883c d4a1 97bc d1be 153a
000001b0: 92d8 a53b 041c 103c 3f19 efbc bb8b e5ba
000001c0: b22f e33a d544 f93b cc94 2f3c 4966 1a3c
000001d0: 3a00 64bd 62cc 843c 3e39 d8bd 32e1 fabc
000001e0: f01c 4d3b dbe1 16bd 17fe d43b b364 013d
000001f0: 4f45 213c 52ad 3abd b4d6 073b d16c b7bc
00000200: 7ef7 883c 861e b8bc bdb9 e33b d77a 32bc
00000210: 32b9 dc3c 71b7 5f3a a079 c23b fdde 5ebd
00000220: 29f5 b8bb aa50 12bd 5cdf 12bd 627b 583c
00000230: 3ea9 bdbb d5ba baba 133b 393c 7532 55bc
00000240: 37f7 bdbc 2265 0a3c 324d eabb 81c2 03bc
00000250: 2fa2 21bc 5eee 8b3b 6e14 e5bc 9294 c0bc
00000260: 1f41 873c 5dc3 70bc 15e1 023d 88ee 04bc
00000270: 277b fa3b 7bdf 2abc 0f09 263b 6956 90bb
00000280: d23c 923c 291b c23d 95c4 293c a541 bcbb
00000290: aaf3 26bc 4a08 94bc be18 00bc 6b7c 513c
000002a0: bba7 39bc 8fe2 213c c8eb 76bc 9aa5 6db9
000002b0: a32c 06bd 729b d03c ce9d 083d 11eb d43b
000002c0: e585 bebb 78a1 0ebc 1e0f 9e3c 05c3 11ba
000002d0: 5601 48bc cf80 803c a97a 80bb f4ea c8b9
000002e0: a78f edbc e050 a8bc a622 cbbb dba7 3b3c
000002f0: 7d9a 8a3c 67f9 42bd f77d 06bc aa96 f6bd
00000300: f4cb 263c bbf1 d8bc 4274 0bbc 62a9 c1bc
00000310: 7c5c 8dbc 7cb4 693c 23d6 203c b96e 4dbd
00000320: f6b0 fdbb 0236 74bc fc0e 16bc 4808 9f3c
00000330: f5b8 f93c 683c bb3c c4bb 1a3d a07e 8e3d
00000340: 183b ba3c 07f0 86bc f774 e7bb 08d1 10bb
00000350: 59e4 15bd 62e8 933c 4fb0 dabc 0c35 f53b
00000360: ffa9 6dbc c21a 663d d6e2 bd3a 76f1 70ba
00000370: ab49 9ebb 9f63 34bd 5ac8 c33c b116 ab3b
00000380: 258f 71bc 6be3 c5bb d109 173c 9b4f 4e3c
00000390: 1272 97bd 9d5e 6fbb 972c e3bb 08a0 91bc
000003a0: 956d b23c fa3e 0b3c 235c ebba 7ac0 62bb
000003b0: 714d a13c b315 07bd 5c7f 133d 9b3b cb3b
000003c0: bfa3 b03b 8090 a1bc f214 fdbb a4f5 923c
000003d0: 6a48 1b3d 35dc 3f3c c69f da3c 4779 9039
000003e0: 26b5 a93c 8340 1bbd 2f2b d0bc 7e79 a3bd
000003f0: ccdd cebc 150b 1a3a 3e0b 84bc 4107 583c

action_model._discrete_distribution.branches.1.bias f4 [2]
-0.018778125 0.018778143
00000000: 95d4 99bc 9fd4 993c

action_model._discrete_distribution.branches.1.weight f4 [2, 128]
0.017545275 0.01515171 0.073320165 -0.008759654 -0.004925703 0.00069024216 0.010118798 -0.0047291983
0.016998928 -0.018605568 -0.008397514 -0.009039222 -0.020176457 0.011542449 -0.010731098 -0.023384422
-0.017479666 -0.0038816635 0.017706966 0.011081231 -0.016682765 0.004017381 0.0014346369 -0.02093487
0.0044036834 0.0010615457 -0.007549557 -0.014422528 0.019053848 0.017124841 -0.021703925 -0.008744269
-0.008207572 0.05293004 0.012202748 -0.015460999 0.003094392 -0.0278042 -0.017526317 0.015792802
-0.02808897 0.017035626 -0.0075045275 0.024139294 0.028061546 -0.017254332 0.0027778686 -0.0031374185
0.0068611465 0.009627902 0.045933105 -0.020908926 -0.0063182735 0.010056185 0.029483948 0.03845075
-0.06420107 -0.0024573505 -0.0120288 -0.0018334823 0.074022286 0.02242422 0.039807264 0.099247456
0.04675799 0.016441695 -0.020252854 0.034203887 0.016267316 0.008130297 -0.017089713 0.04721047
0.023359708 -0.021274691 0.004429816 0.0057882774 0.030843463 0.014475701 -0.042867407 0.117427655
-0.0013702597 0.0012929256 0.02213282 0.0057067852 -0.063927695 -0.053461242 -0.05471778 0.009591394
0.014727503 0.050675116 -0.039863527 0.0057229605 -0.016352864 -0.016786134 2.8705726e-05 -0.0063039423
0.033109743 0.0040581417 0.0609592 -0.017043648 0.01838438 0.012477554 -0.0076973103 -0.00804323
0.012638989 0.0039786985 0.00229096 -0.040305138 -0.016714932 0.0017584468 0.021442225 -0.0064598117
-0.0020668427 -0.008422827 0.020404154 -0.055259276 -0.0021193007 -0.01589001 0.086215846 0.023170913
0.011838558 -0.07177214 -0.036683902 0.023072144 -0.016144631 -0.0013800274 -0.0031459178 -0.021713171
-0.027616061 -0.0056926496 -0.10109896 0.00048508623 0.011314208 -0.023524135 -0.0022248675 -0.00442377
-0.018902007 0.0057987142 0.028945446 0.0019527513 0.010630237 -0.002477486 0.008602594 0.02609751
0.010842577 -0.0041217697 -0.011369805 -0.008097945 0.01627857 0.003047925 -0.021368854 -0.0027110951
0.023487773 0.013313746 0.007460883 0.011300697 -0.007225176 -0.031054193 0.018995887 -0.0051173717
0.004437382 -0.07892677 -0.009897906 0.005308805 0.0018797449 0.02306687 0.033447728 -0.01659807
0.015291158 -0.03320667 0.019381948 -0.024579981 -0.021059236 0.0026534416 0.004518686 -0.011359783
-0.004462545 -0.011826141 -0.03175966 0.017045913 0.0004062765 -0.0119842 -0.040452193 -0.021754924
0.058102984 -0.011739925 0.00094642094 0.024883043 -0.079363786 -0.015646175 -0.052359995 -0.08443918
-0.032855615 -0.013041704 0.008407439 -0.022406332 -0.018214824 -0.013617194 -0.0043401774 -0.064176545
-0.008511427 0.017254127 0.0049635624 0.009873207 -0.027537586 -0.018172465 0.038788654 -0.10673071
0.009593959 -0.001494662 0.00025537875 -0.015292581 0.031343885 0.050502215 0.04063209 0.0082080355
-0.031724636 -0.056515127 0.050917495 -0.00041577173 0.023162385 0.018445844 0.0092662 0.013067328
-0.02038606 -0.0072636358 -0.07647888 0.01891273 0.0065608327 -0.0049232356 -0.027911969 0.0036254143
-0.0047491034 0.001354132 0.009075115 0.050866406 0.025392046 0.0017178799 -0.027582655 0.008302954
0.0062968633 0.0027326818 0.003229014 0.05812791 -0.0073772115 0.022222158 -0.09097271 0.0034607342
0.009706949 0.06879793 0.038407467 -0.016909951 0.00084988883 -0.018559325 0.0011857346 0.018343793
00000000: 1cbb 8f3c e13e 783c e228 963d a784 0fbc
00000010: cb67 a1bb 5ef1 343a 51c9 253c 64f7 9abb
00000020: 5641 8b3c b46a 98bc ba95 09bc 3f19 14bc
00000030: 1949 a5bc 8a1c 3d3c 7dd1 2fbc b090 bfbc
00000040: 8431 8fbc 8263 7ebb 330e 913c 0d8e 353c
00000050: 4baa 88bc 3ca4 833b 6d0a bc3a 9b7f abbc
00000060: c64c 903b 9023 8b3a 4662 f7bb 784c 6cbc
00000070: d116 9c3c 6549 8c3c 6ecc b1bc 1f44 0fbc
00000080: 0d79 06bc 2bcd 583d 09ee 473c 2150 7dbc
00000090: 48cb 4a3b a2c5 e3bc 5a93 8fbc e85f 813c
000000a0: d71a e6bc 4c8e 8b3c 8ae8 f5bb c5bf c53c
000000b0: 54e1 e53c f558 8dbc e70c 363b 269d 4dbb
000000c0: 78d3 e03b 59be 1d3c 5a24 3c3d 3249 abbc
000000d0: 8509 cfbb b2c2 243c 5288 f13c 897e 1d3d
000000e0: da7b 83bd 800b 21bb 7214 45bc 7551 f0ba
000000f0: ff98 973d ffb2 b73c f10c 233d 4042 cb3d
00000100: 4e85 3f3d bcb0 863c 50e9 a5bc 6019 0c3d
00000110: 0943 853c f034 053c baff 8bbc c45f 413d
00000120: dc5c bf3c 4348 aebc fd27 913b 97ab bd3b
00000130: 6eab fc3c 7e2b 6d3c bc95 2fbd e97d f03d
00000140: 499a b3ba 6277 a93a e34f b53c fcff ba3b
00000150: 86ec 82bd 2dfa 5abd c01f 60bd 3925 1d3c
00000160: a04b 713c b690 4f3d f047 23bd ac87 bb3b
00000170: 71f6 85bc 1383 89bc 14cd f037 4d91 cebb
00000180: 159e 073d 29fa 843b 5bb0 793d 1f9f 8bbc
00000190: d79a 963c a86e 4c3c b839 fcbb c0c7 03bc
000001a0: c313 4f3c be5f 823b ee23 163b 0017 25bd
000001b0: c1ed 88bc af7b e63a 9ba7 af3c d4ac d3bb
000001c0: de73 07bb e6ff 09bc 9d26 a73c 8d57 62bd
000001d0: f7e3 0abb c42b 82bc ef91 b03d edd0 bd3c
000001e0: 83f6 413c 46fd 92bd dc41 16bd cb01 bd3c
000001f0: bf41 84bc 09e2 b4ba be2b 4ebb d2df b1bc
00000200: 143b e2bc 6889 babb f90c cfbd 2c53 fe39
00000210: 3a5f 393c b0b5 c0bc 15cf 11bb 46f5 90bb
00000220: 62d8 9abc 2403 be3b 001f ed3c 76f3 ff3a
00000230: 722a 2e3c 515d 22bb e5f1 0c3c 72ca d53c
00000240: 10a5 313c e90f 87bb 6b48 3abc 3ead 04bc
00000250: a35a 853c b2bf 473b bc0d afbc a1ac 31bb
00000260: 6e69 c03c e621 5a3c 6c7a f43b 8f26 393c
00000270: 2bc1 ecbb 5d65 febc 439d 9b3c a0af a7bb
00000280: 7567 913b 5ca4 a1bd d42a 22bc 7cf5 ad3b
00000290: c661 f63a bcf6 bc3c 7c00 093d adf8 87bc
000002a0: c487 7a3c b803 08bd e4c6 9e3c f55b c9bc
000002b0: 6b84 acbc 5de5 2d3b 7c11 943b 621e 3abc
000002c0: 8a3a 92bb 6ec2 41bc 6b16 02bd dfa3 8b3c
000002d0: 8201 d539 6159 44bc 33b1 25bd 6237 b2bc
000002e0: 65fd 6d3d d058 40bc 3c19 783a 86d7 cb3c
000002f0: 7b89 a2bd 682c 80bc 6f77 56bd 73ee acbd
00000300: 9c93 06bd dfac 55bc 5bbf 093c 7c8d b7bc
00000310: 4137 95bc a71a 5fbc 0c38 8ebb fe6e 83bd
00000320: 8373 0bbc 8758 8d3c 61a5 a23b 3bc3 213c
00000330: 8196 e1bc 6cde 94bc dae0 1e3d a195 dabd
00000340: fb2f 1d3c 89e8 c3ba 5be4 8539 bc8d 7abc
00000350: 7262 003d 69db 4e3d d66d 263d ff7a 063c
00000360: b1f1 01bd 687c 67bd dd8e 503d f0fb d9b9
00000370: 0bbf bd3c bd1b 973c 42d1 173c 5918 563c
00000380: ab00 a7bc cb03 eebb f6a0 9cbd dfee 9a3c
00000390: 41fc d63b 1853 a1bb a4a7 e4bc 5c98 6d3b
000003a0: 5e9e 9bbb 217d b13a cbaf 143c 4b59 503d
000003b0: fb02 d03c 7c2a e13a 05f5 e1bc 1d09 083c
000003c0: eb55 ce3b cb16 333b de9d 533b 8817 6e3d
000003d0: 89bc f1bb 3e0b b63c e64f babd 7ccd 623b
000003e0: e509 1f3c eee5 8c3d 2651 1d3d bd86 8abc
000003f0: 13cb 5e3a ba09 98bc a76a 9b3a b945 963c

discrete_action_output_shape f4 [1, 2]
7.0 2.0
00000000: 0000 e040 0000 0040

network_body._body_endoder.seq_layers.0.bias f4 [128]
-0.035094097 -0.010676067 -0.010668862 -0.011240054 0.026009893 -0.051870957 0.020838303 0.011116866
0.0010514454 0.0053989408 0.015583102 0.10114627 -0.026724799 0.052237216 0.02809168 -0.014752316
0.04493241 -0.028563103 0.022380792 -0.0071930736 0.038014498 0.075244874 0.03731901 0.03243138
-0.042004876 0.037538245 -0.026336484 0.034011103 0.023973327 -0.032859884 -0.040445898 -0.051121283
0.062387485 0.106736325 -0.013844423 -0.014968268 -0.0103686955 -0.062084813 0.045451798 0.07005088
0.015804976 0.008603996 -0.03763075 0.012828254 -0.015979802 -0.000282463 -0.001928432 -0.007226426
-0.015673632 0.0114230495 0.047828414 -0.0021244723 -0.02755276 -0.021744652 0.035855446 -0.009962428
-0.013370961 -0.010442387 -0.012966322 0.040844146 0.071454905 0.09586077 0.0373122 -0.015815554
0.058000028 -0.018469276 0.03164746 0.024845177 0.033188958 0.0013529334 -0.03974619 0.0032362023
0.031216547 -0.017550223 0.0020401506 0.02236273 0.009210927 -0.058567937 0.09306493 -0.02093527
-0.016441107 0.01636344 -0.03390854 0.057760898 -0.026612073 -0.016426692 -0.027971348 -0.022585033
0.014693276 0.0021539594 -0.0006476365 0.01379567 -0.028713778 0.024938071 -0.03604598 0.031216044
-0.08664543 0.015557617 -0.0083490135 0.043413084 0.0017934048 0.0062906058 -0.057508994 -0.005779702
0.0071842456 0.006846089 0.025975076 0.037064347 -0.058693975 0.039353237 0.07984396 0.0040165544
0.0860697 0.14963879 -0.0416099 -0.06865527 0.05113734 0.08450918 0.081572175 0.09062518
0.011291014 -0.011336053 -0.00039776458 -0.018960115 0.033157516 0.0048358934 -0.016398268 0.020846033
00000000: d4be 0fbd acea 2ebc 73cc 2ebc 3428 38bc
00000010: b312 d53c a476 54bd 17b5 aa3c 8423 363c
00000020: a7d0 893a 99e9 b03b 4450 7f3c c725 cf3d
00000030: f7ed dabc b1f6 553d 8620 e63c b3b3 71bc
00000040: 0c0b 383d 2bfd e9bc ec57 b73c e0b3 ebbb
00000050: 17b5 1b3d fc19 9a3d d1db 183d c4d6 043d
00000060: 4e0d 2cbd b4c1 193d 9cbf d7bc 3a4f 0b3d
00000070: b663 c43c 1698 06bd 99aa 25bd 8d64 51bd
00000080: 058a 7f3d 9398 da3d b8d3 62bc 773d 75bc
00000090: 76e1 29bc a54c 7ebd aa2b 3a3d d676 8f3d
000000a0: 7079 813c c6f7 0c3c b422 1abd 992d 523c
000000b0: 13e8 82bc 8b17 94b9 71c3 fcba a8cb ecbb
000000c0: fd65 80bc be27 3b3c bae7 433d bb3a 0bbb
000000d0: 53b6 e1bc d721 b2bc 29dd 123d 7439 23bc
000000e0: e011 5bbc 8c16 2bbc b270 54bc 314c 273d
000000f0: f356 923d a752 c43d add4 183d 9f8f 81bc
00000100: 7091 6d3d e14c 97bc c4a0 013d 1d88 cb3c
00000110: 25f1 073d e954 b13a e7cc 22bd 7716 543b
00000120: d8b9 ff3c 7cc5 8fbc 0cb4 053b 0b32 b73c
00000130: 6ee9 163c efe4 6fbd d398 be3d 7180 abbc
00000140: 80af 86bc 9f0c 863c aee3 0abd b196 6c3d
00000150: 9001 dabc 4591 86bc 2b24 e5bc 3f04 b9bc
00000160: 11bc 703c 7129 0d3b 26c6 29ba 3c07 623c
00000170: 2839 ebbc ed4a cc3c f3a4 13bd cab8 ff3c
00000180: 2973 b1bd 60e5 7e3c 4dca 08bc ebd1 313d
00000190: ae10 eb3a 6d21 ce3b 8d8e 6bbd a863 bdbb
000001a0: d269 eb3b 2855 e03b afc9 d43c c9d0 173d
000001b0: 1869 70bd dc30 213d 3b85 a33d 4d9d 833b
000001c0: 5045 b03d e93a 193e 246f 2abd 229b 8cbd
000001d0: 6375 513d 2613 ad3d 500f a73d b299 b93d
000001e0: f2fd 383c daba 39bc 0f8b d0b9 3e52 9bbc
000001f0: 2dd0 073d 6a76 9e3b a955 86bc 4dc5 aa3c

network_body._body_endoder.seq_layers.0.weight f4 [128, 18]
0.028418746 0.08958249 0.012021479 0.4548053 0.13624656 -0.121222086 0.29497775 0.27710444
0.2385312 0.08246604 -0.10709864 0.29697475 0.26334378 -0.18823445 0.23312141 0.05165489
0.122096285 -0.50813353 0.40821585 -0.16821393 -0.040270533 0.16822371 -0.22385754 0.09419648
0.034442145 -0.06465037 0.0833579 0.19163318 0.2982953 0.08877891 0.31721795 -0.35824755
-0.0838422 0.074933976 0.20347561 -0.31513 0.03192488 -0.09884221 -0.32673663 -0.21278019
-0.071700074 -0.00016547924 -0.29546833 0.30614698 -0.21882421 -0.01776674 -0.2488934 -0.0412075
0.093848914 -0.17860425 0.16641802 0.369557 0.16640972 -0.019078957 -0.006834187 0.26087132
0.15973254 -0.062062375 -0.15301594 -0.055193108 0.09566717 0.21701968 -0.37287587 0.07743237
-0.075001106 -0.025725247 0.09623984 -0.15555313 0.46768457 0.17375681 -0.27468264 0.05112286
0.37714383 -0.19598746 -0.2428522 -0.1255166 0.2699705 0.16279128 0.17766486 -0.16264726
0.12240531 -0.6703632 0.017123597 -0.13340491 -0.29497892 -0.30891287 -0.467406 0.080817685
-0.03517629 0.33031222 -0.30322194 0.32633084 -0.2822476 0.23784938 0.08902805 -0.2893304
0.16949339 0.28517604 0.3143142 -0.034074776 0.0055366145 -0.48828194 0.32503638 -0.26945227
-0.30856767 -0.00048289393 -0.011262112 0.12078717 0.07184499 -0.11431355 -0.24086891 -0.10775384
-0.104704045 -0.08909352 0.2404834 0.020129114 0.3241857 0.034924947 -0.07083653 0.21026756
-0.2347572 0.39946455 -0.09628238 -0.049696464 -0.06726885 0.3925531 0.032860257 0.2719456
0.023466855 0.33596465 -0.595095 -0.080321066 -0.4782677 0.12753686 0.036901332 -0.036566783
0.019588633 0.19017883 -0.64975375 -0.06552306 -0.06101552 -0.5207179 0.1613133 -0.1198439
-0.3535714 0.5216424 -0.19727258 -0.17324893 0.22938836 -0.29216582 -0.43004003 0.06505454
-0.08975148 -0.49842995 0.0673537 -0.38535935 0.4230712 0.26197273 0.34559098 -0.48858893
0.15316972 0.18742284 -0.03617914 0.26239014 0.25136703 -0.050563097 -0.027765995 0.36577818
-0.2310654 0.2639336 0.17542806 -0.31476617 -0.111726865 -0.19029294 -0.019658955 0.05224052
-0.25626975 -0.03407381 0.10298382 -0.019161643 -0.18188582 -0.16323084 -0.38094902 -0.03245215
-0.25685602 0.06022131 0.2478273 -0.064617455 0.12996386 0.29142395 0.27202544 0.22395338
-0.21252084 -0.41362375 0.20463124 0.4186106 0.08485512 -0.18817742 0.031158539 -0.16608587
0.14627631 -0.04098432 -0.097117536 0.25414625 -0.087435365 -0.37917864 -0.18857114 -0.008523212
0.48717135 0.06007594 0.2480357 0.10690094 0.39235112 0.061024107 0.082587816 0.19630797
0.299486 -0.023240833 -0.26559395 0.2346656 0.081877686 -0.24845734 0.36048034 -0.12214192
0.02530424 0.22648424 0.22679013 -0.20689677 0.12203088 -0.14984196 0.07224942 -0.1177054
-0.55633783 -0.19683842 0.19879602 -0.12239004 -0.13379559 -0.071286105 0.31300935 0.09742316
-0.0031319999 0.09790101 -0.2263523 0.21449427 0.13849893 0.16456763 -0.22911955 -0.322395
-0.21315171 -0.035650656 0.17115016 0.08745041 0.2194776 0.25933105 0.09369753 -0.17210074
00000000: 6ece e83c 0677 b73d bdf5 443c 3edc e83e
00000010: 3884 0b3e 4943 f8bd 5307 973e a2e0 8d3e
00000020: 8641 743e f5e3 a83d 8856 dbbd 130d 983e
00000030: ffd4 863e 88c0 40be 61b7 6e3e 1494 533d
00000040: 9e0d fa3d 0a15 02bf ab01 d13e 4640 2cbe
00000050: b7f2 24bd d642 2c3e e93a 65be 16ea c03d
00000060: 3513 0d3d 6a67 84bd 8cb7 aa3d 7d3b 443e
00000070: 29ba 983e b8d1 b53d 646a a23e 396c b7be
00000080: 76b5 abbd fc76 993d e95b 503e b858 a1be
00000090: aac3 023d c96d cabd 064a a7be 0de3 59be
000000a0: 7dd7 92bd 7f84 2db9 a047 97be 4cbf 9c3e
000000b0: 7413 60be 8e8b 91bc e9dd 7ebe 32c9 28bd
000000c0: dc33 c03d 08e4 36be 7c69 2a3e 9336 bd3e
000000d0: 4f67 2a3e 794b 9cbc 51f1 dfbb ed90 853e
000000e0: ed90 233e 1e35 7ebd 36b0 1cbe 2b12 62bd
000000f0: 26ed c33d 683a 5e3e 96e9 bebe dd94 9e3d
00000100: 2e9a 99bd c1bd d2bc 6519 c53d 5249 1fbe
00000110: 5a74 ef3e 4eed 313e 34a3 8cbe 3466 513d
00000120: ff18 c13e f0b0 48be 3fae 78be 6c87 00be
00000130: 9339 8a3e c2b2 263e c7ed 353e 018d 26be
00000140: a3af fa3d ec9c 2bbf c946 8c3c 4c9b 08be
00000150: 7a07 97be d429 9ebe d74f efbe be83 a53d
00000160: 0315 10bd af1e a93e e83f 9bbe d614 a73e
00000170: c282 90be ca8e 733e 5754 b63d 1d23 94be
00000180: ad8f 2d3e 9802 923e caed a03e fe91 0bbd
00000190: 7d6c b53b 1700 fabe 2b6b a63e a6f5 89be
000001a0: 95fc 9dbe ed2c fdb9 b984 38bc 445f f73d
000001b0: 7723 933d 391d eabd 57a6 76be 0cae dcbd
000001c0: 136f d6bd aa76 b6bd 4841 763e d0e5 a43c
000001d0: abfb a53e 760d 0f3d be12 91bd 6150 573e
000001e0: 3164 70be 9e86 cc3e b22f c5bd 858e 4bbd
000001f0: 40c4 89bd b8fc c83e 7a98 063d 743c 8b3e
00000200: 903d c03c 8f03 ac3e 2558 18bf 5f7f a4bd
00000210: 81df f4be 0699 023e da25 173d 0dc7 15bd
00000220: 5778 a03c 3dbe 423e 4356 26bf f430 86bd
00000230: 69eb 79bd c54d 05bf 502f 253e b870 f5bd
00000240: 4f07 b5be 5b8a 053f d301 4abe 2b68 31be
00000250: c8e4 6a3e c296 95be 352e dcbe 513b 853d
00000260: a0cf b7bd 3632 ffbe bdf0 893d d24d c5be
00000270: ca9c d83e 4a21 863e 4df1 b03e 5428 fabe
00000280: 86d8 1c3e c6eb 3f3e 9430 14bd 0058 863e
00000290: 2eb3 803e 401b 4fbd 8375 e3bc 4747 bb3e
000002a0: 699c 6cbe 4e22 873e 6aa3 333e 0829 a1be
000002b0: 0ed1 e4bd 27dc 42be d10b a1bc 28fa 553d
000002c0: ca35 83be fb90 0bbd 2ee9 d23d e1f8 9cbc
000002d0: 4740 3abe fc25 27be c00b c3be 8cec 04bd
000002e0: a282 83be 9faa 763d 71c6 7d3e 2856 84bd
000002f0: 3f15 053e 8535 953e eb46 8b3e 0954 653e
00000300: 109f 59be 7ec6 d3be da8a 513e 2154 d63e
00000310: 85c8 ad3d 95b1 40be 3140 ff3c 6a12 2abe
00000320: 75c9 153e 2ddf 27bd 8fe5 c6bd 751f 823e
00000330: 5011 b3bd b423 c2be cb18 41be f1a4 0bbc
00000340: 866e f93e 3012 763d 12fd 7d3e e1ee da3d
00000350: 3fe2 c83e 6af4 793d cd23 a93d f504 493e
00000360: 3b56 993e 8f63 bebc eefb 87be 2e4c 703e
00000370: 7daf a73d 9a6b 7ebe e190 b83e 8b25 fabd
00000380: d64a cf3c 7ceb 673e ac3b 683e bfdc 53be
00000390: 53eb f93d 2c70 19be 81f7 933d 870f f1bd
000003a0: 286c 0ebf 0390 49be 2f91 4b3e a1a7 fabd
000003b0: b601 09be 73fe 91bd c342 a03e cb85 c73d
000003c0: 3d42 4dbb 5380 c83d e6c8 67be 63a4 5b3e
000003d0: aad2 0d3e 6b84 283e 519e 6abe f510 a5be
000003e0: 7144 5abe 6c06 12bd fd41 2f3e 3319 b33d
000003f0: bcbe 603e 0ac7 843e 7ee4 bf3d 2d3b 30be

network_body._body_endoder.seq_layers.2.bias f4 [128]
-0.023012284 -0.026685456 0.00959206 -0.0049199327 0.039629743 -0.020723678 -0.007301858 -0.03141308
0.009281849 -0.0075598597 0.041686386 -0.016194606 -0.010404396 -0.007995505 -0.020130992 0.028621783
-0.022950549 -0.022311347 -0.0037785214 0.025354233 0.013512812 -0.021129506 -0.029485552 -0.033321906
-0.029663395 -0.005139981 -0.00689972 -0.008138759 -0.011594653 -0.034616705 0.011035316 -0.016344009
-0.020133076 0.01812384 -0.020641254 -0.01776517 -0.018576456 0.0004572302 -0.0098449765 -0.022482522
-0.020410303 -0.03479936 -0.032499734 -0.02186263 0.010398042 -0.026760075 -0.0104166 -0.030158084
0.009485695 -0.008889836 -0.0005303385 -0.0068601584 -0.04138095 -0.02322043 -0.019853437 -0.009598994
0.02458964 0.0012439553 -0.009250982 -0.039743457 0.026062148 0.0037366084 -0.022171007 0.058815587
-0.029744199 -0.008483688 0.059818853 -0.03231193 0.024669217 -0.035674285 -0.03746075 0.02344834
0.0061139837 -0.0018674098 -0.015045588 -0.04434369 -0.017055977 0.0067650755 0.022715587 0.03292413
-0.015851144 -0.003999654 -0.003172422 -0.02869809 -0.015472349 0.05329392 0.03193194 0.015657172
0.022424534 0.027272113 -0.002421236 -0.02699859 -0.0022728827 0.030393852 0.031988874 -0.02530499
0.006439646 0.016050456 0.014192403 0.02018366 -0.010175696 -0.017057614 -0.025980668 -0.002417922
-0.021706585 -0.025654994 -0.024058117 0.027386162 -0.010088714 -0.025883913 0.03236227 -0.042354155
-0.023493689 -0.009430684 -0.020073658 0.041344084 -0.015558224 -0.031495366 0.016397757 -0.018858775
0.00057093275 -0.012026463 -0.020672286 0.02309878 -0.029978182 -0.022954203 -0.021331405 -0.027457764
00000000: 4284 bcbc 759b dabc 0428 1d3c 6337 a1bb
00000010: cc52 223d b4c4 a9bc 6d44 efbb 00ab 00bd
00000020: e512 183c b3b8 f7bb 58bf 2a3d 8daa 84bc
00000030: 3377 2abc 94ff 02bc c0e9 a4bc 3b78 ea3c
00000040: ca02 bcbc 49c6 b6bc 12a1 77bb aeb3 cf3c
00000050: d764 5d3c c917 adbc af8b f1bc 8d7c 08bd
00000060: a600 f3bc 496d a8bb 0c17 e2bb 6e58 05bc
00000070: 80f7 3dbc 3fca 0dbd 78cd 343c dfe3 85bc
00000080: 1fee a4bc 7378 943c d917 a9bc 4388 91bc
00000090: a72d 98bc 66b8 ef39 d34c 21bc 442d b8bc
000000a0: 8233 a7bc c689 0ebd 711e 05bd 4219 b3bc
000000b0: 8d5c 2a3c f237 dbbc 63aa 2abc 160e f7bc
000000c0: e369 1b3c ada6 11bc 6a06 0bba 2ecb e0bb
000000d0: 127f 29bd c538 bebc ada3 a2bc 1945 1dbc
000000e0: 3670 c93c 370c a33a 6e91 17bc 09ca 22bd
000000f0: 4980 d53c e3e1 743b f99f b5bc 9de8 703d
00000100: 1baa f3bc 2bff 0abc 9d04 753d 8459 04bd
00000110: 1917 ca3c 331f 12bd 7270 19bd bc16 c03c
00000120: d057 c83b e0c3 f4ba c581 76bc bba1 35bd
00000130: fab8 8bbc 91ad dd3b 0a16 ba3c 74db 063d
00000140: 42da 81bc 880f 83bb 69e8 4fbb 4218 ebbc
00000150: bc7f 7dbc ba4a 5a3d 11cb 023d 7843 803c
00000160: a8b3 b73c c469 df3c 99ad 1ebb 262c ddbc
00000170: a5f4 14bb 87fc f83c c406 033d 694c cfbc
00000180: aa03 d33b 3f7c 833c 4187 683c 3458 a53c
00000190: f6b7 26bc 69bc 8bbc 69d5 d4bc 0076 1ebb
000001a0: 02d2 b1bc 6c2a d2bc 8715 c5bc f258 e03c
000001b0: 224b 25bc 800a d4bc 4d8e 043d 8d7b 2dbd
000001c0: d675 c0bc 2883 1abc 8371 a4bc 6a58 293d
000001d0: ece7 7ebc 4901 01bd 9754 863c b87d 9abc
000001e0: a6aa 153a a40a 45bc ed58 a9bc a739 bd3c
000001f0: ce94 f5bc 740a bcbc 33bf aebc 1bef e0bc

network_body._body_endoder.seq_layers.2.weight f4 [128, 128]
0.016782906 -0.003188334 0.048444275 -0.1097069 -0.0006692136 -0.083923616 0.07178326 0.08748659
0.10249961 0.06919247 -0.11754639 -0.2011109 -0.117837906 0.121857636 0.11725539 0.09649416
-0.049924705 -0.12302313 -0.054873135 0.009354467 0.051790506 0.0034730823 0.029095493 -0.23315182
0.075992 0.09276367 0.09875129 -0.13407545 -0.029060023 -0.026208391 0.1556628 0.07604351
0.03121881 -0.07204621 -0.06269901 -0.025599748 0.04813068 0.07360182 0.03999035 -0.09346166
0.029027915 0.01383642 -0.10404004 -0.06743126 -0.04954451 0.024073081 0.113725424 -0.06268589
0.016566254 0.0030609732 0.28900474 0.12821111 0.0091311 -0.10409281 -0.045393355 0.089490145
0.22634165 0.08598612 -0.034770325 -0.091793045 0.11060261 -0.099265926 0.12706713 0.056834374
-0.19263782 -0.23793435 -0.03900125 0.13493995 -0.06680298 -0.30540422 -0.01099594 0.061032925
-0.13588892 0.037524484 0.07831538 0.025626019 0.026175642 0.008628602 0.18797478 -0.17597526
0.16569938 -0.1185944 -0.0744406 0.1052826 -0.0492236 -0.18800695 0.106981985 -0.1356503
-0.06791083 0.2778229 -0.1134788 -0.18391171 0.006319029 -0.03579165 0.050133757 0.10560649
0.053495556 -0.0829478 0.09301762 0.0772112 0.019334748 0.034607872 -0.045816608 -0.111444205
-0.0906646 0.002116604 0.0050325817 -0.13551629 0.038577154 -0.04326918 0.021539971 -0.059314374
-0.09739053 0.0077994275 0.017816396 -0.076687016 0.26081824 0.028162433 -0.07351104 -0.13028383
-0.11284178 0.02606984 0.009892929 0.0059294812 0.08219296 0.005122959 0.03316042 0.14067169
-0.053613476 -0.070113175 -0.048111588 -0.04423972 0.15587227 0.081851736 -0.20599927 0.04901617
0.16625772 -0.039789706 -0.019493276 -0.1061083 0.027794005 0.095771804 -0.015187455 0.007959071
-0.061306506 0.07855461 -0.10588382 -0.12466381 -0.075116135 -0.112287134 0.076325156 -0.10046219
0.02757771 -0.093466595 -0.11420557 -0.15662575 0.1559699 0.099237695 0.1815898 -0.050129507
0.007711997 0.008341374 0.16874294 -0.16572997 -0.22046335 -0.04336383 -0.2770045 0.0432704
-0.04639452 0.045881964 0.011259795 -0.04345591 0.020445585 0.15954821 -0.15796705 0.19651225
-0.03353188 -0.054281473 0.115211815 -0.079926305 -0.108000994 0.08017916 -0.09739127 -0.032173797
0.036633477 -0.11381824 -0.10040491 0.035238035 -0.0071660536 -0.16480751 0.02913191 0.07632437
-0.19302297 0.018662252 -0.2609592 -0.16690306 0.084245875 0.03220898 0.1526341 0.17987704
0.1220365 -0.07047468 -0.16729741 0.06985582 -0.096424155 0.04292836 -0.025057985 0.07630268
-0.16279449 0.028675003 -0.1090362 -0.06277292 -0.0461181 -0.024744032 -0.0026381083 -0.0047342936
0.12219494 0.05020373 -0.008656689 0.009158217 0.0031831479 -0.03553858 -0.06070338 -0.030068874
-0.06837867 0.024542447 0.009288457 -0.009274422 -0.012005258 -0.09807811 -0.210792 0.1339234
0.11595863 -0.07682623 -0.030422272 -0.110599056 -0.11930186 0.12889595 -0.1039152 -0.03279133
0.1472486 0.1760301 0.019648839 -0.022833534 -0.055911288 0.06114181 -0.10118767 -0.19270661
-0.0044033723 -0.14767124 0.05440656 0.07811168 -0.05286937 0.13266537 -0.03297591 -0.029941773
00000000: 4e7c 893c 5ef3 50bb 816d 463d 03ae e0bd
00000010: 2a6e 2fba 25e0 abbd 1a03 933d 2b2c b33d
00000020: 51eb d13d c8b4 8d3d 29bc f0bd 04f0 4dbe
00000030: 0055 f1bd 7f90 f93d 9823 f03d bb9e c53d
00000040: d97d 4cbd 8df3 fbbd a7c2 60bd 7a43 193c
00000050: 4822 543d a79c 633b ac59 ee3c 5abf 6ebe
00000060: b2a1 9b3d e1fa bd3d 1e3e ca3d 134b 09be
00000070: 490f eebc fbb2 d6bc 1266 1f3e b3bc 9b3d
00000080: 97be ff3c f78c 93bd 5768 80bd 90b6 d1bc
00000090: ad24 453d 8dbc 963d eccc 233d d468 bfbd
000000a0: f3cb ed3c 27b2 623c f212 d5bd 6719 8abd
000000b0: 2fef 4abd e934 c53c e0e8 e83d 7661 80bd
000000c0: f4b5 873c 9c9a 483b 6ef8 933e c649 033e
000000d0: 9c9a 153c 9c2e d5bd 62ee 39bd 9c46 b73d
000000e0: 1bc6 673e 7e19 b03d 546b 0ebd fefd bbbd
000000f0: 9f83 e23d ef4b cbbd e31d 023e 29cb 683d
00000100: d942 45be 10a5 73be c6bf 1fbd b32d 0a3e
00000110: 00d0 88bd f15d 9cbe 5128 34bc a9fd 793d
00000120: 7726 0bbe 46b3 193d d063 a03d a8ed d13c
00000130: 4d6e d63c fb5e 0d3c 767c 403e dc32 34be
00000140: 19ad 293e 9fe1 f2bd 5074 98bd 679e d73d
00000150: b09e 49bd e584 40be 5f19 db3d eae7 0abe
00000160: d514 8bbd ce3e 8e3e 9367 e8bd 5a53 3cbe
00000170: db0f cf3b 449a 12bd 0e59 4d3d 3748 d83d
00000180: 281e 5b3d 89e0 a9bd 0680 be3d e820 9e3d
00000190: e863 9e3c fcc0 0d3d 32aa 3bbd dc3c e4bd
000001a0: 5dae b9bd b9b6 0a3b 5be8 a43b c8c4 0abe
000001b0: 1403 1e3d 063b 31bd 9874 b03c a1f3 72bd
000001c0: b074 c7bd 5792 ff3b b1f3 913c 150e 9dbd
000001d0: f889 853e e7b4 e63c f58c 96bd 2069 05be
000001e0: 9719 e7bd 6b90 d53c f415 223c 184c c23b
000001f0: c854 a83d 7fde a73b 38d3 073d 3d0c 103e
00000200: ce99 5bbd 7f97 8fbd a810 45bd b534 35bd
00000210: fb9c 1f3e e2a1 a73d 79f1 52be 2ec5 483d
00000220: 773f 2a3e 88fa 22bd 5db0 9fbc 4f4f d9bd
00000230: 41b0 e33c 0224 c43d ced4 78bc c366 023c
00000240: 881c 7bbd 3de1 a03d 9ed9 d8bd bd4f ffbd
00000250: 7dd6 99bd ccf6 e5bd 5d50 9c3d 1fbf cdbd
00000260: a6ea e13c 6a6b bfbd 9ce4 e9bd 8062 20be
00000270: 93b6 1f3e 223d cb3d adf2 393e 9954 4dbd
00000280: ebb4 fc3b 42aa 083c f3ca 2c3e 1eb5 29be
00000290: 25c1 61be 459e 31bd 89d3 8dbe 4e3c 313d
000002a0: 2e08 3ebd baee 3b3d 017b 383c d3fe 31bd
000002b0: 807d a73c 9b60 233e 1dc2 21be 823a 493e
000002c0: b958 09bd 4056 5ebd 2cf4 eb3d 67b0 a3bd
000002d0: a02f ddbd f934 a43d 1375 c7bd acc8 03bd
000002e0: fc0c 163d 8a19 e9bd 17a1 cdbd c255 103d
000002f0: 37d1 eabb 4dc3 28be 0ba6 ee3c f44f 9c3d
00000300: d0a7 45be 94e1 983c 729c 85be a3e8 2abe
00000310: 1a89 ac3d 90ed 033d 1d4c 1c3e b031 383e
00000320: 46ee f93d 0755 90bd 0350 2bbe 9110 8f3d
00000330: 077a c5bd a6d5 2f3d 6746 cdbc 9444 9c3d
00000340: 99b3 26be d7e7 ea3c 5f4e dfbd 178f 80bd
00000350: 55e6 3cbd ffb3 cabc 1de4 2cbb 2222 9bbb
00000360: 5741 fa3d 6da2 4d3d c9d4 0dbc 590c 163c
00000370: 5c9c 503b e790 11bd 1ba4 78bd 0053 f6bc
00000380: 1e0a 8cbd 3e0d c93c 9d2e 183c bff3 17bc
00000390: b4b1 44bc 2ddd c8bd dcd9 57be 3723 093e
000003a0: b87b ed3d 1257 9dbd 2138 f9bc c281 e2bd
000003b0: 8954 f4bd 4dfd 033e 7ed1 d4bd 3450 06bd
000003c0: 56c8 163e 3c41 343e 9af6 a03c 640d bbbc
000003d0: 3c03 65bd d66f 7a3d 7b3b cfbd e254 45be
000003e0: 2a4a 90bb 2137 17be 6ad9 5e3d 04f9 9f3d
000003f0: 8d8d 58bd 6ed9 073e bf11 07bd 7348 f5bc
