Assets/ML-Brains/HouseBehaviourScene8T02.onnx (onnx, 83196 bytes, 9 tensors)

action_model._discrete_distribution.branches.0.bias f4 [7]
000000 66 a2 a0 ba ae 7a ff 3c 66 4b c8 3b 01 21 42 ba
       -0.001225543 0.031186428 0.006112504 -0.00074054307
000010 24 f5 ec 3b 1c 90 c2 bc 7f 49 26 bc
       0.0072313715 -0.023750357 -0.010149359

action_model._discrete_distribution.branches.0.weight f4 [7, 128]
000000 a2 35 89 ba 1d 47 fc bb 27 3d 16 be 9f ac c1 3c
       -0.0010468254 -0.007698907 -0.14671765 0.023641882
000010 49 20 c2 ba 25 8e e4 3c b6 30 bf bb d8 64 0b bd
       -0.0014810647 0.027899811 -0.005834664 -0.03403172
000020 07 f0 49 3d f5 1c 55 bd 73 08 17 3c 22 fa 81 3c
       0.049301174 -0.05202957 0.009218323 0.015866343
000030 d7 44 9c 3c 57 a6 fc 3c 23 7a 96 3b cf 38 76 3c
       0.019075794 0.030841036 0.0045921966 0.015028193
000040 c6 94 13 3d 90 20 5a 3c 26 20 af 3c 02 0f d3 3c
       0.036030553 0.013313428 0.021377634 0.025763992
000050 b6 23 ed 3b 4e b3 f4 bb fe fe 7b bc e0 cd 18 3c
       0.007236923 -0.007467664 -0.015380619 0.009326428
000060 64 26 a6 bc 84 c6 19 bc 69 9d 67 3d af 57 40 bc
       -0.020281978 -0.009385709 0.056546602 -0.011739655
000070 9e ac ca 3c 6a e1 9b bd 7d 4b cb 3c 4a 6a 8a bb
       0.024740513 -0.07611354 0.024816269 -0.0042240964
000080 9c d6 33 bc aa 2f 12 be 71 84 2a 3c b0 7b d1 3b
       -0.01097646 -0.14275995 0.010407553 0.0063929185
000090 79 01 be ba b4 e2 3a 39 05 87 95 bc 03 82 99 3c
       -0.0014496288 0.00017822796 -0.018252859 0.018738752
0000a0 a4 ea 7c bc 38 62 3b bc 5a 04 8e bc 88 64 0b bd
       -0.015436802 -0.011436991 -0.01733606 -0.03403142
0000b0 de 35 ca bc 96 44 a3 bc 3a 4f c6 3c ee b9 a7 3b
       -0.024683889 -0.019930165 0.0242077 0.0051186
0000c0 b2 f8 35 3c 6c 9e e1 3c 98 a8 ec 3c f1 6a 1d 3c
       0.011106657 0.027541362 0.028888986 0.009608016
0000d0 28 57 54 bc 6c fc 2a bc fe 9a ab bc 55 1f 33 bd
       -0.012960233 -0.010436159 -0.02094793 -0.043731052
0000e0 b0 6b 6d bc ef d6 0b bc 04 55 fe bc ef 12 0d bd
       -0.014491007 -0.008535131 -0.031046398 -0.034441885
0000f0 3d a2 f2 3b b2 75 34 bd 9a ed 8e bd 98 a8 65 3e
       0.007404594 -0.044057555 -0.06978913 0.22427595
000100 ea 31 6b bc b2 bc 17 3d 9a 8f 13 3d 9d 19 09 3d
       -0.014355162 0.03704519 0.03602562 0.033471692
000110 06 d1 89 3d 12 da 06 3b fa 75 80 3c 9a ee 56 3c
       0.06729321 0.0020576757 0.015681256 0.0131184105
000120 87 a5 70 bc 50 4b bb 3c 5a 01 48 bb 2d ae 41 3c
       -0.014687902 0.02286306 -0.0030518384 0.011821312
000130 61 80 c7 3c 3b e7 20 3d 8b 80 eb 3c 6c 0a 59 3d
       0.024353208 0.03928302 0.028747818 0.052988455
000140 fa 73 5e bd 8e 3a 24 3c 8c f6 4b 3c b5 08 8f 3c
       -0.054309823 0.010023726 0.012448918 0.017460207
000150 c4 a5 40 bd fd d2 3b 3d 50 19 87 bc 46 1d ac ba
       -0.047033086 0.04585551 -0.016491562 -0.0013131283
000160 97 8e 10 3d 8b 35 41 3d f3 2e 7c bc a7 cb 89 bc
       0.035292234 0.047170203 -0.015392053 -0.016820742
000170 bb fd 8a bd 8c 4c 6a 3c 78 18 43 3b 85 db f9 3a
       -0.067866765 0.014300477 0.0029769223 0.0019062614
000180 99 34 37 3c 1a 8e 09 bc 47 cc fd 3c 5d ce fa bb
       0.011181974 -0.008395696 0.030981196 -0.007653995
000190 e7 af 9b 3c d9 88 60 3c bf b6 fc bb 83 36 3d bd
       0.019004775 0.013704502 -0.0077122147 -0.046194565
0001a0 7f b5 bf bb 8b d5 03 bb 58 eb a9 bc a1 02 39 3c
       -0.0058504934 -0.0020116295 -0.020742103 0.011292131
0001b0 71 8f 24 3c f7 f7 51 3b 2e 84 28 bd f8 80 3f 3b
       0.010043965 0.0032038668 -0.04114168 0.0029221158
0001c0 5b 5b 85 bc 5f 92 25 3c e2 17 8a 3a ab 8e 80 3b
       -0.016278913 0.010105698 0.0010535682 0.0039232573
0001d0 89 bb 57 bd 5f ab 08 bb c2 3b 18 be 3d 62 41 bc
       -0.05266908 -0.0020854098 -0.14866546 -0.011803207
0001e0 4f 89 ad bc 36 40 00 bd d1 5b e3 3c 83 f3 d8 3c
       -0.021183638 -0.031311236 0.027753742 0.026483303
0001f0 7d e1 7a 3c 59 3d 17 bb 98 83 b6 3b d2 4e 71 bc
       0.01531255 -0.0023077338 0.0055698864 -0.014728265
000200 54 a1 c3 3c c3 d8 cf bc 1d 61 1e 3d 58 2f 34 bc
       0.023880638 -0.025371915 0.038666833 -0.010997616
000210 4b 8d 3b 3d 93 06 0e bd f2 8c 8c 3c e7 c6 91 bd
       0.045789044 -0.03467424 0.017157052 -0.07118016
000220 96 c0 32 bc 0c 07 dd 3c 55 41 56 bd 49 03 8b 3b
       -0.010910174 0.0269809 -0.0523084 0.004242335
000230 e6 4d 7a bb fc 05 e4 bc 84 86 c4 3b 42 7b b7 bc
       -0.0038193404 -0.027834885 0.005997481 -0.022397641
000240 4d a9 18 bd aa 2e 52 3c 8f c3 6d bc 59 57 7f bc
       -0.037270833 0.012828508 -0.014511957 -0.01558479
000250 22 0b 09 3c bc 05 a3 3c 23 22 0d bd c4 73 df bc
       0.008364471 0.019900195 -0.034456383 -0.027276881
000260 f5 d2 c1 3c a1 26 53 bd 52 5e 77 3c c5 c6 04 bc
       0.023660162 -0.05155051 0.015098171 -0.008104031
000270 83 af 88 bc 62 2b 59 bb 77 de 8a 3c f3 ed 22 bb
       -0.016685253 -0.003313743 0.016951783 -0.0024861067
000280 33 0c 64 3d 36 cc 84 3d c1 0e f9 ba fc ad 69 bc
       0.055675697 0.06484263 -0.0019001589 -0.0142626725
000290 9f 44 5b 3c d3 d9 6b 3c da 30 63 ba 12 06 d1 bb
       0.01338306 0.014395195 -0.0008666642 -0.0063788975
0002a0 a7 97 23 3b 54 d8 ff 3c 38 ca 85 3c 2d dd 15 3c
       0.0024962218 0.031231083 0.016331777 0.009146971
0002b0 62 d4 17 bd 77 8d 19 3d 48 17 42 3d a6 2b 40 3b
       -0.03706778 0.037488427 0.047385484 0.0029322891
0002c0 d9 c1 bb 3a ec c3 8f bc e4 22 ec bc e7 83 6e bc
       0.0014324739 -0.017549478 -0.02882523 -0.014557815
0002d0 e0 e6 e9 bc 7e d9 91 3c 22 c6 14 3c f9 72 88 3c
       -0.028552473 0.017803904 0.009080442 0.016656386
0002e0 b6 34 b2 bc 31 09 1e bb 94 f6 85 39 a6 38 df 39
       -0.02175365 -0.0024114365 0.00025551452 0.0004257608
0002f0 6e e9 62 3d e5 51 91 bb 19 eb fd bb 7c 91 e6 bd
       0.055398397 -0.0044348114 -0.007748973 -0.11258218
000300 9f 25 f7 3c 79 24 c4 3b 28 23 ca bb 0b 57 75 bd
       0.030169306 0.005985793 -0.0061687417 -0.059897464
000310 30 62 73 bb 4a 3a 5b 3c 8f ef e6 ba b5 e6 a9 bc
       -0.0037137382 0.013380596 -0.0017619001 -0.020739892
000320 5f bf a9 ba 4f cf 2e bc 2d 93 b8 3c 7e 05 80 3c
       -0.001295071 -0.010669543 0.022531116 0.015627619
000330 3e c4 af 3c d4 62 12 3d 0b e3 2b bd 42 2b d6 3d
       0.02145588 0.03573878 -0.041964572 0.104574695
000340 a5 18 24 3d 43 47 f5 bc b9 bf 0c 3c 55 1c c0 bc
       0.040062565 -0.029941207 0.008590632 -0.02345101
000350 22 6a 0e bd fc e5 f2 3c 5f 05 32 bc 26 a0 40 3c
       -0.034769185 0.02965068 -0.010865538 0.011756932
000360 dc 58 ab 38 2d f2 19 3d fb 4a 11 bb 23 80 e4 bb
       8.170467e-05 0.037584472 -0.0022169936 -0.006973283
000370 ad 3c b1 3c 1c 3e 6c bd 07 e5 f7 3c 6f 1c 62 3c
       0.021635378 -0.05767642 0.030260576 0.013800724
000380 c4 06 06 bd 14 fe 1e bd c4 c4 36 bc d1 37 a8 bc
       -0.032721296 -0.038816527 -0.011155311 -0.020534428
000390 7c 54 61 bd c5 54 17 3c 9f 2e ea bb 48 b7 58 3c
       -0.05501221 0.009236519 -0.007146671 0.013227291
0003a0 0b 82 00 3d 09 74 56 3c 3a c1 c6 3c cc d6 8c bc
       0.03137402 0.013089188 0.02426206 -0.017192267
0003b0 47 d8 29 ba 35 b7 1b bd b4 45 fc 3c f5 11 48 bc
       -0.0006479066 -0.038016517 0.030794956 -0.012211313
0003c0 03 67 fe bc 1e 6f 0b bd d0 d9 b4 3c 3f e2 1b 3d
       -0.03105498 -0.034041516 0.022076517 0.038057562
0003d0 17 bd 1a 3d 4d 60 c7 3a b0 e9 8a 3c f1 e9 01 bc
       0.037777986 0.0015211195 0.016957134 -0.007929311
0003e0 30 b6 cd 3c 85 1f b5 bc d6 11 e5 bc ab af b9 bd
       0.025111288 -0.022109756 -0.027962606 -0.09066709
0003f0 6b 4a d6 bc 7b 6b d1 3c 9c 9e 94 bc aa 47 20 3c
       -0.026158532 0.025563946 -0.018142037 0.009782711

action_model._discrete_distribution.branches.1.bias f4 [2]
000000 c0 cc 9c bc d2 cc 9c 3c
       -0.019140601 0.019140635

action_model._discrete_distribution.branches.1.weight f4 [2, 128]
000000 ab 46 81 3c 5c c2 9c 3c fd 9d a2 3d 07 06 4b bb
       0.015780767 0.019135647 0.0794029 -0.0030978934
000010 d5 e0 69 bc 5f b1 06 bc 39 c2 3e 3c 6d 7c 08 bd
       -0.014274796 -0.0082209995 0.011642986 -0.033321787
000020 55 c9 97 3a 9f 8c 1e 3d 5c e2 58 bb c9 2f 1a bc
       0.0011580387 0.038708325 -0.0033093905 -0.009410807
000030 33 3c 89 bc ec 54 2d 3c 57 fc e6 bb af 46 18 bc
       -0.016752338 0.010579329 -0.007049124 -0.009294196
000040 bd c5 c6 3a ed 78 d2 bb 79 96 c8 3c 15 f2 c5 bb
       0.0015165132 -0.006423107 0.024485813 -0.0060408213
000050 d8 ba 83 bc d7 ba 10 3c af 29 0b bb 88 c3 f7 bc
       -0.016080305 0.008833609 -0.0021234562 -0.030244604
000060 5e 8b 92 3b 7e 9c 1f bd 09 fc 69 bc 66 9f 44 bc
       0.0044721803 -0.038967602 -0.014281281 -0.012000894
000070 fa 52 98 3b 6f f6 98 3c b6 0a bf bc e5 9b e5 bc
       0.0046485635 0.018672196 -0.023320537 -0.028028438
000080 97 7b 52 3d db ef 76 3d 10 e4 05 3c d6 53 83 bb
       0.051387396 0.060287338 0.00817205 -0.0040077968
000090 ea 52 d7 bb 10 b0 e5 3b 8d 3a 36 bc ac f9 eb 3a
       -0.0065711634 0.0070095137 -0.011122358 0.0018003485
0000a0 55 e6 c0 bc c6 81 e9 3c 86 89 d1 bb fb 5c 4e 3c
       -0.02354733 0.028504264 -0.006394568 0.01259541
0000b0 50 99 f5 3c 54 28 11 bc b6 09 4d 3c 11 50 5e bc
       0.029980332 -0.008859713 0.012514522 -0.013568894
0000c0 8e 99 e5 3b b1 6d 66 3c e9 63 f2 3c a4 ee 10 bd
       0.0070068305 0.014064238 0.029588656 -0.035383835
0000d0 75 e1 c4 b9 96 a0 18 3c 97 d4 df 3c ec 0d 97 3c
       -0.00037552012 0.00931563 0.02732305 0.018439256
0000e0 03 a7 84 bd 0b f9 86 3c 65 89 cd bc 82 8a da 3a
       -0.064771675 0.016476175 -0.025089929 0.0016673359
0000f0 81 09 8b 3d 43 f1 18 3d 67 ae 0b 3d 22 36 2d 3d
       0.06788922 0.03733946 0.03410187 0.042287953
000100 2c fb d1 3c 10 2a 06 3d d0 35 b2 bc 22 02 c3 3c
       0.025632463 0.032754958 -0.021754175 0.023804728
000110 93 9f ac 3c 7b 78 45 3c aa a3 6d bc 07 81 e0 bb
       0.021072185 0.012052651 -0.014504353 -0.0068513188
000120 38 78 c2 3a d8 4e b4 bc c9 fe ce 3b 6b 88 8a 3b
       0.0014836853 -0.022010252 0.006316994 0.004227688
000130 3f 9a 38 3d cc cf a4 3b 72 ac 33 bd 90 f4 0a 3e
       0.045068976 0.005029654 -0.04386563 0.13569856
000140 61 d1 ff 3b 78 18 9e 3b 32 77 8d 3c fc db ac bb
       0.0078069423 0.0048246942 0.01726875 -0.0052752476
000150 e4 62 81 bd 89 a3 64 bd 73 cd 79 bd e6 f7 e1 3c
       -0.0631769 -0.05582002 -0.060986947 0.027584027
000160 e1 d9 c0 3c b8 45 a1 3d b6 8a b6 bc c9 28 06 3b
       0.023541393 0.07874626 -0.02228294 0.0020471087
000170 59 a4 37 bc 57 9e 3c 3b 58 f2 9b 3b 23 eb 92 3c
       -0.011208617 0.0028780901 0.0047591142 0.017934388
000180 6c e8 10 3d b5 e5 86 3b 8e 66 42 3b 15 24 01 bd
       0.035377905 0.0041167387 0.0029663178 -0.03152855
000190 e1 68 58 3c d8 ef 09 3c b3 fa 26 bd 20 00 d2 bc
       0.013208599 0.008419 -0.04076643 -0.025634825
0001a0 85 bd 88 3b 3d b5 1f 3c ce c3 55 bc 38 26 84 bd
       0.004172983 0.0097478 -0.013047172 -0.06452602
0001b0 3f 3a 20 3c 7d d8 a5 3b b8 d7 a3 3c cf 4b 5f bc
       0.009779512 0.005061208 0.020000324 -0.013628914
0001c0 02 3d db 3b bb a9 15 3c ee 24 0a 3d 66 d7 67 bd
       0.0066906223 0.009134705 0.033726625 -0.056601904
0001d0 4f be da bc 38 f5 b9 bc 83 73 97 3d f4 ae 1a 3d
       -0.026702074 -0.022699937 0.07395079 0.037764505
0001e0 6c 06 26 3c 9d 71 d3 bd 0e 4f 01 3b 9c 63 b2 3a
       0.010133367 -0.103244044 0.0019730958 0.0013610008
0001f0 5a b7 0c bc a2 92 8e 3c fb a1 ad bb 0e 4a ed bb
       -0.008588636 0.017403904 -0.0052988506 -0.007241494
000200 7e c6 d3 bc 67 8a 1e bc 0c 82 db bd ff a0 a9 bb
       -0.025851484 -0.009676552 -0.10718164 -0.005176663
000210 ff 45 a9 3c f9 6a 6f bc b3 b2 75 bb b5 fd c5 3c
       0.02066326 -0.014612907 -0.0037490546 0.024168829
000220 ca 9c 48 bb 7f 01 53 bd 81 70 c3 3c af 53 18 3b
       -0.0030611032 -0.0515151 0.023857357 0.0023243239
000230 0e 21 ec 3b 03 7f c6 ba 42 3d a1 3b 39 ba 44 3c
       0.007206089 -0.0015144054 0.0049206326 0.01200729
000240 ad 96 05 bc 7c 22 cf ba 95 ac 94 bc d3 d9 13 3c
       -0.0081536 -0.0015803124 -0.0181487 0.009024101
000250 36 6b 80 3c 7c c7 e7 ba 1a e8 91 bc a6 39 d8 3b
       0.015676122 -0.0017683352 -0.01781087 0.006598669
000260 a2 d9 bf 3c 0d 7e 5a 3d 10 88 68 3c 89 79 11 3c
       0.023419205 0.053342868 0.014192596 0.008879074
000270 0f 47 eb 3b 44 89 05 bd 9b db a8 3c fa 1b 68 3c
       0.0071801017 -0.03260161 0.020612529 0.014166826
000280 06 ed 61 bd b8 b5 b0 bd 8d 41 c0 bb cd 56 c9 bb
       -0.055157684 -0.0862841 -0.0058671893 -0.0061443807
000290 80 28 3d 3c c7 75 40 bc c9 8a dd 3c bf c2 2a bb
       0.0115453005 -0.01174683 0.027043717 -0.002605602
0002a0 f3 1e 30 3c 8b fd 36 bd f8 ae 95 3c 08 95 55 bc
       0.010749566 -0.04467539 0.018271908 -0.01303602
0002b0 52 3c bc bc 2a 20 bc bb f8 fa aa bb 1f 58 73 ba
       -0.022977982 -0.005741139 -0.005217906 -0.00092828454
0002c0 5e 00 97 bb db 38 85 bc b6 8f 7c bc 06 1c 01 3d
       -0.004608198 -0.016262462 -0.015415123 0.031520866
0002d0 5a 6b b5 bb 3e 37 38 bc 75 d7 1c bd 74 86 e4 ba
       -0.005536479 -0.0112436395 -0.038291413 -0.001743509
0002e0 79 53 70 3d d7 46 fb bc 23 80 65 3c e9 29 af 3c
       0.058673356 -0.030673428 0.014007601 0.021382289
0002f0 f7 f9 95 bd ed 5b fa bc fb 18 3f bd 9b 1c e1 bc
       -0.07323068 -0.030561412 -0.046654683 -0.02747946
000300 d4 2f 40 bc fe 79 f0 bc 74 58 22 3c f1 b9 44 bc
       -0.011730153 -0.029355045 0.009908784 -0.0120072225
000310 c5 93 bc bc 09 af 8f bc eb ef e2 bb 38 b8 25 bc
       -0.02301968 -0.017539518 -0.006925573 -0.010114722
000320 5f f7 5a 3c 32 5f 93 3c b3 9d 49 3b fb 54 3b 3c
       0.013364642 0.017989729 0.0030764162 0.011433835
000330 db 0f 2b bd 11 f9 0e bc 6f f7 22 3d 62 00 00 be
       -0.041763168 -0.008726374 0.039786752 -0.12500146
000340 e5 7c da 39 96 b4 a4 bb 4c c1 a7 3b c9 3f 8d bb
       0.00041673254 -0.0050264103 0.0051194783 -0.0043105823
000350 64 9e fa 3c ef 84 58 3d 5a 1b 40 3d 92 4f 20 bc
       0.030593105 0.05286115 0.046901084 -0.009784596
000360 9f 0b 26 bd 8e 3b ad bd 6b 8c 08 3d fe a6 55 3b
       -0.040538426 -0.08458625 0.033337038 0.0032600756
000370 d2 9a 93 3c c8 b1 9f ba 4a a1 94 3b 98 06 37 bc
       0.01801816 -0.001218372 0.0045358287 -0.011171006
000380 a2 95 b9 bc 93 ef ef bb 1c 70 97 bc f4 cb 08 3d
       -0.022654358 -0.0073222606 -0.018486075 0.03339763
000390 df 4a 40 3c 64 ad 62 ba 8c fd a8 3b 2c cf ad 3c
       0.011736601 -0.0008647053 0.0051571783 0.021216951
0003a0 ec 96 73 3b b4 ab 90 bb 62 fe c7 3c 5a c7 99 3d
       0.0037168814 -0.004415 0.024413291 0.075087264
0003b0 07 80 90 ba 8e bb cf ba 2a 25 d6 bc 61 7e 7d 3c
       -0.0011024483 -0.0015848742 -0.026140768 0.015472026
0003c0 39 42 21 bb fc e3 72 bc ea 5e 25 bc 5c 97 73 3d
       -0.0024606122 -0.0148248635 -0.01009343 0.05947052
0003d0 bf f2 8c 3c 8b d4 ed 3c 7f 31 a1 bd 97 66 36 bc
       0.017205594 0.029032012 -0.07870769 -0.011132858
0003e0 26 fa 3a 3c 42 5a cd 3d fd d0 82 b9 5d 53 9d 3b
       0.011412179 0.10026981 -0.0002495124 0.0048011974
0003f0 c7 be db bb 45 f5 18 bd a2 cd 5a 3b 03 c4 7d 3b
       -0.006706092 -0.037343282 0.0033386727 0.0038721568

discrete_action_output_shape f4 [1, 2]
000000 00 00 e0 40 00 00 00 40
       7.0 2.0

network_body._body_endoder.seq_layers.0.bias f4 [128]
000000 e8 3a 0e bd c8 4b f5 bb 25 5e f2 bc 4c 78 1a 3b
       -0.034724146 -0.0074858405 -0.029585907 0.0023570238
000010 07 b1 1a 3c 3f e6 77 bd fd a2 86 3a 7f eb be 3b
       0.009441621 -0.060522314 0.0010271963 0.005826413
000020 9d 3c c9 3c e1 aa cd 3b b8 51 95 3c 4d 26 f5 3d
       0.024565035 0.006276474 0.018227443 0.11970196
000030 25 ff df bc 29 0a 19 3d ab 60 de 3c 2e d5 84 bc
       -0.027343342 0.037363205 0.027145704 -0.016214933
000040 38 71 19 3d ea 06 d8 bc 70 5f d4 3c 68 9a 15 bc
       0.03746149 -0.026370484 0.025924414 -0.009131052
000050 71 04 13 3d 78 37 a7 3d e0 7f 8e 3c 64 42 47 3d
       0.035892908 0.08164877 0.01739496 0.0486473
000060 ae a2 23 bd 6a 73 5a 3d f2 e3 24 bd 7d f1 ea 3c
       -0.039950065 0.053332724 -0.040256448 0.028679604
000070 c7 35 cf 3c b6 9b 04 bd c8 09 23 bd ec 5f f4 bc
       0.025294198 -0.03237506 -0.03980425 -0.029830895
000080 5a fb 8e 3d 11 9a cd 3d 27 64 00 3b c7 62 de bc
       0.06981535 0.100391515 0.0019590945 -0.02714671
000090 80 02 1c bc eb 94 0a bd 6f c5 26 3d 9c 0c ac 3d
       -0.00952208 -0.033833425 0.04071563 0.084008425
0000a0 d0 5a ee 3c 2d b9 99 3b fb 4c 3e bd 22 29 cc 3b
       0.029096037 0.004691264 -0.046460133 0.0062304894
0000b0 d6 a6 02 bd 3f f5 de 3b bb 09 ab 3b e0 3b 80 3c
       -0.03189739 0.006804138 0.005219666 0.01565355
0000c0 d4 4b 9f bc 9a d0 9d 3c 05 48 97 3c 35 33 13 bc
       -0.019445337 0.019264508 0.018466959 -0.008984377
0000d0 9c d9 fe bc 7b 3a f2 bc 09 ed 1d 3d 30 7e a9 3c
       -0.031109624 -0.029568901 0.038556132 0.020690054
0000e0 72 bc 08 bc ed f7 11 bd 46 27 0f bd c5 06 38 3d
       -0.00834571 -0.03563683 -0.034949563 0.04492833
0000f0 11 3a 41 3d 68 60 bb 3d ae 92 4e 3d 18 20 76 bc
       0.047174517 0.091492474 0.050432853 -0.0150223
000100 90 91 3d 3d c4 e3 78 bc d2 99 13 3d 2b d9 10 3d
       0.046281397 -0.015191022 0.036035366 0.035363358
000110 6b 82 1a 3d bf db 71 3b 8f 79 47 bd f6 66 1b 3b
       0.037722033 0.003690466 -0.04869991 0.0023712493
000120 28 23 47 3c 2e c5 f7 bc e1 96 16 3a 72 a5 d7 3c
       0.012154378 -0.03024539 0.00057445286 0.026324008
000130 3a 44 d2 3c 95 c2 32 bd a0 53 ca 3d b9 1f bc bc
       0.025667299 -0.0436426 0.098792315 -0.022964345
000140 16 40 14 bc f6 e8 12 3d 3e e1 18 bd 99 8c 36 3d
       -0.009048482 0.0358667 -0.037324183 0.044567678
000150 1e c5 d1 bc be 0e f7 bc 6f 76 4b 3c 21 1e b7 bc
       -0.025606688 -0.030158397 0.0124183735 -0.022353234
000160 53 5d 4a 3c 32 ee b9 3c 1c 25 9f bc cc 41 7d 3c
       0.012351352 0.022696588 -0.019426875 0.015457582
000170 28 f0 19 bd 61 17 9c 3c 45 11 5d bd be 35 0e 3d
       -0.037582546 0.019054117 -0.053971548 0.03471922
000180 e0 53 c8 bd d5 de 89 39 80 f2 01 bc ae 2f 3e 3d
       -0.09781623 0.000262967 -0.007931352 0.04643219
000190 c2 c2 b7 3c a1 c1 f1 bb 07 9f 94 bd 7d 4d b4 38
       0.022431735 -0.0073778187 -0.072568946 8.597502e-05
0001a0 01 53 e3 3b 05 5a ce bb c2 62 14 3d 37 d8 47 3d
       0.006937385 -0.0062973523 0.036226995 0.048790183
0001b0 26 59 7e bd cc 79 6f 3d 97 ec 87 3d 02 6f 8c 3c
       -0.062096737 0.058465764 0.06636923 0.017142776
0001c0 59 98 8d 3d f0 ac cd 3d c0 08 48 bd 17 04 84 bd
       0.06913824 0.10042751 -0.04883647 -0.064460926
0001d0 3d 4f 90 3d ab ef f1 3d 7b 1d a2 3d a4 f9 c4 3d
       0.070463635 0.11813291 0.07915779 0.09617928
0001e0 ae f1 28 bb 06 ea 08 bd 69 f0 92 bb 0c e5 d8 bc
       -0.0025778818 -0.033426307 -0.0044842255 -0.026476406
0001f0 bf b2 1b 3d e8 ed b3 bb a1 14 2b bc 32 c5 45 3c
       0.038012262 -0.005491007 -0.01044193 0.012070941

network_body._body_endoder.seq_layers.0.weight f4 [128, 18]
000000 8d fb d6 3c 52 02 b3 3d 03 3c b9 3c 42 aa e3 3e
       0.026242996 0.08740677 0.022611624 0.44465834
000010 01 5c 18 3e 72 db e1 bd fb 9d 95 3e d3 14 90 3e
       0.14878847 -0.11028184 0.29222092 0.28140888
000020 51 43 6f 3e 65 33 9e 3d 24 a6 a4 bd a7 82 94 3e
       0.23365523 0.077246465 -0.08039501 0.2900593
000030 aa 7c 93 3e 2f 34 41 be 9d b9 72 3e 61 c6 a1 3d
       0.2880605 -0.18867563 0.23703618 0.07899166
000040 96 2e e5 3d aa 91 f9 be 89 16 d1 3e c5 ff 24 be
       0.11190526 -0.48743945 0.40837505 -0.16113193
000050 da 12 0b bd 81 d3 1e 3e 7c 84 48 be 43 05 c7 3d
       -0.033953525 0.1551037 -0.19581789 0.097178005
000060 64 e0 16 3d a0 65 6b bd 2f 5f bb 3d d4 f0 3b 3e
       0.03683509 -0.057469964 0.09149014 0.18353587
000070 62 0c a2 3e e2 11 ac 3d 0b 46 a6 3e 27 d8 b7 be
       0.31650072 0.084018484 0.32475314 -0.359071
000080 d0 4a 8f bd 76 89 a3 3d a6 53 55 3e 89 11 bb be
       -0.06996691 0.07985203 0.2083269 -0.36536816
000090 dd f0 5b 3c 40 80 09 be a7 21 ab be 84 9d 73 be
       0.0134241255 -0.1342783 -0.33424112 -0.23790556
0000a0 6f ec be bd cc 68 25 bb b1 ef 98 be 1a 08 9a 3e
       -0.0932244 -0.0025239466 -0.2987037 0.30084306
0000b0 e3 42 74 be 86 6a 81 bb fa 5e 70 be 1e 53 37 bd
       -0.2385364 -0.003949466 -0.2347373 -0.044757
0000c0 28 ee c2 3d 03 52 3a be fe 2f 19 3e 7d df a1 3e
       0.09518081 -0.18195347 0.14959714 0.3161582
0000d0 ef 9c 17 3e 14 0d f2 bc f7 19 12 b9 55 27 8e 3e
       0.14805959 -0.029547252 -0.00013933318 0.27764383
0000e0 60 18 39 3e 09 6d 84 bd 58 93 0d be 1c 7c f2 bc
       0.18075705 -0.06466109 -0.13825738 -0.029600196
0000f0 9a 07 ba 3d 05 58 5e 3e 49 eb b6 be 44 6d aa 3d
       0.09083481 0.21713264 -0.35726383 0.08321622
000100 b2 36 1c bd 6e 5c b2 bc c2 84 b6 3d ba 1c 24 be
       -0.0381381 -0.02177259 0.0891204 -0.16026583
000110 30 82 f8 3e 5e f1 3a 3e b9 6f 84 be ff ad a7 3c
       0.48536825 0.18256137 -0.25866488 0.02046871
000120 33 12 b4 3e 75 56 69 be 3e c1 86 be b1 0e 1a be
       0.35170135 -0.22786887 -0.26319307 -0.15044667
000130 5c 00 84 3e ec 72 18 3e 4b 7c 1b 3e a7 c0 3a be
       0.25781524 0.14887589 0.15184133 -0.18237554
000140 c7 93 03 3e 9e b0 35 bf 91 55 1b 3d 36 72 32 be
       0.12849341 -0.7097262 0.0379234 -0.1742638
000150 16 f1 9c be 5c 1c af be 19 39 ff be 35 b1 41 3d
       -0.30652684 -0.34201324 -0.4984825 0.04728814
000160 b8 bf 6f bd 68 70 b0 3e b6 2a a3 be 3a 3f a1 3e
       -0.058532447 0.3446076 -0.31868523 0.3149355
000170 40 b9 91 be c5 c0 67 3e 02 e4 a5 3d 6e 0c 9a be
       -0.28461647 0.2263213 0.0810013 -0.30087608
000180 c2 0a 2d 3e 1d e5 8f 3e 80 a6 a3 3e b6 65 ff bc
       0.16898635 0.28104487 0.31962967 -0.03117643
000190 50 52 b2 3c ae c8 fe be f4 2b ad 3e c8 d5 8e be
       0.021767765 -0.4976248 0.33822596 -0.27897477
0001a0 8e d2 a2 be 35 71 83 bc e1 99 9e bc 98 f5 02 3e
       -0.31801265 -0.016045192 -0.019360485 0.12788999
0001b0 d1 32 8c 3d 5c a9 ff bd e5 00 8a be b4 76 d7 bd
       0.0684563 -0.124834746 -0.26953807 -0.10520688
0001c0 e1 4a f9 bd 8c 03 02 be b6 17 6f 3e e6 6c 85 38
       -0.12172485 -0.12696666 0.23348889 6.362218e-05
0001d0 45 d3 a1 3e af c8 86 3c 4d ff 9a bd c6 ad 42 3e
       0.31606498 0.016453115 -0.07568226 0.19011602
0001e0 86 c3 6c be 57 c4 c8 3e f0 74 e5 bd 80 5b 3f bd
       -0.23121461 0.39212295 -0.11203945 -0.04671812
0001f0 0e 1d ba bd 9c c2 d0 3e 88 a2 24 3d 82 51 86 3e
       -0.09087573 0.40773475 0.040194064 0.2623406
000200 4a a4 92 3c 27 00 b5 3e ad 2f 1c bf 57 50 9a bd
       0.017900605 0.3535168 -0.6101025 -0.07534855
000210 fd 68 00 bf d2 d4 04 3e 35 29 ce 3c 5d a5 f7 bc
       -0.501602 0.1297181 0.025166133 -0.030230219
000220 93 40 3f 3c 9a 26 48 3e de ba 20 bf 00 3a 10 bd
       0.011673111 0.19545975 -0.62785137 -0.035211563
000230 4c da 58 bd 86 5f 02 bf ce 69 1d 3e 40 4d ff bd
       -0.05294256 -0.5092701 0.15372393 -0.12465906
000240 66 53 a3 be a4 c9 0e 3f 06 9f 24 be d9 34 ef bd
       -0.31899565 0.5577643 -0.16076288 -0.11680002
000250 31 a8 87 3e f2 47 94 be c2 29 01 bf 4f 5c 44 3d
       0.26495507 -0.2896114 -0.5045434 0.047939595
000260 b0 0f 09 bd b5 f1 f6 be 8a 0b ba 3d c9 93 b9 be
       -0.033462226 -0.48231283 0.09084232 -0.36245564
000270 0a 03 c4 3e 80 f7 85 3e 19 d2 c2 3e 51 de e3 be
       0.3828357 0.2616539 0.38050917 -0.4450555
000280 aa be 2d 3e 39 a8 db 3d e6 96 20 bd 0b 2e 86 3e
       0.16967264 0.10725445 -0.039206408 0.26207003
000290 a7 b5 81 3e 72 1d 1e bd ac 59 fa bc df f5 c0 3e
       0.25333902 -0.0386023 -0.030560337 0.37687585
0002a0 ff b5 6b be 6a bf 90 3e c3 3f 15 3e 85 52 9c be
       -0.23018645 0.28271037 0.14575104 -0.30531707
0002b0 c9 35 0b be db 93 38 be 3c 90 38 bc 89 bf 7c 3d
       -0.13594736 -0.18025152 -0.011264857 0.0617061
0002c0 8f e4 84 be 6a 1e 05 bc 6e 98 cc 3d d8 3c 1f bd
       -0.25955626 -0.008124927 0.09990011 -0.038876384
0002d0 a3 23 4a be 30 28 2c be 4b 93 b9 be 79 31 79 bd
       -0.19740157 -0.16812205 -0.36245188 -0.060838196
0002e0 e5 d9 6d be b9 e4 a6 3d 5d 08 7a 3e f6 9b 3d bd
       -0.23227651 0.08149094 0.24417253 -0.046291314
0002f0 d1 35 0d 3e 8c 34 9b 3e 2e c3 98 3e cc b5 65 3e
       0.1379006 0.30313528 0.2983641 0.22432631
000300 af b7 5b be f3 72 d8 be bb 02 4d 3e 3f f8 d4 3e
       -0.21456788 -0.422752 0.20020573 0.41595647
000310 91 0d ab 3d fe 18 51 be b6 81 09 3d 7d b8 1d be
       0.08352197 -0.2041969 0.033570968 -0.15402408
000320 39 b7 26 3e 4d 75 1a bd 4b 57 95 bd a2 30 85 3e
       0.16280831 -0.037709523 -0.072920404 0.26013666
000330 5f 23 8c bd c7 e1 c2 be 83 a2 21 be 5d 24 7f bc
       -0.06842684 -0.3806288 -0.1578465 -0.0155726345
000340 d2 a0 01 3f 12 51 98 3d 1a 7e 7a 3e 74 ba ef 3d
       0.5063602 0.07437338 0.24462166 0.11705485
000350 be 6e d2 3e 78 11 9f 3d a1 0c d1 3d 88 28 1e 3e
       0.41100115 0.07767004 0.10207487 0.15445149
000360 67 51 95 3e 3f 66 17 bd bc ef 82 be e7 69 63 3e
       0.29163668 -0.036962744 -0.25573528 0.22208367
000370 86 24 c6 3d 69 e8 7e be 03 47 b9 3e 9d 6c 09 be
       0.09674935 -0.24893345 0.3618699 -0.13420339
000380 27 bc b8 3c da f3 65 3e 7f 04 81 3e e3 32 5b be
       0.022550656 0.22456303 0.25198743 -0.2140613
000390 c1 d5 e2 3d f5 2b 22 be 54 7b 90 3d 48 a2 f1 bd
       0.110759266 -0.15837081 0.07054773 -0.11798531
0003a0 ea a8 0f bf d6 f7 49 be 3c a6 34 3e 73 40 0a be
       -0.5611712 -0.19723448 0.17641538 -0.13501148
0003b0 ea ab 12 be ea 1e bf bd ee 3c 9e 3e bd 28 c0 3d
       -0.14323393 -0.09332068 0.3090586 0.0938277
0003c0 d8 70 0d bd 99 dd c7 3d d6 80 58 be e1 f3 4f 3e
       -0.034531444 0.09759063 -0.21142897 0.20307876
0003d0 bd 2f 29 3e 2d 8b 0d 3e aa b6 80 be 19 3f ad be
       0.16522117 0.13822623 -0.25139362 -0.33837202
0003e0 fe fb 64 be 52 1b 9b bd e2 e3 1f 3e 65 9b db 3d
       -0.22361752 -0.0757357 0.15614274 0.107229985
0003f0 1c e1 60 3e 50 e3 89 3e 2f 33 bb 3d 7e 60 2e be
       0.21960872 0.26931238 0.09140622 -0.17028996

network_body._body_endoder.seq_layers.2.bias f4 [128]
000000 03 7f 2a bd 66 8d 61 bc 66 8b 81 3c 7f 2f b2 3a
       -0.041625034 -0.013766622 0.01581354 0.0013594477
000010 1d fb 11 3d 11 af 7f bc 74 91 bc bc 02 bc ca bc
       0.03563987 -0.015605704 -0.023018576 -0.024747852
000020 1b 9b 2f 3d 06 45 0a 3c 2b 65 58 3d 25 27 11 bc
       0.04287253 0.008439308 0.052830856 -0.00885943
000030 89 84 2b bc 27 b8 56 3b 02 02 04 bd 21 5d cf 3c
       -0.010468611 0.0032763572 -0.032228477 0.025312962
000040 e7 e8 13 3c b4 f5 e6 bc 4c a3 4e 3c 7a c1 31 3c
       0.009027696 -0.028193332 0.012612175 0.010849351
000050 6b f2 9c 3b c3 70 0c 3b de 81 1c bd da 84 40 bd
       0.0047896407 0.0021429516 -0.03820979 -0.047001697
000060 9f 44 04 bd 98 f6 09 3c ea e9 f6 bb 8f 46 82 bc
       -0.032292005 0.008420609 -0.007535209 -0.015902786
000070 1a f4 86 bc 87 cf 16 bd e1 00 c8 3b 76 40 85 bc
       -0.016473819 -0.036819007 0.0061036204 -0.016266089
000080 e9 a2 9c 3c a1 cb ec 3c 70 4b 2c bd 71 be ef bc
       0.01912065 0.028905692 -0.04206413 -0.029265614
000090 78 34 19 bd 89 74 aa bc e3 ca 34 bc 4a 36 c4 bc
       -0.037403554 -0.020807521 -0.0110347 -0.023951668
0000a0 dc e4 c0 bc f7 33 0e bd fd 3b f6 bc 67 30 ac bc
       -0.023546629 -0.034717526 -0.030057902 -0.021019174
0000b0 66 49 d3 bb 8a 9d 07 bd 61 87 87 bb 8f 90 1b bd
       -0.0064479588 -0.033109225 -0.0041360115 -0.03797966
0000c0 a0 cb 56 38 f2 c7 fd b9 a5 ce ff bb 43 f3 08 3c
       5.1211216e-05 -0.0004840489 -0.0078066164 0.008358779
0000d0 d2 34 38 bd cf 2d df bc 7e 6e 84 bc 3e 99 52 39
       -0.04497225 -0.027243523 -0.016165968 0.00020084248
0000e0 ee 33 1b 3d 95 22 28 3c ef 4d 7f bb 76 95 d3 bc
       0.03789132 0.010262151 -0.0038956364 -0.025828104
0000f0 0b e1 8f 3c 80 2f 26 bb 91 a9 0d bd f0 fd 96 3d
       0.017563364 -0.0025357902 -0.03458554 0.073726535
000100 e0 35 29 bd b6 a0 64 bc b2 86 83 3d 9e 7f 9a bc
       -0.041311145 -0.013954332 0.064221755 -0.01885968
000110 8c b4 4b 3c 26 10 11 bd c8 a5 2d bd 52 4f 9d 39
       0.012433182 -0.03541579 -0.04239443 0.00030004472
000120 ae 18 18 3c 24 37 f6 3b 82 1d e5 bc ea 0f 30 bd
       0.009283228 0.0075138975 -0.027968172 -0.042983927
000130 ce 2e 01 bc f2 ac 8a 3c 44 82 5e 3c cb 33 d4 3c
       -0.007884694 0.01692817 0.013580862 0.025903603
000140 18 90 d2 bc b0 14 7d bc 1d 74 fc ba cc bf be bc
       -0.025703475 -0.015446827 -0.0019260679 -0.023284815
000150 e5 78 8f bc 21 fa 58 3d 39 b2 ae 3c 93 51 d0 3b
       -0.017513702 0.052972917 0.021325218 0.0063573807
000160 93 1d f1 3c a3 f1 f3 3b ca 47 f6 3b 1f 84 ec bc
       0.029433047 0.007444577 0.007515882 -0.028871594
000170 ed 4b 95 bc 81 d0 79 3c 72 9c f6 3c e0 b9 d8 bc
       -0.01822468 0.015247465 0.030103896 -0.02645582
000180 38 92 5d bb 1b 6b 90 3c bb ba 83 3c fc 4f 93 3c
       -0.0033809077 0.017629197 0.016080251 0.017982475
000190 7a 2b 43 bb 88 42 93 bc 41 af d6 bc e1 3b b5 3c
       -0.0029780553 -0.01797606 -0.026206614 0.022123279
0001a0 cf 8e c1 bc a7 b4 a6 bc de ff cc bc 97 70 fe 3c
       -0.023627667 -0.020349814 -0.02502435 0.031059546
0001b0 9f cd 12 bc 60 f4 10 bd 90 97 66 3c 3d 72 0e bd
       -0.008960157 -0.035389304 0.014074221 -0.034776915
0001c0 09 5b ad bc 10 cc d4 3b 92 a4 69 bc db fc ea 3c
       -0.021161573 0.0064940527 -0.014260428 0.028685024
0001d0 00 ed fb bb 5b 04 bf bc 1d 46 d9 3c 7f 44 b4 bc
       -0.0076881647 -0.023317507 0.02652269 -0.022005318
0001e0 ec f2 a1 bb 34 4a 18 bc 2b 0d b4 bc d9 37 4c 3d
       -0.0049422886 -0.009295035 -0.021978935 0.049857948
0001f0 89 66 f0 bc b7 51 12 bc 90 c0 02 bd 17 9d ed bc
       -0.029345768 -0.008930615 -0.031921923 -0.02900557

network_body._body_endoder.seq_layers.2.weight f4 [128, 128]
000000 e2 39 67 3a 91 ab cc bc 6f 8d d7 3c 8a 4a 03 be
       0.0008820576 -0.024984153 0.026312558 -0.12821403
000010 ae 0f bf bc e8 62 a6 bd de 40 b9 3d 3e 7a 08 3d
       -0.023322906 -0.081243336 0.090455756 0.033319704
000020 33 43 48 3d de 7c 38 3c 57 ef 00 be af 4e 5b be
       0.04889221 0.011260239 -0.12591301 -0.21416734
000030 a4 6b f4 bd 81 36 b7 3d ac c3 03 3e 24 70 a7 3d
       -0.11934593 0.08945943 0.12867612 0.08175686
000040 0d 07 45 bd c1 04 f9 bd f7 07 dc bd b2 4e ed bb
       -0.048102427 -0.1215911 -0.10743707 -0.007242047
000050 28 fe 75 3d dc 86 48 bd 03 26 91 3b d6 52 75 be
       0.060056835 -0.048956737 0.00442958 -0.2395738
000060 60 de 82 3d 61 bd d0 3d 02 1d cc 3d f3 95 0d be
       0.06390071 0.10192371 0.0996647 -0.13826732
000070 11 30 06 bd ad 7a 71 bd f6 ff 19 3e 6b 86 bf 3d
       -0.032760683 -0.058954883 0.15039048 0.0935181
000080 48 c1 57 3c 95 3a be bd a3 c6 87 bd e6 3c 44 bc
       0.01316864 -0.092885174 -0.06629684 -0.01197741
000090 dd a5 4a 3d de 5c 3f 3d f9 72 9e bc ff d8 b8 bd
       0.049474586 0.046719424 -0.019341933 -0.09025764
0000a0 f9 e0 3b 3d 92 2d c5 3b 7c e1 c0 bd fe 27 53 bd
       0.045868848 0.0060173953 -0.09418008 -0.05155181
0000b0 27 f2 62 bd 9b 2f fa 3b 50 df a4 3d 05 04 82 bd
       -0.055406716 0.0076350695 0.08050406 -0.06348423
0000c0 d7 ae 20 3c 51 e6 6a 3b d2 54 99 3e 3d 01 ec 3d
       0.00980731 0.0035842846 0.29947525 0.11523674
0000d0 6d 08 43 3c 48 0b ea bd 87 4b 73 bd ff 5a 78 3d
       0.011903864 -0.11427933 -0.0593982 0.060633656
0000e0 d5 d8 6c 3e 75 33 92 3d 30 fe 7d bd 1b 36 01 be
       0.2312959 0.07138721 -0.06200999 -0.12618296
0000f0 3d 98 d9 3d 9b 31 e9 bd 32 f9 dc 3d c2 78 4b 3d
       0.1062474 -0.113864146 0.10789718 0.04967571
000100 45 3a 4d be 49 fc 46 be 70 5a 41 bc ad 18 da 3d
       -0.2004176 -0.19432177 -0.011801347 0.10649238
000110 f9 65 3d bd f5 a2 8e be c9 18 7d bc 04 f0 2e 3d
       -0.046239827 -0.278587 -0.015447804 0.042709365
000120 3e 50 1c be 14 4c f5 3c 65 f1 91 3d 1f 2b 57 3c
       -0.15264985 0.029943503 0.071261205 0.013132839
000130 61 55 9c 3d 79 b3 59 bc 26 e0 0b 3e 93 d0 52 be
       0.07633472 -0.0132874185 0.13659725 -0.20587377
000140 dc 11 26 3e 54 95 12 be d6 e7 c1 bd ee 47 25 3d
       0.1621775 -0.14314777 -0.09468047 0.0403518
000150 df 64 7a bd d6 9d 41 be 9b b9 dd 3d fc 2b 24 be
       -0.061131354 -0.18907866 0.10826417 -0.16032404
000160 29 ef bd bd 79 3c 97 3e 58 f5 d5 bd df 03 55 be
       -0.09274132 0.29538324 -0.10447186 -0.20802258
000170 b1 25 4d bc 17 f1 68 bd fe e6 57 3d 0b e5 af 3d
       -0.012521193 -0.056870546 0.052710526 0.08588608
000180 26 75 3c 3d 49 60 ae bd a3 2a af 3d 51 6e 8f 3d
       0.04601016 -0.08514459 0.08553054 0.07003463
000190 b2 da 87 3c 2e aa 6f bc 05 af a6 bd 22 5c f9 bd
       0.016583774 -0.014627976 -0.08138851 -0.12175776
0001a0 77 f5 d7 bd 43 14 ab 3d f4 17 cd bc fa d8 28 be
       -0.105448656 0.08353474 -0.025035836 -0.1648902
0001b0 7c eb 96 3c 8d 3b 08 bd c1 3d 92 3c 67 90 3a bd
       0.018422835 -0.033259917 0.017851712 -0.04554787
0001c0 7c 39 9a bd 3f 9b 5c 3b 03 5a 6d 3c 8b a2 b0 bd
       -0.075304955 0.003366187 0.0144867925 -0.086247526
0001d0 a9 48 77 3e a6 cd 3f bd b5 97 8b bd 1e fd 08 be
       0.24148811 -0.04682698 -0.06816045 -0.13377807
0001e0 01 52 d3 bd 71 83 dd 3c fd cd f3 bc db f4 42 bc
       -0.103183754 0.027040215 -0.029761309 -0.011899198
0001f0 08 15 6b 3d e3 dd 23 bd 16 37 b0 3c 02 47 11 3e
       0.057393104 -0.04000653 0.021510642 0.14187244
000200 81 0a 21 bd 0b 2e 28 bd df 22 45 bd f4 32 6b bd
       -0.039316658 -0.041059535 -0.04812896 -0.05742164
000210 39 3b 34 3e f7 e5 ca 3d c3 a0 46 be a7 f7 96 3d
       0.17600717 0.099071436 -0.19397263 0.07371455
000220 0a 79 39 3e 28 04 eb bc cd d0 0f ba 5e 07 c7 bd
       0.18112579 -0.028688505 -0.0005486131 -0.09718202
000230 05 69 6f 3d 07 93 ab 3d 14 60 15 bc 13 9c 94 3c
       0.058449764 0.083776526 -0.009117145 0.018140828
000240 3b b7 97 bd ce 4a aa 3d e1 13 af bd 6e 77 d2 bd
       -0.07407995 0.08315049 -0.085487135 -0.10276686
000250 4d 90 6c bd 87 d2 e0 bd 48 83 bb 3d 6c 48 c3 bd
       -0.057754803 -0.10977655 0.09155899 -0.09535298
000260 14 76 eb 3c c2 3d a4 bd 84 78 f7 bd 74 0f 21 be
       0.028742827 -0.08019592 -0.120835334 -0.15728551
000270 a7 95 30 3e 8f 71 eb 3d 08 8a 38 3e d2 99 4b 3c
       0.17244588 0.11496269 0.18021405 0.01242681
000280 c5 6f 64 3c 50 7c 03 3d d8 4f 2c 3e 66 37 34 be
       0.013942664 0.032100976 0.16827333 -0.17599258
000290 3a a6 4b be 90 6d 93 bd 3d 42 81 be 7f a4 24 3d
       -0.19887629 -0.07198632 -0.25245848 0.04019594
0002a0 12 a0 8a bd 00 ab 71 3d 95 cb e4 3c 84 9b 2c bd
       -0.06768812 0.05900097 0.027929107 -0.0421405
0002b0 e0 be b9 3c be 03 04 3e 86 c1 4e be 8c da 2e 3e
       0.022674024 0.12892053 -0.20191011 0.17075557
0002c0 f4 b7 52 bd 44 e5 30 bd 1e 12 03 3e a3 13 17 be
       -0.051444963 -0.043187395 0.1279988 -0.14753585
0002d0 7c cd d0 bd df c4 b7 3d f5 d1 c6 bd 09 5a ac bc
       -0.10195443 0.08973097 -0.09708015 -0.021039026
0002e0 63 18 75 3d 98 04 e7 bd b6 f5 b0 bd 26 c3 51 3d
       0.05983771 -0.11280173 -0.08640616 0.0512115
0002f0 bd c8 26 3d 74 4d 3c be 41 f1 16 3d 45 4a 81 3d
       0.040718783 -0.18388921 0.03685117 0.06312994
000300 3d 85 2f be 9d 56 8c 3d 45 fd 80 be ea 08 18 be
       -0.1714067 0.06852458 -0.2519323 -0.1484715
000310 02 e4 aa 3d b2 53 fb ba 0a bf 40 3e 73 70 2a 3e
       0.0834427 -0.0019174723 0.18822876 0.16644458
000320 64 72 05 3e 25 71 b0 bd d2 8b 3a be 61 a7 a9 3d
       0.13031918 -0.086153306 -0.182174 0.08283878
000330 59 a6 12 be 65 06 67 3d fd be b2 3c 35 54 c4 3d
       -0.14321269 0.056402583 0.021819586 0.09586374
000340 8c 4c 1c be c2 14 44 3d d7 d7 f5 bd e1 53 5c bd
       -0.15263575 0.04787136 -0.12004059 -0.05379093
000350 a7 d1 fc bc 94 89 84 bc fb 88 d1 bc 41 0e 39 3c
       -0.030861689 -0.016178884 -0.025578013 0.011294902
000360 02 f7 02 3e 56 6d df 3c dc 1d a6 3c 4f 08 6f bc
       0.12789539 0.027273815 0.02027791 -0.014589383
000370 50 97 b3 ba eb 1a d7 bc fe 87 37 bd 14 15 13 bd
       -0.0013701711 -0.026257953 -0.044807427 -0.035908774
000380 02 0a 73 bd 34 27 09 3d d4 1d da 3a 49 64 40 bd
       -0.059335716 0.033484653 0.001664097 -0.04697064
000390 cd 86 c8 bc af 0e a1 bd 64 36 5e be e1 01 04 3e
       -0.02447834 -0.07864129 -0.21700436 0.12891342
0003a0 e1 60 e2 3d ff b7 8d bd b3 a2 91 bc 41 a1 b9 bd
       0.110536344 -0.0691986 -0.017777776 -0.0906396
0003b0 fe cc d0 bd c4 b3 b3 3d ec 29 9d bd fa 0a cd bc
       -0.10195349 0.08774522 -0.076740116 -0.025029648
0003c0 62 7d d5 3d b8 6c 2e 3e 9b 02 05 3d 9e d2 9a bd
       0.104243055 0.1703366 0.032473188 -0.07559703
0003d0 e8 36 90 bd 50 17 91 3d a0 d2 ea bd db 0f 4f be
       -0.070417225 0.07084525 -0.11465955 -0.20220892
0003e0 13 43 0c 3c cb a6 17 be b5 6e 86 3d fd e7 b2 3d
       0.008560914 -0.1480972 0.065640844 0.087356545
0003f0 ee ee 57 bd 67 a0 1b 3e 32 84 c0 bc a1 b8 11 3d
       -0.052718095 0.15197907 -0.023500536 0.035576466
