Assets/ML-Brains/HouseBehaviourScene6.onnx (onnx, 4139 bytes, 7 tensors)

action_model._discrete_distribution.branches.0.bias f4 [7]
0	0x3d7ca229	0.061678085
1	0xbafe0d58	-0.0019382639
2	0x3dd52547	0.10407501
3	0xbd04a54f	-0.032384213
4	0x3d4059bb	0.046960574
5	0xbda7b3af	-0.08188569
6	0xbd8dc2d8	-0.06921929

action_model._discrete_distribution.branches.0.weight f4 [7, 20]
0	0xbd2a5b87	-0.041591194
1	0x3b78b694	0.0037950622
2	0xbdf85891	-0.12126268
3	0x3e0cf282	0.13764384
4	0x3caa5001	0.020790102
5	0x3b7c42b1	0.00384919
6	0x3d0ec270	0.0348534
7	0xbe71f5fe	-0.23628995
8	0xbd9c38bc	-0.07628009
9	0xbe00910c	-0.12555331
10	0x3d59af4b	0.053145688
11	0xbe08ba2e	-0.13352272
12	0x3d57b3e2	0.052661784
13	0xbd71b26e	-0.059008054
14	0x3d971c26	0.07378416
15	0xbc2512fe	-0.010075329
16	0xbd53796b	-0.051629465
17	0x3e2b2bad	0.1671588
18	0xbd70d2fb	-0.058794957
19	0xbe80b178	-0.25135398
20	0x3e218048	0.15771592
21	0xbdd868b7	-0.10566848
22	0xbe5450ea	-0.20733991
23	0xbcb32511	-0.02186826
24	0x3dafeddf	0.08590292
25	0xbc782c4d	-0.015147281
26	0xbe37da1f	-0.179543
27	0x3dfe3db3	0.12414112
28	0x3d28dc70	0.04122585
29	0xbbea1051	-0.0071430583
30	0x3db556fb	0.08854481
31	0x3d42b583	0.047536384
32	0xbce7c12a	-0.02829035
33	0x3c7ee70d	0.0155580165
34	0xbdceb6d6	-0.10093467
35	0x3d693b26	0.056941174
36	0x3d40eb6d	0.04709952
37	0xbdb8c59d	-0.09022067
38	0xbc9db8a0	-0.019253075
39	0x3e32cbef	0.17460607
40	0x3d4b12d5	0.049578506
41	0xbd74cac3	-0.05976368
42	0x3c283997	0.010267637
43	0xbd6fae2d	-0.058515716
44	0x3d760a1e	0.060068242
45	0xbb4bffd9	-0.003112784
46	0xbe89da21	-0.26924232
47	0x3d052893	0.032509398
48	0x3e1f0ef9	0.15533055
49	0xbd10a712	-0.03531558
50	0xbdbfbfd5	-0.09362761
51	0xbdc08c5e	-0.09401773
52	0x3d883bf0	0.06652057
53	0xbea2561a	-0.31706315
54	0xbc9a31f9	-0.018822657
55	0x3d2ec474	0.04266782
56	0x3d9376f4	0.07200423
57	0xbca4867a	-0.020083655
58	0x3c75542b	0.0149736805
59	0xbb762f7f	-0.003756493
60	0xbd014fe1	-0.03157032
61	0xbd15ce2d	-0.036573578
62	0x3d35b5ac	0.04436271
63	0x3e1ed01a	0.15509072
64	0x3d178aae	0.03699749
65	0x3e0d39fd	0.13791652
66	0x3de22f3d	0.11044166
67	0xbd235119	-0.039872263
68	0xbc8db712	-0.017299209
69	0x3cf21e02	0.029555324
70	0xbc99a759	-0.018756555
71	0x3d98cc7a	0.07460876
72	0xbcf38792	-0.02972773
73	0x3e3ecc92	0.18632725
74	0x3c8d6f60	0.017265022
75	0xbdf1b6a4	-0.11802414
76	0x3c97402e	0.01846322
77	0x3d638921	0.0555507
78	0xbda6019f	-0.08105778
79	0x3df60838	0.12013286
80	0xbda25e37	-0.07928126
81	0xbd826137	-0.063661985
82	0xbce38e9f	-0.027777968
83	0x3cd60acc	0.026128195
84	0xbd9136dd	-0.070905425
85	0xbea59d72	-0.32346684
86	0xbdd718aa	-0.10502751
87	0x3e787c97	0.24266277
88	0xbd288f96	-0.04115256
89	0xbc42b8d8	-0.0118848905
90	0x3d493cb6	0.049130164
91	0xbd6f6d6d	-0.058453966
92	0x3c3df384	0.011593703
93	0xbd976e8b	-0.07394131
94	0xbcfa9003	-0.030586248
95	0x3c42f5e6	0.011899447
96	0xbe1369cb	-0.14395826
97	0x3da57189	0.08078296
98	0x3e6a7df2	0.22899607
99	0xbe1918f0	-0.14950919
100	0x3df23cd6	0.1182801
101	0x3e3a6c4b	0.18205373
102	0x3deed17a	0.11661048
103	0xbe65a26d	-0.22425242
104	0xbe96a173	-0.2942005
105	0x3e8327ec	0.25616395
106	0x3e679ba8	0.22617972
107	0xbde00412	-0.10938276
108	0xbc8844d7	-0.016634388
109	0x3d19d31b	0.03755484
110	0xbc2f2461	-0.010689826
111	0x3d989348	0.07449967
112	0xbc3f232e	-0.011666102
113	0x3eaa78eb	0.33295378
114	0x3d8a47c2	0.06751968
115	0x3dc9607c	0.09832856
116	0x3da473a4	0.08029869
117	0xbe4cfa79	-0.20017423
118	0xbdbf8a10	-0.09352505
119	0xbdf381fa	-0.118900254
120	0xbb914709	-0.004433517
121	0x3c3afaae	0.011412306
122	0x3d5c4acf	0.05378228
123	0xbd3bdc23	-0.045864236
124	0xbd5b940b	-0.05360798
125	0xbaac4fe4	-0.0013146368
126	0xbd7e26c2	-0.06204868
127	0xbdf82cd6	-0.12117927
128	0xbd1ccd76	-0.03828188
129	0xbce3162d	-0.027720535
130	0xbde16928	-0.11006385
131	0xb9fabed9	-0.00047825908
132	0xbc99251a	-0.01869445
133	0x3e15b62f	0.14620279
134	0x3ad7c553	0.0016462005
135	0xbd3abbc9	-0.045589242
136	0xbd62f557	-0.055409756
137	0xbe26cb2c	-0.16288441
138	0x3c838aa3	0.016057318
139	0xbda6499f	-0.08119511

action_model._discrete_distribution.branches.1.bias f4 [2]
0	0xbd38a0cf	-0.045075234
1	0x3d38a0d8	0.045075268

action_model._discrete_distribution.branches.1.weight f4 [2, 20]
0	0xbb0c6c54	-0.0021426873
1	0xbd06a488	-0.032871753
2	0x3d26e8e3	0.04074944
3	0xbcd8e4f5	-0.026476363
4	0xbd6d951b	-0.058003526
5	0x3e006452	0.12538269
6	0xbd35ce7f	-0.044386383
7	0xbd83c9db	-0.06434985
8	0xbc70f32a	-0.014706412
9	0xbc4d7026	-0.012538945
10	0xbd4b71e3	-0.049669158
11	0xbd342508	-0.04398063
12	0xbc933666	-0.017970275
13	0x3dbf7418	0.09348315
14	0xbd502106	-0.050812744
15	0xbd3ce378	-0.04611537
16	0xbced66eb	-0.02897974
17	0xbdd17ea6	-0.102292344
18	0x3ba027d6	0.0048875613
19	0xbcf7ca2c	-0.03024777
20	0x3ccd09cb	0.025029084
21	0x3d1642c9	0.036684785
22	0xbd1dd3f9	-0.03853223
23	0x3d1ebb57	0.03875288
24	0x3d5b75e9	0.053579245
25	0xbe17bd2f	-0.14818262
26	0x3c4bd5ba	0.012441093
27	0x3d951b2d	0.07280574
28	0x3c67f611	0.014157788
29	0x3ca593f9	0.02021216
30	0x3d2143d4	0.039371327
31	0x3dae0f5b	0.084990226
32	0x3d8f15ad	0.06986556
33	0xbd5b6b35	-0.053569037
34	0x3d06834c	0.03284006
35	0x3daab539	0.08335347
36	0x3bb8e1d1	0.005642154
37	0x3e19e66a	0.15029302
38	0xbc99d99c	-0.018780522
39	0x3c08520f	0.008320346

discrete_action_output_shape f4 [1, 2]
0	0x40e00000	7.0
1	0x40000000	2.0

network_body._body_endoder.seq_layers.0.bias f4 [20]
0	0x3d708008	0.05871585
1	0xbd24dd19	-0.040249918
2	0x3db27b70	0.0871495
3	0x3d080319	0.03320608
4	0x3e0ba900	0.13638687
5	0x3e2e3942	0.1701403
6	0x3b6cb238	0.003611697
7	0x3e61ccd6	0.22050795
8	0x3e1c9a16	0.15293154
9	0xbdadc6e3	-0.084852
10	0x3c8d204d	0.017227316
11	0xbdbfcc33	-0.0936512
12	0x3d93be86	0.07214074
13	0x3d895e13	0.06707396
14	0xbd43e326	-0.047824048
15	0x3bacf0cf	0.00527773
16	0x3b785dc1	0.0037897679
17	0x3e4bba8e	0.19895384
18	0x3e074beb	0.13212554
19	0x3dc0479c	0.093886584

network_body._body_endoder.seq_layers.0.weight f4 [20, 11]
0	0xbe247ccc	-0.16063231
1	0xbdc32556	-0.09528606
2	0xbe01b9bd	-0.1266851
3	0xbead9af5	-0.33907285
4	0x3ee23d11	0.44187215
5	0xbf189048	-0.59595156
6	0xbe88d88d	-0.26727715
7	0x3e542c31	0.20719983
8	0xbe67c733	-0.22634582
9	0xbe8c121b	-0.27357563
10	0x3bb95379	0.0056557027
11	0xbe662287	-0.22474109
12	0xbe1d6835	-0.15371783
13	0xbecb082a	-0.39654666
14	0xbda1744a	-0.078835085
15	0x3f201940	0.6253853
16	0x3e10e20e	0.14148733
17	0x3e93a6d9	0.28838232
18	0x3ececba6	0.40389746
19	0xbded44ef	-0.11585414
20	0x3e3cc83f	0.18435763
21	0xba43a56c	-0.00074633094
22	0x3e4b1a08	0.19834149
23	0xbe906637	-0.28202984
24	0x3d27443d	0.04083656
25	0xbe63ff1b	-0.22265284
26	0xbe13ff80	-0.14452934
27	0x3dcbe146	0.09955077
28	0xbe80016a	-0.2500108
29	0xbeba0bc8	-0.36337113
30	0x3e86bbd3	0.26315174
31	0x3e36dd2f	0.17857812
32	0xbe6a3bdf	-0.22874402
33	0xbdcdfeb5	-0.10058347
34	0x3f3a5be0	0.7279644
35	0xbd6f2638	-0.058386058
36	0xbe34a584	-0.17641264
37	0xbde912d0	-0.11380541
38	0x3f100a3e	0.5626563
39	0xbab60455	-0.0013886789
40	0xbdd25049	-0.102692194
41	0xbc6b397a	-0.014356965
42	0xbdc104d7	-0.09424751
43	0x3e251de5	0.16124685
44	0x3f10d3a5	0.56572944
45	0xbdc60a61	-0.09669948
46	0x3e6e67c0	0.23281765
47	0x3eab61a7	0.3347294
48	0x3e452344	0.19251734
49	0x3d936427	0.07196837
50	0xbe6e551e	-0.23274657
51	0xbea8dc0a	-0.32980376
52	0x3eb3697e	0.35041422
53	0xbe8a9486	-0.2706644
54	0x3ebc8b81	0.36825183
55	0xbdac310c	-0.084077924
56	0xbeb07977	-0.3446767
57	0x3d16773a	0.036734797
58	0x3eac8b12	0.33699852
59	0xbec82545	-0.39090934
60	0xbde3ce25	-0.11123303
61	0xbec4e351	-0.3845468
62	0x3db41f78	0.08795065
63	0xbe8cfd17	-0.27536842
64	0xbd83a84f	-0.06428587
65	0x3e37201e	0.17883345
66	0xbd19fc15	-0.03759392
67	0xbef851b1	-0.48499826
68	0x3eaa7391	0.33291295
69	0xbe6ac7fd	-0.22927852
70	0x3f80610c	1.0029616
71	0x3f07da45	0.5306743
72	0xbea1088f	-0.31451842
73	0x3dd78c87	0.1052485
74	0x3c56f62e	0.013120217
75	0x3d080f84	0.03321792
76	0xbd3ff4e2	-0.046864398
77	0xbd836c34	-0.064171225
78	0xbd0e5c06	-0.03475573
79	0x3e890123	0.2675868
80	0x3f19fe29	0.6015344
81	0xbef4aacf	-0.47786567
82	0x3e237adf	0.1596484
83	0x3c56af8d	0.013103378
84	0x3de0a8b9	0.10969681
85	0xbee6f54d	-0.45109025
86	0xbcbcc245	-0.023041854
87	0x3ef4b2f3	0.47792777
88	0xbdaa4331	-0.08313597
89	0x3e9b6708	0.30352044
90	0x3ed1faff	0.41011807
91	0x3f0fcb05	0.5616916
92	0xbe8e5af9	-0.27803782
93	0xbdf57095	-0.11984364
94	0x3ed00638	0.40629745
95	0xbe2d4b55	-0.16923268
96	0xbe422dbd	-0.1896276
97	0x3ee973be	0.45596117
98	0x3ecbb780	0.39788437
99	0xbdb4add9	-0.08822221
100	0xbe445667	-0.19173585
101	0x3eb53602	0.35392767
102	0x3ed84677	0.4224126
103	0x3dd729f0	0.10506046
104	0x3f72e9be	0.9488791
105	0x3ea8f87e	0.33002084
106	0x3d97ff51	0.074217446
107	0xbe6cbffb	-0.2312011
108	0x3f4b153c	0.79329276
109	0xbe99ee8a	-0.30064803
110	0x3d77fa7e	0.060541622
111	0x3ce64037	0.028106792
112	0x3eb0c790	0.34527254
113	0x3e8c0b49	0.2735236
114	0x3db7962d	0.08964191
115	0x3ee39e41	0.44456676
116	0xbf4365ac	-0.76327014
117	0x3e30eb1a	0.17277184
118	0xbdcd54b3	-0.10025921
119	0xbe3b44cc	-0.18287963
120	0x3c9f62cc	0.01945629
121	0xbeab1edf	-0.3342199
122	0xbd855e81	-0.06512166
123	0xbe1d559b	-0.15364687
124	0x3ecef675	0.40422407
125	0x3e794a1e	0.2434468
126	0x3f2511b8	0.6448016
127	0x3f00bb43	0.5028574
128	0x3e0fc6f3	0.14040737
129	0x3bc1cbfe	0.0059142103
130	0x3e82bb46	0.25533503
131	0x3e35f041	0.17767431
132	0x3f1c03e2	0.60943425
133	0x3edf6067	0.43628237
134	0x3f251dc0	0.6449852
135	0xbe8fc78a	-0.28081924
136	0xbe46c71d	-0.19411893
137	0xbf402f1b	-0.7507188
138	0x3e6b2f1e	0.22967193
139	0x3f09cd33	0.53828734
140	0x3f0038de	0.5008677
141	0x3ed368af	0.41290805
142	0xbe3b73ed	-0.18305941
143	0x3d670549	0.056401525
144	0xbd5cd83b	-0.05391715
145	0xbe52c58f	-0.20583175
146	0xbbc8c303	-0.006126763
147	0xbedce775	-0.43145338
148	0xbeb5b321	-0.35488227
149	0xbe9ed70a	-0.31023437
150	0xbd74d81f	-0.05977642
151	0xbd58ce13	-0.052930903
152	0xbd73ae25	-0.05949225
153	0x3f025ba9	0.5092111
154	0xbea9f83f	-0.3319721
155	0x3e799919	0.24374808
156	0xbe0321ca	-0.12805858
157	0xbef50766	-0.47857207
158	0x3f22a516	0.6353315
159	0xbea4ca20	-0.3218546
160	0x3e669091	0.22516085
161	0x3ecfd186	0.4058954
162	0x3ee01d93	0.43772563
163	0xbe364acc	-0.1780197
164	0xbe4bb12f	-0.19891809
165	0x3ea291a3	0.31751737
166	0xbdada8d2	-0.084794655
167	0xbefe298f	-0.49641082
168	0x3ee39611	0.4445043
169	0x3d6762dc	0.056490764
170	0xbf28307d	-0.6569899
171	0x3c26a8d0	0.010172084
172	0x3f07a257	0.52982086
173	0x3e44391c	0.1916241
174	0x3e8cda1f	0.27510163
175	0xbde7ca2d	-0.11317859
176	0xbe888fab	-0.2667211
177	0x3c2250c4	0.009906951
178	0xbe8d033d	-0.27541533
179	0x3ebcbd6e	0.36863273
180	0x3f2200b2	0.6328231
181	0xbe035cdf	-0.12828396
182	0xbe19e864	-0.15030056
183	0x3db6a5cc	0.08918342
184	0x3f222c0d	0.63348466
185	0x3f0e083d	0.5548132
186	0x3e15817d	0.14600177
187	0x3e9068df	0.2820501
188	0x3d96ca92	0.07362856
189	0x3e832e11	0.25621083
190	0xbeb65599	-0.3561218
191	0xbe16502c	-0.1467902
192	0x3f1254e8	0.57160807
193	0xbec873d5	-0.39150873
194	0xbd4de96d	-0.05027144
195	0xbcb24fbd	-0.021766538
196	0xbe95a7d4	-0.29229605
197	0x3f0abc52	0.54193604
198	0x3d0fa352	0.035067864
199	0xbe2eed08	-0.17082608
200	0x3ebd2b9a	0.36947328
201	0xbdbfe9ad	-0.09370742
202	0xbe2bb777	-0.16769205
203	0xbe5954c7	-0.21223746
204	0xbe14b133	-0.14520721
205	0x3e12819a	0.14307252
206	0xbeb897bd	-0.36053267
207	0xbd74713f	-0.059678312
208	0x3e7816a7	0.24227391
209	0xbe04c77e	-0.12966725
210	0x3dd346a8	0.10316211
211	0x3de44da5	0.11147622
212	0x3f5f7cc9	0.8729978
213	0xbedaf6d9	-0.42766455
214	0x3f2e9197	0.681909
215	0x3df5ec97	0.120080166
216	0xbe01d04c	-0.12677115
217	0xbcecd0ac	-0.028908096
218	0x3d9e9750	0.07743704
219	0x3de1c21b	0.11023351
