Assets/ML-Brains/HouseBehaviourScene6T04.onnx (onnx, 14752 bytes, 7 tensors)

action_model._discrete_distribution.branches.0.bias f4 [7]
0	0x3c6e1dfa	0.014533514
1	0x3c409440	0.011754096
2	0x3c78ae7a	0.015178317
3	0xbbceca29	-0.0063107205
4	0x3bbc4c0b	0.0057463697
5	0xbcc9a74d	-0.024615908
6	0xbcecbb8d	-0.028898025

action_model._discrete_distribution.branches.0.weight f4 [7, 128]
0	0xbbc6aa9d	-0.006062819
1	0xbd84fe6f	-0.06493842
2	0x3c007fd5	0.0078429775
3	0xbce0ad63	-0.027426427
4	0x3cda5cf5	0.026655653
5	0xbe73d675	-0.23812278
6	0x3c3ac401	0.01139927
7	0xbda13e65	-0.07873229
8	0xbd731a68	-0.059351355
9	0xbc7d20db	-0.015449728
10	0x3cce0f34	0.025153734
11	0x3d422de3	0.047407042
12	0x3d1f1650	0.03883964
13	0xbdbdaf7d	-0.09261987
14	0xbbd93df7	-0.0066297012
15	0x3c0a0145	0.008423154
16	0xbe56954b	-0.20955388
17	0x3d294763	0.041327845
18	0x3cd827bf	0.02638614
19	0x3ccd9da2	0.02509958
20	0x3cb3a56e	0.021929469
21	0x3bb63cf1	0.005561464
22	0x3d8bcd1f	0.06826233
23	0x3d194f0f	0.03742891
24	0xbc68f5f4	-0.014218796
25	0x3c37ad11	0.011210696
26	0x3ccbc709	0.02487518
27	0x3d4283e3	0.04748906
28	0x3d2c197b	0.042016488
29	0x3dfada36	0.12248652
30	0xbda1aabd	-0.07893894
31	0x3cb2877f	0.021793125
32	0x3ddbcb2d	0.10732112
33	0xbd29855d	-0.04138695
34	0xbe05d784	-0.13070494
35	0xbccc62b6	-0.024949413
36	0x3ca593f2	0.020212147
37	0x3d02799a	0.03185425
38	0x3cf3b43f	0.029749034
39	0xbda5cc26	-0.08095579
40	0x3da34ce5	0.07973651
41	0x3d11649e	0.035496347
42	0x3c961f72	0.018325541
43	0xbcc68924	-0.024235316
44	0xbd38d2b0	-0.045122802
45	0x3e0b972c	0.13631886
46	0x3d37ca33	0.044870567
47	0x3ca8995f	0.020580946
48	0xbdcf0cd6	-0.1010987
49	0x3c2780a8	0.010223545
50	0x3d13386d	0.035942484
51	0x3b5cdae2	0.00336998
52	0x3d5b3600	0.053518295
53	0xbd1cf658	-0.03832087
54	0x3de93340	0.11386728
55	0x3c9b7910	0.018978626
56	0x3cd45d1e	0.025923308
57	0xbba451a7	-0.0050146165
58	0x3d9f376c	0.07774243
59	0xbd15f1ee	-0.036607675
60	0x3c26fea6	0.010192549
61	0xbd61d6b9	-0.055136416
62	0x3c904f5b	0.017615965
63	0x3c62756b	0.01382194
64	0x3c47b293	0.0121885715
65	0x3c2f6764	0.010705803
66	0x3d21e26d	0.039522577
67	0x3cdb07c7	0.026737107
68	0xbdd1eaf8	-0.10249895
69	0x3d85d73e	0.06535195
70	0x3d9c4abd	0.07631443
71	0x3d1806d7	0.037115898
72	0x3ddea1fe	0.10870741
73	0xbc684f68	-0.014179088
74	0xb941ff07	-0.0001850092
75	0x3ce7e333	0.02830658
76	0x3c851ede	0.01625007
77	0xbbc731e9	-0.006078948
78	0xbd21baa3	-0.03948463
79	0x3bd9f4ed	0.006651512
80	0x3c0516c9	0.008123108
81	0xbcc6754f	-0.024225859
82	0x3d31943e	0.043354265
83	0xbda880a2	-0.0822766
84	0x3c8fb38a	0.017541666
85	0xbe0254b4	-0.12727624
86	0x3d462b97	0.048381414
87	0x3c862355	0.01637427
88	0xbc4d9da0	-0.012549788
89	0x3be22070	0.0069008395
90	0xbd03f3a9	-0.032214794
91	0xbd8187c3	-0.063247226
92	0x3cf8f353	0.030389464
93	0x3bf828fe	0.007573246
94	0xbe0ba77f	-0.13638113
95	0x3d5a6a45	0.053324003
96	0xbdaa1d92	-0.08306421
97	0xbb5d9e3a	-0.0033816234
98	0x3e038d1b	0.12846796
99	0x3c869c99	0.016432093
100	0xbb87e0a8	-0.004146654
101	0x3c74edd8	0.0149492845
102	0xbd0f33d2	-0.03496153
103	0xbd9edc00	-0.077568054
104	0xbc9ef6bb	-0.01940476
105	0x3d3be6a7	0.045874264
106	0x3ccd3ef1	0.025054427
107	0xbdc627a9	-0.09675533
108	0xbdb36dc0	-0.087611675
109	0xba59cac8	-0.000830811
110	0xbdc493f2	-0.09598531
111	0x3caded6a	0.021231372
112	0xbd1d4f66	-0.0384058
113	0x3d248a7f	0.040171143
114	0x3d94b044	0.072601825
115	0xbca70f28	-0.02039297
116	0xbdfd16c9	-0.123578615
117	0xbe47a8bc	-0.19497961
118	0xbd69174b	-0.05690698
119	0xbc646345	-0.013939683
120	0xbc19bbba	-0.009383136
121	0x3cc62608	0.024188057
122	0xbd4f7da3	-0.050656926
123	0x3d173f3a	0.036925532
124	0x3dbfe0d9	0.09369058
125	0xbca205ba	-0.019778121
126	0xbdc3be6a	-0.09557803
127	0x3c83d929	0.016094761
128	0xbbda6b59	-0.006665629
129	0xbdb1a06e	-0.08673178
130	0x3cfbea56	0.030751389
131	0x3d309f47	0.04312065
132	0xbba516d8	-0.0050381236
133	0x3d5e80eb	0.054322165
134	0xbda4a641	-0.08039523
135	0x3d87dfea	0.06634505
136	0xbdaa287d	-0.08308504
137	0x3ca022ca	0.019547839
138	0xbd1d7fcf	-0.038451966
139	0x3d8b3d2c	0.06798777
140	0xbcc6df99	-0.024276542
141	0xbb7878d7	-0.0037913823
142	0x3c1bdbf0	0.009512886
143	0xbcdcfd38	-0.026976213
144	0x3db768ae	0.08955513
145	0x3ce13b0f	0.027493982
146	0x3db93499	0.09043235
147	0x3c4ef775	0.012632241
148	0x3e2e2e53	0.17009859
149	0xbc8b9ef0	-0.01704356
150	0x3cf52a75	0.029927472
151	0xbb8d9006	-0.0043201474
152	0x3c792132	0.015205668
153	0x3d2644ff	0.040593144
154	0x3d34b912	0.04412181
155	0x3d4da222	0.05020345
156	0xbcc601e0	-0.024170816
157	0xbd169161	-0.036759738
158	0x3ce99e80	0.028517962
159	0xbc784605	-0.015153413
160	0xbdd935bd	-0.10605953
161	0x3c811136	0.015755277
162	0x3cbd9bd0	0.023145586
163	0x3d5b5ece	0.05355721
164	0xbd7f41eb	-0.062318724
165	0xbd07a446	-0.033115648
166	0x3e5e7816	0.21725497
167	0x3c133ce4	0.008986685
168	0xbd88df0d	-0.066831686
169	0xbd329f4a	-0.04360894
170	0xbcd8f2b6	-0.026482921
171	0xbd237369	-0.039904986
172	0x3d02f62b	0.031973045
173	0xbdbcd3ff	-0.092201225
174	0x3c119dcf	0.008887722
175	0x3c3adfc6	0.011405891
176	0xbb4b2c52	-0.0031001759
177	0x3ca4bbdb	0.020109108
178	0xbc51758c	-0.012784373
179	0xbbea3114	-0.007146964
180	0xbc8ae295	-0.016953746
181	0x3c6bcc7d	0.0143920155
182	0xbd82f9d7	-0.063953094
183	0xbbb70344	-0.005585106
184	0xbbf74482	-0.0075460086
185	0xbb9339f5	-0.004492993
186	0xbdfde890	-0.123978734
187	0x3c9ffdc9	0.019530194
188	0x38412836	4.6052235e-05
189	0xbc0f840b	-0.008759509
190	0x3c7c89fd	0.015413758
191	0x3c3abc4f	0.011397435
192	0x3c9c508b	0.019081375
193	0x3cd2811d	0.025696332
194	0x3cc2d261	0.023781957
195	0xbcac2abb	-0.02101647
196	0x3de22bfc	0.110435456
197	0xbd397aac	-0.045283005
198	0xbdee6514	-0.11640373
199	0xbd0bc018	-0.03411874
200	0x3c1104ad	0.008851212
201	0x3d925b1b	0.07146283
202	0xbc5a44fc	-0.013322111
203	0x3d8c00dd	0.06836102
204	0xbc983dec	-0.018584214
205	0x3d207708	0.039176017
206	0x3c9bc7a0	0.019016087
207	0x3c3a29d4	0.011362512
208	0xbbac45f4	-0.0052573625
209	0xbd5d74cf	-0.054066475
210	0xbc5cd93f	-0.01347953
211	0xbc4ff8dc	-0.01269361
212	0x3c1b9edb	0.009498323
213	0x3d9148cf	0.07093965
214	0xbc8c5339	-0.017129527
215	0x3cd4bdf6	0.025969487
216	0x3cef11f6	0.02918337
217	0x3ccb32d2	0.024804506
218	0x3c976a00	0.018483162
219	0x3d9ecfb5	0.07754461
220	0x3aa7f7e6	0.0012814968
221	0xbc994239	-0.018708335
222	0x3b7bbd3e	0.0038412358
223	0xbdb12450	-0.08649504
224	0x3db9636a	0.09052165
225	0x3c4d1f0f	0.012519612
226	0xbe216dc7	-0.15764533
227	0x3d439d92	0.047757693
228	0x3d448603	0.047979366
229	0xbc004e7d	-0.007831213
230	0xbd540880	-0.05176592
231	0x3dbbf6bb	0.091779195
232	0x3cba17a8	0.022716358
233	0xbdb00006	-0.085937545
234	0xbd34ffcb	-0.044189256
235	0x3dabac69	0.08382494
236	0xbbc9ad8c	-0.0061547216
237	0xbc6a7d4f	-0.014312102
238	0x3d03d362	0.032184012
239	0xbc7d856c	-0.015473705
240	0xbcce7c42	-0.025205735
241	0xbd8e54e1	-0.06949783
242	0xbc10f194	-0.008846659
243	0x3d0d7aa5	0.03454079
244	0x3e23e216	0.16004214
245	0xbde3bf32	-0.11120452
246	0xba30326e	-0.0006721382
247	0x3cf73b7d	0.030179733
248	0x3c81d840	0.015850186
249	0x3cd06ddf	0.025443016
250	0x3cf31761	0.029674234
251	0x3d399582	0.045308597
252	0x3d4edb77	0.050502267
253	0xbc28a18e	-0.010292424
254	0x3e15657a	0.14589491
255	0xbb481852	-0.0030532074

action_model._discrete_distribution.branches.1.bias f4 [2]
0	0xbcb6f3e9	-0.022333102
1	0x3cb6f3fe	0.022333141

action_model._discrete_distribution.branches.1.weight f4 [2, 128]
0	0xbb2b5bea	-0.0026147314
1	0x3d8ffcc1	0.07030631
2	0xbc415a7c	-0.011801358
3	0xbcbfba0a	-0.02340414
4	0x3cc455ab	0.02396663
5	0xbc6c3126	-0.014416015
6	0xbd4d4e97	-0.050123777
7	0x3ccc3f83	0.024932628
8	0x3b4754bb	0.0030415494
9	0x3b9f3574	0.004858667
10	0xbcf2bbe3	-0.029630607
11	0x3af427e8	0.0018627616
12	0xbc11eace	-0.008906079
13	0x3cb36f92	0.021903787
14	0x3affbb5e	0.0019510796
15	0xbd19da49	-0.03756169
16	0xbc98e881	-0.018665554
17	0x3d005173	0.031327676
18	0x3cad39f4	0.021145798
19	0xbcf37d82	-0.029722933
20	0xbd4afe0c	-0.049558684
21	0xbd53344d	-0.05156355
22	0xbd4e7dd9	-0.050412986
23	0x39ab0ea9	0.00032626584
24	0xbd3f3e97	-0.04669055
25	0xbc760d7a	-0.0150178615
26	0x3cbba11e	0.022903975
27	0xbc753819	-0.014966988
28	0x3d0720ca	0.032990254
29	0xbcbeed32	-0.023306463
30	0x3cd9d65b	0.02659147
31	0x3c93a014	0.018020667
32	0xbd0652c9	-0.032793794
33	0xbca5e5f7	-0.020251257
34	0x3c34d10b	0.011036168
35	0xbcbd976d	-0.023143495
36	0x3d75e43f	0.060032126
37	0x3d40e245	0.047090787
38	0xbc7e5cfe	-0.015525101
39	0xbce81af3	-0.028333163
40	0xbd435870	-0.047691762
41	0x3d3c6e00	0.04600334
42	0xbd1a638e	-0.0376926
43	0x3ba56e5f	0.0050485577
44	0x3d3d9c7f	0.046291824
45	0xbcfe2961	-0.03102559
46	0xbc953f41	-0.018218638
47	0xbc716223	-0.01473287
48	0xbd17304b	-0.03691129
49	0x3bf17eee	0.0073698675
50	0x3cdda686	0.027056944
51	0x3c1377e0	0.009000748
52	0x3b4f8dc1	0.0031670185
53	0xbca7f135	-0.020500759
54	0xbd211666	-0.039328
55	0x3badc008	0.005302433
56	0x3cdc9caf	0.026930181
57	0xbd4b22e3	-0.049593817
58	0xbd13b971	-0.036065523
59	0x3bf9da88	0.007624928
60	0xbc116406	-0.008873945
61	0xbc352263	-0.011055562
62	0x3d47fe62	0.048826583
63	0xbc611b94	-0.013739485
64	0xbc945868	-0.018108562
65	0xbcea3b41	-0.028592708
66	0x3c647435	0.013943722
67	0xbc9b8262	-0.01898307
68	0x3c5fd7ab	0.013662259
69	0xbcf9930b	-0.030465623
70	0x3d0c6aac	0.034281418
71	0xbcfdcb19	-0.030980634
72	0xbdb45df7	-0.08806985
73	0xbc029464	-0.007969949
74	0x3be6637f	0.007030904
75	0xbd561dfd	-0.052274693
76	0xbc9f4e09	-0.01944639
77	0xbdb32aa3	-0.08748367
78	0x3c89faa8	0.016843155
79	0x3d2ec3d7	0.042667236
80	0xbc64e8ae	-0.013971491
81	0xbd346926	-0.04404559
82	0x3c32c63d	0.0109115215
83	0xbcaca9cf	-0.021077065
84	0x3d1fe934	0.03904076
85	0x3b317d38	0.0027082693
86	0xbd1c3319	-0.038134668
87	0xbd10b8ac	-0.035332367
88	0x3b650ebd	0.0034951412
89	0x38de88d0	0.00010611268
90	0x3d07207a	0.032989956
91	0xbc86368b	-0.01638343
92	0xbd0bde93	-0.03414781
93	0x3d1a2e4f	0.03764182
94	0xbd10154a	-0.035176553
95	0x3c92fad6	0.017941874
96	0xbc8d8903	-0.017277246
97	0xbc430dc9	-0.011905142
98	0x3c873737	0.01650582
99	0xbc2622b4	-0.01014011
100	0xbccca09d	-0.02497893
101	0x3d7013e8	0.058612734
102	0xbc509e89	-0.01273311
103	0xbd47a787	-0.04874375
104	0x3d0d947b	0.03456543
105	0x3ceed97a	0.029156435
106	0x3a807722	0.0009801129
107	0x3d1924a7	0.03738847
108	0xbce6f353	-0.028192198
109	0xbbcdcae9	-0.0062802923
110	0x3c24cca7	0.010058559
111	0x3d47dfbb	0.04879735
112	0x3c92a08a	0.017898817
113	0xbab03a7c	-0.0013445164
114	0xbd028bad	-0.031871486
115	0xbc233ec8	-0.009963699
116	0xbc1c24ac	-0.009530228
117	0x3d3f1293	0.046648573
118	0x3c82ab0d	0.015950704
119	0x3d073321	0.033007745
120	0xbcebdc7a	-0.028791655
121	0x3b59eca8	0.003325263
122	0x3c6f2b3e	0.014597712
123	0xbcecbcda	-0.028898645
124	0xbadf0a38	-0.0017016595
125	0xbc121c08	-0.008917816
126	0x3d263327	0.040576126
127	0x3badd532	0.005304956
128	0x3c3bdbd9	0.01146599
129	0xbd873129	-0.066011734
130	0x3bde58c0	0.006785482
131	0x3c30f4c3	0.010800543
132	0xbc944a92	-0.018101964
133	0x3c9bb1b9	0.019005643
134	0x3d0fe7af	0.03513306
135	0xbc45ea41	-0.012079776
136	0xbcab16af	-0.02088484
137	0xbbc5ac70	-0.006032519
138	0x3cf6ec30	0.03014192
139	0xbbcb8a64	-0.006211566
140	0x3c0e8557	0.008698783
141	0xbd1ccde3	-0.038282286
142	0xbbb686f3	-0.0055702864
143	0x3caea0c7	0.021316899
144	0x3c9650bb	0.018349042
145	0xbc252678	-0.010079972
146	0xbc39b1d4	-0.011333901
147	0x3cea3937	0.028591735
148	0x3d591649	0.05299977
149	0x3cb59f56	0.022170704
150	0x3d683d7d	0.056699265
151	0x3c520529	0.012818613
152	0x3d1543a7	0.03644147
153	0xbbaaf6d9	-0.005217415
154	0x3938767a	0.00017591743
155	0x3d3f4ac3	0.046702158
156	0xbce63a65	-0.028104017
157	0x3b19c408	0.002346279
158	0xbc8f930a	-0.017526168
159	0xbc37d78a	-0.011220822
160	0x3cb9e8b7	0.022693975
161	0x3c6e48c4	0.014543716
162	0x3b01a5d7	0.0019782686
163	0x3c6636dd	0.014051166
164	0xbd4eb60b	-0.05046658
165	0xbd302d13	-0.043011736
166	0x3c994efb	0.018714419
167	0x3d33cb77	0.04389521
168	0x3d27b17a	0.04094074
169	0xbd2281d3	-0.03967459
170	0x3d1fad66	0.038983725
171	0xbc28f71c	-0.010312822
172	0xbd5142c4	-0.051089063
173	0x3d170346	0.036868356
174	0xbac77ea9	-0.0015220243
175	0x3bda7146	0.0066663353
176	0x3cd0345d	0.025415594
177	0xbcf608d3	-0.030033505
178	0xbc911d20	-0.017714083
179	0x395d5197	0.00021106597
180	0x3c235fd7	0.0099715805
181	0xb87b39fc	-5.9897066e-05
182	0x3d3e7663	0.04649962
183	0x3b6a2e13	0.0035733029
184	0xbcab176a	-0.020885188
185	0x3c88d7c0	0.01670444
186	0x3cb036d2	0.021510515
187	0xbc80e981	-0.015736343
188	0x3c4155ae	0.011800213
189	0x3cc91de6	0.02455039
190	0xbd966c8f	-0.07344925
191	0x3d0b3b1c	0.033991918
192	0x3c8415ad	0.016123617
193	0x3d266225	0.04062094
194	0xbc1682c4	-0.00918645
195	0x3c024267	0.007950402
196	0xbcdc076c	-0.026859008
197	0x3d083fc7	0.033263948
198	0xbd2b66ee	-0.04184621
199	0x3d66387b	0.056206208
200	0x3db4c635	0.088268675
201	0xbc90d877	-0.017681343
202	0xbcd4b2df	-0.025964199
203	0x3d12b1d2	0.035814114
204	0x3c87578c	0.016521238
205	0x3db25b48	0.08708817
206	0xbc171d06	-0.009223228
207	0xbd3879f9	-0.045038197
208	0xbc585a53	-0.013205129
209	0x3d08fa42	0.03344179
210	0xbc07513f	-0.008259117
211	0x3cde1493	0.02710942
212	0xbd44eaed	-0.048075605
213	0xbaf46ee1	-0.0018648767
214	0x3d06e3cc	0.032932088
215	0x3bfefa51	0.007781305
216	0x3c1865d5	0.009301622
217	0x3c91a207	0.017777456
218	0xbd1e5ac1	-0.03866077
219	0x3c608088	0.013702519
220	0x3d024fb6	0.0318143
221	0xbd1809e5	-0.03711881
222	0x3cacab02	0.021077637
223	0xbc1120e0	-0.008857936
224	0x3bcf6df4	0.006330246
225	0x3b63b576	0.003474561
226	0xbc3905a9	-0.011292853
227	0x3ca79a4b	0.020459315
228	0x3c20dcdd	0.009818283
229	0xbd605198	-0.054765314
230	0xbca26239	-0.019822227
231	0x3cd73039	0.026268112
232	0xbd2fda82	-0.042932995
233	0xbcd53aec	-0.026029073
234	0x3ba90ecc	0.0051592346
235	0xbd4812dd	-0.048846114
236	0x3c722209	0.014778622
237	0xbc4d20f3	-0.012520063
238	0xbd0c0fad	-0.034194637
239	0xbd68e6e3	-0.056860816
240	0xbcbfc12a	-0.023407537
241	0x3c21cf70	0.009876117
242	0x3d3defc0	0.04637122
243	0x3c6db977	0.01450955
244	0x3ca20ebe	0.01978242
245	0xbd5fa1b6	-0.05459758
246	0xbc2843fa	-0.010270113
247	0xbd08593b	-0.03328822
248	0x3c538c7c	0.012911912
249	0xbb4ff7c7	-0.003173338
250	0xbc4d3003	-0.012523654
251	0x3d300ad8	0.04297909
252	0xbc5ea41b	-0.0135889305
253	0xbc50c3cf	-0.012741997
254	0xbd1f0e9b	-0.03883229
255	0xbc22a785	-0.009927635

discrete_action_output_shape f4 [1, 2]
0	0x40e00000	7.0
1	0x40000000	2.0

network_body._body_endoder.seq_layers.0.bias f4 [128]
0	0xbd925d61	-0.07146717
1	0x3cb62cf9	0.022238242
2	0xbd2e98d8	-0.042626232
3	0xbd2f8e88	-0.042860538
4	0x3bf47bdb	0.007461054
5	0x3d06fdb1	0.032956783
6	0x3d27c400	0.040958405
7	0x3d4a8682	0.049444683
8	0x3ce6197c	0.028088324
9	0x3c99be96	0.018767636
10	0xbbf11998	-0.0073577873
11	0x3c6826be	0.014169393
12	0xbbae56ac	-0.0053203907
13	0x3df32bf5	0.118736185
14	0xbdf57cb6	-0.11986677
15	0xbd1c697a	-0.038186528
16	0x3dbb2283	0.09137442
17	0xbd2f917e	-0.04286336
18	0x3c1ca8d9	0.009561741
19	0xbd2cd86b	-0.04219858
20	0x3d96c36e	0.07361494
21	0xbd59541d	-0.053058732
22	0x3da87f15	0.08227364
23	0xbd3f00d3	-0.046631645
24	0xbd945e4d	-0.07244549
25	0xbd1f03fc	-0.03882216
26	0xbd200027	-0.039062645
27	0x3c0b54b1	0.008504079
28	0x3bfd27d5	0.0077256956
29	0xbcc28a4f	-0.023747591
30	0xbba75a4b	-0.0051071993
31	0xbca1bacd	-0.019742394
32	0xbc599aa9	-0.013281503
33	0xbd8040b5	-0.06262342
34	0x3d5f5360	0.054522872
35	0xbcbc778d	-0.023006225
36	0x3cb7d6f0	0.022441357
37	0xbc817bcf	-0.015806107
38	0x3e09d0e4	0.13458592
39	0xbce51fdb	-0.027969291
40	0xbce4d636	-0.027934175
41	0xbd233ab6	-0.039850913
42	0xbd9d612e	-0.07684551
43	0xbd1dea14	-0.038553312
44	0x3c9944df	0.018709598
45	0x3d7f6472	0.06235165
46	0xbd01d809	-0.031700168
47	0xbcdb93de	-0.026803907
48	0x3ca9af7a	0.020713557
49	0xbd5942ee	-0.053042345
50	0xbd1aa57f	-0.037755486
51	0xbdc8dd69	-0.09807856
52	0x3906b222	0.00012845595
53	0xbdc74eda	-0.097318366
54	0xbc743ad0	-0.0149066
55	0x3c81c9c7	0.015843285
56	0x39b483f3	0.00034430585
57	0xbd81812a	-0.06323464
58	0x3da0d884	0.07853797
59	0xbdb3db9c	-0.087821215
60	0xbc57aec5	-0.013164227
61	0x3d606d9a	0.054792024
62	0xbb9d663d	-0.0048034475
63	0xbd9e6d95	-0.07735745
64	0xbd1b4715	-0.037909586
65	0xbd81c81b	-0.06336995
66	0x3a6f5a94	0.00091306237
67	0xbd2c9c0d	-0.04214101
68	0x3d2daf95	0.042403776
69	0x3cb40335	0.021974185
70	0x3d830490	0.063973546
71	0xbd3aa7b1	-0.04557008
72	0x3d05a75d	0.032630313
73	0x3c89b0e4	0.01680798
74	0x3bd0a20f	0.006366975
75	0x3d962672	0.073315516
76	0xbc60c469	-0.013718703
77	0x3d9d99c9	0.07695348
78	0xbd233d8f	-0.03985363
79	0x3e14b5d9	0.14522494
80	0xbd921846	-0.07133536
81	0x3c906d3d	0.017630214
82	0x3dfc1d31	0.12310255
83	0xbc93b8d9	-0.018032478
84	0xbc929f9c	-0.017898373
85	0xbdb68815	-0.08912674
86	0xbd1f5747	-0.038901594
87	0xbbb32d46	-0.0054680435
88	0xbd684ee7	-0.056715872
89	0xbd014e61	-0.03156889
90	0xbc05045e	-0.008118717
91	0x3d34efcd	0.044174004
92	0xbc920428	-0.017824247
93	0xbd9e1f79	-0.07720847
94	0x3d60b4d2	0.054859944
95	0x3d0d076e	0.034430914
96	0xbd0d2944	-0.034463182
97	0xbde96e27	-0.11397963
98	0x3dcf7ae5	0.10130862
99	0xbd2d2b2c	-0.0422775
100	0xbc8606e6	-0.016360711
101	0xbc99c6e4	-0.018771596
102	0xbcaa0d35	-0.02075825
103	0xbc16ca28	-0.009203471
104	0xbce8e818	-0.028430983
105	0xbc34f09b	-0.011043693
106	0xbd3d5b7c	-0.046229824
107	0xbbddd869	-0.006770183
108	0xbc5918e4	-0.013250563
109	0xbe0a3640	-0.13497257
110	0xbd68d4f4	-0.056843713
111	0xbc95e90b	-0.0182996
112	0x3d683ceb	0.05669872
113	0x3b43e16d	0.0029889003
114	0x3b8ac5ca	0.004235004
115	0xbd8372b0	-0.06418359
116	0x3bf7106b	0.007539799
117	0x3dca5b53	0.098807
118	0x3c73c76e	0.014879091
119	0x3d3bebfb	0.045879345
120	0xbd65a525	-0.056065697
121	0x3b23013f	0.002487257
122	0xbdbaac90	-0.09114945
123	0x3c9422a3	0.018082922
124	0xba7a1d04	-0.0009541067
125	0xbca59283	-0.020211464
126	0x3d170aa7	0.036875393
127	0xbdbbd87b	-0.0917215

network_body._body_endoder.seq_layers.0.weight f4 [128, 14]
0	0xbd46b1f1	-0.048509542
1	0xbdef954d	-0.11698399
2	0xbed7ca0c	-0.42146337
3	0x3d2b21cb	0.041780274
4	0x3e867c3e	0.26266664
5	0xbe47ca8e	-0.19510862
6	0xbdb1ec9e	-0.08687709
7	0x3e4a338e	0.19746229
8	0x3f0596bd	0.52183133
9	0xbe35dc1a	-0.17759743
10	0x3cac61f6	0.021042805
11	0xbbf174fa	-0.007368681
12	0xbed35d1c	-0.41281974
13	0x3da91860	0.08256602
14	0xbe203d6e	-0.15648434
15	0x3eb181c1	0.34669307
16	0x3da874c7	0.082253985
17	0x3e007dc5	0.12547977
18	0x3eaf71f0	0.34266615
19	0x3e28852f	0.16457056
20	0x3e3650fd	0.17804332
21	0xbf061f40	-0.52391434
22	0x3e656394	0.22401267
23	0xbd0a16eb	-0.033713263
24	0xbef1201a	-0.47094804
25	0x3e9782c9	0.2959197
26	0xbc4fa510	-0.012673631
27	0x3e97f3f5	0.29678312
28	0xbcbc1a52	-0.02296177
29	0x3e481e45	0.19542797
30	0xbce7923e	-0.028267976
31	0x3d30bdf1	0.043149892
32	0xbf264d55	-0.6496175
33	0xbefc0acd	-0.4922699
34	0xbe3b4b42	-0.18290427
35	0x3e1a556a	0.15071645
36	0xbe773cd2	-0.24144295
37	0x3e6cddf1	0.23131539
38	0x3e9900d3	0.2988344
39	0x3e629e07	0.22130595
40	0x3e6e2f85	0.23260315
41	0xbea3bf92	-0.31982094
42	0xbd99c7f9	-0.07508845
43	0xbe2ed073	-0.17071705
44	0xbe413a15	-0.18869813
45	0x3ea287fc	0.31744373
46	0x3d9cd80a	0.07658394
47	0xbe8ae1dc	-0.27125442
48	0xbc53a321	-0.012917311
49	0x3d5bd64f	0.053671177
50	0xbdc50d2d	-0.09621654
51	0x3d80c8c6	0.062882945
52	0xbeb5f44d	-0.3553795
53	0x3e00253f	0.12514208
54	0x3db269ee	0.08711611
55	0x3e4d231a	0.20032921
56	0x3dfc6fd0	0.12326014
57	0x3e8b8c07	0.2725527
58	0x3d72e9a8	0.059304863
59	0xbeaebc4e	-0.3412804
60	0xbe9e9db1	-0.30979684
61	0xbefd85df	-0.49516198
62	0xbb902293	-0.004398653
63	0xbdae6420	-0.08515191
64	0xbe501d5b	-0.20323698
65	0x3e2691b5	0.1626652
66	0x3ed127a6	0.40850562
67	0xbe587553	-0.21138506
68	0xbdd66098	-0.104676425
69	0xbdcf12cf	-0.10111009
70	0x3df100c0	0.11767721
71	0x3ed0574d	0.40691605
72	0x3f1fdd25	0.62446815
73	0x3e9779bb	0.2958506
74	0x3d3c7a00	0.046014786
75	0x3eb60e8c	0.35557973
76	0xbe94fb5c	-0.29098022
77	0xbf212b8b	-0.62957066
78	0x3dc7eed7	0.09762352
79	0xbd76261f	-0.06009495
80	0xbe76531f	-0.24055146
81	0x3bbfed60	0.0058571547
82	0xbee81c6f	-0.45334193
83	0x3e17d270	0.1482637
84	0xbe52dc68	-0.20591891
85	0xbe095e71	-0.13414933
86	0x3eaa2bc7	0.33236524
87	0xbe5b339e	-0.21406409
88	0xbe4130d8	-0.18866289
89	0x3e829aa8	0.25508618
90	0x3e391a07	0.18076335
91	0xbdb5dd40	-0.08880091
92	0xbe5d36cb	-0.21602933
93	0x3e0ea436	0.13929829
94	0xbd669182	-0.05629111
95	0xbe3ba773	-0.18325596
96	0xbecbbb96	-0.39791554
97	0x3f420f05	0.7580417
98	0x3e2b0af1	0.16703393
99	0xbe85ca0c	-0.26130712
100	0xbe7763bb	-0.24159138
101	0x3f1a0735	0.6016725
102	0x3eab604c	0.33471906
103	0x3e0b78b5	0.13620265
104	0x3e2c7acc	0.16843718
105	0xbf1b310d	-0.6062172
106	0xbe998621	-0.29985145
107	0x3db3c178	0.087771356
108	0x3dffbe3a	0.12487455
109	0x3daa56a1	0.083173044
110	0xbd952e0c	-0.07284173
111	0x3e44c9b6	0.19217572
112	0x3d2024ac	0.039097473
113	0xbedcc575	-0.43119398
114	0x3e261c22	0.1622167
115	0xbe344fef	-0.17608617
116	0xbddc56e3	-0.1075876
117	0x3e830e07	0.2559664
118	0x3d8abf85	0.06774811
119	0xbdd84c8a	-0.10561474
120	0xbe4522c3	-0.19251542
121	0x3d60b1c6	0.054857038
122	0xbcf2a15d	-0.02961796
123	0x3ea2699c	0.317212
124	0x3bc9784f	0.006148375
125	0xbe8067ce	-0.25079197
126	0xbe77c09c	-0.24194568
127	0xbeef6375	-0.46755567
128	0xbe90f106	-0.28308886
129	0x3e5d0ed9	0.21587695
130	0x3d95579c	0.07292101
131	0xbebac196	-0.3647582
132	0x3e5d6dfa	0.21623984
133	0x3c56b199	0.013103866
134	0x3ef5fd1c	0.4804467
135	0xbe41b007	-0.18914805
136	0x3e926fb0	0.28600836
137	0x3ccb1724	0.024791308
138	0xbee7d825	-0.45282093
139	0xbc766e1c	-0.015040901
140	0x3e0447ad	0.12917967
141	0x3e7f50e6	0.24933204
142	0x3d6df6fb	0.058096867
143	0xbe0a9042	-0.13531592
144	0xbe8715ce	-0.26383823
145	0xbdb935b9	-0.0904345
146	0xbddf1ea8	-0.10894519
147	0x3ecb46b6	0.39702386
148	0x3e943406	0.2894594
149	0xbe395cb1	-0.18101765
150	0xbee63c9a	-0.4496811
151	0x3e5cba13	0.21555357
152	0xbdbc9073	-0.09207239
153	0xbe8e85a2	-0.2783633
154	0xbe8e84d2	-0.2783571
155	0xbd9801ca	-0.07422216
156	0xbdb465b7	-0.08808463
157	0x3e017a52	0.12644318
158	0xbd80ceaf	-0.06289422
159	0x3bf4651e	0.007458343
160	0xbcc7ef33	-0.024406051
161	0x3e73b099	0.23797835
162	0xbe97f937	-0.29682323
163	0xbdc82fe4	-0.097747594
164	0xbdf43baa	-0.119254425
165	0xbe5fa2c6	-0.21839437
166	0xbe5a9ee3	-0.21349673
167	0xbe6f1561	-0.23347999
168	0xbe230fc7	-0.15923987
169	0xbd2583b5	-0.04040881
170	0xbe68babd	-0.22727485
171	0xbe19bfa2	-0.15014508
172	0x3ef336e2	0.4750281
173	0xbc17689f	-0.009241252
174	0x3e9480a3	0.29004392
175	0x3e7c8eb8	0.24663818
176	0x3d87c18c	0.06628713
177	0x3dc147ba	0.09437509
178	0xbdbceb3c	-0.09224555
179	0xbe5444e7	-0.20729409
180	0x3c257aad	0.010100049
181	0xbdc407fe	-0.09571837
182	0x3e62a8de	0.2213473
183	0xbe2fc9cf	-0.17166828
184	0x3e80fa7b	0.251911
185	0x3bd459de	0.0064804396
186	0xbd4fd428	-0.050739437
187	0xbc933f8c	-0.017974637
188	0xbe9c9dd6	-0.3058917
189	0xbe1f4516	-0.15553698
190	0x3e1f74ab	0.15571849
191	0xbf06f51e	-0.5271777
192	0xbdd07711	-0.1017896
193	0x3e1ecebe	0.15508553
194	0xbead10be	-0.33801836
195	0xbd851df1	-0.064998515
196	0xbda2368d	-0.07920561
197	0x3eb52e6f	0.3538699
198	0xbe8c354d	-0.27384415
199	0xbe9adf08	-0.30248284
200	0xbd94df6e	-0.07269178
201	0xbdf5f338	-0.12009281
202	0xbeb377ae	-0.35052246
203	0xbe4231e2	-0.18964341
204	0x3f09b521	0.53792006
205	0x3efe107c	0.49621952
206	0x3e9154f7	0.28385136
207	0xbde05398	-0.10953444
208	0xbf1b3984	-0.60634637
209	0x3db5f097	0.088837795
210	0x3e4f8fb9	0.2026967
211	0xbd860796	-0.06544416
212	0x3e4d801f	0.20068406
213	0xbdeb8152	-0.11499275
214	0x3dcfaca5	0.10140351
215	0x3d0dba6c	0.034601614
216	0x3ca6ed92	0.020376954
217	0x3e81a653	0.25322208
218	0x3e12b370	0.14326262
219	0xbd8e0a83	-0.06935599
220	0xbdab1bc7	-0.083549075
221	0xbe4fe71b	-0.20303003
222	0xbe8013be	-0.25015062
223	0xbe277eee	-0.16357014
224	0xbe973aef	-0.2953715
225	0x3d090ce3	0.033459555
226	0x3f008790	0.5020685
227	0xbe969548	-0.29410768
228	0x3e0a22c9	0.13489832
229	0x3ea52645	0.3225576
230	0x3e8c5c1d	0.27414027
231	0xbeae7561	-0.34073928
232	0xbd4c714c	-0.049912736
233	0xbe487c31	-0.19578625
234	0x3c0795af	0.008275433
235	0x3ed2fb1d	0.4120721
236	0xbe24cdd8	-0.16094148
237	0xbe4670b7	-0.19378935
238	0xbe956e83	-0.29185876
239	0xbd690e1b	-0.056898218
240	0xbe8eb508	-0.2787249
241	0x3bc4d183	0.006006421
242	0xbda5c7dc	-0.08094761
243	0xbe27f29c	-0.16401142
244	0xbda92fb9	-0.082610555
245	0xbe882109	-0.26587704
246	0xbcc6a16a	-0.02424689
247	0x3cfba9db	0.030720642
248	0x3ebc7251	0.36805966
249	0xbed2e5b1	-0.41190866
250	0xbd7a16fb	-0.061057072
251	0xbe935b6e	-0.28780693
252	0xbe8e010d	-0.27735177
253	0x3e6c89b9	0.23099412
254	0xbd212d0b	-0.039349597
255	0xbe7146aa	-0.23562112
