Assets/ML-Brains/HouseBehaviourScene8T04.onnx (onnx, 120062 bytes, 9 tensors)

action_model._discrete_distribution.branches.0.bias f4 [7]
00000000: 3ff2 753c f009 2d3b 95e1 9cb9 25e9 c2bb
00000010: 6a91 d73b 0533 bebc 138c 653c
0.015011369 0.0026403628 -0.0002992271 -0.005948203 0.006578614 -0.023217687 0.014010447

action_model._discrete_distribution.branches.0.weight f4 [7, 128]
00000000: fb41 053d 69f5 a43c 73e2 903c 0902 453c
00000010: 9eeb 4b3c b306 d9bc 49af e83c fb36 03bd
00000020: fb22 11ba 204e b4bc 47cf f83b 84e9 5cbb
00000030: 78ee 0cbd 6c15 3dbc 47b6 8f3c 3c74 1a3d
00000040: da6a 1f3d 8031 9fbd 12db 273d 7062 43bc
00000050: 2992 c23c 1de1 a637 2b1c 343d 43be efbb
00000060: 6dc7 14bc 744f 353c 82c5 91bc a914 33bd
00000070: 7f29 41bc 4768 59bc 0d3e 533c 1ea4 6a3c
00000080: 374e 853b 0359 a53c dcab bb3c 9728 b5bc
00000090: 751a 703c f314 3bbd 5717 8c3d fd6b a8bc
000000a0: 0489 b4bc c71d 2b3c 15ed e83c 9bb7 5cb9
000000b0: 5d3b c1bc 21de b03c dd1c 593d 4a1c 213c
000000c0: b491 92ba e066 243d 5797 7dbc d2ac 04bc
000000d0: d0a8 6e3c e16f 473d 9837 593c d9cd 323c
000000e0: f84e 5b3c fd25 a83c 6e60 5abb 5821 bebc
000000f0: 8f1c 423c 2fbf 35bb 7b36 24bc 1b03 723d
00000100: fea8 dc3c ecab f7ba 522e 5fbd dc41 14bd
00000110: b4e3 4c3b 4e9c 21bd c622 fd3a cdbc f33c
00000120: 9ead bfbc e898 203c 2d97 7a3c d6cd 0e3c
00000130: 1519 b63b 6b3a c13c bc87 29bd f6cf 55bb
00000140: e0fc 76bc 1754 2a3a f6f5 57bd fda3 f73b
00000150: 824a 29bc 3959 6f3c 603e 423c f0a4 113b
00000160: 4279 ad3c ddeb 63ba 63a4 e3bc 3c67 d93c
00000170: ba6f 7dbc 8522 e7bc 9c79 9fbb 31d2 60bd
00000180: 0b8d 943c 10c4 c0bc a3e1 97bd 6624 bbb9
00000190: 5737 233d 1f52 3abc 7549 f43c e451 aa3b
000001a0: 712a efbc b197 8c3c de72 323c e145 02bd
000001b0: ac83 a3bb 63eb a53c 49f6 173c 525b a43c
000001c0: ef93 24bc 872f 8f3c 92ca 533c 639e 333c
000001d0: 6ee0 a9bc 97c5 47bc a794 ad3c 132f 9a3b
000001e0: bbb1 853c 3b87 573c bb73 d9bb c741 073d
000001f0: 9cc9 7c38 50f8 c63c c49d ec3b f4ac 9bbc
00000200: b720 1ebd e342 833c 9bf0 82ba 8728 8b3b
00000210: 9c60 ce3c e4be db3b b9e7 e5bb 32d0 74bd
00000220: 3090 ecbb 724b f9ba bc95 adba 22f2 16bd
00000230: 7d2e 933c 7574 553c 4d82 9d3a 1b68 a8bd
00000240: 730b 1cbd bc40 d73c 2e1f 7a37 d69b 00bd
00000250: 3da6 54bd 58e5 b33b de78 24bb 9d76 d5bc
00000260: 73f6 163c 2888 5a3c 55b3 02bd a5a6 87bb
00000270: 3baf 463c 521d be3c dd12 d2bc d1b1 413c
00000280: d038 203c 81da 973d 0f88 18bb a659 e1bb
00000290: 52b2 56bc 39f0 eebc b583 083b 0f11 bf3c
000002a0: 2da7 053d 9114 af3c c03c 843c 62d0 653c
000002b0: 4e3f 2cbd 60df 0bbc 9c7d 40bd 5c7d aeba
000002c0: 8aa3 c9bc 1a6d 21bd 4659 bfbc 4f6a 8bbc
000002d0: 1a7f 67bd 3fc9 8bbd 8d75 a5ba 7f3a 053c
000002e0: 864e 283c 729d 3cbd 9b38 093d e742 33bc
000002f0: cb31 223d 570a f6bc 9f1a b5ba fdaf 393d
00000300: f2bc 10bc dfd8 7c3c 84fe 2cba 57db d23b
00000310: 3948 19bb 383f 78bc e49d d138 834d 543c
00000320: a79d 11bd a00e 233d 309b 1bbc aeaa f0bb
00000330: cb28 d83b ed08 a9bb 51c4 9dbc 96e8 0a3d
00000340: 80fa a4bc 0c0c 6a3c ac3f 3d3c 0643 36bc
00000350: 62d3 a2bc b9f1 e33c 5498 b1bb 4857 83bd
00000360: f8e9 b8bc 0b0d 9ebc 0db7 1c3d 9281 12bd
00000370: b024 a53c 8541 223d a5cf abbb bf60 2f3d
00000380: 5c76 403c e6c7 08bd 4974 3b3d 8d0c 2dbb
00000390: 86cf f4bc a2b6 813c 2f1c 00bd 05d9 1fbd
000003a0: 42d5 1bbd 17fe 52bd 65d2 a23c ba09 4a3c
000003b0: e0d7 c2bc 4820 39bc 49a2 bf3c 30ce 423b
000003c0: 1dc2 4abd 1616 f43b b49b ac3c ce04 ffbc
000003d0: fb1a 7fbc 65ba 18bb 3552 cd3c fb16 a3bc
000003e0: 1d61 bd3c dfc9 6c3c 7325 1ebc 8d0b dcbc
000003f0: 2daa afbd c73f 8bbd 5205 843c a415 993d
0.032533627 0.020136552 0.017686104 0.012024411 0.012446312 -0.026492452 0.028403895 -0.032034855
-0.00055365235 -0.02200991 0.0075930688 -0.0033708522 -0.03440711 -0.011540752 0.017542971 0.037708506
0.03892026 -0.07773113 0.040980406 -0.011925325 0.023751335 1.9893569e-05 0.043972176 -0.007316382
-0.00908075 0.011066306 -0.017794374 -0.043720875 -0.011789679 -0.013269491 0.012893212 0.014321355
0.004068162 0.020184046 0.022909097 -0.022114081 0.014654745 -0.045674276 0.06840389 -0.020559305
-0.02203799 0.010444111 0.028433362 -0.00021049233 -0.023587877 0.021590294 0.05300604 0.009833405
-0.0011182339 0.04013717 -0.015477977 -0.008097844 0.014566615 0.04869068 0.0132578835 0.010913336
0.013385527 0.020525927 -0.0033321637 -0.023209259 0.011847629 -0.0027732363 -0.010022755 0.059084993
0.02693605 -0.0018895841 -0.054487534 -0.03619562 0.0031263651 -0.039455704 0.0019312731 0.029753113
-0.023398217 0.009802081 0.015294832 0.008716067 0.005557189 0.023587426 -0.041389212 -0.0032625175
-0.015074939 0.0006497516 -0.0527248 0.0075573907 -0.010332705 0.014608675 0.011855692 0.0022223555
0.021175984 -0.0008694509 -0.027788347 0.026538484 -0.015468532 -0.028214702 -0.004866792 -0.054887954
0.01813366 -0.02353099 -0.07416084 -0.00035694538 0.039847698 -0.011372118 0.029820183 0.0051977504
-0.029195042 0.017162176 0.010891644 -0.031804923 -0.0049900617 0.020253843 0.009275028 0.020063076
-0.010045036 0.017478717 0.0129267145 0.010963055 -0.0207369 -0.012193105 0.021189047 0.0047053187
0.0163201 0.0131548 -0.0066361106 0.033021715 6.0269245e-05 0.024288327 0.0072209556 -0.019003369
-0.038605418 0.016023105 -0.0009989919 0.0042467746 0.025192551 0.0067061055 -0.007016149 -0.059768863
-0.007219337 -0.0019019677 -0.0013243477 -0.03685201 0.017966503 0.013028254 0.0012016982 -0.082229815
-0.038096856 0.026275985 1.4908421e-05 -0.031398617 -0.05191635 0.0054899864 -0.0025096457 -0.026057536
0.0092140315 0.013338126 -0.031909306 -0.0041397386 0.012126739 0.02320734 -0.02564376 0.01182218
0.00977917 0.07414723 -0.0023274457 -0.006877142 -0.013104038 -0.029167281 0.0020830457 0.023323564
0.032630134 0.021372112 0.01614225 0.014026733 -0.04205256 -0.0085371435 -0.04699479 -0.0013312506
-0.024614114 -0.039410688 -0.023357999 -0.017018465 -0.056517698 -0.06825494 -0.0012623534 0.008131622
0.010272628 -0.04604859 0.03350125 -0.010941244 0.039598268 -0.030034227 -0.0013817138 0.04533385
-0.008834111 0.0154325655 -0.0006599205 0.0064348388 -0.0023388995 -0.015151791 9.995306e-05 0.012957933
-0.03555074 0.03980887 -0.009497449 -0.0073445654 0.00659666 -0.0051585347 -0.01925865 0.033913217
-0.020138979 0.014285099 0.011550825 -0.011124378 -0.019876186 0.027825223 -0.0054197703 -0.06413132
-0.022572502 -0.019293329 0.03826051 -0.0357681 0.020159096 0.039613266 -0.005243259 0.042816874
0.011746969 -0.033393763 0.045765195 -0.0026405186 -0.029884111 0.015834156 -0.031276878 -0.039025325
-0.038045175 -0.05151185 0.019875715 0.012331421 -0.023784578 -0.0112992 0.023392813 0.0029724948
-0.049501527 0.007448922 0.021070339 -0.03113022 -0.0155703975 -0.002330446 0.025063613 -0.019908419
0.023117596 0.014452427 -0.009652483 -0.026860977 -0.0857738 -0.06799274 0.016115818 0.07474831

action_model._discrete_distribution.branches.1.bias f4 [2]
00000000: 521c 95bb 421c 953b
-0.004550495 0.0045504877

action_model._discrete_distribution.branches.1.weight f4 [2, 128]
00000000: 3ac4 76bb de46 a73c 4538 a8bd 117f ad3b
00000010: 4a96 f43c e540 74ba 705b 34bb 83c9 253c
00000020: a0ed 093d 9fd9 02bd a825 5f3c 59b1 b53c
00000030: 22be 853d 0105 64bc e792 82bc f5b2 843c
00000040: fcb8 6d3d ad51 0f3d 82ac 9236 5deb 0ebd
00000050: 91c3 10bd 0af0 40bc 48e8 703c 325d 59bc
00000060: ba74 473c a917 e4bb 27b1 73bc 8676 363c
00000070: 2420 8a3c 3246 163c 1ef4 743c e4f6 693b
00000080: d6f6 6bbd d4bf 63bd d94f 19bc 4c63 a3bc
00000090: 7ff4 41bc 0cc5 7fbd 1380 ce3c 76ac 38bc
000000a0: 9e94 c6bc 608b 42bb 62a1 b43c ffb8 d2bb
000000b0: 5a9b cb3b cbf7 53bc 11cf 24bc 9c54 09bd
000000c0: 9305 503c 5f45 34bc d3a8 07bd 1f72 cb3c
000000d0: 4f85 1cbd 8426 d2b9 8db9 3e3d 0ca6 3cbc
000000e0: 0845 42bc d4f7 df3b 6e83 cf3a d3fb 36bd
000000f0: ab15 0dbd cea7 a9bc 4d2b aabc be65 72bb
00000100: 06d8 903c 06e2 273a bc1d 3bbc 0cbc 07bc
00000110: ecee 87bc 9475 e7bc b639 6dbb 9ced 77bc
00000120: 7942 f7bb dea5 21bc a943 43bc e106 413c
00000130: 5161 fe3b 95e5 8f3b ad16 87bd eb7b c23b
00000140: 3a9e 823c 4b5e 0dbc 1455 0ebd 4ec9 8c3b
00000150: 77a1 603c 7a0b 82bc 1ac4 263d 2aff cfbb
00000160: e7ef fa3b 9bf4 463c 80af 94bc 32ce a0bd
00000170: 27b1 473c 7838 1ebd 9706 ee3c f0f5 73bb
00000180: 7552 b63c 1edc cabc d0cb 8ebb aac9 123c
00000190: 48c3 c63b ebbe 3f3b 8292 4c3d 25f0 853b
000001a0: 5a2f 1bbd e396 0cbd f7d2 103a 61a3 9a3c
000001b0: 3d25 c7bc 7330 1439 c73d e0bc ddb8 9e3c
000001c0: 653d 47ba 1b3b 20bb b3a5 ba3a 0408 163b
000001d0: 57ac ec39 6ff3 8bba df89 0a3d 1e17 8ebb
000001e0: a703 f13c 5ac6 d3bc 04aa 533d fa10 56bb
000001f0: fc10 1bbd 531e 6dbd 7f36 1b3c 2eb1 31bd
00000200: 781e 07b9 ce70 0c3c 4782 8d3d c72e ad3b
00000210: 0f5b cdbc 8d0d b9bb 1b6b 603a a29b 7bbb
00000220: a41b 2bbd 746e 393c d86e 22bc 57ed 05bc
00000230: fbc2 82bd ee0c 923b 15a9 493c aebf babc
00000240: d0ab 36bd 6886 2abd a6a1 d83c d641 f53c
00000250: 96b4 073d 4709 02bb d807 49bc e50b b63c
00000260: e2dd 2abc 2531 ca3b a369 253d 644b 953c
00000270: 5fd6 e6bc b905 93bc 11dc a0bc 13aa 013c
00000280: 643f bb3c 0bf9 4d3d 4718 293c 9052 043d
00000290: 6bd6 563c 4228 773d c0aa 97bc 15f0 573c
000002a0: ace7 473d 664c a93a 4e09 7abc c848 b43c
000002b0: 98b2 05bc 6580 a23c 6416 f23b f50b 393d
000002c0: f03a 49bb c645 c83c 950d a73c 466f f53b
000002d0: 47a4 df3c 294d ec3b 79cd d8bc 21a7 63ba
000002e0: 4d32 1f3d 6d56 b13a d917 cc3a 797c eb3c
000002f0: cb05 e03b 2475 ab3c 8fb2 003d 15e2 033c
00000300: 26d9 c7bc 013e 223b 2945 e1bb a9c8 a83c
00000310: bb2c 70bc 154f 8d3c 19b9 14bb a0d7 e63b
00000320: 9a76 30bb affd 89bb c633 cc3c 7761 7fba
00000330: fad9 b83b c6e3 beb8 e6c2 963d ef14 773b
00000340: b4d8 ddbc 8506 2abc ba15 b73c 4ca3 173c
00000350: 12b5 983b 0b5a a63a c9d6 1fbd 2d21 ee3b
00000360: b638 913b 3266 e93b b251 423c 0b74 823d
00000370: 2833 11bc 6a40 9b3c 70b2 adbc d32e 5bbc
00000380: 0941 f8bc d76f 013d ffcf 813c e800 43bc
00000390: 4187 a33b a695 babb 3e54 00bd 69e7 afbc
000003a0: 2b6a 203d 6f2e 7f3c e111 4abc 8ec2 89bc
000003b0: 65b0 633a 58f2 793a 1807 133d 706b f5bb
000003c0: 511b 2dba 4b7c 1fbb 40b7 cabb 5fa8 1a3c
000003d0: 5b2c 22bc c7f9 28ba 0f1f 01bc 759e a3bb
000003e0: 389f 7bbd a891 d83b 3c6b 03bd a6e0 6b3c
000003f0: e979 d83c e3f9 7a3d e4f4 57bb 43d7 d33c
-0.0037653581 0.020419534 -0.082138576 0.0052946885 0.02985682 -0.00093175314 -0.0027520321 0.010118845
0.033673882 -0.03194582 0.013619818 0.022179293 0.065304056 -0.013917209 -0.01593919 0.016198615
0.058037743 0.03499 4.3712216e-06 -0.03489243 -0.035342757 -0.01177598 0.014703818 -0.013266848
0.012173826 -0.0069608283 -0.014873779 0.011136657 0.016861029 0.009172009 0.01495078 0.0035700137
-0.057608448 -0.055602863 -0.009357416 -0.01994481 -0.011838078 -0.062443778 0.025207555 -0.011271587
-0.024240788 -0.0029685125 0.02204961 -0.0064307447 0.0062135877 -0.012937496 -0.010059134 -0.033527955
0.0126966415 -0.0110028675 -0.033119988 0.02483469 -0.03821307 -0.00040083018 0.046563674 -0.011514198
-0.011857279 0.0068349633 0.0015832016 -0.044673752 -0.034444492 -0.020709898 -0.0207726 -0.0036986913
0.017681133 0.00064042246 -0.011420663 -0.00828458 -0.016593419 -0.028254308 -0.0036197728 -0.015132334
-0.007545766 -0.009866206 -0.011917987 0.011781425 0.007763066 0.004391382 -0.06596122 0.0059351823
0.015944589 -0.008628438 -0.034749106 0.0042964583 0.013710371 -0.015874613 0.04071436 -0.0063475566
0.007657993 0.012143279 -0.018150091 -0.07851829 0.0121882325 -0.03862807 0.029055877 -0.0037225448
0.022256115 -0.024763163 -0.0043577924 0.008959213 0.00606576 0.0029258083 0.04994441 0.0040874653
-0.037886955 -0.034323584 0.00055246 0.018876733 -0.024309749 0.00014132429 -0.027373208 0.019375259
-0.0007600396 -0.0024449292 0.0014240056 0.0022892961 0.0004514183 -0.0010677407 0.03382289 -0.004336252
0.029420687 -0.025851417 0.05167581 -0.0032663927 -0.037857994 -0.057890248 0.009473442 -0.043381862
-0.00012885954 0.008571817 0.06909614 0.0052851173 -0.025067834 -0.0056473673 0.0008560882 -0.0038392325
-0.041774407 0.011317838 -0.0099141225 -0.008174262 -0.06384846 0.0044571077 0.012308379 -0.022796478
-0.044597447 -0.041632086 0.026444267 0.02993862 0.033131205 -0.0019841956 -0.0122699365 0.022222469
-0.010428878 0.0061704093 0.040383946 0.018224426 -0.028178392 -0.017947065 -0.019636186 0.007914084
0.022857375 0.050286334 0.01032073 0.0323053 0.013112645 0.060341127 -0.018514037 0.013179799
0.048804924 0.0012916445 -0.0152610075 0.022007361 -0.008160256 0.019836614 0.007387923 0.04517742
-0.0030705296 0.024447333 0.020392219 0.0074900715 0.027300013 0.0072113466 -0.026465164 -0.0008684267
0.03886633 0.0013529785 0.0015571072 0.028745877 0.006836628 0.02092988 0.031420287 0.008049508
-0.024395537 0.0024756195 -0.0068746996 0.020603495 -0.014659102 0.017249623 -0.0022693335 0.0070447475
-0.002692616 -0.0042111496 0.024927031 -0.00097420014 0.005641219 -9.102332e-05 0.07361393 0.0037701686
-0.027080871 -0.010377531 0.022349227 0.009255242 0.004660257 0.001269163 -0.039023194 0.0072671385
0.0044318093 0.0071227783 0.011860298 0.0636979 -0.008862294 0.018951613 -0.02120325 -0.013377863
-0.030304449 0.0316008 0.01584625 -0.011902072 0.0049904888 -0.005694109 -0.03133034 -0.02147265
0.03916375 0.0155750355 -0.012333364 -0.016816404 0.00086856476 0.0009534708 0.035895437 -0.007489614
-0.0006603497 -0.002433556 -0.006186396 0.009439557 -0.0098982705 -0.0006445911 -0.00788094 -0.004993255
-0.06143114 0.0066091605 -0.03208469 0.014396822 0.026425319 0.061273467 -0.0032952363 0.02585948

discrete_action_output_shape f4 [1, 2]
00000000: 0000 e040 0000 0040
7.0 2.0

network_body._body_endoder.seq_layers.0.bias f4 [128]
00000000: 45ce 933c c73c 613b 278f ae3b ceed 8bbc
00000010: 8d2c 21bb 2cd9 6cbc b3b6 80bc 8bc0 c0bc
00000020: 2f9a 83bc 2a26 bebb f882 68bd 4f8f 89ba
00000030: 804d 123c 3d21 74bc 5d15 82bc b634 343c
00000040: 6a8a 8c3b 6886 163c f071 3dbb c5ab 8cb9
00000050: dc79 c4bc 50f4 e73b 4594 d4ba 3791 1bbd
00000060: daba 04bd b7d9 a73c 6d21 a8bc 54da 1bbd
00000070: c662 8e3c 140f ccbc 5b4d 17bc 5012 04bd
00000080: b815 053c f743 e73b 6e85 bcbb e5a5 433c
00000090: ff3f b83c 9666 73bc 5964 16bc d9cc 223c
000000a0: 4441 4ebc fff4 0cba 1e4e 2bbc 9d93 6a3b
000000b0: a733 06bc 2b2b 083d 66e9 f13c 384d 33bc
000000c0: 06c4 38bd 2dea 873c f0ae be3c 81c1 7dbb
000000d0: 0908 0cbd 1e6c fa3b 1962 28bc 82d6 91bc
000000e0: 2498 cebc 0917 07bc 4d82 1bbc fa72 803d
000000f0: 96a1 62bc 46d3 943c c549 7abc 521c 8fbc
00000100: 12d2 67bb e3eb e8bb b22a 92bc 26cc 053b
00000110: 920c 8cbc d4e0 793d 6e6a 0bbc 9173 a6bc
00000120: c263 2f3d 81bd bbbc 70bc 81bb 35f9 aeba
00000130: 6ece 0fba d6b9 57bc b5b0 b5bc 59d1 47bc
00000140: 5b98 9dbb f786 46bd b950 77bc 2e09 9b3c
00000150: 0232 e8bc fdbe 43bc 3d71 c5bc 11bc 81bc
00000160: acf5 b2bc 00d4 a53b 6310 e73c a202 603c
00000170: c1f5 0e39 5ed7 89bc 714c e53c 57e6 11bd
00000180: a58f 5b3c 602a 8c3b f8f7 a8bc c682 a73b
00000190: febd 813d dd9a 7fbc 1583 fabc 9657 d5bc
000001a0: b9fc 8fbc 56c1 43bc 2fc2 fc3c 0fe4 9b3c
000001b0: 31b5 afbc 0ff8 11bc 8f35 01bc cbf8 073d
000001c0: d9b1 ff3b 3aa2 96bc ba89 003d 9d50 94bc
000001d0: 8210 dbbc bcbd 043d 4ca5 6fbc ca8d d6bc
000001e0: 89ce 00bc 8e4d d93c 25c3 a6bc 72b9 07bb
000001f0: e709 203c 2cac 163d 863e cf3a f0bb 19bd
0.018042693 0.0034368502 0.0053271237 -0.017081168 -0.0024593205 -0.014456075 -0.015712118 -0.023529312
-0.016064731 -0.0058028894 -0.056765527 -0.001049498 0.00892961 -0.014900503 -0.015879327 0.010998895
0.004288961 0.009187318 -0.0028907023 -0.0002683086 -0.023983888 0.007078685 -0.0016218504 -0.037980285
-0.032404758 0.020489557 -0.020523751 -0.03805001 0.017381083 -0.024909534 -0.009234752 -0.032244027
0.008122854 0.0070576626 -0.0057532107 0.011941408 0.022491453 -0.014856001 -0.009179198 0.009936535
-0.012588803 -0.00053770834 -0.010455636 0.003579355 -0.008191026 0.033244293 0.029530238 -0.010943703
-0.045108818 0.016591156 0.023276776 -0.0038720074 -0.03418735 0.007642283 -0.010277295 -0.01780248
-0.02521903 -0.008245238 -0.009491515 0.0627193 -0.01383247 0.01816715 -0.015276377 -0.017469559
-0.0035373014 -0.007108198 -0.017842624 0.0020415871 -0.017095838 0.06100543 -0.0085092615 -0.020318778
0.042819746 -0.022917511 -0.003959231 -0.0013349416 -0.00054857775 -0.013166865 -0.022178987 -0.012195908
-0.004809422 -0.048468556 -0.015094929 0.018925276 -0.028344158 -0.011947391 -0.024101848 -0.015836747
-0.021845661 0.0050606728 0.028206056 0.013672503 0.00013633726 -0.016826328 0.027990552 -0.03562006
0.013400947 0.0042775124 -0.020626053 0.005112025 0.06335066 -0.015600887 -0.030580083 -0.02604274
-0.017576562 -0.01194795 0.030854313 0.019029645 -0.021448703 -0.008909239 -0.0078863045 0.03319625
0.0078031835 -0.018387903 0.031381346 -0.018104846 -0.02674127 0.032407507 -0.014626812 -0.026190657
-0.007861742 0.026526239 -0.020356724 -0.00207099 0.009767986 0.03678529 0.001581148 -0.037532747

network_body._body_endoder.seq_layers.0.weight f4 [128, 90]
00000000: 4b01 0b3d f9ca 25be 0951 193d 6a15 f13c
00000010: a67e f63c 48d5 a4bd 4268 97bd f387 023e
00000020: 2f32 483c 32b2 86be 2157 bdbd 9799 cebc
00000030: 5a4b 11bc 846e 123e 1b54 24be a42d 49be
00000040: 4946 1a3e 9abf 9d3d 9e97 963d edbd 803d
00000050: 0888 c93c 800e 2dbe 767e 373d 6907 8dbc
00000060: 2ea8 923d 1cfd a8bc 2196 333e 3c80 163d
00000070: 08b4 543e 9245 853d c023 2f3d f5d3 b6bd
00000080: 57d3 8d3c db30 56be 7b3c 403e e5ea 283d
00000090: fbc7 bbbd 80dd 94bc 1835 9ebd 6407 ee3d
000000a0: 5af3 063e 17a2 d73d 9046 203e c6d8 713e
000000b0: a42c debd 0f55 09be 4563 b5bd 1fd4 9fbd
000000c0: 7ebc 633d f6ac c1bc 07f3 5d3e 5b02 5dbe
000000d0: 040f efbd edff 8c3c 2239 8abd e3a6 25bd
000000e0: 2a3e d1bd 9948 d53d c0e5 df3d c192 313e
000000f0: 1a42 4dbe 6751 263b 2666 44bc f9be b7bd
00000100: dcc8 ab3d a330 0abe 4a30 703e 4133 8bbc
00000110: 0be8 58bd 021a b9bd 13b6 00bd 2fce 833d
00000120: ab25 933e 9ffa ad3d 5e03 0abe 110d a2bd
00000130: 0043 d83d 5631 49bd 48cb 6bbe f2c2 fabb
00000140: 1992 1a3d fd35 863e 70b2 f6bd 001d d13b
00000150: 9804 18be 359d 3abd 06b4 2bbe ae1d 05be
00000160: aa3f 9ebd 7d5f 17bd 2fa7 90bd 661c f6bb
00000170: e9f1 13bb 742d 053e 04b7 acbc 7448 de3d
00000180: 4bd9 10be cc45 443e f8b3 053e 282f 75be
00000190: 31e9 273e f48b 2739 145f 0bbd 1228 41be
000001a0: fd2d 9c3d 2e6a 8d3e 37c2 c13c fe81 1cbe
000001b0: 3a1c 053e 40c0 f03c 1098 91bc 7cfd 8abd
000001c0: a210 3dbe ebc2 a2bd 3906 8e3c f28d d23d
000001d0: 12a1 3abd 2283 9ebd 1a0e 073e e574 7a3c
000001e0: 9168 603e 8318 c4bd 1e24 11be cc84 43bd
000001f0: a8b8 803d 293b 3e3e c90d 933d ef66 12bd
00000200: 5936 ca3d 2a7e ab3d 7508 0b3d d3c9 dfbc
00000210: 8c2d 81bd 4f3b 023d ae41 813c 2b51 123e
00000220: 3772 f03d 2d8d 3dbe e3cb a8bd 98df a53d
00000230: 803b 823c 92b7 373c 5f05 a83c 1c80 cc3d
00000240: 0f09 a4bd 4f34 b7bd 5302 ab3c 53ad 9b3a
00000250: 60f5 c13d ed35 823d 1e11 dcbd 8011 033e
00000260: 054e 763d 84ac 63bc 23ef 8c3e 4cba c6bd
00000270: 12bd 6bbd 9132 423d fef0 273e 0064 90bd
00000280: 4106 2e3d 278e d63d af53 0c3e 6715 9e3d
00000290: 9229 bfbd 6dca e73d a905 e1bd e41e 1fbd
000002a0: 6fe1 41be 2637 c63b 4d38 babd 9d9e 6cbd
000002b0: 16af a53d a0c3 40be 9c98 eebd d343 87be
000002c0: b45c d73c d6a5 69be 6362 4e3d fc9e 00be
000002d0: 3e71 85bd 1048 55bc dad6 033e 40d9 38bd
000002e0: 12c3 babc 5541 f2bc 054d 61bc 0858 76bd
000002f0: 6dea 16be 2523 403e fe0b 9f3c 537a d93d
00000300: c80e d1bd 4e56 ff3d 4f72 04be 203d 933d
00000310: 2261 10bc 144a 99bb 3448 c6bb a425 463e
00000320: 99c0 393e f483 3a3e b494 0fbe 1996 033e
00000330: c1a9 40be f426 b13d 9e6c 3fbe ef14 86bd
00000340: 978b 2c3d 3dca 88bc 2f7f ed3c 1bcb 18be
00000350: d448 d5bd d666 dfbc 7bbc d73d 330e ab3d
00000360: e663 413d c9b3 03bd bb0b a63b a928 d33d
00000370: fde2 73bd 4cd0 2abe 4108 a63d 49af b6bb
00000380: a276 37be b9e9 b73d 0b3d 31be d76b 843d
00000390: 0b97 f13d 8037 1dbd 848f f0bd f502 a83d
000003a0: 9430 41bd a8ac aa3d d3e8 e43b 89d1 b7bb
000003b0: e182 fa3d bcd8 253d d688 d73d 35fa c93d
000003c0: 9559 3f3e ebb1 a4bc e9b6 6abd b93e 103e
000003d0: 4bac 73bd 1eda 903d 17f5 a93d 1caf bf3d
000003e0: 6b58 a2bd 4a40 43bd 0a1e 583e 9eb6 813c
000003f0: 20b9 40bc bd01 a5bd 2300 d83c 1c1e 983d
0.03393678 -0.16190709 0.037430797 0.029429156 0.030089688 -0.08048493 -0.073929325 0.12747173
0.012218996 -0.26307827 -0.09245134 -0.025219722 -0.008868063 0.14299971 -0.16047709 -0.19646317
0.15065874 0.07702561 0.073531374 0.062862255 0.024600998 -0.16900063 0.044798337 -0.017215448
0.07160984 -0.020628504 0.17537738 0.036743388 0.20771801 0.0650741 0.042758703 -0.08927146
0.017312689 -0.20917074 0.18773071 0.041239638 -0.091690026 -0.018172026 -0.077249706 0.116225034
0.13178769 0.10528963 0.15651917 0.23617849 -0.10848358 -0.13411354 -0.08856825 -0.07804131
0.055599682 -0.023642045 0.21674739 -0.2158293 -0.11672786 0.017211879 -0.067491785 -0.04044236
-0.10216935 0.104142375 0.10932493 0.17341138 -0.20044747 0.002537811 -0.011987245 -0.08971972
0.0838792 -0.13495116 0.23455921 -0.016992213 -0.05295567 -0.09038164 -0.03142364 0.06435811
0.28739676 0.08495068 -0.13477847 -0.079126485 0.10559654 -0.049119316 -0.23026764 -0.007652634
0.037736986 0.26213065 -0.12045753 0.006381631 -0.14845502 -0.04556008 -0.16767892 -0.12999603
-0.07726987 -0.0369563 -0.07063138 -0.0075107096 -0.002257461 0.1300562 -0.021083362 0.10853663
-0.1414539 0.1916725 0.13056934 -0.2394377 0.16397549 0.00015978498 -0.03402622 -0.18862942
0.07625959 0.2762007 0.02365218 -0.15283963 0.12999049 0.029388547 -0.017772704 -0.067866296
-0.18463376 -0.07947334 0.017336952 0.1028098 -0.045563765 -0.07739855 0.13188973 0.015286659
0.21914889 -0.09574988 -0.14173934 -0.047734067 0.062852204 0.18577255 0.07180364 -0.035742696
0.09873647 0.08373673 0.033943612 -0.027317917 -0.063075155 0.031794842 0.015778389 0.14288776
0.11740535 -0.18510886 -0.08242013 0.08099288 0.015897512 0.0112132 0.020510374 0.099853724
-0.0800954 -0.08945524 0.020875132 0.0011877216 0.0947063 0.06357942 -0.10745452 0.12799644
0.060133 -0.013896111 0.27526197 -0.09703502 -0.05755336 0.047411505 0.16400525 -0.070503235
0.042486433 0.10476332 0.13703798 0.07718926 -0.09334101 0.113179065 -0.10987408 -0.03884782
-0.18933652 0.0060490547 -0.0909277 -0.057768453 0.080900356 -0.18824625 -0.11650202 -0.26418933
0.026289321 -0.22817168 0.050386798 -0.12560648 -0.0651574 -0.013017669 0.12874928 -0.04512906
-0.022798095 -0.029572168 -0.013751273 -0.060142547 -0.14737864 0.18763407 0.019414898 0.106190346
-0.102078974 0.12467633 -0.1293423 0.07189393 -0.008812221 -0.0046780203 -0.0060510878 0.19350296
0.18139876 0.18214399 -0.1402157 0.12850226 -0.18814756 0.08650008 -0.18693778 -0.065469615
0.04212531 -0.016697997 0.02899131 -0.14921229 -0.104142815 -0.027270716 0.10533997 0.08352318
0.04721441 -0.03215388 0.0050673163 0.1031049 -0.059542645 -0.16681021 0.08107043 -0.005575095
-0.17916349 0.08980126 -0.17308442 0.06465881 0.11796387 -0.038383007 -0.117461234 0.08203689
-0.04716547 0.08333713 0.0069857626 -0.0056096953 0.122319944 0.040489897 0.10524146 0.09862176
0.18686517 -0.02010437 -0.057303343 0.14086427 -0.059490483 0.070728526 0.082987 0.09359571
-0.07927021 -0.047668733 0.21105209 0.015834149 -0.011762887 -0.08056972 0.026367253 0.07427618

network_body._body_endoder.seq_layers.2.bias f4 [128]
00000000: 58fa 5b3c 6f40 ebbc c0b9 a63c fd31 0ebd
00000010: 638e 413c 824e 6cbc f006 1e3c f988 c4b9
00000020: 3378 3d3c 9322 7d3b 01df 573b a310 f43b
00000030: 2b5b 92bc 16af b5bb 38f2 0f3b 9828 d2bb
00000040: e82a 8e3c 4e14 ed3b 1418 1cbc 6f1a f3bb
00000050: 3276 7ebc c870 6bbb c37d db3b 8eae ec3b
00000060: 1e44 15bd 0c00 7abc 5728 7dbc 4872 a03b
00000070: 7517 873b 36a7 a1bc 8c45 5abc 3ac9 42bc
00000080: d02e 33bc 1ccc 093c 917e 76bc 6465 9abb
00000090: c0eb 973b 704a a3bb 53da a63c 4e11 00bd
000000a0: 0764 453c c1fc aebc 66cf 823c 7b49 69bc
000000b0: 4c0f 87bc 09c6 27bb e082 6cbb 0261 0cbc
000000c0: a1d8 b8bb 0922 dbba 016f 25ba 95cc 34bc
000000d0: 3c17 9bbb 96c3 693b 972c 173c 9854 35bd
000000e0: 8d77 60bb 9153 6cbc 0817 8fbc 2223 b2bc
000000f0: f06f 5ebb 9708 1a3c 0534 83bc 9a3f e33c
00000100: 9f31 a93c 622c 73bc 39b4 69bb fd99 f2ba
00000110: e2b0 9f3c 93b2 f43c aff3 08bc f5e8 5abc
00000120: 2d48 d13b 6395 feba d85b 5aba 741c 9dbc
00000130: b2c8 15bd 7247 a3bc 71f3 9d3c 7927 76bb
00000140: a199 e1bb 60ba fcbb f9c1 73bc bea5 99bc
00000150: e2e6 3bbb ac7e c8bc 59b5 19bc e3b3 c2bc
00000160: 03c1 62bc e0b0 85bd 83cd 183c 605e e93c
00000170: 6fda febc 3051 69bc 5e9c 7e3b df3b 2ebc
00000180: 0652 85bc e7a0 90bc 7dae 56bc 3a4c 05bd
00000190: 239c 423c 0368 763c 84e9 bfbc 9158 fabc
000001a0: 8880 813c e613 5fbb dafd 9abc 688f e0bc
000001b0: 9947 cdba 7ec5 34bc ab39 f8bb 8a33 8cbc
000001c0: 6acc 9bbc 0dad b3bc 4e2e a43c b3ce 74bc
000001d0: b81f 78bb 9304 a7bc 378a 96bb c725 15b9
000001e0: a26f 8e3c 539b 6c3d f5f8 20bc 1eb4 673c
000001f0: f752 60bc 779a b23c 9e48 843b 35ba e53b
0.013426386 -0.028717248 0.020352244 -0.03471564 0.011813733 -0.014423015 0.009645209 -0.00037486086
0.011564302 0.0038625344 0.0032939317 0.0074482723 -0.017865738 -0.0055445535 0.0021964442 -0.0064135306
0.017354444 0.0072350865 -0.009527225 -0.0074189226 -0.01553111 -0.0035925377 0.0066983416 0.007222957
-0.036441915 -0.0152588 -0.015451512 0.004896436 0.0041226693 -0.019733053 -0.013322245 -0.011888796
-0.010936454 0.00841048 -0.015044824 -0.0047117937 0.004636258 -0.004983239 0.020367777 -0.031266503
0.012047774 -0.021360757 0.015968036 -0.0142387105 -0.016486786 -0.0025600216 -0.003608875 -0.00856805
-0.0056410586 -0.0016718517 -0.00063107914 -0.011035104 -0.0047329944 0.0035669557 0.00922694 -0.044270128
-0.0034250945 -0.014424221 -0.017467037 -0.021745268 -0.0033941232 0.009401462 -0.016016016 0.027740289
0.020653544 -0.014842125 -0.00356604 -0.0018509027 0.019493524 0.029870307 -0.00835888 -0.013361205
0.006386778 -0.0019423183 -0.0008329726 -0.019178607 -0.03656835 -0.019931529 0.019281121 -0.0037560149
-0.006884769 -0.0077126473 -0.01487779 -0.01875579 -0.0028671552 -0.024474464 -0.009381616 -0.023767417
-0.013839963 -0.06527877 0.009326342 0.028487384 -0.031110017 -0.014240548 0.0038850526 -0.010634392
-0.016274463 -0.01765485 -0.013103125 -0.0325434 0.011878046 0.015039447 -0.023426779 -0.03055981
0.015808359 -0.003403896 -0.018919874 -0.027412131 -0.0015661597 -0.011033414 -0.007575234 -0.01711442
-0.01901837 -0.021933103 0.020041611 -0.014941859 -0.0037860703 -0.020387923 -0.004594113 -0.0001422382
0.017387215 0.057765316 -0.009824981 0.014142064 -0.013691655 0.02180217 0.004036977 0.007010723

network_body._body_endoder.seq_layers.2.weight f4 [128, 128]
00000000: f552 b73d 5112 953c 9cf0 09be 9ec2 583d
00000010: 2f99 85bd a96f b93d 1d54 a23d d2ad 76bd
00000020: 5774 98bd 52e5 79bd 4f63 54be 0501 68bd
00000030: 3ff9 493d 28f2 16bc 43d0 5c3d 401f dfbc
00000040: 9bc7 76bc 3c33 243d 2e8a 41bc 9516 4f3e
00000050: a8f1 8e3c a3ff 683e 25c2 353e fc65 bdbc
00000060: 88e5 90bd f9f5 b5bd 06d7 d13d 7e51 0f3d
00000070: 479d 063c 7274 e43d 1bc1 713c d1e9 053d
00000080: a6b7 d2bd ced2 b1bc 4120 27bd 86dd ec3c
00000090: 8e5c 113d 6d57 063d 2bb9 093b 2b32 253e
000000a0: 222e 473c 142b aebd cff9 ecbb 3bd6 83be
000000b0: ab13 a1bc fd96 bb3c d0bd c1bd 94a1 01be
000000c0: 73ce 1fbd b9ba 0e3d 3a39 403d d3b3 b43b
000000d0: c2f3 d4bc 0d0c 90bd 8b12 62bd 1e27 a7bd
000000e0: 64ce 67bd 0804 fdbd 3fe5 93bd 6503 e03d
000000f0: 2f90 073e 7ab5 f63d c27d e43b 7992 d33d
00000100: 0ad4 a3bd ccd2 b83d 0061 99bd b4b2 dabd
00000110: 6a03 f6bc d0f8 353e 6d7c a3bd e067 8f3c
00000120: d5e2 fcbc aade a4bd b9ad 153d 0804 44bd
00000130: b4ec ac3a b723 02be 5933 a3bd cd51 04be
00000140: 6afe babc 9fe1 82bd a8e8 6e3d 3795 7c3d
00000150: f65d 8b3d bf3f dbbd fd19 e83d 33de 733b
00000160: a005 f03d 4a67 0f3e 0ce0 d83d 2ee8 2f3d
00000170: 4404 923d c24b ddbd 5875 c53c d7ee 79bb
00000180: 622f 4e3e 9a43 ca3d 7636 253e 2053 89bd
00000190: 4607 d03d 3123 b83c 7e5c 4abd aef4 0dbe
000001a0: 01c3 1bbc ad06 e7bd 32a6 7e3c 84c0 393d
000001b0: 7b6a fa3d 1769 8c3c c68c 2b3d 5496 bdbc
000001c0: e673 f5bd bc75 88bd 091b 763d 95b1 863d
000001d0: bc0f 10be f3e5 653c b087 05be 9af0 b8bd
000001e0: cef4 43be ba03 c93d e10f 9ebd b02a 2ebd
000001f0: db3a 123d 75e5 bd3b 40bc aa3d 142c 2cbd
00000200: 4c2c ca3d 4711 9abd 6d53 683d 7e6e 77bd
00000210: 4103 2dbe e527 cabd 420f 8e3c 2abc c2bd
00000220: e27d 1f3d dd0b ce3d e81c 113c 5413 fabd
00000230: 5883 f23c 230c 9abd 97f5 c6bd 3924 7cbc
00000240: 3ffa 4f39 aee4 2ebd a80b b4bd 886d 923d
00000250: 9815 913c b91d 053e b6ab 37be a557 e73c
00000260: cc4f 453d 3615 a6be 5454 4c3c c9e2 b8bb
00000270: 5c61 b53c 8e6f 443d 1eaa 5b3d f109 4fbd
00000280: c246 cabd bd4b 07bd e6ea 543d f60f 52bc
00000290: 0e6c ccbd 7f2d 1cbd a85b a7bd 1c82 423d
000002a0: 5dd8 ff3d 3d0e fd3d 8f4a 1a3e d34e 2bbd
000002b0: 9caa 08bd 14d7 dcbd 9c7e 373d e193 303e
000002c0: a84b 3fbe e71c 843d 5e4b a63d b219 5abc
000002d0: eeae 48bd bbb7 c33d d042 84bd 892e 013e
000002e0: ed6a e63d 5606 16be 8a69 be3c 5c2a 26bb
000002f0: 67c2 90bd e8dd 39be bbe7 c43a 7510 443d
00000300: dfb4 6abd 7a45 67bd 1006 243d ff81 e13c
00000310: ff52 8f3d 2526 efbd 2c6b eabd ead5 9e39
00000320: e377 4f3d 828b 2fbd b4f0 043e b7cc dcbd
00000330: 79c4 34be 4292 4bbd ece9 843d 55a8 88bd
00000340: ce69 31be ce2e 24bb 2f78 05bd 2452 83bd
00000350: cd33 30bd 32aa 7fbd eb14 4b3e dcf8 05be
00000360: 6731 943d 1222 403d fa23 b9bd 5a77 a2bc
00000370: 0d2a a83b 8056 fb3c 2381 6d3d 465e 783d
00000380: b9ce b03d d328 6abb c7cd 933d 40c2 0dbe
00000390: 74e3 b7bd ccc8 cb3d da53 80be aa1c 0a3d
000003a0: 1a6f 7a3d 6c14 77bc b01f 0abe 7e1b b73d
000003b0: 2e9c dc3d 372f 98bc edef 38bd a056 543d
000003c0: 08ce 89bd d481 94bc e12f 3fbc 4fd7 64bb
000003d0: 4d23 fc3d 98c9 953c 5158 1cbe cc17 41bd
000003e0: 0be3 57bd 34d2 23bd 3134 23be 8fe8 45bd
000003f0: 6b2a 88be 4255 d53d 9838 a5bd 093a 82bc
0.0895137 0.01819721 -0.13470691 0.052919976 -0.06523358 0.090545006 0.079261996 -0.06022436
-0.07444065 -0.061009713 -0.20741008 -0.056641597 0.049309965 -0.009213008 0.05390955 -0.02723658
-0.015062238 0.040087923 -0.01181273 0.20223458 0.017449215 0.22753768 0.17749842 -0.023119919
-0.070750296 -0.08884806 0.102460906 0.034989826 0.008216209 0.11155023 0.014755513 0.032693688
-0.102889344 -0.021706965 -0.040802244 0.028914224 0.035488658 0.03279822 0.002101491 0.16132419
0.012156995 -0.0850431 -0.007231928 -0.25749382 -0.019662699 0.022899145 -0.09460032 -0.12659293
-0.039015245 0.03484604 0.046929576 0.005514601 -0.025995139 -0.070335485 -0.055193465 -0.08161758
-0.056593314 -0.123542845 -0.072214596 0.109381475 0.13238595 0.12046333 0.0069729993 0.10330672
-0.079994276 0.09024581 -0.074892044 -0.10678616 -0.030030925 0.17770696 -0.07982717 0.017505586
-0.03086988 -0.08050282 0.036542628 -0.047855407 0.0013193102 -0.12708937 -0.07968778 -0.1292183
-0.022826392 -0.0639069 0.058327347 0.06166574 0.06805031 -0.10705518 0.11333082 0.0037211298
0.11719823 0.14004245 0.105896086 0.042946033 0.0712972 -0.10805465 0.024103805 -0.0038136744
0.20135263 0.09876175 0.16134056 -0.06705308 0.10157637 0.022477718 -0.049404614 -0.13862869
-0.009506942 -0.1128057 0.015542554 0.045349613 0.12227341 0.017139954 0.0418823 -0.023142971
-0.119849965 -0.06663081 0.060084376 0.0657684 -0.14068502 0.014031875 -0.13040042 -0.09030266
-0.19136354 0.09815164 -0.077178724 -0.04252118 0.03570066 0.0057951757 0.08336687 -0.042034224
0.0987173 -0.07522827 0.056720186 -0.060408108 -0.16895773 -0.098708905 0.01734126 -0.09508546
0.03893841 0.100608565 0.008856989 -0.12210718 0.029603645 -0.07521846 -0.09714811 -0.0153894955
0.00019834282 -0.042698555 -0.08791286 0.07149798 0.017710492 0.1299962 -0.17936596 0.028240034
0.048171803 -0.32438058 0.012471277 -0.0056422693 0.022141151 0.04795795 0.053629033 -0.05054659
-0.09876777 -0.033031214 0.05198183 -0.012821188 -0.09981547 -0.038129326 -0.08171779 0.047487363
0.1249244 0.12356231 0.15067504 -0.04182322 -0.03336583 -0.107832104 0.04479848 0.17243911
-0.18681204 0.06450825 0.08119844 -0.01331179 -0.04899495 0.09556528 -0.06458056 0.12615408
0.11250863 -0.14650854 0.023243684 -0.0025354838 -0.07068329 -0.18151057 0.0015022674 0.047867257
-0.0573014 -0.056462742 0.040044844 0.027527807 0.06998252 -0.11677197 -0.11446223 0.00030295487
0.050651442 -0.042857654 0.12982446 -0.10781234 -0.17653073 -0.04970003 0.064899296 -0.06672732
-0.17325518 -0.0025052312 -0.03258532 -0.064121515 -0.04301815 -0.06241817 0.19832198 -0.13083214
0.07235985 0.046907492 -0.09040065 -0.019832302 0.005131966 0.030680895 0.057984482 0.06063678
0.08633179 -0.00357299 0.07216983 -0.13843632 -0.0897893 0.09950408 -0.25063974 0.033718742
0.06114111 -0.015080553 -0.1348865 0.089407906 0.107719764 -0.018577201 -0.045150686 0.051840425
-0.067287505 -0.018128313 -0.01166913 -0.0034918373 0.123114206 0.018284604 -0.15268065 -0.047141835
-0.05270676 -0.039995387 -0.15937878 -0.04831749 -0.26594862 0.10416652 -0.08067435 -0.015896814
