Assets/ML-Brains/Backups/ResultsScenario_09.onnx (onnx, 120062 bytes, 9 tensors)

action_model._discrete_distribution.branches.0.bias f4 [7]
000000 ca cf 12 3a 35 32 22 3c 4c 15 36 3c 2b 43 1a 3c
       0.0005600421 0.009899666 0.011113476 0.009415428
000010 c9 22 aa 3b 66 bb 41 bc 46 24 01 bd
       0.005192135 -0.011824464 -0.031528734

action_model._discrete_distribution.branches.0.weight f4 [7, 128]
000000 91 08 fa 3a a1 e8 14 3c c4 80 82 3d 4e de a9 bc
       0.0019076039 0.009088666 0.06372216 -0.020735886
000010 75 36 0c bd c2 07 88 bb bb 73 c0 bc 11 6f 02 bd
       -0.03423162 -0.0041513154 -0.023492685 -0.031844202
000020 59 1a 10 bd e1 65 5a 3c 1d 3e 49 bb 03 8c 13 bd
       -0.035181377 0.013329954 -0.0030707188 -0.036022197
000030 f7 58 a7 3d 28 f9 1c 3d f7 49 7a bc 62 28 26 3d
       0.081712656 0.03832355 -0.015276424 0.040565856
000040 9c 75 71 3b 23 6a 90 3c 7b 7f 29 bd 01 2d 0f 3c
       0.0036843782 0.017628735 -0.04138134 0.008738757
000050 09 ba b8 bc a5 8c 9b 3c ce f5 3e 3c 46 96 20 ba
       -0.022549646 0.018987963 0.011655284 -0.0006125908
000060 e4 1a 16 bc d2 57 f3 bc e1 95 41 3d 09 72 63 bc
       -0.009161685 -0.029704962 0.047262076 -0.013882169
000070 17 3b 90 3c 51 fe dd 3c 42 22 03 3d 75 c7 ac bc
       0.017606301 0.027098807 0.032015093 -0.021091202
000080 61 bf 69 bc 60 bf 27 3c 83 a9 1b bd b8 6f 90 3d
       -0.01426682 0.010238498 -0.038003456 0.07052559
000090 fc d4 1b 3d 8a bd 01 3d 3d 0c 74 3b 95 21 c8 3c
       0.038044915 0.0316749 0.003723874 0.024430076
0000a0 44 37 4d 3d d5 64 d4 bc ac 44 19 3d db 56 4d 3c
       0.050101534 -0.025926987 0.037419006 0.012532915
0000b0 4d 48 2c bd 8b 70 51 ba 26 37 fb bc 71 6d 15 3c
       -0.04206114 -0.00079894875 -0.030665945 0.009120331
0000c0 f8 e5 77 3c cb 04 c7 3b 4b 6a eb 3c ee 0a a5 bd
       0.015130512 0.0060735694 0.028737208 -0.08058725
0000d0 1f 96 d6 bc 3a 66 22 3d 40 10 f2 3c 66 d1 18 bd
       -0.02619463 0.039648272 0.029548764 -0.037309073
0000e0 a3 e9 bc 3a 2c e2 ca 3c dc f3 77 bc 50 68 6e 3c
       0.0014412891 0.02476605 -0.015133824 0.014551237
0000f0 6a 5f 3c bd 7e 13 65 3c 8f de d7 3a 26 eb 99 3b
       -0.04598943 0.013981698 0.0016469526 0.0046972213
000100 0e 0c 66 bc dd 42 86 bd 65 64 96 bc aa 83 b3 3c
       -0.01404096 -0.06555722 -0.018358419 0.021913368
000110 56 d6 a5 bc 63 92 fa bc 54 70 e2 bc 03 d0 07 3b
       -0.020243805 -0.03058738 -0.027641453 0.002072335
000120 63 05 22 3d f8 ae a2 3a 58 4e d8 bc e7 e0 ce 3c
       0.03955592 0.0012411764 -0.026404545 0.025253726
000130 d0 1f 91 3b cf d0 97 bc c9 d1 b0 3c 81 11 f7 bc
       0.004428841 -0.018532185 0.021584408 -0.030159714
000140 36 07 c2 3c c2 99 f3 3c 27 7f 02 3b 7e 3a 46 3d
       0.023685079 0.029736403 0.0019912214 0.048395626
000150 35 69 64 bc 08 c5 46 3d 79 c2 5d 3c e4 d2 87 3c
       -0.013941099 0.048527747 0.013535135 0.016580053
000160 0e e3 61 bc d2 c2 1f bd b3 e0 45 3d 6a d7 05 3d
       -0.013787044 -0.039004155 0.048309993 0.032676138
000170 a6 48 c9 3d 33 d5 30 bd 2c 60 72 bd 56 02 2b 3d
       0.0982831 -0.043172073 -0.059173748 0.041750275
000180 a5 a0 30 3c d3 0e 5a bb 92 74 c7 bc ee bd 11 bd
       0.010780488 -0.0033272996 -0.024347577 -0.03558152
000190 7a 6e 7a bd 6c 34 07 bd dd 67 7c bc 70 54 a4 bb
       -0.061140515 -0.033008978 -0.015405622 -0.0050149485
0001a0 c7 23 cd 3c e0 d1 5d 3c 0c 42 9c bc 7c 50 35 3d
       0.025041474 0.013538808 -0.019074462 0.04426621
0001b0 fd d5 11 3d a6 ab 7a 3b b3 f7 f9 bc 41 81 1f 3d
       0.035604466 0.0038249283 -0.03051362 0.038941626
0001c0 02 aa 4a 3b 54 21 9c ba 73 ed 3a bd ba f8 3c 3d
       0.0030924086 -0.0011911788 -0.045636605 0.04613564
0001d0 24 cb fc 39 61 88 7b 3a e2 2c 48 bb 32 87 41 bb
       0.00048216537 0.0009595212 -0.003054433 -0.0029530046
0001e0 5d 38 04 bd e6 da ba 3b 2d 8f 1c bd 1a 7b c2 bc
       -0.032280315 0.0057023643 -0.03822248 -0.02374034
0001f0 09 03 65 bc a2 33 df bc c4 98 8f bc 86 63 06 3c
       -0.013977774 -0.0272463 -0.017528899 0.008202439
000200 5a 1b 44 3c 82 a0 43 bc 6f 79 2a bd 34 d8 b4 3c
       0.011969412 -0.0119401235 -0.041619714 0.02207575
000210 c6 7b f2 bc 80 6a a7 3a 9e fe 99 3a 9b f1 1b bc
       -0.029600035 0.0012772828 0.0011748855 -0.009518052
000220 bd de 45 bc 79 4c 9d 3c a9 82 e5 bb 54 78 23 bd
       -0.012077031 0.019201504 -0.0070041013 -0.039909676
000230 f7 ec 65 bd 8a 56 a7 bc 78 23 63 3c 4c a6 ca 3c
       -0.05613419 -0.020427007 0.013863437 0.0247375
000240 ae c0 4e 3c 34 24 31 bd 93 25 05 3c d2 a1 8d bc
       0.012619181 -0.043247417 0.008126634 -0.017289076
000250 8c 4f e0 bc c8 95 b2 bc cd b8 df ba 96 5c e2 bc
       -0.02738168 -0.021799937 -0.0017068625 -0.027632039
000260 21 89 49 bd e6 e9 05 3d ce 08 92 bd ce ee 92 bb
       -0.049203042 0.032693766 -0.071305856 -0.004484034
000270 6a 47 98 3c aa 48 7c 3a c8 4e 7d 3d f7 63 b3 3c
       0.01858874 0.0009623865 0.06184271 0.021898253
000280 27 ca fc 3b 98 a3 16 3a 50 fa 9a 3c 69 35 1f bd
       0.007714528 0.0005746423 0.018918186 -0.038869295
000290 47 29 9e ba aa 67 85 ba cc 3b d9 3c ff 38 75 bc
       -0.0012066745 -0.0010177989 0.026517771 -0.014967202
0002a0 d4 f7 2d bd 4e df d6 bc 3a 5b 3b 3c b0 a8 1e 3d
       -0.042472675 -0.026229527 0.011435324 0.03873509
0002b0 f2 04 0b 3d 89 9e fd bc 14 56 b2 3c 88 65 45 bd
       0.033940263 -0.030959385 0.02176956 -0.04819253
0002c0 6c d5 af 3d cc de 95 bb 0a 32 19 bd 21 f6 65 3c
       0.08585629 -0.0045736786 -0.037401237 0.0140357325
0002d0 c7 82 a1 38 89 25 33 bd 14 fa a0 3b a2 5c bf bc
       7.7014374e-05 -0.04373697 0.004912624 -0.0233596
0002e0 20 20 76 3c 4b f4 c8 bc 7b 6d 1f 3d 29 fc 23 3c
       0.015022308 -0.02453055 0.038922768 0.01000885
0002f0 4d df 98 bc dd 49 c7 3c 62 d6 93 3b b4 ba 4b 3c
       -0.018661166 0.024327213 0.0045116404 0.01243465
000300 ad 8b 8b bb fd f5 a3 bc dc 20 40 bd 35 57 3f 3c
       -0.004258594 -0.020014757 -0.046906337 0.011678507
000310 0c 8d 23 3d 37 8c 26 bc cf 60 ac 3c 01 74 60 3c
       0.039929435 -0.010165266 0.021042256 0.0136995325
000320 a8 9a 5c bd f9 f9 61 bb df 61 c1 bc b5 35 86 3c
       -0.05385843 -0.003448127 -0.023606239 0.016383031
000330 2b 42 f4 3c f6 7f 73 3c b0 df 66 bd 67 99 8e bb
       0.029816708 0.014862051 -0.05636567 -0.004351783
000340 88 20 63 3c 2a 1c 39 bd 89 4b ac bc dd 73 f4 ba
       0.0138627365 -0.045192875 -0.021032112 -0.0018650253
000350 44 ca bb bc 80 3c 18 bd 17 ba 78 bc 68 91 54 3c
       -0.022923596 -0.037167072 -0.015181086 0.012974121
000360 7f 84 71 3c c1 99 dc 3c c4 95 00 3d 9e 2d 67 bb
       0.014741062 0.026928784 0.031392828 -0.0035274993
000370 e9 5d c8 bb b1 e1 21 bd 9b b8 b8 3c 80 61 de 3c
       -0.0061147106 -0.039521877 0.022548964 0.027146101
000380 1f 5d b7 bc b6 85 79 bc 8c d8 39 bd 35 99 d9 3b
       -0.02238327 -0.015229633 -0.04537253 0.006640578
000390 80 5a af 3c 23 56 e4 3c 9f bb 37 bd e9 2c 95 3b
       0.021405458 0.027873104 -0.044856664 0.004552473
0003a0 60 6f 0e 3b 30 4b 54 3c 40 8a 0f 3d 4f fc 7b 3c
       0.0021733865 0.012957379 0.035043955 0.015379979
0003b0 cc 5f 50 3d b7 94 a2 bc 0e 67 be 3c 14 c1 11 bd
       0.05087261 -0.019846303 0.0232425 -0.035584524
0003c0 4c 19 7c bb 78 a6 76 bc 02 5c a9 bb 7d 41 ac bb
       -0.0038467227 -0.015054338 -0.005168439 -0.0052568302
0003d0 1f 67 0b 3d da ca 85 bb 75 f1 35 bc ad 32 23 bd
       0.03403389 -0.0040830197 -0.011104931 -0.03984325
0003e0 05 80 75 3b 3f 45 00 3d 1b 6e 8a 3c 77 2b 3e bc
       0.0037460339 0.03131604 0.016898206 -0.0116070425
0003f0 0d 0a 3e 3c 1a 37 c4 3b 34 6c c4 3c d3 49 70 3c
       0.011599076 0.005988014 0.023977377 0.014666039

action_model._discrete_distribution.branches.1.bias f4 [2]
000000 cb 40 9f 3c c3 40 9f bc
       0.019440075 -0.01944006

action_model._discrete_distribution.branches.1.weight f4 [2, 128]
000000 a6 84 17 bc 79 0d 73 bd ca 09 e1 bc 35 a5 48 bd
       -0.009247934 -0.05933902 -0.027470488 -0.04898568
000010 51 12 f6 3c 6d d6 e7 3a 1e 5d b1 bc d6 66 73 3c
       0.03003803 0.0017687805 -0.021650847 0.014856061
000020 ce 81 d4 3c d4 16 15 3d 7d bb 2f 3c 51 a5 2b bd
       0.025940802 0.036398724 0.010725853 -0.041905705
000030 20 bc 20 bc 6d ac b0 3b 11 7e 31 bc 2c f2 84 3c
       -0.0098104775 0.0053916485 -0.010833279 0.016228758
000040 3f 6c 74 bc 55 88 ba 3c 62 f2 f6 bc 9a e4 44 3c
       -0.014918386 0.022770086 -0.030144874 0.0120173935
000050 f3 42 ec 3b 8e 96 7a 3b 35 f3 6a bd 9f 71 36 3c
       0.0072101294 0.003823671 -0.057360847 0.011135488
000060 2a 07 dd b9 41 14 89 bc 52 87 a1 ba 81 a4 14 bb
       -0.00042157742 -0.01673329 -0.0012323654 -0.002268106
000070 0c a4 1a ba b5 56 a4 3c 7b bb 74 3c 40 b1 d1 bc
       -0.00058990787 0.020060876 0.014937277 -0.025597215
000080 ad 5d 9c 3b 63 ab 94 3c 34 7a 60 bd 1f c9 02 bd
       0.004771909 0.01814813 -0.054804042 -0.031930085
000090 8c 42 f4 bb 21 20 ae bc 1f 59 c4 3c 04 85 24 3c
       -0.007454222 -0.021255555 0.023968277 0.010041479
0000a0 3b 75 2d bd 0a fe 25 3c db 5a e2 bc a2 5b 4c 3c
       -0.042348128 0.010131368 -0.027631214 0.012473019
0000b0 df 77 90 3c 1f 41 96 3b d8 10 97 3c 47 a9 c5 bc
       0.017635284 0.0045853998 0.018440649 -0.02412857
0000c0 d2 b5 c8 bc cc fb f1 3c 6d 58 0a 3d 35 9d 91 bd
       -0.024500761 0.029539011 0.033775736 -0.07110063
0000d0 58 f3 c8 3c fc d2 0e 3d 01 0d a4 3b 5a 1a 70 b9
       0.024530098 0.03486918 0.005006433 -0.00022898
0000e0 ca 88 5b bc e9 b5 0d bc f1 a3 65 bc ac 51 50 bc
       -0.013399312 -0.008649328 -0.014016137 -0.012714785
0000f0 a8 10 85 bc 62 26 64 bc 1d 70 d4 bc fe 13 e3 bc
       -0.016243294 -0.013925167 -0.025932366 -0.027719494
000100 a2 36 40 bd 89 01 0c 3d b4 3b bf 3c 08 fd 5c bc
       -0.046927102 0.03418115 0.023343898 -0.013488062
000110 44 02 61 3a ca 8c 50 3d 6e 7c e0 3c 06 eb 6b bc
       0.00085834065 0.050915517 0.027403083 -0.014399296
000120 39 68 cc ba 25 a1 0d 3d ed a6 d2 bc 4d cd c3 bc
       -0.0015595026 0.034577508 -0.025714362 -0.023901606
000130 75 97 94 bc e5 74 4b bb ad 81 1d bd af b6 84 bc
       -0.018138627 -0.0031045016 -0.038453747 -0.016200392
000140 7a f5 6a 3b 6b 18 5c bd ee da cf bb be ed 71 bd
       0.0035851882 -0.053734224 -0.006343237 -0.05906462
000150 de d7 31 bd b7 3f b3 bb ed 82 cf 3b 37 79 8d ba
       -0.043418758 -0.005470242 0.0063327462 -0.0010793571
000160 bf 72 20 3c 48 19 d8 bc d8 0c ed bc 73 b3 63 bd
       0.009792983 -0.026379243 -0.028936788 -0.055591058
000170 53 bd 49 3c 05 25 46 bb 01 cb 64 bb 63 03 06 3d
       0.012313205 -0.0030234468 -0.0034911039 0.032718074
000180 9c bf a4 39 75 e7 d7 3c ca 0a 30 3d 7e da 19 3c
       0.00031423278 0.026355485 0.04297904 0.0093904715
000190 c1 a7 5e bc 79 25 d5 bd a1 4f 08 bd 2b 64 68 bc
       -0.0135898 -0.10407538 -0.033279065 -0.014184038
0001a0 3d dd db ba 34 3d 6f bc 59 25 6d 3c 2e 2a 84 3c
       -0.0016774308 -0.014601994 0.014474236 0.016133394
0001b0 e6 66 46 bc 1d ff 24 bc 6b 8e 8a 3c 91 c6 d7 bb
       -0.012109494 -0.010070589 0.016913613 -0.0065849503
0001c0 3a 6f f0 bc 8a e1 fe 3c f3 31 09 3c d3 c4 b7 bb
       -0.029349912 0.031113405 0.008373725 -0.00560818
0001d0 60 f7 bc 3c 08 8c 4f bc d2 85 42 3b 53 fc 40 3a
       0.023067176 -0.012667663 0.0029681814 0.0007361818
0001e0 a5 c1 f4 3b 1b 2e e4 3c 46 84 7a 3c 6d 92 4e 3d
       0.0074693733 0.027854016 0.0152903255 0.05043261
0001f0 a9 41 02 bc 08 61 cd 3c a0 26 97 bc 0c bf ca 3a
       -0.007950225 0.025070682 -0.018451035 0.0015468313
000200 5b ec 10 3c 89 67 88 3d 4a 16 48 3c ee be 0c 3d
       0.008845414 0.06660373 0.012212345 0.034361772
000210 00 53 3f bc ce 2f 1c 3c c5 68 b6 3c 61 27 c8 bc
       -0.011677504 0.009532882 0.022266755 -0.02443284
000220 a2 9c 3e bc 03 c5 14 bd 95 a0 cb 3b 6f 56 f8 3c
       -0.011634024 -0.036320698 0.006214211 0.030314652
000230 a8 ab 2a bc 82 45 02 bc 3f b2 3a bc 02 54 7c bc
       -0.010416903 -0.007951142 -0.011395036 -0.015400888
000240 8c 0b 80 3c 82 2e 06 bc 59 16 39 3d e3 98 22 bd
       0.015630506 -0.008189799 0.045187328 -0.039696585
000250 97 6d b6 3a d1 7c 10 bc d8 37 a4 3d 85 91 fd 3a
       0.0013918158 -0.008818821 0.08018464 0.0019345736
000260 ea d6 07 b9 42 b1 d3 3c 99 6e f5 b9 87 3f 7e 3b
       -0.00012954665 0.025841359 -0.00046812443 0.003879519
000270 03 b4 01 3c 5f da a8 bc 6b 27 1e bd c5 78 23 3c
       0.007916453 -0.02061194 -0.03861181 0.009977524
000280 08 22 cf bc ce 05 a6 bc 7b 9c 27 3d f0 67 27 3d
       -0.025284782 -0.02026644 0.040920716 0.040870607
000290 56 b0 da bb 9d 48 f2 3c ca e3 42 3c 80 d2 28 3c
       -0.006673853 0.02957564 0.011895129 0.010304093
0002a0 66 e4 c7 3c b6 b0 1d bc 62 31 5c 3c cb f9 19 bc
       0.024400901 -0.009624651 0.013439508 -0.009397934
0002b0 df 6e 6a bc 69 33 45 bb 3a b2 8c bc 42 d0 34 3c
       -0.01430866 -0.0030090457 -0.017174829 0.011035981
0002c0 72 19 d6 3c d0 6d 40 bc 35 72 ca bc 5b ef a2 3d
       0.02613518 -0.011744931 -0.024712661 0.0795581
0002d0 69 11 8e bb 5d 39 07 bd c4 49 aa bb 9e 95 bc bb
       -0.0043355715 -0.03301369 -0.005196782 -0.0057551404
0002e0 14 96 fc 3c f9 63 6c bb ab fa 6e 3c c8 ff 11 3c
       0.030833282 -0.003607033 0.014586131 0.008911081
0002f0 0a e1 77 39 48 01 ac 3b 33 3e 7c 3a 95 99 ca 3c
       0.00023639589 0.005249176 0.00096223055 0.024731437
000300 94 f9 3c 3d 1a 34 00 bd b5 db a5 bb 1a a3 7e 3b
       0.046136454 -0.031299688 -0.0050615915 0.003885454
000310 7f 6a f9 bb 78 91 1a bd f8 b1 8a bc 90 6a 16 3c
       -0.0076115723 -0.037736386 -0.016930565 0.00918068
000320 6e 1a 16 3c fe 62 01 bd a9 30 9e 3c 66 04 db 3c
       0.009161575 -0.031588547 0.019310312 0.026735496
000330 14 b6 fe 3c 65 1b c6 bc 98 91 ca 3c f5 cb 84 3c
       0.031092681 -0.024182985 0.024727628 0.016210536
000340 9b b8 f8 3a 7a ce 5e 3d e6 8b cf bb 10 f9 66 3d
       0.0018975915 0.05439613 -0.006333816 0.05638987
000350 7a 14 29 3d 64 a7 78 3c 8d e6 86 3b e6 b6 ae 3b
       0.041279294 0.015176628 0.0041168393 0.005331862
000360 b6 5f 93 bc 94 53 da 3c 87 2a 02 3d 99 b6 78 3d
       -0.017989974 0.026651181 0.03177884 0.060721014
000370 e1 d5 2a bc 8c 5c 92 bc b9 96 f9 3b d4 c6 07 bd
       -0.010426969 -0.017866395 0.0076168445 -0.0331486
000380 18 ea f1 bb 7a 7a 2b bc fb 3d 34 bd c7 8b 35 bc
       -0.0073826425 -0.010466212 -0.04400442 -0.011080689
000390 34 32 09 3c 01 e9 eb 3d 1f 46 a0 3c 4d 76 51 bc
       0.008373786 0.11519051 0.019564686 -0.012784553
0003a0 dd e7 77 bc 62 e2 0d 3d be 22 bc bc dc 7b a5 bc
       -0.015130964 0.034639724 -0.022965785 -0.020200662
0003b0 1d 40 84 3a 53 35 5d 3c a1 6a 8d bc ec ac c8 3b
       0.0010089908 0.013501483 -0.017262759 0.0061241295
0003c0 57 f5 13 3d ee ac 98 bc 63 fa 68 bc 0c 6e 9c bb
       0.036122646 -0.018637147 -0.014219853 -0.004773861
0003d0 d9 9c f2 bc d6 ee a7 3c 6b 2c 92 3b 77 b1 f3 bb
       -0.029615806 0.020499628 0.0044608614 -0.007436927
0003e0 c2 c1 00 bc d6 de 40 bd df 2b 19 bc a3 13 09 bd
       -0.007858695 -0.047087513 -0.009348839 -0.033465993
0003f0 38 fb cc 3c 8d 79 80 bc 80 4e 7c bb 58 23 97 b6
       0.025022134 -0.01568296 -0.0038498938 -4.5042652e-06

discrete_action_output_shape f4 [1, 2]
000000 00 00 e0 40 00 00 00 40
       7.0 2.0

network_body._body_endoder.seq_layers.0.bias f4 [128]
000000 06 08 00 3d f4 d1 c0 bc 3c 28 85 bc 59 36 5d 3b
       0.03125765 -0.023537613 -0.016254537 0.0033754318
000010 79 4c ce bc 0e 77 86 bc a5 87 d7 bb 4f ce b5 bc
       -0.02518295 -0.016414192 -0.0065774494 -0.022193102
000020 87 70 9c bc 1d 4a af bc 2e c0 0e 3d 9c 7c eb 3c
       -0.019096626 -0.021397645 0.034851246 0.028745942
000030 32 08 13 3c 3d bb ea ba 39 04 69 3d da a0 b7 3c
       0.008974122 -0.0017908585 0.056888793 0.022415567
000040 6f c8 9e 3c a7 db 80 bc 4e 5b f6 bc c3 8c d7 bc
       0.019382684 -0.015729738 -0.030072834 -0.026312238
000050 dd f7 04 bd 73 a6 d0 bc 47 93 e3 bb 62 67 80 bc
       -0.032462943 -0.025469994 -0.006945047 -0.015674297
000060 54 f7 bf b9 b1 b7 0a bd 15 f2 28 bd 95 65 97 3c
       -0.00036614633 -0.033866588 -0.041246492 0.018481055
000070 d9 89 7b bd 27 49 69 3c 08 84 86 bc d4 c9 c5 bc
       -0.06141076 0.014238632 -0.01642038 -0.02414409
000080 ee 83 c7 bb 56 5b 53 3c e8 c0 99 bc 5d 41 46 bd
       -0.0060887253 0.012900194 -0.018768743 -0.04840218
000090 1b af 5c bc 21 58 5b 3b 3f ed 6a bb fd 21 88 bc
       -0.013469483 0.0033469277 -0.0035846976 -0.01661777
0000a0 0e 4a 07 bd cc 9a c0 bc bd 52 11 bb 2a 70 99 bc
       -0.03302961 -0.023511313 -0.002217456 -0.018730242
0000b0 da 7b 98 bc ac da f4 bb c2 41 d2 3b 94 5a fa bc
       -0.018613745 -0.007472357 0.0064165303 -0.03056077
0000c0 bc eb 67 bc ce a0 61 bc 9b 37 6c bc 2e ef fd bb
       -0.014155325 -0.013771249 -0.014417554 -0.0077494597
0000d0 42 4c ec bc d3 1f b9 3c 8c a4 2a bd ec 13 94 bb
       -0.028844956 0.022598183 -0.04166083 -0.0045189764
0000e0 a2 d1 4c 3d 43 c3 7b 3a b3 81 01 3c 1a 7c 9b 3c
       0.05000461 0.00096039864 0.007904458 0.018980075
0000f0 ca 31 19 3c 77 5f 68 3c dd b7 b1 ba fd 23 ec 3c
       0.00935025 0.014182917 -0.0013558824 0.028825754
000100 c0 f8 07 3b 5f 85 b1 bc 7e 3e 93 bc e7 ed 22 bd
       0.0020747632 -0.021670042 -0.017974135 -0.039777663
000110 1f e4 09 bc 0b dd a4 bc 87 14 b4 3c 20 a2 07 bd
       -0.008416205 -0.020124933 0.021982444 -0.0331136
000120 23 60 8a ba 63 c2 62 3d ed 2f 0c 3c 1d cc f8 39
       -0.0010557215 0.055361163 0.008556348 0.00047454322
000130 76 72 47 bd 9e 03 c6 3c 1d d5 47 3d 20 fc a4 bc
       -0.048693143 0.024171647 0.048787225 -0.020139754
000140 6b 6b b8 bc ba 8f de bc 73 38 85 bb be 0e 2c bc
       -0.022512158 -0.027168144 -0.004065567 -0.010501562
000150 0a 39 34 bd 63 b2 08 bc 33 27 9f bc a3 44 d3 3c
       -0.04399971 -0.008343312 -0.019427871 0.025789564
000160 1f 3b 2e bd 66 4b 0b bc b8 ff 6d 37 96 93 98 3c
       -0.04253685 -0.008501863 1.418584e-05 0.018625062
000170 93 ce a7 bc 80 02 11 bd 1a 8d 40 bc 5f f3 30 bc
       -0.020484244 -0.035402775 -0.011752391 -0.010800212
000180 86 a9 38 3d ef 15 50 bd 8d 5a e0 bc 6a 50 2e bd
       0.045083545 -0.050802168 -0.027386928 -0.042557158
000190 57 e2 77 3c 35 a5 a1 bc 7f 52 17 3c 25 f2 d1 3c
       0.015129647 -0.019732097 0.009235977 0.025628159
0001a0 b0 0d 17 bd b3 96 0c bc 80 b8 83 3c 69 2b 6a bc
       -0.036878288 -0.008580851 0.016079187 -0.014292576
0001b0 5b ef f0 bc ed 19 8f bc 6a 61 c1 3b 55 41 16 bd
       -0.029411009 -0.017468417 0.0059015052 -0.0366834
0001c0 1b e0 f4 bc d3 65 c3 bc 6c 41 c0 39 f8 de 7d bb
       -0.029892018 -0.023852265 0.00036669837 -0.0038737636
0001d0 e2 5b 34 bd 3e dd 85 bc 1a 36 29 bc 47 fd 85 bc
       -0.04403294 -0.016340848 -0.01032784 -0.016356124
0001e0 00 4a 5d bc d9 86 28 ba ed 8c 39 bc 8b ce fd 3c
       -0.0135064125 -0.0006428785 -0.011325103 0.030982276
0001f0 8a b3 03 3d 2d 57 44 3d 00 e0 fc 3b 41 3c 96 bb
       0.032153644 0.0479347 0.0077171326 -0.0045848195

network_body._body_endoder.seq_layers.0.weight f4 [128, 90]
000000 d3 38 3c be 94 8d 57 3d 87 71 8f bd 8d 03 1b 3d
       -0.18381052 0.052625254 -0.070040755 0.037845183
000010 17 2b 16 be 1b db 27 3e 0e ef be bd b3 71 e8 3d
       -0.14664875 0.16392176 -0.0932294 0.113498114
000020 7f 85 d3 3d 31 0a 13 3e 05 37 4e bc 47 6f a0 3d
       0.10328197 0.14359356 -0.01258636 0.078337245
000030 2c 11 10 3e 5f eb ca bd 3e 35 93 bd 3b 52 5a 3c
       0.1406905 -0.09908175 -0.071878895 0.013325269
000040 a3 84 d9 bd a1 5f 67 be 0a 47 af 3d e4 f3 7a 3c
       -0.106210016 -0.22595073 0.085584715 0.015316937
000050 ae 71 4c bd 9e 8d 35 3e 1b 88 ab bd 33 e5 23 3e
       -0.0499131 0.17729804 -0.083755694 0.16005401
000060 ea 55 4d be 33 25 0a be e4 b5 fa 3c 46 e8 a6 be
       -0.20052305 -0.13490753 0.03060431 -0.32599086
000070 b2 f1 8c 3e 2c d4 8f bd 16 ac ab bd 35 2b 59 3d
       0.2752815 -0.070228904 -0.08382432 0.05301972
000080 67 81 87 3b 0c c9 84 bd f7 48 e3 3d da 99 47 be
       0.004135299 -0.06483659 0.11097901 -0.19492283
000090 e9 49 18 3e 50 d0 05 3e 88 b5 5f bd 46 c7 c4 bd
       0.14871944 0.13067746 -0.05461648 -0.09608321
0000a0 74 99 08 3d 01 56 1b be 23 d9 15 bb 78 9b 5d 3d
       0.03334947 -0.15169527 -0.002286502 0.054103345
0000b0 cd ac fd bd d3 3f b8 3d 3d 4c 17 3d ff d1 df 3d
       -0.12386475 0.089965485 0.03693794 0.109287255
0000c0 c4 17 02 3c 1d f4 8f 3d 7b 5e 2b 3e 99 1e a3 be
       0.0079402365 0.07028983 0.1673526 -0.31859282
0000d0 43 a6 00 3d f4 20 ad bd 77 c9 f7 bd 65 cd ef 3d
       0.03140856 -0.08453551 -0.12098973 0.11709098
0000e0 f2 54 75 3e 39 6e bd bd 0d f4 18 3d c1 ff 9d 3d
       0.23958185 -0.09249539 0.03734212 0.07714797
0000f0 0e bd df 3d d8 d8 5d be 91 4e d2 3c 16 33 8e bd
       0.10924731 -0.2166475 0.025672229 -0.069433376
000100 1d 9f ae bc a7 89 91 3c 54 8c f2 3c 4b d2 82 3d
       -0.021316105 0.017765833 0.02960793 0.063877665
000110 1f db 85 bd 71 23 69 bd 0c 62 e0 3c b8 49 7c bb
       -0.06535935 -0.056918565 0.027390502 -0.0038496088
000120 c5 7a 3b 3d 1f a0 ac 3d f4 d8 62 3d 8b 74 35 3e
       0.04577138 0.08428978 0.055382684 0.17720239
000130 4a 3b 11 be 46 1a b8 3d d4 a5 52 be 55 04 c2 3d
       -0.14182773 0.08989386 -0.20571071 0.094734825
000140 02 70 74 be 1c 51 46 bd e5 06 04 3e 7e 60 01 3e
       -0.23870853 -0.048417196 0.12893255 0.12634465
000150 c5 e2 39 3e 83 f2 b3 be ee ae 23 3e a6 3d dc 3c
       0.18152912 -0.3514596 0.15984699 0.026884865
000160 b6 52 cf 3c 50 9b 98 bd 37 9e 0e 3c 75 a0 c5 3c
       0.025307994 -0.074514985 0.008704714 0.024124363
000170 50 23 17 3e 05 17 66 bd 88 21 7b 3d 82 b2 99 bd
       0.14759564 -0.056174297 0.061311275 -0.07504751
000180 5c f5 1d 3c 63 80 d8 bd 58 c1 5c bc 83 58 33 be
       0.009641018 -0.10571363 -0.013473831 -0.17514233
000190 6c a2 dd 3d e5 ba bf bd d7 98 5c 3d 09 40 2e be
       0.10821995 -0.09361819 0.053856697 -0.17016615
0001a0 a5 78 e0 bd ce 7a 01 be 49 7b 61 be 1f 0b 82 bd
       -0.10960511 -0.12644503 -0.22019686 -0.063497774
0001b0 5f f2 d7 bc b3 1d a8 bd 3f bb 97 3d 9d 01 14 3d
       -0.026360689 -0.0820879 0.07408761 0.03613435
0001c0 70 ab 5c bc a2 8f bd 3b ea 77 d5 3d 84 d1 a8 bc
       -0.013468608 0.0057849446 0.104232624 -0.020607717
0001d0 44 5f 52 be ba c0 07 3e ba 77 14 be 8e 4a 11 be
       -0.20544153 0.13257113 -0.14498797 -0.14188597
0001e0 05 d6 40 3e f9 da e6 3d e3 32 41 bd 73 2a 9e bc
       0.18831642 0.112722345 -0.04716767 -0.01930735
0001f0 ef 9a 39 bd 7c cc 0c 3d 4f f7 8a bd 50 fc 02 be
       -0.04531377 0.0343747 -0.067854516 -0.12791562
000200 e3 b1 76 3e b7 b5 41 be fe e2 13 bd 3e b0 b6 bb
       0.24091296 -0.18916975 -0.03610515 -0.005575209
000210 3e 15 0b 3e 04 41 cd bd cd b2 90 3d ea 13 2a 3c
       0.13582322 -0.10022166 0.070653535 0.010380724
000220 e4 85 33 be 67 eb 13 be a9 d2 e7 3c 55 05 f6 bc
       -0.17531544 -0.14445268 0.028298693 -0.03003184
000230 86 c6 53 3d b4 bf de bd 6a 78 aa 3d e2 e5 96 be
       0.051703 -0.10876408 0.083237484 -0.29472262
000240 4f c5 db bd 2f 7f 71 3d 45 e9 ba 3c 02 28 7d bd
       -0.10730993 0.058959182 0.02281631 -0.061805733
000250 7b 96 78 3e 27 2e 0e be d3 89 0d 3e 42 20 10 bd
       0.24276154 -0.13884793 0.13822107 -0.035187013
000260 b2 6d f9 bd 18 5c b1 3d f5 3d 05 bd 5f c1 80 be
       -0.12179126 0.086601436 -0.03252979 -0.2514753
000270 a4 d4 de bc 3a 99 58 3d d8 61 3e 3d 6d 86 a8 bd
       -0.027201004 0.052880503 0.04648003 -0.08228765
000280 e7 54 4f 3e 4e eb 09 3c f4 17 81 bd ac b2 4e 3d
       0.20247231 0.008417917 -0.06303397 0.050463364
000290 4b 5b 23 3e a0 3f e2 bd 7b b4 26 be a2 0f 95 3d
       0.15952794 -0.11047292 -0.16279785 0.07278372
0002a0 f9 da eb bd 81 58 04 3e aa ce 15 be 20 b4 c2 3e
       -0.11516375 0.12924387 -0.14629617 0.3802805
0002b0 90 71 4b bd 3f 44 06 3c 61 2d 1e be d0 3a 93 bc
       -0.04966885 0.008194982 -0.15446998 -0.01797238
0002c0 a8 f9 31 bd 91 02 92 3d 07 30 75 3d 8c e2 96 be
       -0.04345098 0.07129396 0.059860256 -0.29469717
0002d0 7f eb 37 be 17 17 8b 3d 74 1e 3b 3e 4f c1 7b 3d
       -0.17960928 0.067915134 0.18273336 0.06146365
0002e0 14 95 c6 3d 28 bb a2 3b aa 04 a6 3d 59 e6 b1 bd
       0.09696403 0.0049661584 0.08106358 -0.086865135
0002f0 36 28 69 bd 34 1c f2 3c 8d 31 58 be 86 4d 22 3e
       -0.056923114 0.029554464 -0.21112652 0.15849885
000300 66 fa 87 3d 62 c8 32 bd fa cc 94 3b d1 f7 f2 3c
       0.066395566 -0.04364813 0.0045410367 0.029659184
000310 54 14 97 bd 08 4f 52 be bd 83 1c 3e 9c 97 9e be
       -0.07376924 -0.2053796 0.15284629 -0.30975044
000320 11 5a 92 bc dc 68 e2 bd 1d b8 2b be ad ca 2a be
       -0.017865213 -0.110551566 -0.16769452 -0.16678877
000330 2f 29 09 3d 90 0e 52 3e f9 c4 9f be d6 6b cf bc
       0.03348654 0.20513368 -0.31204966 -0.025319975
000340 1e cf 62 3e 01 60 2d be 88 2d 04 bc 72 6e 22 bd
       0.22149321 -0.16931154 -0.008067496 -0.03965611
000350 4c f1 0a 3b 7b 35 06 bd a7 03 90 3c e8 e4 99 be
       0.0021200953 -0.032765847 0.017579867 -0.30057454
000360 37 dd a1 bd 43 61 59 3d 19 0e b7 3d 31 c4 62 bc
       -0.079035215 0.05307127 0.08938236 -0.013840721
000370 73 c5 ae 3d 1a 3b 8b bd 68 56 9f bc 43 50 8a 3d
       0.08533754 -0.06798382 -0.019450381 0.0675359
000380 d3 09 ec 3c 30 c7 20 3e 73 b9 b1 bc 20 6e 01 bd
       0.028813278 0.15700984 -0.021694874 -0.031599164
000390 e2 1e 99 bc 2a 7d 78 bd 1e c8 94 bc e6 49 50 3c
       -0.018691484 -0.06066624 -0.01816183 0.012712931
0003a0 5e a7 02 3e a3 b5 52 be fa 7c e5 bb a5 94 00 be
       0.12759158 -0.20577101 -0.0070034238 -0.12556703
0003b0 58 0d 48 bd e7 af d5 bd 41 a1 d4 bd 65 b6 b8 3d
       -0.04884085 -0.10433941 -0.10382319 0.09019164
0003c0 5f 79 dd 3d fd ef b6 3c 5e 93 11 be ca 19 21 3e
       0.10814165 0.022331232 -0.14216372 0.15732494
0003d0 79 d8 fa bd d3 9c 46 be 87 a8 3f 3e a9 8b 9f bd
       -0.1224832 -0.19395761 0.18716632 -0.0779031
0003e0 63 37 0a bd aa 21 64 bd cb 7a 06 be ef b4 b2 3d
       -0.033744227 -0.055696167 -0.1313278 0.087259166
0003f0 be d8 25 be 36 49 23 be b2 4f 82 3c 5e 00 40 be
       -0.16195962 -0.15945897 0.015907142 -0.1875014

network_body._body_endoder.seq_layers.2.bias f4 [128]
000000 37 b5 13 3b 8a 1e 4c 3c 2b c9 72 bc 98 f5 6e bc
       0.0022538432 0.012458453 -0.01481847 -0.014584921
000010 e9 58 3f 3d ac 28 47 3b 19 60 a0 bc 3e e2 3f bc
       0.04671565 0.0030389233 -0.019577073 -0.011711655
000020 af 89 91 bb 47 93 a0 3c ff 66 7a bc c9 26 2e 3c
       -0.004441462 0.019601477 -0.015283345 0.010629364
000030 84 1a 84 bc 46 50 81 bc a5 c4 10 bd ac 43 8f 3c
       -0.016125925 -0.015785348 -0.035343785 0.017488323
000040 9e 62 fd bc 71 99 c3 bc 3e d5 9e 3a fd 44 86 3a
       -0.030930813 -0.023876878 0.0012117994 0.0010243949
000050 3c ad 46 3c f4 48 c7 bc 92 c9 d2 bb 06 f0 ac bc
       0.012126263 -0.024326779 -0.0064327205 -0.021110546
000060 bf 79 75 bc cc a1 4f 3b e3 2a 64 bc 72 39 49 bd
       -0.01498264 0.0031682132 -0.013926241 -0.04912705
000070 27 b4 e5 bc 14 4a 8b 3b 08 4f f1 ba 2c b4 07 3c
       -0.028040005 0.004250774 -0.0018410394 0.008282702
000080 15 27 8d bd 51 b2 87 bc ad 30 9e 3c c5 23 1a 3c
       -0.0689222 -0.01656452 0.01931032 0.009407942
000090 e1 0d 9f bb 9e 8a 45 bc 33 f9 a2 3c 07 78 12 bd
       -0.0048539494 -0.012056975 0.019894218 -0.035759
0000a0 c6 5a aa 3c 39 97 e4 bc c3 d5 ca bc 8d 99 32 3c
       0.020795237 -0.02790414 -0.024760133 0.010900867
0000b0 95 b6 04 bd c1 06 cd bc bf fe aa 3b 6b 46 1d bc
       -0.032400686 -0.025027635 0.0052183564 -0.0095993085
0000c0 f8 76 e2 bb 44 d0 54 bd d5 f1 83 bc 0e 59 dd 3c
       -0.006911155 -0.05195643 -0.016106525 0.027020004
0000d0 d9 97 49 bd bd 61 4b 3c 34 c4 d0 ba b0 6b 9a bc
       -0.04921708 0.012413439 -0.0015927614 -0.018850178
0000e0 9c 20 b8 bc c1 ba 9b bc d1 9b 96 3a 7c 7a 6e bd
       -0.022476487 -0.01900995 0.0011490529 -0.05822228
0000f0 29 77 9a 3c 6c 1f cd bc c9 db aa bc 02 1d 1c bd
       0.018855648 -0.025039397 -0.020856755 -0.0381136
000100 f5 27 97 bc 91 4d fb bc f3 f1 4c bd da ca b6 bc
       -0.01845167 -0.030676635 -0.05003543 -0.022313524
000110 e2 e6 cb 3b d6 c5 b6 bc ed 2c e2 bc 9f 0a b9 3b
       0.0062225917 -0.022311132 -0.027609313 0.005647018
000120 9c fa 4c 3b 6e 6b 15 bd 67 07 0b bd a3 f6 24 3b
       0.0031277305 -0.036479406 -0.033942606 0.002517142
000130 0a 5e f6 bc dc 84 25 bd fe 6a d1 3b 3f b3 76 bc
       -0.030074138 -0.040409908 0.0063909283 -0.015057384
000140 2f 6e c9 bc 79 e4 83 bb b5 d8 b2 3a 8f 16 1e bc
       -0.024588672 -0.004025039 0.0013644906 -0.009648933
000150 55 1f 83 3c 01 b1 0a 3c 40 10 df bc 39 90 dd bc
       0.016006151 0.008465053 -0.027229428 -0.02704631
000160 71 1a af bc 2a 5d cb bb 33 75 68 bc 6a 2d 99 3c
       -0.021374913 -0.0062061744 -0.014188099 0.018698413
000170 fd 9d eb bc ac 34 fc bc a7 be 71 bc 8a f1 ff ba
       -0.028761858 -0.030786835 -0.014754928 -0.001952694
000180 54 c2 96 3c 49 6a 97 bc ec 31 41 3c b6 7d 72 bd
       0.01840321 -0.018483298 0.011791687 -0.05920192
000190 7e f8 0f 3c ad 5b ef 3c 26 2d 26 3a 2c f7 52 bd
       0.0087872725 0.02921852 0.0006339125 -0.051505253
0001a0 71 ba 43 bd e3 a0 97 3a c7 56 22 bd b3 ab 17 bd
       -0.047785226 0.0011568334 -0.03963354 -0.03702898
0001b0 2c 68 32 bd eb eb 3a 3c e6 89 07 bd ad 69 39 bc
       -0.043556377 0.011408786 -0.033090495 -0.011316699
0001c0 f6 b6 38 bd cb 77 ec bc 5e 70 41 ba 36 07 7b bb
       -0.04509636 -0.028865715 -0.000737911 -0.0038303859
0001d0 34 93 0e 3c e4 3f 1d bd c4 93 ab bc 3e 24 02 bd
       0.008702088 -0.03839101 -0.020944484 -0.031772844
0001e0 db 50 49 3c 2e 66 73 bc 3c f0 94 bc a0 a0 14 bc
       0.012287344 -0.0148559045 -0.018180959 -0.009071499
0001f0 e3 f7 ac bc 3f 5e 5b 3c 63 19 a3 bb e2 01 f4 bc
       -0.021114295 0.013389169 -0.0049773916 -0.029786054

network_body._body_endoder.seq_layers.2.weight f4 [128, 128]
000000 20 5d 05 bd b2 a6 00 3e 16 51 db bd 07 8b fe bd
       -0.032559514 0.12563589 -0.10708825 -0.12428861
000010 a8 6e 08 be 41 ce 6e bd 0a ac 36 3d 44 03 cb 3d
       -0.13323462 -0.058302168 0.044597663 0.09912732
000020 54 03 29 bd 42 2b 09 3d 68 00 8f 3d 4b 7e d9 bd
       -0.04126294 0.03348852 0.06982499 -0.106197916
000030 73 3e 94 3c c8 db bc bd 5a 6d 86 bd ae dc 46 bd
       0.018096184 -0.092216074 -0.06563826 -0.0485503
000040 3e 88 31 bd 8c 26 c5 bc f7 47 5e bc 7b 3a 61 bc
       -0.04334282 -0.024066232 -0.013566962 -0.013746853
000050 fe 56 fc bd 7a 6e ae bd eb 0f 85 bd 68 1e f3 3d
       -0.1232128 -0.085171655 -0.06497177 0.11871034
000060 99 8e 38 bd d2 65 00 3c 15 ec 07 bc 2d 51 6a bc
       -0.045057867 0.007836776 -0.008296032 -0.01430158
000070 7f ac 91 bd 86 0d 87 3d 9a f6 b8 3b 42 e4 82 bd
       -0.07112979 0.06594376 0.0056446316 -0.06391193
000080 23 88 d4 bc df a2 0f be ce 48 dc 3d 08 f0 b1 3c
       -0.025943821 -0.14026974 0.10756074 0.021720901
000090 c4 f1 81 3d 42 c1 9d bd 6d 8d f5 3d 76 53 0f 3e
       0.06344941 -0.077028766 0.119898655 0.13996682
0000a0 1c c3 2f be f4 f1 88 3c 55 16 0c bd 22 20 1f 3d
       -0.17164272 0.016716935 -0.034200985 0.038849004
0000b0 5c a7 23 3b 87 30 da 3c 06 a7 22 3d ea a3 89 bc
       0.002497158 0.026634468 0.039710067 -0.016801793
0000c0 7c b0 98 bd 30 53 73 3c 8a fb 95 bc 67 60 9c bd
       -0.07455537 0.014851376 -0.01830842 -0.07635575
0000d0 4e 99 95 3d db e1 14 be 84 fc 71 bc 36 ef 32 3e
       0.07304631 -0.14539282 -0.014769677 0.17474064
0000e0 da 20 a0 bc 95 d1 e4 bd 9f ce 43 3b 9c 74 09 bd
       -0.019546915 -0.11172787 0.0029877794 -0.033558473
0000f0 b7 b9 7b bd 5f 42 b4 3d 9e a8 d9 3d c7 db 05 be
       -0.06145641 0.08801722 0.10627864 -0.1307212
000100 b0 31 cc 3d a0 0e 25 be 4c 53 22 be b0 54 c6 bd
       0.09970415 -0.1611886 -0.15852088 -0.096841216
000110 b2 23 ba bd c2 4a c1 3b 57 95 40 be d8 46 7a 3e
       -0.090888396 0.0058988044 -0.18806969 0.24441087
000120 37 16 06 be 3f 5c 0a bd a4 c4 2b bb 26 62 af 3d
       -0.13094412 -0.03377938 -0.0026209736 0.08563642
000130 91 1c d6 3d 50 d9 44 be 46 a5 1c be 11 38 98 3d
       0.10454667 -0.19223523 -0.15297422 0.07432569
000140 36 3a d9 3d 49 63 e0 3c 7b 1f 0a be 21 f0 ac 3a
       0.10606806 0.027391093 -0.13488571 0.0013194123
000150 80 7a 44 3d 07 6e 6f 3d 37 2f ea 3d fd 02 b9 bd
       0.047968388 0.05845454 0.11434787 -0.09033773
000160 bd c0 a4 3d 8b f7 68 3c 1d ce d0 bd 82 71 2d bd
       0.080445744 0.014219175 -0.10195563 -0.042344578
000170 d1 1d be bc b4 1c e3 3d ca d3 52 bd 3a 7b 7f 3c
       -0.023207577 0.11089459 -0.05147151 0.015593344
000180 4e 7d e9 bd 2b f8 84 bd 9c 59 04 bd 81 39 7e be
       -0.11400853 -0.06492647 -0.03231202 -0.24826623
000190 ba 9f 5d 3d e5 49 f6 3c b0 3c c0 bc 99 8a 0f be
       0.054107405 0.030064533 -0.023466438 -0.14017715
0001a0 a3 d4 2b 3e 8a 86 5d be d9 68 6e 3c 9f 37 0b bd
       0.16780333 -0.21633354 0.014551365 -0.03398859
0001b0 eb 9b f8 3c 32 eb 05 3c 00 68 96 3d 52 cf 5b be
       0.030347785 0.008173751 0.07344055 -0.21465805
0001c0 00 30 03 bc 23 2d 63 bd a1 8b 45 3d 1d 60 b0 bb
       -0.00800705 -0.055462968 0.048228864 -0.0053825513
0001d0 bc f2 b4 bd 3d 30 03 3e fa c2 5d bd 36 a0 2d be
       -0.088353604 0.1281137 -0.054141022 -0.16955647
0001e0 f1 91 82 bd 23 76 25 3e 31 e6 a7 bd 6c b1 16 3d
       -0.06375492 0.16158347 -0.081982024 0.036790296
0001f0 be b6 44 bd 80 ac d7 3c 24 61 b8 3d 1b ae 8e bc
       -0.04802584 0.026327372 0.09002903 -0.017417004
000200 62 37 54 bd aa 96 ab bc 11 70 c3 bd 22 6b 65 be
       -0.05181063 -0.020945866 -0.09542859 -0.22404149
000210 88 5b bb bd 2f 18 bd ba 74 36 e9 3d 6d e9 1b be
       -0.091483176 -0.0014426763 0.11387339 -0.15225764
000220 cd da 75 3d c4 52 48 be 8c 11 3f 3c 7b e6 82 3c
       0.060023118 -0.19562823 0.011661898 0.015979042
000230 21 a7 40 3e b6 6f d8 3c 1d 8a cc 3c b9 bf 12 3d
       0.18813755 0.026420455 0.024968201 0.035827372
000240 e9 ad 3f 3b 1a 11 52 be 1c 60 a8 bc 30 3f 56 3d
       0.0029247946 -0.20514336 -0.020553641 0.052306354
000250 01 eb 8a 3d d8 31 8c 3d c4 74 8d 3e aa 8c 70 be
       0.06783105 0.068454444 0.27628148 -0.23491159
000260 56 a9 d9 bd 51 8a 96 3d 07 a3 81 3e c3 dc 3c 3e
       -0.106280014 0.073506005 0.25319692 0.18443589
000270 ef 81 d9 bd cb 68 72 bd c9 19 e2 bd ee 79 ed 3d
       -0.10620486 -0.05918197 -0.110400744 0.11595522
000280 7d 6c 63 3d 35 26 ef 3d 37 25 2c bd f2 0f 56 bc
       0.055523384 0.11677209 -0.04202768 -0.013065325
000290 2d f6 be 3d b1 66 40 bc 4a 55 24 3e a9 10 1f bc
       0.09324298 -0.011743234 0.1604816 -0.009708562
0002a0 6a 19 8a 3e 2a 62 20 bd fe 3b 96 bd cf 35 b7 bd
       0.26972514 -0.039156117 -0.07335661 -0.0894581
0002b0 ec 47 48 be fa 02 53 3c 75 0a a0 bd 95 b7 f3 bc
       -0.19558686 0.012879128 -0.078144945 -0.029750625
0002c0 57 73 d1 bc f5 b7 1a 3d 66 66 20 3d 19 c4 04 3e
       -0.025567694 0.03777309 0.039160155 0.1296543
0002d0 a9 0c 81 3d ce 4c 2c be 48 74 08 3e 20 5a 89 3d
       0.06301243 -0.16826174 0.13325608 0.06706643
0002e0 12 f4 eb bd ff 95 25 bd 27 45 21 3e 70 2c 51 3e
       -0.11521162 -0.04042625 0.15749036 0.20427108
0002f0 a0 a8 e9 3c be f4 81 3d 03 07 ad bd 2f a9 58 3e
       0.02852279 0.06345509 -0.08448603 0.21158288
000300 34 14 1a 3d df 9e de bd 5f 80 34 bd 82 e2 d1 3d
       0.037616923 -0.10870146 -0.044067737 0.10248281
000310 1d 14 0e 3e 5b 9e 6b bd ef 10 0b 3e 09 27 ff 3b
       0.1387486 -0.057524066 0.13580678 0.007786636
000320 27 35 66 3e ae 3e 89 bc ca ec 4f bd 52 60 e2 bc
       0.22481214 -0.01675352 -0.05076293 -0.02763382
000330 c6 8e 89 3d d4 a3 d7 3d 0c a7 d3 3d c2 5b a8 3d
       0.06716685 0.105292946 0.10334596 0.082206264
000340 f2 01 0a 3d 9c 2c d8 bd 41 15 0f be 53 03 e2 3d
       0.03369326 -0.105553836 -0.13972951 0.1103579
000350 31 23 99 3b 54 32 38 3d 58 01 3d be 6e 3e d1 3d
       0.0046733846 0.04496987 -0.18457544 0.10216986
000360 3c 5a 59 be 13 fc 84 3d df 92 08 3e ba ef c6 3d
       -0.21225828 0.06493392 0.13337277 0.09713693
000370 c1 4a 81 bd c8 49 33 bd 7d 66 48 bd c7 d3 3a 3d
       -0.06313086 -0.043771535 -0.048925865 0.045612123
000380 2e f3 d8 3d ab 87 a2 3d 78 57 4d 3e cb 3e 03 3e
       0.10593258 0.07936033 0.20052898 0.12816922
000390 4e 54 f3 bc a2 7e f7 bd 26 24 b9 bd 63 b4 79 be
       -0.029703286 -0.120847 -0.09040098 -0.24385218
0003a0 70 ea 9d 3d 63 50 39 bd 6d f8 e1 3d 4f 85 4d bb
       0.07710731 -0.04524268 0.110337116 -0.0031359976
0003b0 f5 68 04 be fa ea 4a be bb 0b e8 bc d8 d2 1d bc
       -0.12930663 -0.19816199 -0.028325906 -0.009632789
0003c0 c6 16 71 3d 7a ad 7d 3c 7d f6 ea bd d3 98 1a bc
       0.05885961 0.015483255 -0.11472795 -0.00943585
0003d0 d2 0f ca bd e4 07 71 3d a8 ef 83 3d 3e d3 82 bd
       -0.09866299 0.058845416 0.06442195 -0.063879475
0003e0 94 3f 48 bd 00 9c 5b 35 de 68 1b 3e 4f 32 54 3b
       -0.048888758 8.181087e-07 0.15176722 0.003237862
0003f0 c9 05 8f bd 31 e5 6a 3d aa fd 07 3d 32 c8 87 3d
       -0.06983525 0.05734748 0.033200897 0.06629981
