Assets/ML-Brains/Backups/ResultsScenario_01.onnx (onnx, 120062 bytes, 9 tensors)

action_model._discrete_distribution.branches.0.bias f4 [7]
000000 4d 6d bc 3c a1 67 b6 bc 7a 4c e4 3b 76 69 ce ba
       0.023001337 -0.022266211 0.0069671245 -0.0015747983
000010 3a 43 93 3b ce 30 08 bd a0 b4 99 3c
       0.004494098 -0.03324967 0.018762887

action_model._discrete_distribution.branches.0.weight f4 [7, 128]
000000 90 f9 bc bd 1c 28 94 bc 63 3c 6b bd cf 1c 84 3d
       -0.09227288 -0.018085532 -0.057430636 0.06450807
000010 f4 50 6f 3c 8a 8c 6e bd de e8 00 3d ac 53 01 3d
       0.014606703 -0.058239497 0.03147208 0.031573936
000020 16 af 68 3c b1 a3 1b 3c 45 96 0d bd 6a 79 1f 3d
       0.0142019 0.009499476 -0.034567136 0.03893415
000030 81 76 f3 bb 32 b6 6e 3b de 5f cb bc 69 fa 44 bc
       -0.0074298983 0.0036424515 -0.024825986 -0.012022593
000040 ef 9c 9a 3c 48 6f 33 3d 5f 81 89 3b 70 fd ff 3b
       0.01887366 0.043807298 0.0041963304 0.0078121945
000050 e5 7c 91 bb 79 33 d3 3b fc a9 45 3b 30 bc 9f bc
       -0.0044399374 0.006445345 0.0030161133 -0.019498914
000060 98 ff f9 37 db 19 fe ba f5 ee c2 3c a7 c0 fd bc
       2.9802133e-05 -0.0019386368 0.023795584 -0.030975653
000070 c4 92 73 bd a1 89 2f 3d 7c 72 0d 3c 7b bd 12 3c
       -0.05946614 0.042855863 0.008633252 0.0089563085
000080 a7 4a 07 bd 24 88 c7 bb e2 fb 02 bb c2 80 a9 3c
       -0.03303018 -0.0060892273 -0.001998656 0.02069128
000090 37 3d a1 bc 31 1c 2b bd 6e 66 2e 3c 14 79 70 3c
       -0.01968251 -0.041774932 0.010644538 0.014677305
0000a0 5a d3 68 3c eb dc d5 3b 66 44 50 bc 6c 38 0a bd
       0.014210546 0.0065265796 -0.01271162 -0.033745214
0000b0 09 61 41 bd 60 13 24 3a b8 5f 56 3d 9f de a0 bc
       -0.04721168 0.00062589906 0.05233738 -0.019637404
0000c0 9e 3f 9c 3b 31 55 1b bc a9 6a 76 3a fc cc cd bc
       0.004768326 -0.00948076 0.0009400049 -0.025122158
0000d0 e3 5d 74 3d f6 36 88 3c b7 50 ae 3c 41 99 90 bd
       0.05965985 0.01662777 0.021278722 -0.07060481
0000e0 16 c7 21 bd 59 35 89 3d 60 d7 52 3d 7d 33 c9 3c
       -0.039496504 0.066996284 0.05147493 0.024560684
0000f0 2a 7d 81 3c a8 02 b6 bd eb 6d 69 3c 5e c5 c2 bd
       0.015806753 -0.088872254 0.014247398 -0.09510301
000100 25 84 68 3b 25 35 0f 3c d2 35 43 3d 72 48 f7 3c
       0.0035479155 0.008740698 0.04765875 0.030185912
000110 93 bb e7 3c 2d 34 29 3d 6c f9 ee 3c 3b ec 27 3c
       0.028287685 0.041309524 0.029171668 0.010249193
000120 84 e5 9c 3b 05 e3 ce 3c 71 e0 0c bc f2 f3 05 bb
       0.0047881026 0.025254736 -0.008598433 -0.0020439592
000130 6e 8c d2 3c f9 d4 9d 3c 3e ab 67 bc d0 ff 07 3c
       0.025701728 0.019266592 -0.014139948 0.008300737
000140 b5 c3 a5 bb aa 68 d2 bc 51 36 7d bb 3e 4d 34 bc
       -0.0050587305 -0.025684673 -0.0038637111 -0.011004744
000150 2f a3 6f bc 81 e1 8c 3d f3 e9 eb bb 1d b5 46 3d
       -0.014626308 0.06878949 -0.00719952 0.048512567
000160 8b 32 dd 3c d9 f7 91 ba 2d 07 9a bc 4b ed 8b bd
       0.02700164 -0.0011136486 -0.01880225 -0.068323694
000170 f3 64 e1 bc 9b 52 a5 3b 9f c9 53 3c e8 d0 e0 3c
       -0.027513957 0.0050452477 0.012926488 0.027443364
000180 da 1c f9 bc 1d 5e 41 bc 4a 01 2c bb 5b 3a 1a bb
       -0.030409265 -0.0118022235 -0.0026245886 -0.0023533318
000190 73 0d 28 bd c4 18 b4 3c 97 8d c5 3a 55 33 e1 3c
       -0.04102845 0.021984465 0.0015072104 0.027490297
0001a0 2a 88 39 3c 27 03 b6 3c e3 d5 d1 bc 81 e8 ff 3c
       0.011323968 0.0222183 -0.025614684 0.031238796
0001b0 58 57 15 3c 51 d2 48 3c ce fe 2f bb 7f 90 31 3c
       0.009115063 0.012257175 -0.0026854756 0.010837673
0001c0 5a 06 fa 39 bd 08 5b ba fc 23 2f bd a0 10 a8 3c
       0.00047688448 -0.0008355489 -0.042758927 0.02051574
0001d0 5b c7 b2 3c 5e 8d 2d bc 79 f8 05 3d 2b a7 1a 3c
       0.021823576 -0.010592787 0.032707665 0.00943927
0001e0 26 a2 ab bc 44 c2 69 bc b1 7d 07 3d fb ca c4 bd
       -0.020951342 -0.014267508 0.033078853 -0.09609028
0001f0 ac 7f 09 3c 49 dd 68 3c 17 05 75 bb 35 bf 4f 3b
       0.008392256 0.014212915 -0.0037387067 0.0031699662
000200 8e 06 83 3c 8b f9 46 3d e8 23 82 3d 7b 3f 2f bd
       0.015994336 0.048577826 0.06354505 -0.04278515
000210 8c 7d d9 3c a5 75 32 3d b6 c1 c5 3c ed c5 97 3c
       0.026549123 0.043569226 0.02414022 0.018526996
000220 c4 69 02 bc 5e ac 65 3d 4b ff 12 bd e2 5c 80 3b
       -0.007959787 0.056072585 -0.035887998 0.0039173225
000230 77 50 ea 3b b4 68 13 bc 84 76 18 3c 4e 98 de 3b
       0.0071507054 -0.008997131 0.0093056 0.0067930585
000240 70 08 8f 3c be e1 a0 bc d4 4a 89 3c cd a7 42 bc
       0.017460078 -0.019638892 0.016759314 -0.011880827
000250 ed 56 f3 3c e5 f0 cc bb 62 9e 6c 3a 8b 0f ca bb
       0.029704535 -0.006254303 0.00090262864 -0.0061664036
000260 5f b1 e7 bc 02 0e 29 3d ef 59 af ba 8d bc 12 3d
       -0.02828282 0.041273125 -0.0013378243 0.035824347
000270 80 66 00 3d 23 e2 6c 3d cb c0 04 bc 24 ab a6 3c
       0.03134775 0.05783285 -0.008102606 0.020345278
000280 87 ae bb 3c 85 47 eb 3b fd c7 55 3c 17 22 8a bc
       0.02291037 0.0071801567 0.013048169 -0.016861958
000290 0e a2 85 3d ec 9e 09 3d 34 af 23 bd 3a f6 fd bc
       0.0652505 0.033598825 -0.03996201 -0.031001199
0002a0 be ed 70 bc ea 2e cd bc 39 e9 92 3b 99 b8 03 bd
       -0.01470512 -0.025046784 0.0044833687 -0.032158468
0002b0 90 bf 8e 3c 56 95 8c bc 8e 6d a8 bc 0e 12 1c bd
       0.017425328 -0.017161053 -0.020560052 -0.038103156
0002c0 a1 bd 11 bd df 2a 14 39 69 70 47 bc 5a ad 02 3d
       -0.035581235 0.0001413035 -0.012172797 0.031903602
0002d0 85 59 b2 bc 02 98 3c 3c 8a 0d 26 bd d2 c4 20 3d
       -0.021771202 0.011510851 -0.040540256 0.039250202
0002e0 0e 28 27 3d 3d 0c 9e bb 9f 4f 91 3c f8 8d 24 3d
       0.040809684 -0.0048232363 0.017738162 0.040174454
0002f0 e1 17 9e bc 3a 2a 9e 3c 54 db 0e 3c 99 54 10 3c
       -0.019298496 0.019307245 0.008719284 0.008809232
000300 ba ec 0d bc 7f 10 bf bb d0 cd 63 bd cd 52 f8 3c
       -0.008662397 -0.005830824 -0.0556162 0.03031292
000310 72 93 83 bd 4c c7 fe bc 3f 3b bb 3c 7b 72 09 bd
       -0.06424607 -0.031100892 0.0228554 -0.033556443
000320 2f 18 df bc b3 5d b1 3c 6b b2 65 3b 7a 21 79 bc
       -0.027233211 0.021651125 0.0035048972 -0.015205735
000330 56 af 21 3d 67 32 a9 3c 96 9a 36 bc 8e d2 23 3a
       0.039473854 0.020653917 -0.011145255 0.00062493316
000340 25 03 c7 bc 2e 95 61 ba 81 52 c1 bb 2f ca 23 bd
       -0.024293492 -0.00086052984 -0.005899728 -0.03998774
000350 bf 2f 1f bc 45 b6 50 bd aa 5e 42 3c 9f 38 cf 3c
       -0.009715973 -0.050955076 0.01186339 0.025295554
000360 02 8e 8e 3c ea b6 a7 bc 80 55 92 39 08 98 ef bc
       0.017401699 -0.020472962 0.00027910993 -0.029247299
000370 2a 01 77 bb 12 08 d1 bc bf 1d df bc 9b cc 39 bd
       -0.0037689903 -0.025516544 -0.027235864 -0.045361143
000380 9d 90 4a ba 14 1c 84 3c 7e 98 09 3d 9c 3f d9 3b
       -0.00077272375 0.01612667 0.033592694 0.0066298973
000390 71 cf d8 bc 66 55 a8 3b cf 94 83 bd c5 52 40 3d
       -0.026466103 0.0051371334 -0.06424867 0.046953935
0003a0 a4 a6 2e ba cd f3 83 3c ec 3b d9 3b f2 59 f1 3b
       -0.00066624046 0.016107464 0.0066294577 0.0073654586
0003b0 0a 12 55 3d cb 7e d8 bc a5 c5 99 3b 87 13 3d 3b
       0.052019157 -0.026427647 0.0046927505 0.002885075
0003c0 4c 5c 10 bd 29 e8 e3 bb 85 70 90 3b 5f bf 1b 3d
       -0.03524427 -0.006955166 0.0044079446 0.038024303
0003d0 67 05 4b 3d c2 73 28 3b 74 5b 38 bd 7d 46 1d bc
       0.0495657 0.0025703763 -0.04500909 -0.009599325
0003e0 55 ec 52 3c a7 0e 61 3c b4 04 88 bc 51 d9 af 3c
       0.012873729 0.013736404 -0.016603805 0.02146593
0003f0 f5 bf ea 3c 6b d5 34 bc e1 39 02 3b f2 92 c0 bc
       0.028655985 -0.011037211 0.0019870924 -0.023507569

action_model._discrete_distribution.branches.1.bias f4 [2]
000000 b9 9d fc ba 89 9d fc 3a
       -0.0019273079 0.0019273023

action_model._discrete_distribution.branches.1.weight f4 [2, 128]
000000 f4 ac 87 3c 67 c6 c9 3c 2a 83 98 3c 20 65 98 3d
       0.016561963 0.024630738 0.018617231 0.07441163
000010 aa b9 29 bc b5 d1 30 bb a7 09 a4 bb ee 87 15 bc
       -0.010359207 -0.0026980464 -0.0050060335 -0.009126646
000020 79 f4 62 bb 08 3d 4b 3b bd 16 97 bc 08 50 cc bc
       -0.003463058 0.003101172 -0.01844346 -0.024940506
000030 f3 49 c8 bc 8f c7 82 3c 99 94 99 3c 11 05 22 3c
       -0.024449324 0.015964298 0.018747615 0.009888903
000040 28 74 f8 3b dc 90 bd 3c 7b 1b 25 3c 9b 74 f2 ba
       0.0075822063 0.023140363 0.010077353 -0.0018497886
000050 f7 4e 43 bc a4 da e2 3c 74 81 d4 bc 40 be 6e 3c
       -0.011920682 0.027692147 -0.025940634 0.014571726
000060 7d aa 46 3c 63 64 5f bd 41 00 cd 3c af c9 40 bb
       0.0121256085 -0.054539096 0.025024535 -0.0029417088
000070 ff ca 0e 3b 62 4a 38 3d f4 13 ca bc 93 8e a6 bc
       0.0021788476 0.044992812 -0.024667718 -0.020331657
000080 18 2c 93 bc 70 3a 32 bd c6 0d 7f 3c 5e 0f 46 3d
       -0.017965361 -0.04351276 0.015567249 0.0483545
000090 d7 3c 9a 3c 92 bc bd 3c 31 57 1c 3d 51 54 68 3a
       0.018827839 0.023161206 0.03816909 0.0008862662
0000a0 32 c0 d8 3a 2f 99 20 bd 84 d7 c1 bb d5 82 06 3b
       0.0016536771 -0.039208587 -0.005915584 0.002052476
0000b0 52 3f 03 3d 2b fa b0 bc 3c bb 0a 3d 50 f9 6b 3d
       0.03204281 -0.021603664 0.033869967 0.05761081
0000c0 16 be e2 3c bd e5 d5 bc a8 03 00 bd b7 d3 08 3c
       0.02767853 -0.026110524 -0.031253487 0.008351258
0000d0 6a 51 ed bc 51 a1 c6 3c fd 72 fd bb 1d b1 89 bc
       -0.028969485 0.024246844 -0.007734655 -0.016808087
0000e0 d1 d8 4a 3d e1 e6 ab bb 63 9d 08 3d 76 fa d9 3b
       0.04952318 -0.005246029 0.03335322 0.0066521717
0000f0 35 67 ef 3c a4 fe 02 bc c6 8e 03 bc 08 c6 98 bd
       0.029224018 -0.007995281 -0.008029645 -0.074596465
000100 ec 76 1e 3d 2b eb 66 3d de 0d 19 3a de 7c b1 3c
       0.03868763 0.056376617 0.0005838553 0.021665987
000110 f8 86 72 bc f0 35 3d bd a3 17 de 39 e7 6b c7 bb
       -0.014802687 -0.046194017 0.0004236075 -0.006085861
000120 2c ac dc 3c 07 6c 5f 3d 0a 0e a6 bc b3 15 4c bd
       0.026937567 0.054546382 -0.020270366 -0.04982538
000130 39 f0 1d 3d d5 f1 78 bc 13 3d 92 3c b6 b0 65 3c
       0.038559172 -0.015194376 0.017851388 0.014019182
000140 79 68 ae 3c 77 dd aa bc 60 b9 0c 3c d5 a7 35 3d
       0.02129005 -0.020857556 0.008589119 0.04434951
000150 52 6a be ba 04 48 2c bc f5 0e b4 bb 81 69 36 bd
       -0.0014527536 -0.010515217 -0.005494947 -0.04453421
000160 97 49 43 bb 91 d9 31 3c 7c 02 30 bd 23 44 e9 3c
       -0.0029798502 0.0108550945 -0.04297112 0.028474873
000170 c3 db 0b bd 79 a3 5c bc 0e ad 26 3d 02 f2 aa 3c
       -0.034145128 -0.013466709 0.04069238 0.020867351
000180 2c ae 2c 3b 32 1d 0b bc c1 9f 83 3c 02 e9 30 3d
       0.0026348932 -0.008490847 0.016067388 0.043190964
000190 5a 91 b7 3b 6c 17 16 3d 1f cb dc 3c 13 c3 e0 bc
       0.005602044 0.03664343 0.026952324 -0.027436769
0001a0 d9 70 25 bd 2c 29 39 ba 15 7c 67 3b da 63 09 3d
       -0.040390823 -0.0007063325 0.0035321761 0.03354249
0001b0 c2 9f 65 3d 32 bf f9 3c cf a9 9f ba d0 71 08 3c
       0.05606056 0.030486677 -0.0012181344 0.008327916
0001c0 ae 68 a8 bc ac cc 06 3c 8f 6b d3 bb ca 08 73 3c
       -0.020557728 0.0082275085 -0.006452031 0.014833638
0001d0 56 22 ac bc 7a 91 3a bd 17 08 b8 bc 85 e2 32 3c
       -0.021012466 -0.045548894 -0.022464795 0.010918264
0001e0 3b 2d e5 bc f8 27 a5 3c 93 be 7c bc 10 09 d6 3c
       -0.02797567 0.02016066 -0.015426296 0.026127368
0001f0 11 2d 9e bd f9 f7 e8 3b f7 ba 11 3d 34 b9 9f 3c
       -0.077234395 0.007109639 0.035578694 0.019497491
000200 3f de 0d bd 57 95 e5 bb 3a cf e6 bc 50 15 76 bd
       -0.03463578 -0.007006328 -0.028174985 -0.06007892
000210 fb 88 95 3c 0b 0c a1 ba 09 bf 1f bc 4b 0f c3 3b
       0.018253794 -0.0012286914 -0.009750136 0.005952751
000220 10 3f af 3a 9c c1 95 bb 57 97 92 bb 46 c1 e0 3a
       0.0013370235 -0.004570199 -0.0044736075 0.0017147444
000230 ca 19 13 3c 6e 71 a4 bc 01 bc b0 3b a8 d2 a3 bc
       0.008978317 -0.020073619 0.0053935056 -0.01999791
000240 25 c5 22 3c 0e 22 5a bc d9 f4 4c bc 48 e7 99 3b
       0.009934698 -0.013313783 -0.012509548 0.0046967603
000250 b8 8c f2 bb 1e 54 b9 bc 73 1e 96 3c 42 fe 41 bc
       -0.007402029 -0.022623118 0.018325066 -0.011840405
000260 b2 14 c4 ba 0f ef 33 3d c8 bd c3 bc fb 9c 9c ba
       -0.0014959781 0.043929156 -0.023894206 -0.0011948639
000270 c2 2f b2 bb fd e6 3f bd 89 83 3e 3c 36 5a 89 bb
       -0.005437822 -0.046851147 0.01162804 -0.004191662
000280 4d bd 0d 3c 86 d7 76 3d c3 e9 91 bc 59 a8 66 bc
       0.00865109 0.060264133 -0.017811662 -0.014078223
000290 20 95 6b bc 5a 07 a5 bc dc a1 9d bb d5 13 a7 bb
       -0.014378816 -0.020145107 -0.004810555 -0.0050987997
0002a0 de af af b9 bf 91 05 3d 77 a0 d0 bb a8 a7 3c bc
       -0.00033509632 0.032609697 -0.006366785 -0.011514582
0002b0 56 92 50 bc c9 45 bf 3b a4 9f 1a bd 25 6f 6e bd
       -0.012730202 0.0058371765 -0.0377499 -0.058211464
0002c0 d4 8e c3 bc ae 5d ea ba 61 49 fd 3c 88 f0 f6 bc
       -0.023871817 -0.0017880702 0.030918779 -0.030143991
0002d0 89 6f dc 3c 87 b1 8e bb 31 12 74 3c 03 77 9a 3c
       0.026908653 -0.004354659 0.014896915 0.018855577
0002e0 d4 3e 1b bd b6 7f 5d bb f1 86 13 bd d9 ad 21 3c
       -0.037901714 -0.0033798045 -0.036017362 0.009868109
0002f0 ab 89 78 bc 4f 2b 88 bb c1 c1 a2 3c 16 9f 93 3d
       -0.015169541 -0.0041555534 0.01986778 0.072080776
000300 07 0a ac bc c2 1d 5e bd a3 e8 dd bc 73 40 2b bc
       -0.021000875 -0.054227598 -0.027088469 -0.010452378
000310 3f 6f 77 3a f1 0f 6c 3d d9 dc 95 3b bc 04 04 3c
       0.0009438879 0.05763239 0.004573446 0.008057769
000320 cb 39 a8 bc fa 14 72 bd c6 b6 24 3d 01 42 29 3d
       -0.02053537 -0.059102036 0.04021337 0.04132271
000330 23 15 47 bc 83 73 74 3c 87 56 cf 3b 7a da a9 bc
       -0.0121510355 0.014920118 0.0063274535 -0.02073406
000340 76 c4 cc bc 7c 43 1d 3c 16 7b bf 3a 57 63 07 bd
       -0.024996024 0.009598609 0.0014608826 -0.033053722
000350 c6 0d 7d bc 26 68 41 39 8c 19 2e 3c 1c 07 31 3d
       -0.015445178 0.00018444713 0.010626208 0.04321967
000360 4c 2e 3e 39 f5 49 02 bc ae 58 03 3d ea db 1c bc
       0.00018137059 -0.007952203 0.032066993 -0.009573916
000370 84 de 37 3d 11 b9 bb bc 9b 43 fd bc db f3 a3 bc
       0.04488994 -0.022915395 -0.030916026 -0.02001374
000380 93 c0 2a bc 2e d5 a1 3c ae 15 f5 bb 88 ba 01 bd
       -0.01042189 0.019754972 -0.007479391 -0.03167203
000390 e1 60 c2 bc 91 63 3c bd 59 d4 8f bc 90 7b 3f 3d
       -0.023727836 -0.04599339 -0.01755731 0.046748698
0003a0 ac 70 e6 3c 51 a1 f6 bb ce cc 93 3b 74 7f e6 bc
       0.028129898 -0.0075265546 0.0045104986 -0.028136946
0003b0 3c 31 09 bd f5 f8 00 bd 48 d2 94 3c a3 75 09 bc
       -0.03349422 -0.031487424 0.018166676 -0.008389863
0003c0 20 1e ac 3c a2 01 c9 bb 3a 21 c5 bc 0a 63 20 b9
       0.021010458 -0.006134228 -0.024063695 -0.00015295684
0003d0 f6 17 c9 3b 88 c8 fb 3c 39 ff 63 3d 3d d8 2c bc
       0.0061368896 0.03073527 0.05566332 -0.010549602
0003e0 07 3e 70 3c 09 a6 e4 bc 64 31 97 bb ec 57 8f bc
       0.014663226 -0.027911203 -0.004614042 -0.01749798
0003f0 b2 62 ae 3d 35 36 89 bc 7e 44 0d bd 2f 64 b9 bc
       0.085149184 -0.01674948 -0.034489147 -0.02263078

discrete_action_output_shape f4 [1, 2]
000000 00 00 e0 40 00 00 00 40
       7.0 2.0

network_body._body_endoder.seq_layers.0.bias f4 [128]
000000 95 14 11 bc 95 2c f7 bb 5a 78 b2 bc c0 d0 14 bd
       -0.008855005 -0.0075431564 -0.021785904 -0.036331892
000010 7f bc 40 3c 57 0c 5e bc 1b 20 d9 bc 16 ae 0d 3b
       0.011763691 -0.013552747 -0.026504567 0.0021618656
000020 7c 93 b7 bc 4f ff 0e bd 3d 9b ad bc 74 e2 e6 bc
       -0.022409193 -0.03491145 -0.021192187 -0.028184153
000030 ea d9 17 bb 96 eb 82 bc 40 70 7a bc 85 88 9c bc
       -0.0023170658 -0.015981477 -0.015285552 -0.019108066
000040 aa 82 9f 3c d5 85 32 3c a8 44 bc bc 45 3c a0 bc
       0.019471485 0.010896166 -0.022981957 -0.019559989
000050 35 09 13 bd a9 91 51 3c db a8 1a 3c 43 be a9 bc
       -0.035897452 0.012791076 0.009439672 -0.020720607
000060 93 84 2c 3b b6 69 56 bb f3 4c 04 bc d5 e6 fa bc
       0.0026324138 -0.0032716817 -0.008074987 -0.030627647
000070 de 6d 9d bc c7 ec 98 3c a3 c6 e5 bc da 84 87 3c
       -0.019217428 0.018667592 -0.028048819 0.01654284
000080 9c 9a e4 bc 21 dc c9 3a 37 ab c9 bb bb 9f af bc
       -0.027905755 0.0015400687 -0.0061544436 -0.02143847
000090 71 cd 98 3c 4b f1 79 bb bc f3 d2 bc c0 d4 ec bc
       0.01865265 -0.0038138207 -0.025750987 -0.02891004
0000a0 0a 76 9b bc d0 01 0b bd 0e 48 ba bc 9b d7 eb 3a
       -0.018977184 -0.033937275 -0.022739436 0.0017993333
0000b0 0c a9 f0 3b 6a 1f 19 bc 1b 61 a6 3c 19 d4 25 bc
       0.0073443707 -0.009345869 0.020309975 -0.010121369
0000c0 c8 a7 39 3b ac 13 3f bc 60 2d cc 3b c8 3e c0 bc
       0.0028328765 -0.011662405 0.006230995 -0.023467436
0000d0 a8 57 63 bc f7 1e 29 bd ff b9 a8 3c c0 1b 8c 3c
       -0.013875879 -0.041289296 0.020596502 0.017103076
0000e0 41 2d 87 3c 3a 03 49 bc 3b f7 27 3d 46 58 4c 3d
       0.016501071 -0.012268836 0.04100726 0.04988887
0000f0 d8 57 09 bd e3 4c 0b 3d 2d de a5 bc 4f 59 12 3c
       -0.03353104 0.03400887 -0.020247543 0.008932426
000100 d5 af fa bc bc 6b 1e bd f5 ea 5d bd 6a 76 75 3c
       -0.030601421 -0.038676962 -0.05417915 0.014981845
000110 a3 b7 45 3c d2 cb 34 3d 7b e8 cb bc 48 30 f2 bb
       0.012067708 0.04413969 -0.024891129 -0.0073910095
000120 d9 11 16 3d 8e 7b 14 bd 34 b6 8d bc ea 5c 0e bd
       0.036638115 -0.036250643 -0.017298795 -0.03475658
000130 0d 47 ce bc dd 86 5a bc 11 81 c7 bc eb b9 c7 bc
       -0.025180364 -0.013337818 -0.024353536 -0.024380645
000140 db 8c ba 3b 0e 4c e9 bc 2e 45 bf 3b 89 ee c9 bb
       0.005693061 -0.028478649 0.0058371043 -0.006162469
000150 3b 6b 17 bc a4 43 06 3c cb a7 00 bd 2e b0 91 3a
       -0.009241874 0.008194838 -0.03141002 0.0011115128
000160 db 4b 17 3c a2 07 0c 3d 16 c2 db bb 06 5e 14 bc
       0.009234394 0.034186967 -0.0067064865 -0.00905562
000170 7b c5 c8 3b 82 7b c4 3b 55 7c 2b 3c 2d d2 37 3d
       0.006127057 0.0059961686 0.010466655 0.044878174
000180 8f 96 32 bc f6 79 b0 3c 7e 1a 62 bd d3 79 fe bc
       -0.010900154 0.02154253 -0.055201046 -0.03106395
000190 cb 16 aa bb 85 cb d1 bb 85 5b 94 3c 4e 7d c4 bc
       -0.0051907054 -0.0064024352 0.018110046 -0.023985531
0001a0 cd 1f 19 bc a8 01 fa 3b 1d f4 96 3a 4f b2 4e 3c
       -0.009345961 0.007629592 0.0011516843 0.012615754
0001b0 29 87 8b 3c 7c cf 54 bc 79 32 30 bb 9a e8 7a bc
       0.017032223 -0.012988921 -0.0026885553 -0.015314246
0001c0 60 14 79 bc 82 8b c8 3c 5b 8d 87 3d d7 aa aa bc
       -0.015202612 0.024480585 0.06618758 -0.020833416
0001d0 0b 55 53 bd 67 ad 8d 3b a1 f8 f5 bc d5 f4 00 bd
       -0.051594775 0.0043236497 -0.030025782 -0.03148349
0001e0 96 21 fc 3c d5 14 e6 3c 8a 6f d5 ba 74 75 0e 3c
       0.030777734 0.028086105 -0.0016283852 0.008694995
0001f0 93 7c b5 3c 82 a1 eb 3c 44 89 b6 3a 5d 59 69 bc
       0.022154128 0.028763536 0.0013926406 -0.014242497

network_body._body_endoder.seq_layers.0.weight f4 [128, 90]
000000 e5 0c 4b be 43 85 c1 bc a7 5e 3e 3e bf c0 0a 3e
       -0.19829138 -0.023623114 0.18590795 0.1355009
000010 68 9e 9e bc 43 ef a0 3d 57 1e 00 3d b3 b4 14 3e
       -0.019362643 0.078581356 0.031278934 0.14522056
000020 4e 86 84 3e 2c 8c cd bc 2e 89 2d be 2f ef fe 3d
       0.25883716 -0.025091253 -0.16946861 0.124479644
000030 e4 1c d4 3d 6b 89 c8 bd 1e 6d 96 bd 84 b2 9c bd
       0.10357073 -0.097918354 -0.07345031 -0.07651237
000040 3f b6 11 bd 40 81 7b bd 45 d8 ec 3b 12 28 c4 bd
       -0.035574194 -0.06140256 0.00722793 -0.09577955
000050 2c 80 00 3d 75 f5 36 be 90 59 75 3d a5 56 c7 3d
       0.031372234 -0.17867072 0.059899867 0.09733323
000060 16 68 72 3c df 89 13 3c d2 66 06 be 85 35 88 3a
       0.014795324 0.009005039 -0.1312516 0.0010391927
000070 28 d3 ec bd 8d 8c 85 3c 42 c8 00 be 25 65 ba bd
       -0.11563712 0.016302371 -0.12576392 -0.09101323
000080 97 c6 b7 3d f0 2f ec bd bb 4f 4e 3d f5 ff 90 3d
       0.08973425 -0.11532581 0.050369006 0.0708007
000090 45 64 ea 3c b1 7d 3b bd 8b 87 92 bd 9a 1b cb 3d
       0.028612265 -0.045774166 -0.07154759 0.09917374
0000a0 2a e3 12 bd 54 e4 cb bd 09 51 5f bd 09 41 b8 bd
       -0.03586117 -0.099556595 -0.05452064 -0.089967795
0000b0 0f cd 1a be 72 01 29 be b0 bd 49 3e 31 21 b9 3c
       -0.15117286 -0.16504458 0.19701266 0.022598835
0000c0 b6 74 fa bd d5 29 1f bd 2f 48 24 3e 3c 79 f7 b8
       -0.12229292 -0.038858254 0.16043161 -0.000118004595
0000d0 96 c5 ac bd 7b 54 dc bd e0 3a 1f 3d 9d 39 01 be
       -0.08436124 -0.10758301 0.038874507 -0.12619634
0000e0 99 6a 82 3d 76 d0 bb bc f9 4a 27 3d f8 a3 7d ba
       0.06367988 -0.02292655 0.040842984 -0.00096756173
0000f0 af 97 91 3d 52 55 24 3c b2 3b 8a bc 43 16 10 bd
       0.071090095 0.010030108 -0.016874168 -0.03517748
000100 ea d9 80 bd 3e 4a 43 be 78 0b 99 3d ce 61 d2 ba
       -0.06291564 -0.1907129 0.074728906 -0.0016050877
000110 8d 24 5d 3d 5c 2c e1 3b 34 03 2c bd 5c e6 2e bd
       0.053989936 0.006871743 -0.041995242 -0.042700157
000120 5e 8a f8 bd 56 32 12 be 3c e1 da 3d fb cc b0 bd
       -0.121357664 -0.14277014 0.10687491 -0.08632847
000130 95 5d d9 3c 17 c9 1e be 08 b8 5f b9 aa 9f bc 3d
       0.026533881 -0.15506397 -0.00021335494 0.09210141
000140 6d 12 35 3e b9 b2 83 bd a7 cb bf 3c 99 06 36 3e
       0.1768281 -0.06430573 0.023412539 0.17775954
000150 c9 d7 4b be 39 2e 92 3d 85 c2 03 bc 79 2c 9a bd
       -0.19906534 0.071377225 -0.008041983 -0.07528014
000160 52 32 8b 3d 56 f3 63 3b ec 16 1c bd 07 24 18 bd
       0.06796707 0.003478249 -0.038107798 -0.037143733
000170 aa 6a e5 3b 9d 84 6f be 3d a8 93 3d 88 36 a2 bd
       0.0070012407 -0.23390432 0.07209823 -0.07920557
000180 11 28 ac bd 17 fe 4e 3d 3c e6 35 3d b9 ac 13 3d
       -0.084060796 0.050535288 0.04440902 0.036053393
000190 11 07 7f 3d 9f b9 26 3e 32 2b cb 3c 4c 81 b3 bd
       0.0622626 0.16281746 0.02480087 -0.08764896
0001a0 9c b4 85 bd 9d 6b 64 3d 4a 48 dc ba 60 bd 36 be
       -0.06528589 0.05576669 -0.0016806212 -0.17845678
0001b0 29 cf 92 bb cc 81 7c bd 56 01 53 3e 68 c4 35 bd
       -0.004480262 -0.06164722 0.20605978 -0.04437676
0001c0 f3 79 96 bd 6c 9c b4 3d ed 15 8a 3d 3c a9 24 3d
       -0.07347479 0.088188976 0.06742463 0.040200457
0001d0 f5 f5 70 3e 7b bf 6b 3e f8 72 0d bd 42 f5 a7 3d
       0.23531325 0.23022263 -0.03453347 0.08201076
0001e0 65 99 39 3d 5c 4c 1c be 3c 14 dd 3c 3e 2e 94 3e
       0.045312304 -0.15263504 0.026987188 0.2894153
0001f0 48 c8 de bd 9b b2 00 be 24 e3 9f bd 2c 11 82 3d
       -0.10878044 -0.12568133 -0.078069955 0.063509315
000200 9e 28 36 3d 8f 9c 49 3e 37 e2 bb 3d e5 85 27 be
       0.04447233 0.19688629 0.091740064 -0.1635967
000210 52 ff d0 bc a3 2d dd 3d bb ad 64 3d 98 87 90 bd
       -0.025512371 0.1079972 0.055829745 -0.070571125
000220 8d 23 e7 3c 91 14 e3 bd cd 97 a4 3d 9f 62 1d 3d
       0.028215194 -0.11087907 0.08036766 0.03842413
000230 e6 4f 81 3b 7c cb de 3d 0a 6d 3b 3c ca d5 97 ba
       0.003946292 0.10878655 0.011439571 -0.00115841
000240 fd 77 4a 3b 7e 8e 1e 3c 55 fc 8c bd 4d 32 a3 3d
       0.0030894272 0.0096775275 -0.06884066 0.079685785
000250 57 0f c4 3d da 21 d3 3d 56 94 5f bd c7 00 e1 bd
       0.09573238 0.10309191 -0.054584824 -0.109864764
000260 25 ee b4 bd b3 cf 50 bd 0b 4b a0 bc 3b 74 d4 3d
       -0.08834485 -0.050979327 -0.019567033 0.10373732
000270 ba 4a 30 3e 9d 69 09 be 5c b4 1a be 90 b5 a1 3d
       0.17216006 -0.13419195 -0.15107864 0.078959584
000280 3e 90 55 be 42 d1 f4 3d 0a 54 4b be 10 91 90 bd
       -0.20855805 0.11953975 -0.19856277 -0.070589185
000290 52 ab d4 3d 8a 28 27 3e 5f a6 30 3d 5a 76 01 3d
       0.10384239 0.16324058 0.043127414 0.03160701
0002a0 0c c0 0e 3e e0 45 71 be 00 b6 2c bd 82 2a 9f 3c
       0.13940448 -0.23561811 -0.042165756 0.019429449
0002b0 f6 bc 17 be 0f bf 60 be fe 1b 9d 3c 89 e4 34 bd
       -0.14818177 -0.21947883 0.019178387 -0.04416326
0002c0 7e d4 9a bc aa cd 87 3c 3b 04 25 bc 5e e7 94 3d
       -0.018900152 0.01657756 -0.010071809 0.07270692
0002d0 a7 ed e3 bc eb 38 f1 3d 59 ee 6c be b4 b7 3b 3e
       -0.027823282 0.11778434 -0.23137797 0.18331796
0002e0 97 a2 45 3d 24 a7 37 3e 83 ad 76 3d 13 6d d5 bc
       0.04825076 0.17934853 0.060224067 -0.026052987
0002f0 89 f5 1d bc 5b 50 bd bd e5 1e 44 3e 23 f3 ae bb
       -0.00964106 -0.09243842 0.1915241 -0.0053390427
000300 58 e8 70 3d d5 df 8c be a7 80 ac 3d 9f 52 8e 3d
       0.05881533 -0.2751452 0.08422976 0.069493525
000310 17 07 c4 bd df 68 f4 3d 2b f3 00 3e 8d 82 cd bd
       -0.09571665 0.11934065 0.12592761 -0.10034666
000320 78 2f ff bd cb 8b ad bd 8c bb d3 3d 47 d0 a4 3d
       -0.12460226 -0.08473929 0.10338506 0.08047538
000330 a3 f9 46 bb f0 64 51 be 58 ec f6 bd 06 ac 08 3e
       -0.0030361197 -0.20448661 -0.12056798 0.13346872
000340 20 0d 76 3d 1d 3f 6d 3e 15 9a 56 3c b9 76 3b be
       0.06007111 0.23168607 0.013098259 -0.18307008
000350 7d cb 54 bc 14 3b f8 b9 d3 af 15 be 0a ca 04 be
       -0.0129879685 -0.00047346263 -0.14617853 -0.12967697
000360 20 77 8d bc 5d 4a a1 3c a8 c8 26 3e b9 81 8a 3c
       -0.017268717 0.01968878 0.16287482 0.01690756
000370 8b c5 9e bd 56 a8 65 bb b2 e9 6b bd 5f 26 f0 3c
       -0.07752522 -0.0035042963 -0.057595916 0.029315172
000380 22 c7 1a bd a4 a5 68 bb c1 d7 0c 3d 5d 45 d4 3c
       -0.037787564 -0.003549912 0.034385446 0.025911981
000390 89 08 19 bc 65 a0 d1 bc b4 8f 69 3c c6 77 1c 3c
       -0.009340414 -0.025589177 0.014255453 0.009550041
0003a0 6e 2f a3 bd 55 5b dc 3d ea 0f fe 3c 26 96 a1 bd
       -0.07968031 0.10759608 0.031013448 -0.07889967
0003b0 9a e3 f0 3b cf 2a 0f be 87 31 d8 3d 92 3c 5d 3d
       0.007351351 -0.13981174 0.105563216 0.054012842
0003c0 fc c5 8d bd 4c 4a cb bd 3b af 8a 3d 88 dc d6 bd
       -0.06922528 -0.099262804 0.06771704 -0.10491282
0003d0 9e 87 d2 3d ae da 61 3d 35 3b 0f 3e 73 75 eb 3c
       0.10279773 0.05514019 0.1398743 0.028742528
0003e0 78 fb 06 bd 15 93 a8 bc 3b f7 f2 bc 4a 21 d7 bd
       -0.032954663 -0.020577947 -0.029658904 -0.10504396
0003f0 46 44 33 be 57 02 eb bd 4f a4 cb 3d 74 f4 9b 3d
       -0.17506513 -0.11475056 0.09943449 0.07614985

network_body._body_endoder.seq_layers.2.bias f4 [128]
000000 7e aa 75 3c 10 e1 98 bc d9 ed 0c bc cc e9 2f 3b
       0.014994262 -0.018662006 -0.008601629 0.0026842235
000010 3e 0b f5 bb 60 ed 93 3c 08 81 d4 bc db 63 f9 bc
       -0.007478147 0.018057525 -0.025940433 -0.030443123
000020 0e ab d8 bc 87 86 5c 3c d5 78 22 bd 9e 6b cc bc
       -0.026448753 0.013459808 -0.039666016 -0.02495366
000030 29 d4 ed bb b4 35 17 bd c1 8a 70 bd 68 0b 23 bd
       -0.0072579575 -0.03691645 -0.058726076 -0.0398058
000040 27 d5 aa bb 66 7b bb bc c3 e1 e7 bc 8c 78 6f bd
       -0.005213398 -0.02288599 -0.028305894 -0.05846457
000050 53 c6 07 bb 78 11 64 bc e1 33 f0 bb d0 2f 86 3b
       -0.0020717576 -0.0139201805 -0.007330403 0.004095055
000060 f0 06 19 bc be 96 97 3b db d0 2f 3c 03 bc 4a bc
       -0.009340033 0.004626124 0.010730947 -0.012373927
000070 d8 e7 a6 3c c4 ad b2 3c e9 68 73 bc 8f 25 2e bd
       0.020374224 0.021811374 -0.0148565555 -0.042516287
000080 3e 6e b6 3c f1 4d 1b 3d ce 6d ce bc a7 21 ab 3c
       0.022269364 0.037916128 -0.025198843 0.02089007
000090 09 4f f6 bc f8 92 16 bd 66 61 35 bc 49 ad d0 bc
       -0.030066984 -0.036761254 -0.011070585 -0.025473254
0000a0 af 9a 18 bd cb 7f 85 3c 93 69 33 bd 2a 44 b6 3b
       -0.037256893 0.016296288 -0.043801855 0.005562325
0000b0 d9 f8 0a 3c 5d b1 ae bc 2d d5 5f bc 43 6f 1f bc
       0.0084821815 -0.021324808 -0.013661665 -0.009731117
0000c0 3f 3d 8b ba 76 bc 15 bd 22 47 d3 b9 b2 12 36 3b
       -0.0010623111 -0.036556683 -0.00040298054 0.002778214
0000d0 c1 50 72 bc 76 ab 49 bc cf 77 8f bc 53 2b 58 bc
       -0.014789761 -0.012308946 -0.017513184 -0.013193923
0000e0 29 86 43 bb 47 1e 0f 3c ac e4 11 bc 1f 4e 61 bc
       -0.0029834604 0.008735246 -0.008904617 -0.013751536
0000f0 ea ab 06 bd 6c 12 8a 3c ac bb 26 bc 53 78 b2 3c
       -0.032878794 0.016854487 -0.01017658 0.02178589
000100 fa 2b 48 bd cf 18 37 bc 27 3a 27 39 5e 40 17 3a
       -0.048870064 -0.011175348 0.00015948025 0.00057697843
000110 07 ce b3 3a 6d 4a 06 bd 27 33 ba bc 95 4d c8 bc
       0.0013718017 -0.03278582 -0.02272947 -0.024451056
000120 c1 ed 8a bc 02 e7 e1 bc a1 2e 83 bd de a2 0d bd
       -0.016959073 -0.027575973 -0.06405378 -0.03457915
000130 b4 58 a9 bc 25 e6 b1 bc 04 e2 8a bd f7 13 6f bb
       -0.02067218 -0.021716187 -0.0678139 -0.0036480406
000140 92 4e 17 bd c6 19 8a 3c 64 b7 c3 bc 6c db 9b bb
       -0.036940165 0.016857993 -0.023891158 -0.0047563817
000150 2c 26 3f 3c 5e 1a 03 3d c9 b0 28 bc c1 1e d6 bc
       0.011666816 0.032007568 -0.010296055 -0.026137711
000160 7a 83 24 bd 56 a5 40 bc 98 17 65 bc 19 0f ca 3a
       -0.04016445 -0.011758169 -0.013982676 0.0015415876
000170 14 fe c6 3b 36 fd dc bc 5b 24 42 3c 43 c3 9e bc
       0.006072769 -0.02697621 0.011849488 -0.019380217
000180 2c 48 4f bd d2 01 00 3d 18 a1 ac 3c 8e 7f d2 3b
       -0.050605938 0.031251736 0.02107291 0.006423897
000190 5d ed 93 3a 97 d7 b3 3b 91 2c 18 3d 00 b9 5b 3b
       0.001128595 0.005488347 0.037151877 0.0033527017
0001a0 03 fe 98 bc 49 aa 33 3c 7c f2 58 bd f7 02 2b 3c
       -0.01867581 0.010965892 -0.052965626 0.010437719
0001b0 cc c2 17 bd c8 f9 fb bc 3e a3 03 bd 75 5b 1d 3c
       -0.037051007 -0.030758753 -0.0321381 0.009604325
0001c0 e0 d0 10 3b 16 46 5c bd 22 20 d9 bc ce 11 87 bc
       0.0022097155 -0.053777777 -0.02650458 -0.016487982
0001d0 d4 fb 6d bb c4 83 de bb 33 71 25 bc 93 05 01 bd
       -0.0036313431 -0.00679061 -0.01009779 -0.031499457
0001e0 fc 01 6e ba 9d 56 ed bb 66 bd bf bc 26 e1 c6 bb
       -0.0009079275 -0.007242991 -0.023405742 -0.0060693203
0001f0 af 45 60 3c 1b d8 16 3b e8 d8 4b 3b ba 6f cb bc
       0.013688489 0.0023016992 0.0031104628 -0.024833549

network_body._body_endoder.seq_layers.2.weight f4 [128, 128]
000000 00 7a 89 bd d2 9b 48 be e6 65 e0 bc 66 4f fa bd
       -0.06712723 -0.1959069 -0.027392339 -0.12222175
000010 24 58 f4 3c f3 31 f8 bb b9 53 80 bd da 97 92 3d
       0.029827185 -0.007574314 -0.06265969 0.0715787
000020 9b 64 45 bd 02 4a 88 bd aa be 88 bd b9 44 00 3e
       -0.048191648 -0.06654741 -0.06676991 0.12526216
000030 fe 4e 89 3d 08 d8 c1 3a e4 fd 84 be 5f 40 b2 3d
       0.0670452 0.0014789114 -0.25974953 0.08703684
000040 6f 7d 85 be 9c f8 40 3d 78 9f f8 bd 1d c9 c4 bc
       -0.2607226 0.047112092 -0.12139791 -0.02402168
000050 cb c5 4c 3d 47 f3 8a be e5 f0 06 be 16 ac c0 3d
       0.049993318 -0.2713873 -0.13177831 0.09407823
000060 3a 9d 95 bd 71 24 a7 bd 88 e2 65 3d 73 01 af 3d
       -0.07305379 -0.081612475 0.05612424 0.08545198
000070 72 e6 e5 bd a4 45 c9 bc 37 11 cb bd 6e 3e 92 3c
       -0.112255946 -0.02456934 -0.09915393 0.017852034
000080 d0 75 10 3c 00 ae 93 3d 68 cf f4 ba 05 0a ac 3c
       0.008817151 0.07210922 -0.0018677535 0.021000871
000090 69 9f 0f be b9 1f e0 3a 1e 0c ab bc 63 3b 64 3d
       -0.14025654 0.0017099298 -0.020879801 0.055720698
0000a0 e6 70 a6 bd 4c 60 66 bd cf c1 d2 3d 8e 14 35 bd
       -0.081270024 -0.05624418 0.10290872 -0.044209056
0000b0 94 ca 50 bd 55 ae 2c bd e1 a0 9f bd ca fc ad 3d
       -0.050974444 -0.042158443 -0.07794357 0.08495481
0000c0 f7 67 20 3e 40 06 c4 3d 25 0d b6 bd 23 77 5a 3c
       0.1566466 0.095715046 -0.08889226 0.0133340685
0000d0 b3 56 ab bc a9 5d 9d bd 0b a9 5a bd 20 48 09 3e
       -0.020915365 -0.0768388 -0.05338387 0.1340642
0000e0 31 d1 a9 3d bf cc 0d bd 5d 9e 14 3d 1c b1 f1 3d
       0.08291853 -0.03461909 0.03628384 0.11801359
0000f0 88 eb 76 bc d3 1d 89 3d 8b 26 16 bd 61 c7 81 be
       -0.015070803 0.06695142 -0.03665785 -0.25347427
000100 9a 79 c6 bd 2d 5c a7 3c f3 19 3d 3d 57 20 bd bd
       -0.096911624 0.020429695 0.046167325 -0.09234684
000110 38 3a ca 3d 5e 63 10 be b9 c4 05 3c 85 e8 0c 3d
       0.098743856 -0.14100406 0.008164578 0.034401435
000120 f7 dc 67 bd 2b eb fb bc df 45 c5 3c 03 f3 d0 bc
       -0.056607213 -0.030751785 0.024081169 -0.025506502
000130 05 4b 56 bc 1a 64 cc bd d5 9f 2c bd 05 54 a5 3d
       -0.0130794095 -0.0998003 -0.042144615 0.08072666
000140 b1 8c b5 bd 56 37 20 3e fe 26 39 bd 34 81 78 3d
       -0.088647254 0.15646109 -0.0452032 0.060670093
000150 f6 0b 87 3d 27 13 ad bc b4 56 7e 3d 7c f8 30 be
       0.06594078 -0.021127297 0.062094405 -0.1728229
000160 3c 0f 28 3c 5e ac 94 bd b1 db 30 be c2 28 80 bd
       0.010257538 -0.07259439 -0.17271306 -0.06257774
000170 45 f4 db 3d da a7 ae bd 73 de ab bd a7 be 0b 3e
       0.1073995 -0.08528109 -0.08392038 0.13646947
000180 f4 55 14 bd 71 c6 45 3c 32 00 f3 bd 59 ab b6 3c
       -0.036214784 0.012071238 -0.11865272 0.022298502
000190 6b 08 94 bd 1d d3 b8 bd 24 cd 17 3d f4 e5 c2 3c
       -0.07228168 -0.09024642 0.03706087 0.02379129
0001a0 58 24 e4 3d 14 5e 88 bd 67 73 d2 bc 70 d5 4f 3c
       0.111397445 -0.06658569 -0.025689794 0.012685165
0001b0 c7 06 73 3b 6b 35 18 be 4b 2c 1b bc 6f 8d e1 bd
       0.0037082897 -0.14864127 -0.0094710095 -0.110133044
0001c0 4b 67 3e 3d 3b cf 7f 3c 44 7d 66 bd 74 7a 86 bd
       0.046485227 0.015613372 -0.056271806 -0.06566325
0001d0 af 48 e7 bc 12 79 ec bd 07 e6 02 be ef ce b4 bd
       -0.0282329 -0.1154653 -0.12783061 -0.08828532
0001e0 88 55 02 3e 6c 95 b1 bd 70 1d ff bb 4d 5d 0e 3e
       0.1272794 -0.08671078 -0.0077854916 0.13902779
0001f0 59 b6 27 3e 00 f3 81 be 5a a9 9c bd 33 04 50 be
       0.16378154 -0.25380707 -0.07649489 -0.20314102
000200 20 5d 68 3d 8f e4 be bd d9 19 46 3c 92 62 34 be
       0.056729436 -0.09320938 0.0120911235 -0.17615727
000210 1c 19 6a 3d dc 60 12 3e 78 1a 84 bd f1 c7 45 bd
       0.057152852 0.14294761 -0.06450361 -0.048286382
000220 63 92 d6 3d 8e 1f 95 3d 04 39 3b bd 6a 9d 01 3e
       0.1047714 0.07281409 -0.04570867 0.12657705
000230 4d 46 c2 bd 4b 77 d6 3c e9 6d b3 3c 3f 2f 51 3e
       -0.09486065 0.02617993 0.021902995 0.20428179
000240 8e 77 31 3c c9 8f 43 bd 0b ae f8 bd d4 9b 84 bd
       0.010831727 -0.047744546 -0.12142571 -0.06475034
000250 5d cf a7 bd 5d a4 94 bd d0 03 bf bc db 97 88 bd
       -0.08193848 -0.07257912 -0.023317248 -0.06669589
000260 b5 d3 2c bd 3c 68 5a be 35 62 cd bd ff 84 c1 bc
       -0.042194087 -0.21328825 -0.10028497 -0.023622988
000270 d0 fb 5d bb 87 25 c2 bd b4 59 3f bd 58 8b a2 bd
       -0.0033872016 -0.09479814 -0.046716407 -0.07936734
000280 03 63 cf bc 97 8c 84 bd 79 6d 22 be b7 00 87 bb
       -0.025315767 -0.06472128 -0.15862073 -0.0041199583
000290 ac 77 1c be 74 e8 f3 bd 13 2a 83 3d 24 9e e2 b7
       -0.15280026 -0.11909571 0.064045094 -2.701494e-05
0002a0 ae 49 04 3e 13 f0 10 bd 7f 01 07 3e 81 72 77 bd
       0.12918732 -0.035385203 0.13184164 -0.060411934
0002b0 c1 72 5a 3d 87 15 fa 3d d6 fc 3a be 35 5f a8 bd
       0.053332094 0.12211137 -0.18260512 -0.08221284
0002c0 19 bf b4 bd 77 1f 2f bd 34 74 3a be 5d 9a bc bd
       -0.088255115 -0.042754617 -0.1820839 -0.0920913
0002d0 9d 87 ee bd 6e cb 93 3d 7a cb 4f bd 99 84 00 3d
       -0.1164696 0.072165355 -0.05073116 0.031376455
0002e0 a8 c8 16 be 1c 53 f2 3d e3 f7 ef 3c 12 0d 43 bd
       -0.14724982 0.11832258 0.029293006 -0.047619887
0002f0 ab 73 1d be 0c 68 cb 3d ba fb bd 3c ec 97 ba 3d
       -0.15376155 0.09931955 0.023191322 0.09111008
000300 2a fd 21 3e 9c f3 81 bc e2 62 3a be c2 07 7a bc
       0.1581923 -0.015863232 -0.18201783 -0.015260639
000310 72 a2 42 3d 6c 75 dd bd 87 1c 09 bd 59 97 20 be
       0.0475182 -0.10813412 -0.03347447 -0.15682735
000320 63 b8 33 be b2 46 c5 3b 94 ca 69 3e 5a f5 55 3d
       -0.17550807 0.0060203904 0.22831184 0.05223594
000330 ae 05 53 bd d1 0d d9 3d 28 b8 c0 3b 5a ff 22 3d
       -0.05151909 0.105983384 0.005881328 0.039794303
000340 8b 21 2a be 6d f2 ec bb 6d 69 1e 3e 98 e6 4c 3c
       -0.16614358 -0.007231048 0.15469904 0.01250615
000350 5f ab 88 bd 58 2b a2 3b 60 79 47 bd 3e 65 d2 bc
       -0.066733114 0.0049490146 -0.048699737 -0.025683042
000360 75 ec 2f bd b0 8f e2 bd b1 27 7b 3d a4 ee 09 bd
       -0.042950112 -0.110625625 0.06131715 -0.03367485
000370 e0 89 82 3d 1c 17 92 bd d4 c2 c4 3d 28 c6 57 3c
       0.06373954 -0.07133314 0.09607473 0.013169803
000380 b0 87 f9 3c 12 e5 e9 3c 76 34 e1 3c 10 1b 42 bd
       0.030460209 0.028551612 0.027490836 -0.04738909
000390 8c db 10 3e 40 0b a3 3d 88 2e d5 3d e2 60 d8 bd
       0.1414625 0.0796113 0.10409266 -0.10565354
0003a0 e2 34 16 be 27 4a f3 3d 92 5b e0 bd 28 bb f5 bc
       -0.1466861 0.11879378 -0.10954966 -0.02999647
0003b0 79 dc 74 3d cd 1d 9d bd df 9d 80 3d ac 83 5c 3d
       0.05978057 -0.076717 0.062801115 0.05383651
0003c0 55 54 8e bc 15 26 01 bd a4 d3 1a 3e ca 04 02 bd
       -0.017374197 -0.03153046 0.15119797 -0.03174285
0003d0 05 0c 06 bc 7d 45 79 bd b5 1a 92 bd 15 42 7d be
       -0.008181577 -0.060857285 -0.07134 -0.2473224
0003e0 91 52 60 bc 5c 40 74 3d 2b 62 b8 3d d4 8c e6 bc
       -0.01369156 0.05963169 0.09003099 -0.028143324
0003f0 7f 75 4e 3e c8 67 24 3d d7 4e b8 3d 5d 48 d4 bd
       0.20162009 0.040138036 0.089994125 -0.10365365
