Assets/ML-Brains/Backups/ResultsScenario_00.onnx (onnx, 120062 bytes, 9 tensors)

action_model._discrete_distribution.branches.0.bias f4 [7]
000000 54 05 a0 bb 3f 9c c4 bb 93 b8 0a 3c b3 3d b3 3b
       -0.0048834477 -0.0060000713 0.0084668575 0.0054700016
000010 21 2f 40 3b 79 19 e7 bb fe ba 61 ba
       0.0029324966 -0.007052597 -0.0008610933

action_model._discrete_distribution.branches.0.weight f4 [7, 128]
000000 0c 87 1a bd cc 3b 00 bb d6 0e f2 3b 34 23 c2 bb
       -0.037726447 -0.0019566892 0.0073870225 -0.0059246067
000010 d3 cf a8 bc 7a 23 ea bb 4f 5d ce bb 5b 7b b0 3c
       -0.02060691 -0.0071453424 -0.0062977443 0.021543195
000020 a4 45 d0 3b f5 79 53 3c a4 df 05 bb e2 96 a4 bc
       0.006355958 0.012907495 -0.002042749 -0.020091478
000030 9a 6c 63 bc 81 a8 22 3a f8 7c 72 bc ca bf da 39
       -0.013880873 0.00062049186 -0.014800303 0.00041723094
000040 a4 54 27 3a f9 c3 b5 3c dc f5 c7 bb f7 4d 67 bc
       0.0006383157 0.022188174 -0.006102307 -0.014117709
000050 79 8c 2f bb 27 c0 0f bc 91 6a 8a 3c f2 bd 71 bb
       -0.002678661 -0.00877384 0.016896518 -0.0036886898
000060 c5 cf ad 3a ee 1b 07 bc bc 4c d0 bb 8a ef b3 bc
       0.0013260773 -0.008246405 -0.0063568037 -0.021964807
000070 2a 18 37 3c 41 db c5 3c a9 5e 6f 3c 3d 00 b4 bb
       0.011175195 0.0241524 0.014609971 -0.0054931925
000080 d9 24 58 bb 85 0c c9 3c 4a 00 50 3c bc 87 82 bc
       -0.0032980947 0.024542103 0.012695381 -0.015933864
000090 a5 e9 ad bc 2e 91 f6 bb 69 d5 eb bb b0 65 e5 38
       -0.021229574 -0.007524631 -0.0071970713 0.00010938512
0000a0 50 b6 f1 bb 4e ac 02 bc 20 bf 63 bb 32 a4 91 ba
       -0.0073764697 -0.007975651 -0.003475137 -0.0011111556
0000b0 7b 07 cf bb c0 ae f2 bb 91 09 92 3c ee e2 51 bc
       -0.0063180304 -0.0074060857 0.017826827 -0.012810452
0000c0 c5 ae 99 bc e4 56 82 bb 8e ef 8d 3b 51 09 2b 3c
       -0.018760094 -0.0039776433 0.0043315357 0.010439233
0000d0 6a b3 11 3a ac 64 a4 3c e8 33 0d bb 3d 8f af 39
       0.0005558046 0.020067535 -0.002154583 0.00033485322
0000e0 9e 6e 63 bc 46 bc 15 bb 1f 8f 26 bd bb 3e 5e bb
       -0.013881354 -0.0022847815 -0.040663835 -0.0033911902
0000f0 37 a7 6e 3c 9b da 82 bc 4e 4b 92 3c 62 d6 4d bb
       0.014566234 -0.01597338 0.017858174 -0.00314083
000100 c4 70 b4 bb f5 82 2b 3c 5f 13 1c bc 1e 6c 35 3b
       -0.005506607 0.010468234 -0.009526103 0.002768285
000110 d3 22 a1 3b 97 11 43 bb 3c 05 2a 3c 4f 07 04 bc
       0.0049174814 -0.0029765123 0.010377225 -0.008058383
000120 32 e3 0a 3d 31 34 a5 bb 59 a1 01 3c 23 71 2b bb
       0.033908077 -0.005041622 0.007912003 -0.0026159964
000130 fb 7b 8e 3c 16 0c e9 bb 81 05 b4 3c 6f 86 66 3c
       0.017393103 -0.0071120365 0.02197528 0.014070137
000140 b7 c8 84 bc c3 23 5b 3b d4 b3 a1 bb 0d 47 06 3d
       -0.01620899 0.0033438064 -0.0049347673 0.032782603
000150 53 66 6a bb b3 7b 25 39 93 70 92 bc 84 e2 d0 bb
       -0.0035766556 0.00015781708 -0.017875945 -0.006374659
000160 7d 8b 5e bc 78 af 13 3d 44 e4 87 bc 5d 70 8f 3b
       -0.013583061 0.036056012 -0.016588338 0.0043774084
000170 84 6d 13 bc a9 c1 8b 3d ff 4d d2 3b fd a2 b1 bb
       -0.0089982785 0.06824047 0.0064179893 -0.005421041
000180 0c b0 98 3b 7a 22 61 3c d3 73 36 bb ee ae 4c bc
       0.0046596583 0.01374113 -0.0027840033 -0.012492878
000190 d3 12 54 3a f1 fc f8 bc b6 74 09 3c 97 a0 18 bc
       0.0008089963 -0.03039405 0.008389642 -0.009315631
0001a0 6c 0a 7e 3c 07 67 bb bb 3d c6 0e bd c7 09 fa bb
       0.015505414 -0.005719069 -0.034857024 -0.00763056
0001b0 f1 b7 34 bc 35 a0 3a 3b 29 24 0b 3d eb 85 63 3c
       -0.011030183 0.0028476838 0.033970032 0.013886909
0001c0 b5 27 90 3c 73 02 a2 bc f6 ef 99 3c c2 7b 0a 3c
       0.017597059 -0.019776559 0.01879118 0.008452358
0001d0 d4 e6 1b bc 49 b4 50 3b 5f 4e d2 ba db 8f 2b 3c
       -0.009515483 0.003184574 -0.0016045085 0.01047131
0001e0 99 f3 12 ba 9b e4 10 bb 51 57 9d bc 83 fd f1 bc
       -0.0005605757 -0.0022108916 -0.019206675 -0.02953983
0001f0 82 d5 54 bc d7 86 a8 3c 88 af 9f bc c8 27 a4 ba
       -0.012990357 0.02057211 -0.01949288 -0.0012524063
000200 7a fb a7 bc fb 0e 34 3b 18 92 49 bc 91 3e 9d bc
       -0.020505656 0.002747475 -0.012302898 -0.019194873
000210 86 18 98 bc 09 47 d4 bc 68 ba 2e bb 04 9c 1a bc
       -0.018566381 -0.025912778 -0.00266614 -0.009436611
000220 67 04 51 3c 9d 78 d6 3b da a9 66 3c cf 68 a9 3b
       0.012757397 0.00654514 0.014078582 0.005169965
000230 bb a5 30 3c af a2 61 3c 45 fc 12 bb d3 db 4f bb
       0.010781701 0.013771697 -0.0022428196 -0.0031716719
000240 91 c8 d6 3a 57 b8 0e 3c 2c 54 c9 3b fa 33 7c 3c
       0.0016386678 0.008710942 0.0061440673 0.015393252
000250 dd 9b 0a bc 26 15 16 3c e0 bb 51 3c f4 c2 d2 bb
       -0.008460012 0.009160316 0.012801141 -0.0064319316
000260 e1 86 03 3c 8d d2 cd 3b 89 fc 61 bc c7 df 08 3c
       0.008027763 0.006281203 -0.013793119 0.008354134
000270 ee 83 d6 bc 78 cb 10 bd a0 8a 78 bc ee a5 40 bc
       -0.026185956 -0.035350293 -0.0151697695 -0.011758311
000280 ea 50 97 bc 23 3d 86 3c ea 2c b3 bb b3 a2 d0 bb
       -0.0184712 0.016386574 -0.0054680007 -0.0063670515
000290 cc 56 f0 3c 72 91 99 3a e9 9c 95 bc 08 fa 0f bb
       0.029338263 0.001171632 -0.018263297 -0.0021969099
0002a0 f3 b5 01 bd 70 7d 48 bc 86 41 2e 3c 6e b2 3b 3d
       -0.03166766 -0.012236938 0.010635739 0.04582446
0002b0 b7 11 53 bc 1c 21 a6 bc 1e d5 57 bc af 36 f3 3b
       -0.0128826415 -0.02027946 -0.01317337 0.0074222903
0002c0 65 a9 61 bc bb 54 98 3c c8 be 1b 3b 49 3f 23 bc
       -0.013773297 0.01859509 0.0023764838 -0.009963819
0002d0 82 1f 0c bc 45 45 90 3c 37 4d c8 3c 37 ef b0 3b
       -0.008552434 0.017611155 0.024450881 0.0053996104
0002e0 f1 6b 80 bc 28 e3 c0 3c dc 3c 55 ba a9 f0 a4 3b
       -0.01567647 0.023545817 -0.0008134374 0.0050335717
0002f0 39 cf 01 bc 41 e8 7e 39 92 25 70 3c 6c 4e b8 3a
       -0.007922941 0.00024309849 0.014657395 0.0014061457
000300 9f 36 bd bc 6f a3 04 3d 12 c7 17 bd 8a 10 46 3c
       -0.023097334 0.032382425 -0.037055083 0.012088904
000310 cb 68 b7 bc f7 03 c6 3b 6b 87 09 bc 54 6c ab 3b
       -0.022388836 0.006042953 -0.008394103 0.0052314196
000320 37 7a 31 bd ee cb b6 bc 25 68 a7 bc 57 cb f5 bb
       -0.043329444 -0.022314038 -0.020435402 -0.0075010466
000330 6c 3a 87 3b dc cf e7 b9 e9 c5 42 bc e9 be a1 bc
       0.0041268375 -0.0004421462 -0.011888006 -0.019744353
000340 13 5a 8d bc 95 92 d7 3b c7 9b 6a 3c 9b 9f 2a 3d
       -0.017254865 0.0065787532 0.014319367 0.041656118
000350 d3 6f 58 bc f2 16 8f bc de b8 90 bc 5e 4f 2a b9
       -0.013210255 -0.017466996 -0.017666277 -0.0001624203
000360 29 26 10 bc 8c 13 31 3c ae ad aa bc d4 7b 97 bc
       -0.008798161 0.010807883 -0.02083477 -0.018491663
000370 cc 91 ea bb 9a 2c d9 3b d3 1e 4c 3b 1f 43 25 bb
       -0.0071584936 0.0066276314 0.0031146302 -0.002521701
000380 cd 66 bb ba 17 5b 82 3c 66 3a 5f 3b e4 ed 08 3c
       -0.0014297605 0.015912576 0.0034061908 0.008357499
000390 15 60 c2 3b 6b 66 26 3d 58 cf 5c bb b2 96 10 bb
       0.005931864 0.040625017 -0.0033692922 -0.0022062478
0003a0 d8 1c cb 3c b1 84 eb 3b 7f 0e 2d 3c 2b b7 06 3d
       0.024794027 0.007187449 0.010562538 0.032889526
0003b0 6a 98 48 bc 33 4d c6 3b 81 55 9e 3c a2 e4 01 bd
       -0.01224337 0.0060516833 0.01932788 -0.031712182
0003c0 c2 02 8e bc a2 8b 83 3c 38 c9 ba 3b e7 ea b3 3b
       -0.0173353 0.016057793 0.0057002567 0.005490649
0003d0 7b f3 86 3c ff f0 1b 3c 11 20 8f bc 55 0f e6 bc
       0.016473522 0.009517907 -0.017471345 -0.028083483
0003e0 63 70 20 39 ee d5 06 3c 75 43 78 bc ff f1 30 bb
       0.00015300656 0.008229716 -0.015152802 -0.002699971
0003f0 fa 56 ea bc cb 00 44 3d 05 b1 b1 3c 59 71 39 3a
       -0.028605927 0.04785232 0.021690855 0.000707408

action_model._discrete_distribution.branches.1.bias f4 [2]
000000 44 6e d4 3b 51 6e d4 bb
       0.0064828712 -0.0064828773

action_model._discrete_distribution.branches.1.weight f4 [2, 128]
000000 84 23 4d bc 69 e6 25 bd 2e 44 32 3b 2f 64 d8 3b
       -0.012520675 -0.04050294 0.0027201283 0.0066037397
000010 cb da 9c bc 03 72 89 39 ef e6 84 bc 8c 63 20 bc
       -0.019147297 0.00026215622 -0.016223399 -0.009789359
000020 9e 86 32 3b f8 6d a5 bc 59 a8 93 bc 60 ab 87 3c
       0.0027240883 -0.020194039 -0.01802461 0.01656121
000030 1c 80 2c bb 84 ad c9 39 83 6c 32 bc 44 93 8a 3c
       -0.0026321476 0.00038466987 -0.010890129 0.016915925
000040 c6 18 72 3b ec 7a a3 3c d3 22 16 3c 01 5b 34 3b
       0.0036941036 0.019956075 0.009163576 0.0027520063
000050 bd dd dd 3b 0b 98 57 3c 67 34 0d 3a cd 0d a1 bb
       0.006770818 0.013158808 0.00053865317 -0.0049149753
000060 af 70 91 ba 45 82 b2 3b c2 d9 8e bb 48 b0 94 bc
       -0.0011096204 0.0054476582 -0.004359455 -0.018150464
000070 27 ce 93 bc 56 7c f6 3c 59 85 e3 3b 57 aa 56 3c
       -0.018042637 0.030088585 0.0069433865 0.013102136
000080 85 c6 fc 3b 5d 38 ea bb ad 84 12 bc 10 38 00 3c
       0.007714095 -0.0071478323 -0.008942765 0.007825866
000090 32 9d 40 bc 7e aa f1 bb 8f 3a 0f 3c 1d 91 aa bb
       -0.011756228 -0.0073750606 0.008741989 -0.005205287
0000a0 47 f4 4b 3b eb cb ce ba b5 fe f3 b9 ae f3 97 bb
       0.0031120942 -0.0015777325 -0.00046538343 -0.004637203
0000b0 0a 53 00 3a cd 5c 87 bb 59 7d 5e bc 81 d8 8e bc
       0.0004895186 -0.0041309358 -0.01357969 -0.017437221
0000c0 00 21 3d bb fe da 88 3c 04 d5 63 ba 2a 0f fd 3b
       -0.002885878 0.016705986 -0.00086911046 0.007722755
0000d0 46 06 5e 3b 51 12 6a bd 50 ea f6 bb ac be 24 3c
       0.003387825 -0.057146374 -0.0075352564 0.010055225
0000e0 92 12 62 3c cf ed 17 3c 46 8a e0 bc c2 d8 72 3b
       0.013798373 0.009273007 -0.027409684 0.0037055467
0000f0 18 e6 80 bc e4 a3 8b 3a 7d d8 cf 3c c5 63 32 bb
       -0.015734717 0.0010653702 0.025371784 -0.0027220112
000100 21 5f 2e 3c b4 1f e2 bc f2 6a 1f bb 2c a2 4a 3c
       0.010642798 -0.027603008 -0.002432522 0.012367766
000110 3b 92 65 bc fa ab d0 bb 02 cc 99 3a 2e 2b b3 3b
       -0.014011915 -0.0063681575 0.0011733773 0.005467794
000120 17 a0 36 3c e4 f0 32 3c 25 bb a1 3c f3 d7 05 bd
       0.011146567 0.010921691 0.019742558 -0.03267665
000130 b8 ac 01 bc 33 39 1d 3c f1 58 ba 3b d1 24 01 ba
       -0.0079147145 0.009596157 0.005686872 -0.00049264455
000140 3a ad 82 bc 04 0b bc 39 ed 6d 9b 3c f7 72 f6 3b
       -0.015951741 0.00035866362 0.018973315 0.007521029
000150 7d c1 8a 3c 6b 20 1e 3c d2 b3 37 bb 54 5d 57 bb
       0.016937966 0.009651284 -0.0028030765 -0.0032862024
000160 43 71 4f bb a3 39 22 3d f6 26 30 3c ee 9f 6b 3b
       -0.0031653203 0.039605748 0.0107514765 0.003595348
000170 81 1d 46 3c 1b cd b9 bc a4 c7 4e 3c 6d 1a 08 3c
       0.012091995 -0.02268081 0.01262084 0.008307082
000180 7c 1f 9c 3c 82 13 3f 38 13 d1 0a 3c 80 88 e9 bb
       0.019057982 4.5556117e-05 0.008472699 -0.007126868
000190 e8 df 34 bc 82 7d c4 3b 31 72 cc ba 2c 97 86 bb
       -0.011039712 0.005996407 -0.0015597997 -0.0041073766
0001a0 cc 32 20 bc 4c 16 63 3c 02 24 b5 bc d0 ee 60 bd
       -0.009777736 0.013860296 -0.022111896 -0.05491525
0001b0 aa c6 97 b9 21 38 52 bc d5 21 58 3c db 74 30 bc
       -0.0002894898 -0.012830765 0.01319166 -0.010770048
0001c0 2c e8 2c bc e4 e3 27 3d 0e b0 dc bc f6 34 28 3b
       -0.010553401 0.040988818 -0.026939418 0.0025666333
0001d0 86 a1 35 bb 0d 7e 3c 3c bc dd 83 bb ee 57 96 3c
       -0.0027714684 0.011504662 -0.0040242355 0.018352475
0001e0 a2 df cb 3b db 77 d5 3b ee af a0 3b 1f 2f 0b bc
       0.0062217275 0.006514532 0.004903785 -0.008495121
0001f0 cd 95 43 3c e6 86 1b 3b 4c a4 19 3b 07 e5 3e 3b
       0.011937571 0.0023731529 0.0023443876 0.002912821
000200 fd da 01 3c ba 51 a0 3c a5 34 07 bc 88 b9 3b 3c
       0.007925746 0.01957022 -0.0082522975 0.011457808
000210 48 0a 2d 3c 06 74 61 3b 39 30 8c bc 06 57 dc bb
       0.010561533 0.003440143 -0.017112838 -0.006724241
000220 32 dc 2c bc b8 3d 46 3c 58 ef 01 3d e0 ef ad 36
       -0.0105505455 0.012099676 0.031722397 5.183727e-06
000230 09 5f 7d bc 0a 98 88 bb 7e fb 46 bc 02 9b 63 bc
       -0.015464553 -0.004168515 -0.012144921 -0.013891937
000240 23 42 a0 bb 9e ef dd bc 1e c0 d7 bb cf 2f dd 3a
       -0.0048906966 -0.027091797 -0.0065841815 0.001687521
000250 a4 9a 8d 3b f6 c0 6f bc 6b cb 11 3c 93 6f 1f bc
       0.004321413 -0.014633408 0.008898596 -0.009731191
000260 5c 8d 3b ba d1 db 1f 3c 4d af 70 3b 94 23 75 3c
       -0.0007154548 0.009756998 0.003672558 0.014962096
000270 3b ed 66 3c 83 f3 37 bd dd 61 54 bc 80 35 14 3c
       0.014094646 -0.044909965 -0.012962786 0.0090459585
000280 37 65 a3 3b 1c 3f 30 3c 3b 2e 15 3c 9a 31 72 3c
       0.004986431 0.010757234 0.0091052605 0.014782334
000290 ca 78 7a 3c 42 2e 39 bc 67 f0 ca bb 97 8b 43 3b
       0.015287587 -0.011302533 -0.006193209 0.002983784
0002a0 fd 3b 3c 3b 0b 74 02 bb 61 f3 e3 bb 06 6e af bc
       0.002872228 -0.0019905593 -0.0069565033 -0.021414768
0002b0 01 5f db 3b 30 1d 5b bc d4 e8 b6 3b d2 b6 1b bb
       0.006694675 -0.013373658 0.0055819545 -0.0023760092
0002c0 30 3b ab 3b ee 29 d1 3b cf e9 76 bc ab 99 37 ba
       0.0052255616 0.0063831722 -0.015070393 -0.00070037943
0002d0 5e ba 82 bc cc da 05 3d 05 64 77 3c 8b ce d7 3b
       -0.015958007 0.032679364 0.01509953 0.006585901
0002e0 fe f8 4c bb a6 2d a5 bc 29 94 21 3d 9e d5 cd bb
       -0.003127634 -0.020163368 0.039447937 -0.0062815687
0002f0 8d 41 6c 3c 3e 6a d1 3b 0b d5 cb bc 78 88 49 3b
       0.014419925 0.006390839 -0.02488186 0.0030751508
000300 95 df 60 3b 47 41 02 3d 06 81 98 3c 55 ee 8c bb
       0.0034312953 0.031800535 0.01861621 -0.0043008723
000310 c0 1a b7 3b 5d 61 23 3c cf c2 08 3c a4 e4 17 bb
       0.0055879056 0.009971944 0.008347227 -0.0023177052
000320 93 69 bc bc be 5a f3 ba 36 63 49 b8 00 22 f2 3c
       -0.02299956 -0.0018566472 -4.801453e-05 0.029557228
000330 d4 84 09 bc 58 49 36 3b 9a 04 b4 bc 25 46 90 3a
       -0.008393485 0.0027814712 -0.02197485 0.0011007233
000340 5c 97 f7 ba 3a 25 cc bb ba c8 63 bc 3e 51 b8 bb
       -0.0018889713 -0.0062300237 -0.013902837 -0.005624919
000350 61 8f 57 bc bd 13 55 3b 75 80 df 3b 42 fb 80 bb
       -0.013156743 0.0032512986 0.006820733 -0.0039362023
000360 bc 6a b5 bc 3c bd bc bc 93 8c 10 3b 89 1e 78 3a
       -0.022145621 -0.023039453 0.0022056445 0.00094649993
000370 70 c3 c2 bb 43 63 dd 3c 32 c4 2d bc eb b2 9c 3c
       -0.005943708 0.02702487 -0.010605859 0.019128283
000380 8c 83 90 bc 10 3c 83 3b c6 e8 2a bc 7e 2c 46 bc
       -0.017640851 0.0040049627 -0.010431474 -0.012095569
000390 01 fa ef 3c 34 18 3a 3c 5e a8 31 bb 13 2e 33 ba
       0.029294016 0.01135831 -0.0027108411 -0.00068351737
0003a0 4d bb 0b 3b 2f 84 cc bc f1 51 64 3c c1 46 05 3d
       0.0021321357 -0.024965374 0.013935552 0.03253818
0003b0 be 87 30 ba bb 92 ec bb b0 79 e9 bc f9 91 07 3d
       -0.00067340943 -0.00721964 -0.028500408 0.033098195
0003c0 d0 4c 21 bc 0e 22 ef bc 17 58 3d 3d ba 47 42 3c
       -0.009844974 -0.029191043 0.046226587 0.011857921
0003d0 a5 f5 33 bc 61 f8 ef ba 23 87 6f bb 7b df 93 bc
       -0.010983859 -0.0018308276 -0.0036549054 -0.0180509
0003e0 69 41 19 3a 9b f8 35 3b bc d3 58 3c 60 2c e0 3b
       0.00058462337 0.0027766589 0.013234075 0.0068412274
0003f0 f0 76 65 39 3a 99 ff 3b 55 dd 74 bc e1 56 09 bc
       0.0002188345 0.0078002485 -0.014945348 -0.00838253

discrete_action_output_shape f4 [1, 2]
000000 00 00 e0 40 00 00 00 40
       7.0 2.0

network_body._body_endoder.seq_layers.0.bias f4 [128]
000000 6e ff ad bb 38 ed 24 bc de c2 8e bc 79 19 35 3b
       -0.0053099906 -0.010066323 -0.017426904 0.002763359
000010 98 06 5d bb f4 3a 68 bb 9e 73 f0 ba e6 6a 91 bc
       -0.0033725854 -0.003543553 -0.0018345003 -0.017751168
000020 b6 b6 94 bc 3c f0 43 3c e2 0e b9 bc 52 7b 85 bc
       -0.01815353 0.011959132 -0.022590104 -0.016294155
000030 97 8e 28 bc 29 9d 95 3b 34 4f 31 bc 28 52 9f 3b
       -0.010287902 0.004565854 -0.010822106 0.0048620887
000040 4d b7 b6 3b ec 3a 47 bb 92 85 9d 3c 28 fc 89 bc
       0.0055760504 -0.003040011 0.01922873 -0.01684387
000050 a5 e4 1a 3c f5 4e 86 bb ff 35 e8 3c 34 94 99 bc
       0.009453927 -0.004098768 0.02834606 -0.018747427
000060 d0 2a c2 3b 4d d7 20 3c e6 6b 6a bc 1c 49 e1 bb
       0.005925514 0.009816957 -0.014307952 -0.0068751704
000070 b5 8c 00 3c 94 f1 21 bc 40 2c 80 bc 1a 55 b0 bb
       0.007846047 -0.009884257 -0.0156461 -0.0053812386
000080 81 ae af 3b 5c 5b d2 bb ed 32 6c ba 8f bb 33 bc
       0.0053613787 -0.0064195823 -0.0009010274 -0.01097001
000090 75 40 c6 3a ac e2 54 3b 89 6a ad bb 29 a3 8a 3c
       0.0015125411 0.003248374 -0.005292241 0.016923504
0000a0 44 c5 0a bb 7c 45 cc bc cd 40 1d bb 82 f5 13 bc
       -0.0021174708 -0.024935476 -0.0023994923 -0.009030702
0000b0 03 99 c3 bb 44 06 d9 bb bb f4 92 3b d6 21 c0 3a
       -0.005969168 -0.0066230614 0.0044847406 0.0014658521
0000c0 7a 9f 85 39 e8 88 c7 3b 9a 21 91 bc 2c ab 9b bc
       0.00025486556 0.0060893185 -0.017716218 -0.01900252
0000d0 56 3f 01 bc 81 fa e5 bb 37 bb 2a 3c 8a 56 fa bb
       -0.007888636 -0.007018388 0.010420612 -0.007639711
0000e0 24 0b 32 bc 17 2f 24 bc 47 f5 55 3b f2 65 49 bc
       -0.010866914 -0.010020993 0.0032647417 -0.012292372
0000f0 5d 3c 53 bc 71 40 4e bc f1 13 90 bb 20 60 1a 3c
       -0.01289281 -0.012588606 -0.0043969085 0.009422332
000100 42 e4 54 bc 67 4a 2d 3c 32 b7 b5 bc 8d f6 5e bc
       -0.012993874 0.010576821 -0.02218208 -0.013608587
000110 ec 8b c3 3c 6b 6a 76 ba 84 0a a2 3c 1f 8e 0b bb
       0.02387043 -0.0009400013 0.019780405 -0.0021294428
000120 e8 31 21 3a 93 8a 9b bc 9a ff 50 bc 4e 59 65 bc
       0.0006149099 -0.018986976 -0.012756253 -0.013998343
000130 3d 45 40 3c cd 5e b1 bc de 83 06 3b cf 5c 0e bc
       0.011735258 -0.02165165 0.0020525376 -0.0086891195
000140 c7 9b 13 3b 04 8f 47 3c 41 67 c3 3b c7 97 8e bc
       0.002252327 0.012180094 0.0059632366 -0.017406357
000150 82 93 8e bc ae 43 60 bb 9f f6 82 bb 7c 8f 0a bc
       -0.017404322 -0.0034220028 -0.0039966847 -0.008457061
000160 3f 26 10 3c f7 a6 b7 bc 31 5c 0e bb b9 29 ca bc
       0.008798181 -0.022418482 -0.002172243 -0.024678098
000170 db 59 b0 bb 93 4e d4 39 c1 25 b6 bb 9a 23 00 bc
       -0.0053818054 0.00040494333 -0.0055587 -0.007820988
000180 23 21 1a bc 37 45 75 bc 00 90 0e 3b af c5 05 bc
       -0.0094073145 -0.014970115 0.002175331 -0.008164807
000190 a7 cc 95 39 ee c9 3e 3d ee 49 1a 3c c8 a3 31 bc
       0.00028571973 0.046579294 0.00941704 -0.010842271
0001a0 12 91 24 3b 6c 7e e0 3b aa b6 8c bb 04 ce e5 bc
       0.0025110883 0.006851008 -0.004294236 -0.028052337
0001b0 40 43 a0 bb f0 98 c9 3a b9 06 da 3c 8f 56 42 bc
       -0.0048908293 0.0015380662 0.026614534 -0.0118614575
0001c0 62 d0 18 3d 33 bc 68 3c 28 12 84 bc 97 55 85 bb
       0.037308104 0.014205026 -0.016121939 -0.004069041
0001d0 f2 7b 51 bb 84 5b c5 bb 23 fa 4d bc fe 32 61 3b
       -0.0031964746 -0.0060228724 -0.012571844 0.003436267
0001e0 81 f3 23 bd a7 7e 02 bd da d8 b0 bc 5a ae 2b bc
       -0.040027145 -0.031859066 -0.021587778 -0.01047858
0001f0 03 e8 f7 ba f2 f2 86 bc d3 c8 cc bb ce 84 82 bb
       -0.0018913749 -0.016473267 -0.006249526 -0.0039831167

network_body._body_endoder.seq_layers.0.weight f4 [128, 90]
000000 f2 4d f0 bc a7 ed 86 3d 0b 1e eb 3c 79 27 1c 3e
       -0.029334042 0.06588297 0.028700849 0.15249433
000010 33 81 f2 3d f9 52 33 3b eb be fb bd a5 c8 f0 bd
       0.11841049 0.0027362688 -0.12292274 -0.1175702
000020 f3 fb 66 3c 6e 66 04 be 76 98 16 be 26 df 0c 3e
       0.014098155 -0.12929699 -0.14706597 0.13757
000030 e1 1a 96 3d a3 cc da bb f5 00 88 bd f2 8a d4 bd
       0.073293455 -0.0066772266 -0.066408075 -0.10378064
000040 a2 54 65 bd 9f 01 5c 3e fd 65 ea 3b 21 e4 c9 3d
       -0.055988915 0.21484993 0.007153271 0.09857965
000050 e7 a6 ed 3d fb 81 40 3e 73 07 4c be 8c 34 06 3e
       0.116041 0.18799584 -0.19924717 0.13105983
000060 4f 94 e0 bd 42 00 0b 3e 4e d1 67 3d a3 39 86 3d
       -0.109657876 0.13574317 0.056596093 0.06553962
000070 4e f8 15 3e eb 80 0c 3d 2a ea 6e be c2 d4 a1 bd
       0.14645502 0.034302633 -0.23331514 -0.079019085
000080 b0 16 05 be 1e 32 24 bd 35 ae 8a 3d 9d aa 10 3e
       -0.12996936 -0.040086858 0.067715086 0.14127584
000090 ee af 64 bd 6d 17 3c bc ec 93 d3 3d fa 58 9d 3c
       -0.055831842 -0.0114801945 0.10330948 0.019207466
0000a0 f8 15 36 ba 4b 08 21 3e 74 4a 92 bd f4 12 63 3c
       -0.00069460226 0.1572582 -0.07143107 0.013859499
0000b0 b4 2d d3 bd c9 2c b3 3d b7 76 4e bc d2 3a ff 3d
       -0.103114516 0.087487765 -0.012601546 0.12462391
0000c0 a5 bf f4 bb c7 c6 32 3d bf 1a 14 be d6 a4 21 bc
       -0.007469135 0.0436466 -0.14463328 -0.00986596
0000d0 e2 ce cd 3d e8 34 94 bd b1 01 30 3d ac b8 40 3d
       0.100492254 -0.072366536 0.042970363 0.047051117
0000e0 16 bb ae bd d4 14 48 3d 73 83 fe 3d a8 a1 9b be
       -0.085317776 0.04884799 0.12427416 -0.3039677
0000f0 af c3 03 be a2 8f 4d bd 83 2a 69 be b4 e0 33 bb
       -0.12867616 -0.050185807 -0.22770123 -0.0027447166
000100 35 da df bd ce d0 5c 3d 6f 50 e6 bd 06 e3 1a be
       -0.109302916 0.05391007 -0.1124581 -0.15125665
000110 64 7b dc bc 66 12 41 3e 2e 8a 84 bc 0a 4a 30 be
       -0.026914306 0.18854675 -0.01617917 -0.17215744
000120 38 a5 e2 3d 61 fc 9e bd 97 fd 3f be 45 67 56 be
       0.11066669 -0.07762981 -0.1874908 -0.20937832
000130 b4 c2 38 3c 85 7b c4 3d 96 a0 54 3d d8 90 2c 3e
       0.01127689 0.09593872 0.05191096 0.16852129
000140 29 bc 4c be f4 1e cd 3d a5 bf 55 bd 4c dd 14 be
       -0.19993652 0.100156695 -0.05218472 -0.14537543
000150 5f 2b a4 bd da 35 53 3b 68 9b 2e be e5 ec 27 be
       -0.08016085 0.0032228143 -0.1705147 -0.16398962
000160 03 d9 c9 3d 12 23 23 be 4f 32 a8 3d af 13 1c be
       0.09855845 -0.15931347 0.082127206 -0.15241884
000170 6a 12 f1 3d e1 52 c2 bb 98 64 24 be 0a 58 82 3d
       0.1177109 -0.00593029 -0.16053998 0.06364448
000180 cc a1 b9 bc f9 a9 79 3d b0 ba a0 bd ec e0 9e be
       -0.022660159 0.060953114 -0.07848108 -0.31030977
000190 ae bf 02 3e c9 66 9f bd b4 8f f0 3d 38 5a fd bd
       0.12768432 -0.077832766 0.11746159 -0.123707235
0001a0 6f 42 53 bd 50 ea 4f 3d 96 33 9b bd 84 45 dc 3d
       -0.051577028 0.050760567 -0.075781986 0.107554466
0001b0 f7 01 8a bd d8 31 79 bc e8 7d ed bd 9b dc 75 3d
       -0.06738656 -0.015209638 -0.1159628 0.06002484
0001c0 4d bd 46 3e 38 57 2a 3e fe 3b a3 3d fb 6a d8 3d
       0.1940815 0.16634834 0.07970427 0.1056728
0001d0 f5 ea c9 3d 7f 30 38 3b cd b4 ae 3e cc 19 96 3b
       0.098592676 0.0028105078 0.34122315 0.004580712
0001e0 40 1f 30 bb 09 fa 39 bd 24 98 4f 3e f8 75 62 bd
       -0.0026874095 -0.045404468 0.20272881 -0.055288285
0001f0 6d 35 4c be 93 13 d3 3b 9d 8d 10 be f6 cc fb bd
       -0.19942255 0.0064415424 -0.14116521 -0.122949526
000200 eb 15 c3 bc 24 34 47 3e ec eb 0e be 59 c3 c3 bc
       -0.023814162 0.19453484 -0.13957185 -0.02389686
000210 20 c6 e8 3c 8a 35 4c be de 2a 98 3d d8 d2 0c ba
       0.028414786 -0.19942299 0.07430051 -0.00053719943
000220 5c d5 44 bd fe 23 be 3d 04 53 b0 ba 96 1b 5e be
       -0.048055038 0.09284209 -0.0013452475 -0.2169021
000230 e1 8f 4e 3d 8d e5 09 3e ea f9 be bc 7e c2 bc bd
       0.050430182 0.13466473 -0.023312528 -0.09216784
000240 15 52 5b be 85 c5 6e 3d 4a 2f 21 be d4 10 9b bd
       -0.2141803 0.058293838 -0.15740696 -0.07571569
000250 57 e8 56 3d 75 95 4d bd 77 ba 14 3d b7 ca ad bd
       0.05246767 -0.05019136 0.03631064 -0.084859304
000260 35 c6 80 3d e3 49 63 bd e6 3a 0d 3d 4c d9 03 3d
       0.06287805 -0.055490386 0.034479998 0.032189652
000270 e4 19 64 bc 4b 85 1a 3d b4 f1 36 be 09 28 08 be
       -0.013922188 0.037724774 -0.1786564 -0.13296522
000280 b7 29 d8 3c 79 d5 ae bb a1 22 5a bd 73 eb fd 3d
       0.026387079 -0.0053355065 -0.05325568 0.12398424
000290 07 0a 34 bd 16 9e 78 bd ed 00 b6 3c 26 e5 59 bd
       -0.043954875 -0.060697637 0.022217238 -0.05319705
0002a0 e1 aa 55 bc 0b f4 a7 3c a2 8b 82 3d d2 31 d8 bd
       -0.013041229 0.020502111 0.06374289 -0.105563775
0002b0 18 c0 88 bd 8a c9 01 bd 36 2a 1e bd 2c b0 c9 bd
       -0.06677264 -0.031686343 -0.038614474 -0.09848055
0002c0 d0 c5 08 3e 82 f5 34 3d 77 17 26 3c 07 b6 ce bc
       0.1335671 0.044179447 0.01013743 -0.025233282
0002d0 fb 75 12 3e 6d 1e 97 bd 55 78 36 3e 65 b0 55 3d
       0.14302818 -0.0737885 0.1781934 0.052170176
0002e0 a9 f0 6a bd e9 0f 9d 3d 24 f0 8a 3e 5c 68 f0 3d
       -0.057358418 0.0766905 0.27136338 0.11738655
0002f0 e7 9d a4 3c 07 8f ae bc ce 42 92 3d 7c 1b 4b 3e
       0.020094825 -0.021308435 0.07141648 0.19834703
000300 ef f1 c4 bd b8 33 3c be cd f2 be 3d 88 a2 e9 bd
       -0.09616458 -0.18379104 0.09323654 -0.114079535
000310 f7 c6 b6 3d 1a d0 12 3e 3e 77 2d 3e 4d 4c a2 bd
       0.08924668 0.14337197 0.16940019 -0.079247095
000320 0d b0 37 bd d9 9d ba bc 2c a8 cd 3d 2a bd 33 3b
       -0.04484563 -0.022780346 0.10041842 0.0027425983
000330 19 fa 27 bc 82 e4 1a be eb 15 3e 3e e2 fc 7e 3d
       -0.010252499 -0.15126231 0.18563049 0.062252887
000340 ae 6f 13 ba 6a 91 29 be 76 57 0c bd 40 3f b8 3c
       -0.00056242466 -0.16559377 -0.034263097 0.022491097
000350 e1 46 e8 bd af 5c 36 3d 64 a7 0f 3d 5b 23 b7 bd
       -0.11341644 0.044521984 0.035071746 -0.089422904
000360 64 d3 fd bc ed 90 86 3d 82 e4 18 3e 4a c0 27 be
       -0.030984588 0.06570611 0.14930919 -0.16381946
000370 a9 d7 dd bc aa cf 70 b8 24 03 9a bd 7c b6 66 3d
       -0.027080374 -5.741386e-05 -0.0752013 0.056326374
000380 32 2d 69 bd 5b 88 03 be 39 51 b5 be 29 f8 b8 3d
       -0.056927867 -0.12844984 -0.3541353 0.09031708
000390 13 72 ab bc 2e 68 09 be 0c f1 08 3e 7c fd 21 bd
       -0.020928418 -0.13418648 0.13373202 -0.039548382
0003a0 d2 53 8f 3d 49 87 af bd 61 66 a6 bd 89 2e ae 3b
       0.06998409 -0.085707255 -0.08124996 0.005315606
0003b0 26 41 de 3c cf 9a a9 3d 92 8e a4 bc d2 12 8f bb
       0.027130675 0.082814805 -0.020087514 -0.004366257
0003c0 80 62 45 3e 06 78 ab 3d 8a 67 5a bd 5c b2 84 3d
       0.19275856 0.08372502 -0.0533214 0.06479332
0003d0 ca 90 7a 3d ac 29 13 be 63 87 87 bd e3 ff c6 bd
       0.061173238 -0.14371365 -0.0661762 -0.09716775
0003e0 20 d7 fb bd c7 ac cc 3c de 3e 0a bd 79 c8 4e bd
       -0.12296891 0.02498473 -0.03375136 -0.050484154
0003f0 10 b5 84 bd eb 72 e3 bd 84 70 a2 3d 90 80 01 3e
       -0.064798474 -0.11105903 0.07931617 0.12646699

network_body._body_endoder.seq_layers.2.bias f4 [128]
000000 04 b1 40 3a 9c 80 1c 3c 0d bf a5 bb f6 e4 44 bc
       0.0007350596 0.009552147 -0.0050581754 -0.012017479
000010 f2 d8 c1 bb 83 7a 7c bc 86 19 3d bc b4 04 49 bc
       -0.0059157545 -0.015410068 -0.01154173 -0.012269188
000020 2f ba 3c bb b6 6d 31 bc 0c bd bd ba eb e4 fd bb
       -0.0028797498 -0.01082938 -0.0014475896 -0.0077482364
000030 30 9a 14 3b 71 bc 1e bc a7 51 4c bc 16 60 8d 3b
       0.002267491 -0.009688483 -0.012470639 0.004314433
000040 2d 8b 08 bc 47 20 39 bb ee 3c ad bb dd 97 cc ba
       -0.008333963 -0.0028247999 -0.0052868044 -0.0015609224
000050 0c 39 ba bc 89 de 74 3b 05 82 5a bc 35 aa b2 bb
       -0.02273228 0.0037364087 -0.013336663 -0.005452419
000060 f7 f5 43 bc 10 21 26 bc 0e 4d 34 bc 0f ef 85 3b
       -0.011960498 -0.010139719 -0.011004699 0.004087336
000070 73 51 62 3a 2e d8 61 bc a4 d4 46 bc 86 37 c5 bb
       0.00086333527 -0.013784451 -0.012135658 -0.006018582
000080 44 d2 01 bc 1b 6b a9 3c 8d 5b 47 bc 61 c4 8a ba
       -0.007923666 0.020680955 -0.0121678235 -0.001058709
000090 81 0d 0c bc 79 4d c3 bb 84 b0 b5 bc e9 21 a9 bb
       -0.008548141 -0.005960163 -0.022178896 -0.005161513
0000a0 6a 1f ca 3c 6c d8 73 bc ad ed a4 bb 34 45 54 ba
       0.024673183 -0.014883142 -0.005033216 -0.000809747
0000b0 3a 93 84 bc 94 9c 06 3a bd 03 02 bd 09 45 72 bc
       -0.016183484 0.00051350263 -0.031741846 -0.014786967
0000c0 a5 c0 4b bc dd cd 0f 3b 37 91 40 bc 16 e6 9d bc
       -0.012436067 0.0021942772 -0.011753372 -0.019274753
0000d0 23 02 39 bc 56 9d 61 3b 05 c8 eb bb fc 36 61 bc
       -0.011292013 0.0034426055 -0.007195475 -0.013746019
0000e0 b8 98 17 bc 26 27 b5 bb 06 be 52 bb d8 7f 12 bc
       -0.00925272 -0.0055283485 -0.003215672 -0.008941613
0000f0 16 96 4d bc fe d9 4b 3b d9 03 00 3c 0f cd 97 bb
       -0.01254799 0.0031105275 0.007813417 -0.004632599
000100 63 b1 09 bc 5f 72 a0 bb 9d ff 3d bb 5d 04 29 3a
       -0.008404109 -0.0048964466 -0.0028991469 0.00064474886
000110 d8 47 1a bc da 69 a7 bb a1 a4 6a bc 81 8a 87 bb
       -0.009416543 -0.005109054 -0.014321477 -0.004136384
000120 db b2 e5 3c dc be 69 bc d8 df 04 3b a2 ae 2f ba
       0.028039386 -0.014266696 0.0020275023 -0.00067017425
000130 ab 27 72 3b 49 0c 70 bc 04 f2 58 bb aa 4d b6 3b
       0.0036949913 -0.0146513665 -0.0033103237 0.0055634575
000140 6d 92 ea bb 8f 58 4c ba bb 22 ab ba 93 67 91 3c
       -0.0071585686 -0.00077951787 -0.0013056615 0.017749583
000150 52 14 dd ba a6 b3 c8 bb 16 67 ce bb 60 08 9d bc
       -0.0016867018 -0.0061249314 -0.00629891 -0.019169033
000160 70 06 7b bb bc 8f a5 bb f6 55 3c bc 7b 02 56 bc
       -0.0038303398 -0.005052535 -0.011495104 -0.013062115
000170 fc 9f 6c bc 11 34 e7 3c d2 e8 6b bc ec 55 80 bc
       -0.01444244 0.02822307 -0.01439877 -0.01566597
000180 98 5f 32 bb dc 96 25 3b 5d 4f f1 3c 58 58 6b bc
       -0.0027217623 0.002526692 0.029456789 -0.0143643245
000190 23 b9 c2 3b 75 48 0c 3b 57 59 5b bc dd 35 41 bc
       0.00594248 0.0021405492 -0.0133879995 -0.011792627
0001a0 6b c6 11 ba 2e a2 1f 3c c7 c7 fb bb 0c 0e b0 ba
       -0.00055608776 0.0097432565 -0.0076837274 -0.0013431921
0001b0 64 49 4b bc 6b 8d 31 bc 2e fb 45 3c a5 3a 12 bc
       -0.012407634 -0.010836939 0.012083812 -0.008925115
0001c0 56 11 78 bb f8 9e 5b bc d3 f1 05 ba 99 ce 5f bb
       -0.003785213 -0.0134046 -0.0005109582 -0.0034150241
0001d0 6d c6 8d bb a6 ad bc bb 94 3f d0 bb c7 db c5 3b
       -0.0043266327 -0.005758005 -0.0063552354 0.0060381624
0001e0 46 ad 1b bb 09 98 6d 3b 4f c0 4b 3b b1 30 7b bb
       -0.0023754402 0.003625395 0.0031089967 -0.0038328583
0001f0 3a c5 11 bc f2 4f 99 bb 72 44 f6 3b 0e a4 2d bc
       -0.00889712 -0.0046787197 0.0075154835 -0.010598196

network_body._body_endoder.seq_layers.2.weight f4 [128, 128]
000000 cc ea d8 3b 04 7f 81 bd 43 e3 81 3d 8d e8 1c bd
       0.006619787 -0.063230544 0.06342175 -0.038307715
000010 d0 8a ba bd 78 2f 2a bb c4 55 bb bd 86 41 98 bd
       -0.09108508 -0.0025968235 -0.09147218 -0.074343726
000020 f7 61 98 bd 5b 70 67 3d 7f e4 98 bd dc fc 7e bd
       -0.0744056 0.056503635 -0.07465457 -0.062252864
000030 cd 13 89 bd b4 84 71 bc 1c 28 02 bd 90 cc e6 3d
       -0.0669323 -0.014741112 -0.031776533 0.11269486
000040 cf 41 a8 bd 82 f7 03 3d 06 3b b1 3c 4d 98 66 bb
       -0.08215677 0.032218464 0.02163459 -0.0035185993
000050 b7 05 ec 3d 45 b9 87 bd dd 08 0e 3d f7 10 33 3c
       0.115245275 -0.06627134 0.03467642 0.010929338
000060 1a fc 6a 3d b5 59 9a b7 6b aa ac 3d ce 13 8a bd
       0.05736933 -1.8400004e-05 0.08430942 -0.06742059
000070 ec 2d 50 be 81 3e 08 3e 11 3d db 3d 2b 32 1f 3d
       -0.20330018 0.13305093 0.10705007 0.038866203
000080 a1 cc da 3c c9 72 25 3d 29 d4 06 be 05 e8 bd bd
       0.026708903 0.04039267 -0.1316687 -0.0927277
000090 8f df ae bc cd 6f 02 bc 5e df 96 bd 00 68 0d bd
       -0.021346835 -0.007961226 -0.07366823 -0.03452301
0000a0 8b 1a 3e be da 7a c7 bd 74 56 01 be 25 c8 cb bc
       -0.18564813 -0.09740229 -0.12630635 -0.02487571
0000b0 8d 7a fb 3c 44 ae 13 be a8 5e c6 3d cf 59 04 3d
       0.030698085 -0.14421946 0.09686023 0.03231221
0000c0 aa 76 b0 3d c8 c4 7c be c6 62 8e bd 8f d2 4a 3d
       0.086163834 -0.24684441 -0.06952433 0.04951721
0000d0 12 d5 90 bd 12 7d a0 3d 8b c4 a8 bd 16 6a bc bd
       -0.0707189 0.07836355 -0.082406126 -0.09199922
0000e0 1b 5e d8 bc 23 8d 2c bd 0e 9d 78 3d 24 9e 8b bc
       -0.02641206 -0.042126786 0.060696654 -0.01704318
0000f0 e0 b2 9f bd ad b9 02 3e 76 48 db 3d 7c 5b 01 be
       -0.077977896 0.12766142 0.1070718 -0.12632555
000100 d5 b3 a4 bd 51 36 0b 3e db 21 61 bd b3 92 cf bc
       -0.08042113 0.13594939 -0.054963928 -0.025338506
000110 47 4c 3e 3d 2e 50 f0 bd ca 3f 41 3c a0 f8 e2 ba
       0.046459462 -0.11734043 0.011794994 -0.0017316528
000120 ab cb f6 bd 94 46 c8 3c f7 1b c5 bd af f2 9a bd
       -0.12050565 0.024447717 -0.096244745 -0.075658195
000130 ae fa 96 bc a6 17 0a bd cd 72 f1 bc 32 b1 49 3d
       -0.01843008 -0.03371396 -0.029473687 0.049241252
000140 5d b2 10 be 16 a3 ca 3d 53 16 37 bd 0d d3 e1 bc
       -0.1413054 0.098943874 -0.044699024 -0.027566457
000150 5b d9 34 bd e9 64 29 bd 74 74 7d 3d 8d 00 1d 3d
       -0.0441526 -0.041356 0.061878636 0.038330603
000160 af d1 ee bd 21 97 8c bc 93 99 24 bd d1 4a 1a bd
       -0.11661088 -0.017161908 -0.040185522 -0.037669007
000170 c8 26 96 3d e4 0a a5 bd 38 79 80 3c 3b 1e 2a be
       0.07331616 -0.08058718 0.015682802 -0.16613095
000180 5c a4 4a bd df ce b7 bc 80 0f a1 bd 87 b4 24 bd
       -0.04947315 -0.022437511 -0.078642845 -0.040211227
000190 b6 f6 c7 3c bd 23 1c be df d2 d7 3d 70 cf 3d 3c
       0.024409633 -0.15248008 0.10538267 0.0115851015
0001a0 ea 2e bb 3d a1 d2 8e 3d 2d 2f 99 3d 54 aa 0a bc
       0.091398075 0.06973768 0.07479701 -0.008463461
0001b0 38 d1 8f 3c dd 9d 02 3e 29 fd fd 3d a6 50 30 3e
       0.017555818 0.12755533 0.12401802 0.17218265
0001c0 a5 eb 76 3d 3e fc a7 3d f9 29 ca bb 4b 04 ec bd
       0.060283322 0.08202408 -0.0061695543 -0.11524256
0001d0 c8 c5 d7 bc e6 19 fb bc 73 43 9d bd f3 7b 6f bd
       -0.026339427 -0.030651998 -0.076788805 -0.058467817
0001e0 0b 37 32 3d 01 2d 6e 3d ba e9 1f 3d 1e 47 d8 3c
       0.043509524 0.058148388 0.03904126 0.026401099
0001f0 61 98 33 3e b4 74 1e 3e 9c 16 af 3d 61 ac 64 bc
       0.17538597 0.15474206 0.08549234 -0.013957114
000200 d2 9a fb bd 9f 56 18 3e 74 0e 23 be aa 24 b4 3d
       -0.12285389 0.14876793 -0.15923482 0.087960556
000210 9e 34 8c 3b a5 2f 24 bd b4 5e 0e bd 76 86 6f 3d
       0.0042787334 -0.0400845 -0.034758285 0.05847784
000220 30 cf 0a 3e 55 d4 50 bd ac 21 96 3c d7 37 e2 b9
       0.13555598 -0.050983746 0.018326603 -0.00043147683
000230 c4 cb 3b be 37 23 fa 3d 33 d4 37 bd d5 5d 21 be
       -0.18339449 0.12213748 -0.044880103 -0.1575845
000240 f2 65 bc 3b c8 1b f6 3c da e0 28 3e c5 f4 67 3d
       0.0057494575 0.030042544 0.16492024 0.056629915
000250 f0 6c 2d 3e 08 fd 73 3d 41 b9 2e 3d 5a 9b 64 3c
       0.16936088 0.05956748 0.04265714 0.013953054
000260 99 00 ba bd e0 9c d0 bc 99 43 52 3d cb b5 35 bd
       -0.09082145 -0.025465429 0.051333997 -0.044362824
000270 64 49 2d bd 30 e2 9c 3d 57 0d 86 bd 39 42 c6 3d
       -0.04230632 0.07660329 -0.06545513 0.096806
000280 99 2d ec bc 64 c0 7d 3c 55 01 66 bd 73 cc eb 3d
       -0.028830336 0.015487764 -0.056153614 0.11513605
000290 a5 c6 4d be f8 6e c2 3d 5c 00 af bd a8 be f2 bc
       -0.20095308 0.09493822 -0.085449904 -0.029631928
0002a0 8e 54 99 3d 80 7d 1e be e8 99 d6 3d 96 82 d7 3d
       0.07486831 -0.15477562 0.10478574 0.10522954
0002b0 d8 fb a4 3d 46 21 db 3d b4 cb f4 bd a5 6c 20 bd
       0.08055848 0.10699706 -0.11952916 -0.03916611
0002c0 5d af e8 bd 64 71 70 3d 15 14 03 bd 3c e7 bb 3d
       -0.11361573 0.058701888 -0.032001574 0.09174964
0002d0 3e 34 19 be d1 bb 1a 3d 60 80 73 bd da da 15 3d
       -0.14961335 0.037776772 -0.0594486 0.036585666
0002e0 0e 71 7b bd 19 6c 3c 3c 0e 02 79 3d ba 91 f1 bc
       -0.061387114 0.011500382 0.060792975 -0.029488433
0002f0 23 4a 16 3c d8 c7 b0 bd d4 71 da bd f4 b2 16 3d
       0.009172949 -0.08631867 -0.10666242 0.036791757
000300 2c 50 7d 3d c4 fa 4a 3d 9d 8d 92 bd 95 0e 42 be
       0.061844036 0.049555555 -0.07155917 -0.18950875
000310 65 0b 5b be 9a e1 95 3d d9 ee aa 3d f2 3a bd 3c
       -0.21391065 0.07318421 0.08346338 0.023099396
000320 12 bb ad bd 22 c3 b2 3d f0 2c 5f be 05 3a 35 3d
       -0.084829465 0.08728625 -0.21794486 0.044244785
000330 03 7e 52 bd 79 96 a8 bd b4 43 c2 bb ea 66 b3 3d
       -0.051389705 -0.082318254 -0.005928481 0.08759864
000340 f1 09 92 bd c6 05 a8 ba a4 26 85 3b 1c 1b e7 bd
       -0.071308024 -0.0012819103 0.004063444 -0.112844676
000350 17 7b 94 bd 21 60 6d 3d 3a 3c a8 bc 1a fd 46 bc
       -0.0725004 0.057953004 -0.02053653 -0.012145305
000360 5d e1 a6 bd 3c 30 ac bd a2 a5 82 bc 12 01 39 3d
       -0.081484534 -0.084076375 -0.01594812 0.045167036
000370 74 cc cc 3b bf 60 a4 bd 51 ee f4 3c cd df d3 bd
       0.0062499586 -0.08026265 0.029898794 -0.10345421
000380 58 40 1d 3d 38 3a 73 3d b6 ba e5 3d 53 82 5f bc
       0.03839144 0.059381694 0.11217253 -0.013641912
000390 90 d9 bc bd e7 f0 d1 3c 90 35 3a be 04 eb 04 bd
       -0.09221184 0.025627567 -0.18184495 -0.03245069
0003a0 c3 ab 49 be 54 53 65 3d 8f 82 1e be 16 bf d4 3d
       -0.19694428 0.05598767 -0.15479492 0.10388009
0003b0 c9 d2 1e 3b ff 0a 0f 3d 86 46 d6 bd 86 58 a3 bb
       0.0024234524 0.034922596 -0.1046267 -0.004984918
0003c0 39 9a f5 3d 0f 79 15 bd a4 f1 9b bd e0 fb 4a 3d
       0.11992306 -0.036492404 -0.07614449 0.049556613
0003d0 41 81 0e be 18 8c 85 3b d0 59 4e bd ee 1f a8 bd
       -0.13916494 0.0040755384 -0.05037862 -0.08209215
0003e0 05 16 27 bd e3 91 07 3d 0d 61 b8 3d 14 a4 2c 3c
       -0.040792484 0.033098113 0.09002886 0.010537166
0003f0 91 61 ff 3d fd 66 56 bd af 0b ae bc d2 a4 c7 3d
       0.12469781 -0.05234431 -0.021245806 0.09748234
