Assets/ML-Brains/Backups/ResultsScenario_Prev.onnx (onnx, 120062 bytes, 9 tensors)

action_model._discrete_distribution.branches.0.bias f4 [7]
000000 3f 93 86 bb d7 94 93 3b eb ef 6f bb d0 a3 b4 bb
       -0.0041069086 0.004503827 -0.0036611508 -0.005512692
000010 2f 05 59 3c c5 91 08 bc 1b 5d 10 3c
       0.013245865 -0.008335535 0.008811261

action_model._discrete_distribution.branches.0.weight f4 [7, 128]
000000 7b 25 bb 3c b6 28 24 bd f0 b0 48 3c c1 ae 2b 3a
       0.02284502 -0.040077887 0.012249216 0.00065491727
000010 ce 57 0d bc bc e1 c2 39 f2 09 c6 3c c4 d2 4f 3c
       -0.008626891 0.0003717075 0.024174664 0.012684528
000020 e9 76 0e 3c fb 13 bb bc d7 fa cc bb 38 2f bf bc
       0.008695343 -0.022836676 -0.0062554884 -0.023337945
000030 57 48 2b 3b f6 f8 df 3b d2 32 35 3b 9c d8 f6 bc
       0.0026135647 0.0068350984 0.00276487 -0.030132584
000040 93 65 15 3d 04 82 25 bc 08 a9 6b 3c 48 58 8f 3c
       0.03647382 -0.010101799 0.014383562 0.01749815
000050 5e ab b5 3c 0a 64 6b 3b b4 96 a0 3c be ec 0c bb
       0.02217644 0.0035917782 0.01960311 -0.0021503414
000060 f5 17 56 ba 11 31 6e bc 87 21 3f 3c c9 b8 0d 3c
       -0.0008167022 -0.0145380655 0.011665708 0.008650013
000070 5b 01 23 3c d4 8a a1 bb 67 d7 e6 3b bb d9 40 3c
       0.009949054 -0.0049298797 0.007044721 0.011770661
000080 c4 c1 8d 3c bd e1 8d 3c 33 ef 8e 3d 94 55 a1 bc
       0.017304309 0.017319554 0.069792174 -0.019694127
000090 17 59 88 3b 06 1d e7 bb b3 f2 5a bc d2 65 3b bc
       0.004161011 -0.0070530204 -0.013363528 -0.01143785
0000a0 5e 69 16 bc e3 0d 2d bc b9 de 6d 3c c5 81 0c 3d
       -0.009180395 -0.010562393 0.014518433 0.034303445
0000b0 ef 2a 19 bc 88 4e 02 3c dc 25 68 3c ef 50 e2 3b
       -0.009348615 0.007953294 0.014169183 0.0069066207
0000c0 32 12 87 39 e0 81 58 3c 5b 82 db 3c d0 9b b3 3a
       0.00025762763 0.013214558 0.026795557 0.0013703052
0000d0 0b 0e 29 3d 7a 27 35 3c aa 9d 64 3b 5e 48 48 3c
       0.041273158 0.011056775 0.0034884014 0.012224285
0000e0 84 9d 39 bb 29 70 3f bb 4e 97 3a 3c cc 6f 3a bb
       -0.0028322646 -0.002921114 0.011388613 -0.0028447984
0000f0 8d b6 29 3c 9b aa bb 3c c8 65 80 bc 2e 0f 00 3c
       0.010358465 0.0229085 -0.015673533 0.007816119
000100 dc 91 06 bd 32 28 ac ba 03 4d bc bd 82 7a 1d 3c
       -0.032853946 -0.0013134538 -0.09194376 0.009611728
000110 fb fa c6 3b 97 ea fb 3c 2e 7e 0b bb 6c dd fb bc
       0.0060723997 0.03075151 -0.0021284926 -0.03074523
000120 af 0e 04 bd ab 05 db 3b cf 61 44 bb 5f cc af bb
       -0.032240566 0.0066840253 -0.0029965525 -0.005364939
000130 ce dd 0d bc 4f e3 30 bb 3a c7 96 3a a3 cc cb 3b
       -0.008658839 -0.0026990955 0.0011503466 0.006219463
000140 45 5a 85 bc 93 45 13 bd 3e 3e 60 3b 7b ea 72 bb
       -0.016278395 -0.035955023 0.0034216787 -0.003706603
000150 08 24 f3 ba f7 3c e8 3c 7d 0c 24 3d c8 fe 90 3c
       -0.0018550167 0.028349383 0.040050972 0.017699614
000160 5d 96 41 bd db ca 32 bc 4a 7a a3 3b 62 45 81 bc
       -0.04726254 -0.010912622 0.004988943 -0.015780155
000170 1d 84 f8 bb 5b d0 69 3a 4f 05 0e ba 70 23 d8 3b
       -0.0075841085 0.0008919292 -0.0005417661 0.0065960214
000180 ab 0a 17 bb bc cf 85 3b ca 93 71 3b 3f d7 1e bd
       -0.002304713 0.0040836018 0.003686177 -0.038779493
000190 db 53 41 bc aa 32 22 bb 7b 53 32 3a fa a5 d6 bb
       -0.011799778 -0.0024749436 0.00068026007 -0.0065505477
0001a0 06 c0 21 bd d1 8f 80 bc 50 39 ae 3b dc 41 87 3c
       -0.03948977 -0.015693577 0.005316891 0.016510896
0001b0 19 1f 14 bc 88 d9 99 bb 5d b7 df 3b 87 e1 9e 3c
       -0.009040617 -0.004695121 0.0068272785 0.01939465
0001c0 9c b5 8e bb 02 c9 00 38 ea 5f 29 bb 3b 66 3e bd
       -0.0043551456 3.070478e-05 -0.0025844523 -0.046484213
0001d0 fc 1c 03 3c be 16 77 b9 13 1b 9a bc 58 58 eb bc
       0.008002516 -0.00023564228 -0.018811738 -0.028728649
0001e0 74 5a cf b9 8e 77 82 bb a5 8a 1a 3c 29 fc 9a b9
       -0.0003954951 -0.003981537 0.0094324695 -0.00029561043
0001f0 f4 99 51 bc 99 d5 1f 3c e4 be df bc fd 7a 77 bb
       -0.012793053 0.0097555155 -0.027312703 -0.0037762516
000200 06 c3 d3 bc 5c a4 33 bd 88 80 ef bc fd a8 23 bb
       -0.02584983 -0.043857917 -0.029236093 -0.002497255
000210 1c 17 3b 3c 8d a0 30 3c d8 47 a8 3a a3 da 8f bc
       0.011419084 0.010780466 0.0012838794 -0.017560309
000220 f2 1f fb 3b 72 5d 8e bc db 60 d1 bc c0 b8 1e 3d
       0.0076637203 -0.017378543 -0.02555888 0.03875041
000230 a5 51 1c 3c be 88 1b 3c 5a be 57 3c 85 c6 7b 3b
       0.00954095 0.009493051 0.013167942 0.0038417887
000240 6a 1b bc bc 2f 36 81 bc a4 05 dc 3a 7f 2f 5a 3a
       -0.02296229 -0.015772907 0.0016786349 0.00083231175
000250 52 00 6d 3b 9f 77 53 ba b5 ce af 38 92 bc 99 3c
       0.003616352 -0.0008066836 8.3831525e-05 0.018766675
000260 19 9d ec 3b cd 40 bc 3c c3 6e b4 3c eb 47 a4 3a
       0.007220876 0.022980118 0.022025472 0.001253364
000270 db c9 0b bc 71 ba 8c 3c bf a9 21 bb 9f b5 1a bd
       -0.008532013 0.017178746 -0.0024667827 -0.037770864
000280 60 e3 c5 bc 8a 3e c1 bb d6 d4 8d bd dd 79 c4 3c
       -0.024156272 -0.005897348 -0.06925361 0.02398389
000290 97 61 af 39 52 b3 35 3c c2 b0 aa bb 57 36 62 3c
       0.0003345131 0.011090117 -0.0052090595 0.013806901
0002a0 42 f5 2f bd 4b 9b 6a bc d4 28 87 3b 3d f8 7e 3c
       -0.042958505 -0.014319251 0.00412474 0.015562114
0002b0 c8 c4 9e bc 38 f9 ee bb 03 5b 74 3c c0 25 49 3b
       -0.019380942 -0.007292893 0.014914277 0.0030692667
0002c0 12 7c 46 bb f8 7b 72 bc 17 bb 52 bc a7 c7 10 bd
       -0.0030286354 -0.014800064 -0.0128619885 -0.035346653
0002d0 8e b6 06 bd 4d 59 31 bc a8 a6 cc 3b b1 cc cf bc
       -0.03288894 -0.010824514 0.006245453 -0.02536616
0002e0 d4 aa 4e 3c 2d d4 d5 3b 4e 4a 1b bc 52 e5 d9 3c
       0.012613971 0.0065255375 -0.009478165 0.026598606
0002f0 17 ed 76 3d 2b e5 51 bc 12 60 93 3b e1 f1 6d bc
       0.0602847 -0.012810986 0.0044975365 -0.014523
000300 92 50 14 3d 74 eb 13 3c 7e b7 58 3b f0 c9 33 3a
       0.03620965 0.009028304 0.0033068354 0.0006858399
000310 10 3b 94 bb 8c 38 d1 bb 19 05 9a 3b bb d9 2a 3c
       -0.0045236424 -0.0063849147 0.0047003147 0.010427888
000320 a8 28 44 bc e9 a3 a5 3c fe d6 07 bb 79 b5 6a 3b
       -0.011972584 0.02021976 -0.002072751 0.0035813733
000330 c7 1b 42 3c 31 3b d6 3b 9e 88 ea bb f8 68 94 bb
       0.011847443 0.006537818 -0.0071573993 -0.004529115
000340 89 e8 85 3c 50 40 21 3d 9e 41 0d bd b9 fb a4 bc
       0.016346233 0.039367974 -0.034486406 -0.020139562
000350 13 4d a8 bc da a7 83 bc 9f f7 bd bb 9f 85 05 bd
       -0.020544564 -0.016071249 -0.005797341 -0.032598134
000360 ae b0 95 3c 55 5d e6 bc 57 7e c2 bc ef 87 2f 3c
       0.018272724 -0.028120676 -0.023741884 0.010713561
000370 fe 8e f9 3b 01 f3 02 bd d8 6c 02 3c fb 18 ef bb
       0.007615923 -0.031970028 0.007960521 -0.007296679
000380 21 6f 31 bc 52 57 94 3b 66 bf 09 3c a4 6a 14 bb
       -0.010829718 0.004527011 0.008407449 -0.002264657
000390 a3 0a 0c 3c 73 07 21 bb ba 26 71 3c c6 90 de 3b
       0.008547458 -0.002457109 0.014718706 0.0067921607
0003a0 99 0c 1d 3d 9c 35 0f 3c 76 0e 21 bc ab 20 9a 3b
       0.038342092 0.008740809 -0.009830108 0.0047036014
0003b0 be 47 89 3a 00 fb 4d 39 40 97 22 bc 77 c0 d2 ba
       0.0010473651 0.00019643828 -0.009923756 -0.0016079088
0003c0 f1 9d 04 3c 90 41 42 3c bc f6 46 3d 38 e6 ea 3b
       0.008094297 0.011856452 0.048575148 0.0071685575
0003d0 b0 ef 7f 3b ba 3f 10 39 63 8d 3e bb 5a bc a9 bc
       0.0039052777 0.0001375665 -0.0029075972 -0.020719696
0003e0 8b f0 27 bc 4e c7 41 ba 51 81 86 39 6e f3 1e 3c
       -0.010250221 -0.00073920644 0.0002565482 0.009701593
0003f0 ee b3 82 3c f6 3a 99 3b 5c 4f 89 3c 08 05 94 3c
       0.015954938 0.004676218 0.016761474 0.018068805

action_model._discrete_distribution.branches.1.bias f4 [2]
000000 cb 47 ac bb c6 47 ac 3b
       -0.005257582 0.0052575795

action_model._discrete_distribution.branches.1.weight f4 [2, 128]
000000 94 fb 8a bc e2 7a fd 3c e2 b3 25 bd d9 5c a7 3c
       -0.016965665 0.030942384 -0.040454753 0.020430015
000010 cb b2 ed bc 64 28 1e 3c e0 3f 94 bb 37 3e 21 3c
       -0.02901592 0.009653185 -0.004524216 0.009841493
000020 10 2f 82 3c 5c 4e a2 bc 96 5c b8 bb 5e 05 1a bc
       0.015891582 -0.019812755 -0.0056262715 -0.009400694
000030 cf 07 90 3c 84 9a 0d 3a 31 de a3 bc 9d d7 00 3d
       0.017581848 0.0005401748 -0.02000341 0.031455625
000040 d8 25 de 3b c1 61 8b bb db df 0e bd 67 d5 89 bb
       0.0067794137 -0.0042535965 -0.034881454 -0.0042063477
000050 1a 8d 4e bb 54 d5 97 3c 66 46 39 3a f9 83 61 bc
       -0.0031517209 0.01853434 0.000706768 -0.013764375
000060 94 09 e7 3a cc 6f c6 ba 51 67 80 3c e9 f4 a6 bc
       0.0017626756 -0.0015139519 0.015674265 -0.020380454
000070 f7 53 62 bc 36 4e 23 bc c9 de 57 bc 43 74 e6 3a
       -0.013813964 -0.009967377 -0.013175675 0.0017582256
000080 a4 47 9a bb 0e 99 96 b7 f7 2d ad 3b 6e d1 96 3c
       -0.0047082473 -1.7952665e-05 0.0052850205 0.01841041
000090 b0 d9 9a bc 5e e9 14 bc f8 1e 54 bc 17 e9 a0 3b
       -0.01890263 -0.009088842 -0.012946837 0.004910599
0000a0 70 cd 95 3d 9a 06 93 3c cb 73 f1 ba eb f2 f3 bc
       0.07314575 0.017947484 -0.001842135 -0.029778918
0000b0 7a 4a 00 3d 74 63 51 3c de b1 36 3c e5 68 3a 3c
       0.031321026 0.012780059 0.011150805 0.011377548
0000c0 df 62 90 bb c0 81 07 bd 8b 37 7b bc cd ee a8 3c
       -0.0044063176 -0.033082724 -0.015333067 0.020621682
0000d0 cd f6 60 bd 52 69 48 3c 94 e4 5d 3b 76 85 28 3a
       -0.054922868 0.012232142 0.0033858167 0.00064285786
0000e0 c3 92 a5 3b de d6 c5 bc f1 7b b7 bb a9 fa 0f bc
       0.0050528958 -0.024150308 -0.0055994918 -0.008787789
0000f0 e7 8c da 3b 2c 90 c5 ba 77 9a d0 bc ca da 28 bc
       0.006669629 -0.0015072874 -0.02546428 -0.01030607
000100 a8 d6 37 bc 45 28 dd bb fe 5f ee bc 91 d3 eb bc
       -0.011220612 -0.0067491853 -0.029098507 -0.028787406
000110 cf 6e 04 bc b5 f4 21 3d 1a ba 43 3b da 33 70 3c
       -0.008083059 0.03954001 0.0029865564 0.0146608
000120 db 50 9a 3c f1 6d 0d 3d b2 6a c0 ba a6 bf 21 bb
       0.018837383 0.034528676 -0.0014680235 -0.0024680882
000130 a0 64 e2 bb 6c a1 db bc ac a5 7c bc b4 70 92 bc
       -0.006908968 -0.02681037 -0.015420359 -0.017876007
000140 84 59 17 bd 81 ea 6a 3b aa 3d fb 3c cf 0a d8 3c
       -0.036950603 0.0035845342 0.030669052 0.026372341
000150 8b 35 bb 3c 14 b5 74 bc e7 0c a7 bc 7d b7 7f 3a
       0.02285268 -0.0149357505 -0.020391895 0.000975482
000160 11 38 ba bc 66 f9 90 bc 82 bb 5f bc fd f6 09 3c
       -0.022731813 -0.017697047 -0.013655545 0.008420703
000170 48 73 1f bc 81 06 9c 3c 4d 45 cf bc 89 8d 72 bc
       -0.009732075 0.01904607 -0.0253016 -0.014804252
000180 35 56 e8 bb 09 9a 16 3c f6 9f 05 bc 0d cb 72 bb
       -0.007090355 0.009191998 -0.008155813 -0.0037047297
000190 4f 41 02 ba 2c a7 04 3c db da 87 3c d9 28 c2 3b
       -0.0004968838 0.0080964975 0.01658385 0.0059252796
0001a0 b8 25 b1 bc 96 6b 37 3b 88 4e 31 3c a5 69 21 3c
       -0.021624431 0.002798771 0.010821946 0.009851848
0001b0 f4 b3 0f bd 2d cd 40 3c e2 eb 33 3c 6c 33 ba bc
       -0.035083726 0.011767668 0.010981532 -0.022729598
0001c0 2b 7a 9b bd 8e 52 80 bd c3 4b 2a 3b 30 da 2c 3d
       -0.07591661 -0.06265746 0.00259851 0.042200267
0001d0 f6 9f 33 3c bf 4b 68 bc 2a c4 4a ba 8f 91 79 bc
       0.010963431 -0.0141782155 -0.0007734919 -0.015232458
0001e0 07 90 88 3c 55 47 ca bb 67 a8 8c 3c 81 cb a0 bc
       0.01667024 -0.006173054 0.017170144 -0.019628288
0001f0 2a 84 2c bc 55 69 21 bd a2 33 f9 3a 3f 2f b7 3a
       -0.010529557 -0.039407093 0.001901258 0.0013975872
000200 4b 11 12 3d c4 95 d1 bc bc af 9b 3c e2 17 d4 bc
       0.035661023 -0.02558411 0.019004695 -0.025890294
000210 3e 75 e5 3c 68 c2 a0 bc d5 3e 9b ba 5f 74 55 bc
       0.028010007 -0.01962395 -0.0011844287 -0.013028233
000220 e0 d6 8f 3a 41 22 67 ba bd c2 1a bb e2 4b 87 3c
       0.0010974072 -0.0008817055 -0.0023614608 0.016515676
000230 34 06 82 3a 16 ca e5 ba 29 24 63 3a 1f 66 05 bd
       0.0009920062 -0.001753154 0.0008664751 -0.032568093
000240 f0 35 8e bc 0f af c0 3b 58 63 0b 3d 70 6d 6b 3c
       -0.017359704 0.0058802436 0.03403029 0.014369354
000250 ae 15 a1 3c 3e 1d c8 bc 8e 56 2a 3c 5b d4 3c bb
       0.019663658 -0.024428006 0.010396613 -0.0028813097
000260 78 f5 4d bb 0f 29 bb 3c 31 50 d2 bc 72 05 02 3d
       -0.0031426828 0.022846727 -0.025673004 0.031743474
000270 4c 85 2e 3c 4e cf 3e 3c 3d 3b 8a 3c 26 71 87 3c
       0.010651898 0.011646105 0.01687395 0.016533446
000280 a6 8d df 3b 73 4e 3a 3c a0 42 43 bb cd 1a 96 ba
       0.0068223057 0.011371243 -0.002979435 -0.0011452079
000290 04 e8 cd 3a 44 14 ef 3b c1 3b 1c bc 32 d4 58 3b
       0.0015709405 0.007296117 -0.009535731 0.0033085463
0002a0 c4 b1 78 bd 5a 4b 03 3b 16 2b 01 3c 86 c2 91 3b
       -0.060716406 0.0020033927 0.007883808 0.004448238
0002b0 6c 4a d2 bc 47 0d 66 bc 7c db 04 bc c2 ff 51 bc
       -0.025670253 -0.0140412515 -0.00810897 -0.012817325
0002c0 09 bd 0b bc 3f b9 ba 3c 42 90 cf 3c cd 89 37 bc
       -0.008528956 0.02279341 0.025337342 -0.011202288
0002d0 57 c5 06 3d 09 b9 b5 bb 3f a5 49 bc ef e3 14 3b
       0.03290304 -0.0055457396 -0.012307464 0.0022718867
0002e0 84 9a 9f 3c 5e cd b0 3b 65 93 33 3c 0b bc 91 3c
       0.019482858 0.0053955754 0.010960435 0.017789861
0002f0 e6 48 e8 bb 8c a0 9e bc f7 98 d1 3c 7c 4c 0f 3d
       -0.0070887683 -0.019363664 0.025585635 0.03498505
000300 d0 4c b1 3c 30 f6 d7 3b 05 ae f9 3c 26 12 25 3d
       0.021643072 0.006590627 0.030478487 0.04030051
000310 33 44 50 3a 7a c7 2d bd 7c ef 0c 3c 51 be bc bc
       0.0007944733 -0.042426564 0.008602019 -0.023039969
000320 8c b1 3e bc 7e 11 a6 bc e8 34 8a 39 68 fc 49 3c
       -0.01163901 -0.020272013 0.0002636083 0.012328245
000330 57 65 4a 3c 31 f9 cd 3c 56 94 ea 3c e2 94 47 3c
       0.012353263 0.025143238 0.028635185 0.0121814925
000340 c9 ad 8a 3c 99 d2 0f bb 97 d1 31 bc 00 d9 cb bc
       0.01692857 -0.0021945594 -0.010853193 -0.024883747
000350 18 77 26 bd 2a d4 15 3d 16 9b 05 3d 28 1a 5f bb
       -0.04064092 0.03657929 0.032618605 -0.003404269
000360 f3 96 fa 3c 94 e7 c9 3c af 8b 95 3b 60 a4 7e 3b
       0.030589556 0.024646558 0.0045637707 0.00388553
000370 29 cb 1b 3c fa 2a 81 bb c1 02 bf 3c 96 ad e0 3c
       0.009508886 -0.003941891 0.023316743 0.027426522
000380 ac 14 2d 3c 90 bb 7a bc ed 6a d8 bb 0d 22 dc 3b
       0.010564011 -0.015303507 -0.0066045434 0.0067179264
000390 1f ef 29 3c 1c 58 6a 3c 49 9a f3 bb bd fc 82 3c
       0.010371952 0.0143032335 -0.0074341637 0.015989656
0003a0 00 e2 00 3c 45 ab f7 b9 b1 f9 11 3c b7 8c d2 bb
       0.007866383 -0.00047239117 0.008909629 -0.006425466
0003b0 b5 7c f4 3c ca b2 ae bb c6 a3 6f bc 9c 5c 48 3c
       0.029844621 -0.005331372 -0.014626449 0.012229111
0003c0 f0 a8 8c 3d 57 d7 84 3d 28 0b 04 3c 78 94 26 bd
       0.0686816 0.06486385 0.0080593005 -0.040668935
0003d0 61 a8 cc bb ee 5d ec bb df e5 90 3c 66 d3 84 3c
       -0.0062456583 -0.0072133457 0.017687736 0.016214084
0003e0 5f 0d ac bc 7d 6c 49 3c 33 30 0e bc 32 d0 db 3c
       -0.02100247 0.012293932 -0.008678484 0.026832674
0003f0 d7 83 b3 3c e7 49 10 3d 43 d5 ae 3a 14 e5 73 3a
       0.021913452 0.03522673 0.0013338703 0.00093038497

discrete_action_output_shape f4 [1, 2]
000000 00 00 e0 40 00 00 00 40
       7.0 2.0

network_body._body_endoder.seq_layers.0.bias f4 [128]
000000 93 98 9b bc a3 a8 8a ba c3 34 26 3c 68 0c d1 3b
       -0.018993651 -0.0010578822 0.010144415 0.006379653
000010 81 4c db bc f0 1d ac bb d2 a2 26 3c cd 4f 50 3b
       -0.026769878 -0.0052525923 0.010170655 0.0031785846
000020 cd 60 d0 bb 20 0d 86 bb d3 1c d1 bb c7 12 c8 bb
       -0.006359196 -0.00409092 -0.00638161 -0.006105754
000030 ee 51 be bc f9 26 4b 3c 81 c2 21 bc 82 62 96 3c
       -0.023232426 0.0123994285 -0.0098730335 0.018357519
000040 ee 12 10 bd 29 e4 81 3c aa 2c ee bb 89 75 4f bc
       -0.035174303 0.015855866 -0.007268508 -0.0126623
000050 92 34 3a 3b de 1e 44 3c a1 54 17 3d 97 ab af 3c
       0.0028412682 0.01197025 0.036945943 0.021444125
000060 d6 92 cc 3a cb 34 88 3b 21 6b 60 3c 57 2d bd bb
       0.0015607725 0.004156684 0.0136974165 -0.005773227
000070 fb d0 bb bc 20 42 87 bc 34 3e 21 3c e7 11 53 3a
       -0.022926798 -0.016511023 0.009841491 0.0008051679
000080 12 e4 5a bc 80 ec 12 bc c4 fb 8d 3c 95 e1 0b bc
       -0.01336004 -0.008967519 0.017331965 -0.00853767
000090 76 fd 90 3c d7 38 86 bb aa e0 81 bb 25 b8 8b bc
       0.017698985 -0.0040961313 -0.0039635496 -0.01705558
0000a0 85 1e 19 bc 7e 6e 89 bc cf 96 29 bb 39 dc ca 3b
       -0.009345655 -0.01677632 -0.0025877242 0.0061908034
0000b0 1c 37 9f 3b 80 13 b0 b9 9b 60 08 3b 15 8a 75 bc
       0.0048588645 -0.00033583865 0.0020809534 -0.014986535
0000c0 c0 98 6a 3c ad 82 06 bc 69 ca 7e bc 8f e8 e8 bb
       0.014318645 -0.0082098665 -0.015551188 -0.0071078013
0000d0 db b9 bd bc 59 f8 d6 bb c4 26 56 3a 9a 2a 0c 3c
       -0.023159912 -0.006560367 0.00081692287 0.008555079
0000e0 43 2b cc 3b b5 7d aa 3c 04 9f 98 bc 6a 72 09 3d
       0.006230743 0.020811895 -0.018630512 0.03355638
0000f0 0c 65 9d bb 89 6a 14 bc 67 d3 13 bc 7e 64 eb 3b
       -0.0048033055 -0.009058603 -0.00902257 0.0071836105
000100 5c 26 e5 3c 13 e5 58 3c a5 c2 52 3c ac 3a 7d 3c
       0.027972393 0.013238209 0.01286379 0.015455883
000110 85 3d 1a ba 50 22 50 bc b2 d5 94 3b 50 fc c8 3a
       -0.0005883801 -0.012703493 0.004542076 0.0015333984
000120 d4 3f c0 b9 db 41 af bb b3 8a 99 bc 63 31 cb bb
       -0.0003666865 -0.0053484268 -0.018742895 -0.0062009557
000130 8a e8 e6 b9 76 a2 8c bc 3b bb ae 3c d7 54 27 3c
       -0.00044042274 -0.017167311 0.021329513 0.0102130985
000140 97 3e 55 3d 6d 8a a7 3c 48 c0 70 3a bb 97 76 3c
       0.052061643 0.020451749 0.00091839256 0.015050824
000150 a5 79 ad bb ec 36 94 3c ac 7d 81 3b 65 02 ba bb
       -0.005294042 0.018092595 0.003951749 -0.005676555
000160 91 73 02 bb 73 62 c2 bc 77 6e ee bb 42 33 1b bc
       -0.0019905309 -0.023728585 -0.007276352 -0.00947267
000170 5a 64 9a bc 26 63 43 ba 8e 2d 65 bc 8d 26 97 3b
       -0.01884668 -0.0007453434 -0.013987912 0.00461275
000180 95 13 b6 3c c7 d0 9e bc 8b 6f e1 3b 8e 3a 05 bc
       0.022226134 -0.019386662 0.006879752 -0.008131636
000190 b1 0d ee 3b 1c 9e a8 3b 04 1d 29 bd 4a aa 4c bc
       0.0072648157 0.005145801 -0.041287437 -0.012491772
0001a0 5e 5b 93 bc d2 b7 a9 bb e6 d1 a3 bc 54 4b 18 3d
       -0.017987903 -0.005179384 -0.019997548 0.037181213
0001b0 68 35 d1 3a 51 a0 d0 3b 97 10 d3 bc f7 6e 86 bb
       0.0015961351 0.0063667675 -0.025764747 -0.0041025835
0001c0 e0 f2 41 bb 03 ee f2 bb ef 53 73 3b 50 32 f3 bb
       -0.0029594228 -0.007413627 0.0037128886 -0.007421769
0001d0 b5 e4 86 3b 17 eb 54 bc 35 c4 a5 3a d4 fb e9 3c
       0.0041166195 -0.012995503 0.0012646975 0.028562464
0001e0 6a 5f 9e 3c 54 fb 03 3d 4a 97 ca 3b 41 70 6d 3c
       0.019332606 0.032222107 0.006182586 0.014492095
0001f0 d1 43 a6 bc 96 18 b1 3b 4f a0 12 bb 05 38 cb bb
       -0.02029601 0.005404542 -0.0022373383 -0.0062017464

network_body._body_endoder.seq_layers.0.weight f4 [128, 90]
000000 cd bd a8 bd 09 d6 fb 3c d8 25 4b 3d b2 42 93 3c
       -0.082393266 0.030741708 0.049596637 0.017976139
000010 69 e0 43 3d 45 cd 17 bd d0 63 36 3e 1d 5f cb bd
       0.047821436 -0.037060995 0.17811513 -0.09930251
000020 00 7b 17 3e a3 63 b7 3d 5c 89 b1 bc 36 09 f4 3d
       0.14793015 0.08954551 -0.021671943 0.11915819
000030 1d 53 04 3d db dd 3e 3e 12 e5 ee 3d 4b a8 d6 bd
       0.032305826 0.18639319 0.116647854 -0.10481318
000040 59 db 15 bd 52 63 8b 3e 2f 50 35 3e 4d f5 4e 3d
       -0.03658614 0.27224213 0.17706369 0.050526906
000050 55 00 8d 3c 67 90 ca bc 47 ca 39 be d3 51 ed bd
       0.017212072 -0.02472706 -0.18143569 -0.11587872
000060 f1 04 bc 3d 73 66 9d 3d 04 fd f8 bd a4 e3 40 3e
       0.0918063 0.07685556 -0.12157634 0.18836838
000070 c3 7c cc 3c 2e 2d 58 3d 27 ed dd 3d 11 4b e5 3c
       0.024961835 0.05277746 0.10836249 0.027989896
000080 b9 92 bc bd 01 69 36 3e 80 08 14 3d 2e 6a 03 3b
       -0.092076726 0.17813493 0.03614092 0.0020052302
000090 d5 3c 75 bc a6 2d 8c bd 0a 69 08 be cd 13 44 3d
       -0.014968117 -0.06844644 -0.13321319 0.047870446
0000a0 51 ca 72 bd 1a 4b e9 3d 42 ac 08 be b8 74 8b 3e
       -0.059274975 0.113912776 -0.13346961 0.27237487
0000b0 d0 00 79 3d b2 4d 58 be 43 a9 6a bd 3e 18 0b 3e
       0.06079179 -0.21123388 -0.057290327 0.13583466
0000c0 3b b7 1e bd c3 e0 8d bd 36 af 54 3d 7b d6 9c 3c
       -0.03874896 -0.069276355 0.051924907 0.019145241
0000d0 f1 53 92 3d b0 a5 30 be d1 20 f5 3c 38 db 1e bd
       0.07144917 -0.17250705 0.029922875 -0.038783282
0000e0 89 2f aa 3b 9c fb a2 3d 61 1f 89 3e 9b 2f c8 bc
       0.005193655 0.07958147 0.26781753 -0.024436763
0000f0 f3 e6 13 be fd 0b 4e bd d9 bb dc bd c0 0d 05 3e
       -0.14443569 -0.0503044 -0.107780166 0.12993526
000100 e3 0d 5e be e3 f4 91 bd a1 38 d9 bd 68 85 13 be
       -0.21684985 -0.071267866 -0.10606504 -0.14406359
000110 cc c0 28 bd cf cb 07 3d 3f 59 a9 be e7 10 af bd
       -0.04119949 0.03315335 -0.33075902 -0.08548146
000120 e2 f1 a2 bd 79 5b 54 bd ef a0 c0 3d bc bf 43 bc
       -0.07956292 -0.051845048 0.09405696 -0.0119475685
000130 5f 58 29 3e 81 48 e3 3d 3c 04 60 3d 76 51 27 be
       0.16537617 0.110978134 0.05469154 -0.16339669
000140 48 b3 08 3d e5 71 54 3e 81 49 dd bd 3f fb 70 bd
       0.0333741 0.20746572 -0.108050354 -0.058833357
000150 0d 34 8d 3c 63 f7 8f bd 84 be 2b 3e 3c dd 23 be
       0.017236734 -0.07029607 0.16771895 -0.16002363
000160 b8 77 18 bd ca c6 69 be 2d c3 1a be c7 e1 b6 3c
       -0.037223548 -0.22829738 -0.15113516 0.022324456
000170 fc c4 fb bb 85 9e 94 3d 5b a3 22 bc f1 10 09 3e
       -0.0076833945 0.07256798 -0.009926642 0.13385369
000180 de 98 1e be c4 b2 80 3d b8 01 50 bd 95 4b 99 bc
       -0.15488002 0.06284097 -0.05078289 -0.018712798
000190 7f 7d 4f bc 73 77 16 bc b9 42 26 bc c8 ed b0 bc
       -0.012664198 -0.009183752 -0.010147744 -0.021597758
0001a0 6d ed 2e 3d f2 9c 30 3d 5f c8 56 be 83 70 e3 3d
       0.042706896 0.043118425 -0.20974873 0.11105444
0001b0 26 13 d8 bc a4 a1 a6 bd 76 06 bc bd 79 df 09 3e
       -0.026376318 -0.08136299 -0.0918092 0.13464154
0001c0 e5 21 6a 3d 60 2d 90 be fc 1e d5 bc a8 33 1f bd
       0.05716123 -0.28159618 -0.026015751 -0.038867623
0001d0 c9 fb 0f bd 85 51 1f 3e de 63 d0 3d ca 89 cf 3d
       -0.03515223 0.15558441 0.10175298 0.10133703
0001e0 fe 88 80 3d a9 f8 8f bc 0c 24 30 bd d0 d4 ec bd
       0.06276129 -0.017574625 -0.043003127 -0.11564028
0001f0 04 32 6c bc 06 f3 7b 3c c5 88 1d be 6b 17 a9 3d
       -0.0144162215 0.0153777655 -0.15384205 0.0825642
000200 ff be 82 bd 81 ab ff bd ac 24 54 3e 2a 30 96 be
       -0.06384086 -0.12483884 0.20717114 -0.2933362
000210 9c 58 0a bd d8 49 6d 3e 37 2a 38 bd 47 02 40 be
       -0.03377591 0.231727 -0.044962134 -0.18750869
000220 e2 7a 92 3d f9 17 dd bd 14 a5 f3 bd a1 ca 9a bd
       0.07152344 -0.10795588 -0.118967205 -0.0755818
000230 43 70 15 3c a0 55 b1 bc 95 33 4b bd 03 37 b7 bc
       0.009121004 -0.021647274 -0.04960974 -0.022365099
000240 fd 56 8e 3e 77 9d b6 3d 4d 05 41 3d 21 ec 19 3e
       0.27800742 0.08916753 0.047124196 0.15031482
000250 c1 31 c6 3d 17 79 5d 3d fb 94 39 3e 36 bd 16 bd
       0.096774586 0.05407056 0.18123238 -0.03680154
000260 b3 58 1f 3e 78 fc b1 3c f2 88 77 bc c1 15 47 3e
       0.1556118 0.021726832 -0.015108334 0.19441892
000270 ca e1 49 be e6 01 25 3d b4 5b 2f bb 3d 88 47 bd
       -0.19715038 0.040285014 -0.002675754 -0.04871391
000280 25 c7 10 be 3f 26 cc bd 46 e9 59 3e dc e2 11 be
       -0.14138468 -0.09968232 0.21280393 -0.14246696
000290 18 f0 1a be 1f c8 3e 3e 8a 1c bb bd 52 81 be bc
       -0.15130651 0.18631028 -0.09136303 -0.023255024
0002a0 36 01 89 3e 7a f3 92 bd b6 03 30 3d 48 cc d5 bd
       0.26758736 -0.07175346 0.04297229 -0.10439354
0002b0 7c 0e 23 bc d6 28 c6 bd 5f 2b 70 be da 01 14 bd
       -0.009952184 -0.096757576 -0.23454045 -0.03613458
0002c0 6f 49 35 3d 07 99 e6 3d 7f de 2c be 96 13 0c be
       0.044259485 0.112596564 -0.1688175 -0.13679346
0002d0 a8 fa 28 bc 95 26 9a 3b 74 f1 7a 3d e7 69 bd 3c
       -0.010313667 0.0047043064 0.061265424 0.023121787
0002e0 1e cd 60 bd 49 b2 b2 3d 1c 0e 64 bc 31 54 11 be
       -0.054883115 0.087254114 -0.01391938 -0.14192273
0002f0 13 ee be bd fb a2 13 3e 2e 48 a7 3d 7b 8d d6 3d
       -0.09322753 0.14417641 0.08168064 0.10476204
000300 f1 7c 3f bc 90 fc 72 3e da 9b 02 bc 4d 6c d7 bd
       -0.011687503 0.23729157 -0.007971728 -0.105187036
000310 91 46 22 be 7e 13 cd 3c b8 ff b3 3e af 7b db 3c
       -0.15847231 0.025033709 0.35156035 0.026792375
000320 59 d8 24 be 03 fa 9a bd eb 22 24 be c5 b3 ca bd
       -0.16098155 -0.07567217 -0.16028945 -0.098975696
000330 eb 0d e9 bc 86 03 0a bd 7c 15 3d bd 97 2f 8a 3c
       -0.02844902 -0.033694766 -0.046163067 0.016868396
000340 79 58 0f be ed e0 e8 bc 0f 0b 2c 3d 18 d4 83 bb
       -0.13998593 -0.028427565 0.042002734 -0.0040230863
000350 96 38 ee 3d d7 08 0b be fd 57 d8 bd 60 0b d3 bd
       0.11631887 -0.13577591 -0.105636574 -0.10304904
000360 1c f9 8b bc 7e c5 42 3e 0b 41 7f bc a3 4b 6a 3c
       -0.017086558 0.1902065 -0.015579472 0.01430026
000370 9f 9b 07 bd c4 2f 7b 3d 2e fb 61 3c da 64 14 be
       -0.033107396 0.06132485 0.013792796 -0.14491597
000380 d9 59 2a 3e a2 47 bd bc 90 75 42 3d 43 24 09 3b
       0.16635837 -0.023105446 0.047475398 0.0020926155
000390 4c 6e a6 3d c5 3d 25 3c 4b 0c 83 bd e2 59 fc b9
       0.08126506 0.010085528 -0.06398829 -0.00048132153
0003a0 85 2d 97 3c 94 b1 ee bd 6e 9d 7a 3d ec ae 6e be
       0.018454323 -0.11654964 0.061185293 -0.23308915
0003b0 80 42 85 3d e5 15 bf 3d ee 49 4b be 6e d2 2e 3e
       0.065068245 0.09330348 -0.1985242 0.1707246
0003c0 6c 88 85 3c 4c bb 7d bd 3d ca 0a be 4c 7a ac bd
       0.016300403 -0.0619462 -0.1355371 -0.08421764
0003d0 0f 0b e4 3d 66 f9 88 bd d0 f3 fb bd 41 94 61 3d
       0.11134922 -0.06688194 -0.12302363 0.055073027
0003e0 98 12 05 be 7c d5 24 3e 4a 28 14 bb 0d a4 4a 3c
       -0.12995374 0.16097063 -0.0022607022 0.012368214
0003f0 47 a1 d6 3d a3 cc 7f bd 42 46 ee 3d 7a f3 2a 3d
       0.1047998 -0.062451016 0.11634494 0.041736104

network_body._body_endoder.seq_layers.2.bias f4 [128]
000000 f4 da 14 3c 1d 01 1a bb c0 db 08 bc c3 4d 6e 3c
       0.009085406 -0.0023499199 -0.008353174 0.014544907
000010 78 28 b1 3b 91 13 9a 39 43 33 79 ba 7a 72 3d bc
       0.0054064356 0.00029387747 -0.0009506235 -0.011562938
000020 6d 9b 31 bc 1f 5e 61 3b f6 88 1e bb e9 fa b1 3c
       -0.010840279 0.0034388376 -0.0024190522 0.021726089
000030 69 56 1a bc c3 d4 d7 bc 47 1d ba bc e2 72 00 bb
       -0.009420016 -0.02634657 -0.022719039 -0.0019599725
000040 d4 87 3f 3c 46 b3 5a bb cc 6d 7a bb 2b 22 36 3c
       0.011690099 -0.0033371015 -0.0038212417 0.011116545
000050 dd 1c 0b bc 4c 3d 3b bc a1 a6 ad bc 55 6e af bc
       -0.008490768 -0.0114281885 -0.021197619 -0.021414915
000060 0a 00 f1 ba 18 60 54 3a 52 ce 4d b9 d5 a7 eb bb
       -0.0018386852 0.0008101477 -0.00019627184 -0.007191638
000070 0f 48 36 bc ae d0 fc bc f9 3b 15 3c de d1 4a bc
       -0.011125579 -0.030861225 0.009108537 -0.012379138
000080 f5 7e 67 bc 79 35 dc bc 93 78 4a 3d cd d9 b7 bc
       -0.01412939 -0.026880966 0.049431395 -0.022442723
000090 6b 07 0e bb dd 11 50 bc 00 68 e7 bc 1c 44 85 b9
       -0.0021671902 -0.012699571 -0.028247833 -0.00025418482
0000a0 8b 64 0c bb 49 06 ba 3a 9c e4 79 ba 8a 77 5c bb
       -0.0021422233 0.0014192547 -0.00095326616 -0.0033640587
0000b0 3b 9d e1 3b 2f 85 1d bb 38 90 42 bc 33 2f c0 bc
       0.0068851984 -0.0024035682 -0.011875205 -0.023460006
0000c0 55 84 56 3c c3 f6 76 bc cb a5 eb ba 89 d5 b6 3b
       0.013093074 -0.015073481 -0.0017978487 0.0055796546
0000d0 9d e8 04 3c e4 4b 66 3b 71 21 96 bc e9 69 b9 bb
       0.0081121 0.003514045 -0.018326493 -0.0056583774
0000e0 a6 19 73 bc e3 72 59 bc c5 2f fe bc 60 05 b6 bc
       -0.014837658 -0.01327202 -0.031028638 -0.02221936
0000f0 fd be 15 3c 95 07 93 3b b5 8d d1 3b 9e f2 d3 bb
       0.009139773 0.004486988 0.0063950666 -0.006468131
000100 f7 1b 07 3b 9c b7 73 bc 11 92 95 3c 38 ce 69 3b
       0.0020616034 -0.014875319 0.018258126 0.0035675894
000110 6d 1e 8d bc c7 a5 c9 bb 1f b5 f6 b9 e8 08 73 3c
       -0.017226422 -0.0061537954 -0.00047055722 0.014833666
000120 e9 8f d6 bb 19 7c 2e bc 46 c5 74 bc 3e 39 da bb
       -0.006547917 -0.010649704 -0.014939612 -0.006659656
000130 99 bf e3 bb 08 2b 6a bb 50 7e a0 3b 2d 6a c9 bb
       -0.0069503305 -0.0035731215 0.00489787 -0.0061466903
000140 c5 9d 15 3c fb 22 de bb b9 4a b9 bc fa 86 04 bb
       0.0091318535 -0.0067790723 -0.022618638 -0.0020222054
000150 02 d4 a9 3c b7 c3 4e 3c 15 f5 d8 3b 35 48 a1 bc
       0.020730976 0.012619904 0.006621013 -0.019687751
000160 4e 5c ce bb 1c f1 01 bc de e5 08 3d 24 ce a4 bb
       -0.0062976247 -0.00793102 0.033422343 -0.0050294567
000170 eb 19 d6 bc 3e 3d 07 3d d5 c5 58 bc f7 f0 d9 ba
       -0.026135406 0.03301739 -0.013230761 -0.0016627599
000180 7f 9a 82 ba e1 a3 1d bc 05 41 e6 bb 3b 2f 0c 3d
       -0.0009964256 -0.009621591 -0.007026794 0.03422473
000190 97 88 9d bc 4a a9 80 bc fe 24 fc 3b 4a 76 af bc
       -0.01923017 -0.015705723 0.0076948395 -0.02141871
0001a0 f4 35 4f 3c f8 21 8c 3a 8f f3 b5 bc c6 3e 07 bc
       0.012647141 0.0010691276 -0.022210864 -0.008254712
0001b0 4e 78 66 3c f5 f6 b0 bc 26 49 fd 3a d5 7a 17 3a
       0.014066769 -0.021602133 0.0019324168 0.0005778496
0001c0 16 66 20 3d 7c 37 82 3c 71 10 fb bb ae 6e 98 bc
       0.039159857 0.015895598 -0.007661872 -0.018607464
0001d0 e4 94 a4 3c 74 a0 8a bc 10 ab db 3a 2d 48 6a 3c
       0.020090528 -0.016922213 0.0016759355 0.014299435
0001e0 40 f9 85 bc 81 c5 40 bc 8a 6d 53 b8 e6 95 95 3b
       -0.016354203 -0.011765839 -5.0408336e-05 0.0045649884
0001f0 6b c5 32 bc 6a da 93 3c 57 86 27 bc bc 83 00 bc
       -0.010911326 0.018048484 -0.0102249 -0.007843908

network_body._body_endoder.seq_layers.2.weight f4 [128, 128]
000000 55 51 ed 3d 7c a0 82 3d ee 42 f6 bc 36 c6 a2 3d
       0.115877785 0.06378266 -0.030061211 0.07947962
000010 a3 51 c0 bd 2c 29 ce bd 8e f5 61 3d 08 36 a9 bc
       -0.09390571 -0.10066447 0.05516582 -0.020655647
000020 c0 01 16 3d 3c d5 93 bb 17 28 e0 3c e7 44 82 3c
       0.036622763 -0.0045115035 0.027362866 0.015901996
000030 5f 6e 9f bd 08 e3 c4 bd ef 37 92 bc d1 5d 53 3d
       -0.077847235 -0.09613615 -0.017848937 0.051603142
000040 da 60 9c bd 5f 73 4a bd 2f d9 7e bd 42 38 37 be
       -0.076356605 -0.049426433 -0.06221884 -0.17892554
000050 0d e8 26 be aa 76 17 3e f3 1e 37 bd b8 b6 5b 3e
       -0.16299458 0.1479136 -0.04470725 0.2145642
000060 cd b8 cf 3c c2 8f 0c 3e 25 a3 81 bd df e8 6c 3c
       0.025356675 0.13726714 -0.063299455 0.014459818
000070 46 91 65 bd 81 e0 da 3b 2f 09 07 bd ef dc cb 3d
       -0.056046747 0.006679595 -0.032967743 0.09954249
000080 d9 ed a7 bd 62 e4 f0 bd 38 03 d6 3c 1e 5a 94 bd
       -0.08199663 -0.117623106 0.026124582 -0.07243751
000090 30 9f f8 3c 3b 28 cb 3d 9f 98 c5 3d 2c c7 b8 bd
       0.030349344 0.09919783 0.09648251 -0.09022364
0000a0 15 1a 45 3e fc be 84 3d a7 10 de 3d c4 ba 1b 3e
       0.19248231 0.0648174 0.1084302 0.15207964
0000b0 d7 6d d2 3c e4 4a 07 be 5d ea 4e bd 0b 58 0d 3e
       0.025687141 -0.13212162 -0.050516475 0.13803117
0000c0 11 48 a9 3c 7e 6d ea bc 96 b4 4d bd b7 3e 39 bd
       0.020664247 -0.028616663 -0.05022105 -0.045225825
0000d0 a1 1a a8 bd 37 69 62 be 57 5c 2e bc c4 85 56 3d
       -0.08208204 -0.22110449 -0.010642133 0.052373663
0000e0 9e 2e 97 be 08 cf 7a 3d 95 16 0c 3d 15 10 35 3d
       -0.29527754 0.061232597 0.034201223 0.04420479
0000f0 72 f2 37 bd d8 8e 1f 3d f3 c2 bd 3c ed f5 9d bb
       -0.04490895 0.038954586 0.023164248 -0.0048205764
000100 17 65 93 3d 04 48 4e bd 27 c8 2c be b7 30 60 bd
       0.07197016 -0.05036165 -0.16873227 -0.054733958
000110 ab 8b 39 3e c0 02 a1 bc 0f e4 4a bd 61 96 a2 bd
       0.18119685 -0.019654632 -0.0495339 -0.07938839
000120 3c 45 a5 3d e7 0f 8f bd 04 b5 30 3e 6e 44 be 3c
       0.08069846 -0.06985455 0.17256552 0.02322599
000130 0d 8f 64 3e 80 99 7e 3e b9 57 36 3d 8e cc f8 3d
       0.22320195 0.24863243 0.044517253 0.12148391
000140 d9 58 31 3e 45 5a cb 3d b5 1c 4d 3d ca 3e 37 3e
       0.17319049 0.09929327 0.050076205 0.17895046
000150 47 f5 36 be 48 66 95 3d 69 b8 09 bd 1d 06 cc bd
       -0.17867003 0.07294899 -0.033623133 -0.099621035
000160 02 84 13 bc eb 45 97 3c 35 cc 57 bc d6 df 44 3d
       -0.009003641 0.018465957 -0.013171245 0.04806503
000170 c3 c7 19 bd 72 20 2f bd 35 2d 14 bc 72 13 c7 bd
       -0.037544023 -0.04275555 -0.009043981 -0.09720506
000180 04 5d 71 be c9 1f 34 3d 65 c6 08 3d 0c 61 e6 bd
       -0.23570639 0.043975625 0.03339233 -0.11248979
000190 66 cf f5 bd 87 25 4a 3e f2 08 af bb 90 20 3b 3d
       -0.12002449 0.19740878 -0.0053416425 0.04568535
0001a0 f7 2a 43 3d c6 79 ad ba 6b c2 61 be 1d 57 c9 bd
       0.047648396 -0.0013235144 -0.22046821 -0.09831069
0001b0 e2 8c ef bd da 7f 2d 3d 3c 2e 1e be 96 96 26 3e
       -0.11696793 0.042358257 -0.15447325 0.16268381
0001c0 1c f3 f3 3d 60 45 89 3d 66 97 14 3c 01 5f 37 bd
       0.11911604 0.06702685 0.009069299 -0.044768337
0001d0 ea 9d fb 3a ae 53 91 3c 4c e3 d9 bc d4 8c c7 3d
       0.0019196842 0.017740097 -0.026597641 0.09743658
0001e0 ce 92 18 3d 06 ea 55 bd 03 67 d0 3d 3e a6 1d 3e
       0.03724938 -0.052225135 0.10175898 0.15395448
0001f0 23 47 a3 bc 41 20 17 3e 14 ec 2e 3d bf ca 5e bc
       -0.019931382 0.14758398 0.04270561 -0.013598143
000200 db 9f c8 bc 30 3f 3a 3d 1e f0 38 bc 19 60 90 be
       -0.024490288 0.045470417 -0.011287717 -0.28198317
000210 75 99 ba 3d 52 fd d6 3c 60 4b 46 3d 03 a9 6b 3c
       0.09111301 0.02624384 0.048411727 0.014383557
000220 d1 b8 a2 3d 2e 18 81 3d 24 ba 17 3e 73 b6 1a bd
       0.07945407 0.0630344 0.14817101 -0.037771653
000230 a1 0e 47 bd 47 88 b5 bd 72 6e 21 3d 63 78 ec 3d
       -0.048597936 -0.088638835 0.03941197 0.115463994
000240 f6 91 56 3d 7e 5c c9 3d 24 c5 ff bc 0c 5c 15 bc
       0.052385293 0.098320946 -0.031221934 -0.009116184
000250 a5 15 f7 3d cc b4 f7 bc 65 b4 68 3d 8f 9c b7 bc
       0.12064675 -0.030237578 0.056812663 -0.02241352
000260 b0 f7 1d bc 81 c8 54 3c 6a 26 12 be d1 75 85 3d
       -0.009641573 0.012987257 -0.14272466 0.06516612
000270 47 25 e6 bd e5 dc 87 3c 53 8d f8 3d a2 1b 10 bd
       -0.11237579 0.016584823 0.121363305 -0.035182603
000280 d5 d9 c4 bb 42 2d b4 bd 26 4f 45 3c 54 d1 db bd
       -0.006007413 -0.08797695 0.012042796 -0.107332855
000290 9b 44 21 3e aa 28 3d bc 08 af 68 3d b5 ef 1d be
       0.15748827 -0.01154534 0.056807548 -0.15423472
0002a0 22 1c b8 3d 0c 58 4a be 3f f2 4f bd 05 54 f7 3d
       0.08989741 -0.1976015 -0.050768133 0.12076572
0002b0 9b 94 5b be 66 3b 3e bd 16 ad df bd e6 14 e1 3c
       -0.21443407 -0.046443366 -0.109216854 0.027475785
0002c0 e4 cc e5 3d 2d b8 86 bc ce 29 9f bd 2b fd 91 bc
       0.112207204 -0.016445244 -0.077716455 -0.017820915
0002d0 b3 a1 14 be 62 51 95 3d 3b a7 b9 3c 3e 83 00 3c
       -0.14514808 0.07290913 0.02266275 0.007843791
0002e0 6b 05 99 bd 15 ac a5 bd c7 e7 d6 bd 12 a6 3c 3e
       -0.074717365 -0.08089463 -0.10493427 0.18422726
0002f0 52 5e 33 3a eb 41 e6 bc 79 4f 03 3d d8 e5 bd bd
       0.0006842363 -0.028107604 0.032058213 -0.09272355
000300 e1 67 c8 3d 22 01 27 3e 8b 0b 32 3e 65 ab c8 3c
       0.09785438 0.16309026 0.17387216 0.02449579
000310 e2 0d ba bd 66 25 97 3d dd ab 5b 3d 6d 17 7d be
       -0.09084679 0.0738018 0.0536307 -0.24715967
000320 14 df ac bd 05 10 9d 3c 5e 01 14 bc d5 ed d3 3b
       -0.08440986 0.019172678 -0.009033529 0.006467561
000330 b2 67 3f bd b1 67 d3 bd 18 dc 09 3d bd fe db bd
       -0.04672975 -0.10322512 0.033657163 -0.10741947
000340 b8 ad f3 3d 02 60 4e bd 9b d2 2c be d8 b5 85 3c
       0.118983686 -0.05038453 -0.16877215 0.016322061
000350 14 5b dd bd 56 f8 d4 bb 22 81 9a bc c1 42 99 3d
       -0.108083874 -0.0064993305 -0.018860403 0.074834354
000360 c8 af 0d 3e 69 4d 00 3b f6 5d 3c bd 22 57 da bc
       0.13836586 0.001957739 -0.045988046 -0.026652876
000370 38 44 a4 bd 48 60 84 3d 36 92 5f 3d da 45 e9 bd
       -0.08020824 0.06463677 0.054582797 -0.11390276
000380 35 3a 07 3d 34 bf fb bc 0e f5 7a bd 45 b3 73 bd
       0.033014495 -0.030730821 -0.06126886 -0.059497137
000390 09 c3 ec bd d3 3a 17 3c 49 60 2f be b8 a3 0d be
       -0.115606375 0.009230333 -0.17126574 -0.13831985
0003a0 12 3b ce 3d 16 74 93 3d e5 65 4a be 47 8a 24 be
       0.100698605 0.07199876 -0.19765432 -0.16068374
0003b0 2e 1f 0e bd de f2 54 3e 78 63 96 3d da a7 a4 3d
       -0.034697704 0.20795771 0.07343191 0.08039828
0003c0 65 85 df bc a0 09 29 3e cc ca 63 3d ec 57 8c be
       -0.027285287 0.16507578 0.055613324 -0.2741083
0003d0 da ee 2c 3d 61 50 12 3e 38 4d a6 bb 2a c3 51 be
       0.042219974 0.14288475 -0.005075123 -0.20484605
0003e0 bd 16 1b bd 9b 62 ab 3d 91 64 39 3e 2f a4 32 3d
       -0.03786348 0.08368417 0.1810477 0.04361361
0003f0 2e 7c e4 3c be 25 98 bd fd fb 14 bd 3f 7b 9b 3c
       0.027891245 -0.07429074 -0.036373127 0.018979667
