Assets/ML-Brains/Backups/ResultsScenario_03.onnx (onnx, 120062 bytes, 9 tensors)

action_model._discrete_distribution.branches.0.bias f4 [7]
000000 91 88 09 3c 75 c5 e3 3c 5b 6f d8 b9 f3 fb d0 3c
       0.008394376 0.027804116 -0.00041281697 0.025510764
000010 a7 d8 a9 3c 6a ba 5d bd 04 d4 01 bd
       0.02073319 -0.054132856 -0.031696334

action_model._discrete_distribution.branches.0.weight f4 [7, 128]
000000 14 1e 79 bb c5 2b 45 bd fb b3 d8 3c 0e d4 54 3d
       -0.0038012313 -0.048137445 0.026453009 0.051960044
000010 5f 96 61 3d d6 62 56 3d 93 a8 83 3c 0c d1 22 bc
       0.055075046 0.05234035 0.016071593 -0.009937536
000020 17 41 8d 3d f6 88 b5 3c 42 53 8f 3c b0 3a 15 3d
       0.068971805 0.022160035 0.017495755 0.036432922
000030 bd 1b 04 3b 1e 2e 04 3c 12 27 95 3d 00 8f 27 bd
       0.0020158135 0.008067636 0.07282843 -0.04090786
000040 69 2f c6 bc b8 ec 19 3c 49 3d e7 bc 6e 0a c3 3c
       -0.024192529 0.009394817 -0.028227465 0.023808684
000050 d3 e5 78 3d de f1 53 bc cb 90 b5 bc 8c dc 18 3c
       0.060766052 -0.012936084 -0.02216377 0.009329926
000060 ab 7a d9 bc 1b a9 7d 3c 04 ec f4 bb 85 46 9e 3c
       -0.02654775 0.015482212 -0.0074744243 0.019320736
000070 c9 1b 8a bc 14 0e 98 ba d1 7a c4 3c 2d e7 1d 3d
       -0.016858952 -0.0011600875 0.023984345 0.038550545
000080 6c e5 d3 3c 2e 57 5b 3d 90 28 3c bd 91 3f 13 3b
       0.025866233 0.053549938 -0.04593712 0.0022468308
000090 2d ae d6 ba a1 b1 c8 bc 73 54 c3 bc 49 08 2d bb
       -0.0016378813 -0.024498763 -0.02384398 -0.0026402643
0000a0 bb 1a d4 3c 72 d6 16 bd 62 b0 f7 bc ae 6d 7e bc
       0.025891652 -0.036825605 -0.030235473 -0.015529079
0000b0 0a 78 00 bd a1 cb c0 3c 9b c6 38 bc 3b ef ed bc
       -0.03136448 0.023534598 -0.01127782 -0.029044738
0000c0 69 49 11 3b 2a 7c 54 3d 81 b0 b1 bc db ac 6b bc
       0.0022169 0.051876225 -0.021690609 -0.014384474
0000d0 a5 e1 5c bc c4 86 1d bd f8 39 19 bd 79 4c 20 3c
       -0.013481532 -0.0384586 -0.0374088 0.0097838575
0000e0 13 74 f4 bc 2a e4 7f 3d 2d 20 3d 3d 1f 58 0f 3d
       -0.029840505 0.062473454 0.046173263 0.03499615
0000f0 31 a1 49 bc 9a 12 b1 bc 2c 04 77 bd 19 39 33 3c
       -0.012306497 -0.021615315 -0.060306713 0.010938906
000100 77 36 27 3d 73 38 61 bc 82 7f c4 bc 7a c2 03 3c
       0.040823426 -0.013746369 -0.023986582 0.008041972
000110 19 16 4d bc 17 bc 5c bd 3f ee 05 bd 52 27 f7 3c
       -0.0125174755 -0.053890314 -0.032697912 0.030170117
000120 ca ca 86 3d aa fb 36 bc 7e a9 cd bb dc 25 6b 3d
       0.06581648 -0.0111684 -0.0062763086 0.057409152
000130 c0 4b eb 3b ab ba 51 bc 79 dd fa bc 7e f4 13 3d
       0.007180661 -0.012800853 -0.030623185 0.036121838
000140 d0 4f 36 3c b5 0c 93 bc 19 81 cd 3a e6 f8 80 bc
       0.011127427 -0.017950395 0.0015678733 -0.015743684
000150 68 e5 fb 3b f5 40 a5 bc c7 36 0b 3c 80 be 79 3d
       0.0076872595 -0.020172575 0.008496947 0.06097269
000160 72 8c de 3c d8 63 02 3c 64 23 07 3d b1 2c 09 bb
       0.027166579 0.007958375 0.032992736 -0.002093118
000170 12 4a 3e bc 77 ce 5b bc bc 0b 68 bd 03 24 85 3c
       -0.011614339 -0.013415924 -0.056651816 0.016252523
000180 4e 64 42 bc bb a1 45 3c c7 70 90 bc 44 7b 56 3c
       -0.011864735 0.012062485 -0.017631901 0.013090912
000190 08 85 af 3b dc 07 09 3d ae f6 b5 3d d8 3c a2 bd
       0.0053564347 0.03345476 0.08884941 -0.07921761
0001a0 7f 71 31 3d 6c 6c fd 3a 14 5c 2e 3c 92 9d e2 bc
       0.04332113 0.001933468 0.01064207 -0.027663026
0001b0 68 2e f7 3a 36 5a 3e 3d c6 63 41 bd 44 53 3b 3d
       0.0018858435 0.04647275 -0.047214292 0.045733705
0001c0 63 66 8d bc af 9a 9e bc 6a d7 3f bb f1 d6 84 bc
       -0.017260736 -0.019360868 -0.0029272684 -0.016215773
0001d0 21 69 9c 3b 33 82 88 3b 2a a1 ae bb 4e b8 c6 3c
       0.0047732745 0.0041659116 -0.005329271 0.024257805
0001e0 02 5e 14 3c b5 5b cc bc 03 fb d0 bb 63 68 bf 3c
       0.009055616 -0.024946073 -0.006377579 0.023365205
0001f0 30 b6 0d bc ca 55 b7 bb f8 fa 13 3b ee c1 29 bd
       -0.008649394 -0.0055949437 0.002258001 -0.04144471
000200 bc 23 35 bc 28 72 1b bd 94 af 15 bd b4 d9 ca 3d
       -0.011055883 -0.037950665 -0.036544397 0.09904805
000210 37 67 d6 bc d4 a7 5f 39 fb 2e 76 bc cc 24 7d 3b
       -0.026172264 0.00021329458 -0.015025849 0.003862667
000220 b4 b9 88 bc 4e fe 2b bd 34 15 2e 3c fd 90 0f 3d
       -0.016690113 -0.04199057 0.010625172 0.03505038
000230 d1 35 fb bc de 6c 6c 3d af 81 35 bd 93 ee 40 3c
       -0.03066531 0.05772101 -0.04431313 0.0117756305
000240 ec 16 10 bc be 69 4f bc 66 23 8b bd 7b 1e 2c 3c
       -0.0087945275 -0.012659488 -0.06793861 0.010505314
000250 f9 4f 95 bc 00 a7 37 bd 6c 1c 98 3c eb 8d 41 3b
       -0.01822661 -0.044836998 0.01856824 0.0029534053
000260 b3 bc 09 3d ad fc 59 3c a2 45 68 bc 24 8c bf bc
       0.033627223 0.0133048715 -0.014176758 -0.023382254
000270 32 1d 05 bd 3b 03 14 3c 3e b2 21 bd e0 42 8c bc
       -0.032498546 0.009033973 -0.039476626 -0.017121732
000280 14 b3 84 bc db 0e b2 3b b4 14 a2 3a 18 ef 9c bb
       -0.016198672 0.0054339 0.0012365789 -0.0047892444
000290 55 d9 4f 3d d8 db b5 3a 3c 5e 97 3b e5 b7 02 bc
       0.050744373 0.0013874723 0.004619388 -0.007978414
0002a0 05 9b 0b 3d 75 73 86 bd 0a 05 22 bc 8a f7 58 3c
       0.034083385 -0.065649904 -0.009888897 0.013242612
0002b0 c7 30 cf 3c d7 1e 98 bc b4 fc 16 bc 1e d5 92 bb
       0.025291814 -0.018569393 -0.009215523 -0.004480972
0002c0 5a b7 87 bb 30 59 75 bc da 4d 90 bc 89 23 28 3c
       -0.0041417303 -0.014974877 -0.017615248 0.0102623785
0002d0 55 f4 21 3d 4b 4d 24 3b b1 03 22 bc d7 f7 a4 3b
       0.039539654 0.0025070484 -0.009888575 0.0050344276
0002e0 06 a5 4e bd be 1f b4 bd 85 c1 8f bb fa be 6a 3a
       -0.050450347 -0.08795117 -0.004387083 0.00089548493
0002f0 94 ff 76 3d 7f e3 a8 bc b7 a6 1b ba ff 19 8a 3c
       0.060302332 -0.020616291 -0.0005937623 0.016858099
000300 f3 c4 3c bc 90 e5 da bb 94 72 1d bb 35 a6 50 3d
       -0.011521566 -0.006680198 -0.0024024593 0.050939757
000310 d4 94 94 3c 55 12 47 3d 12 19 07 bd 30 1d b6 3c
       0.018137373 0.048601467 -0.032982893 0.022230715
000320 d7 4a 47 3d 65 b3 a3 bc e4 60 9e bb 7c d5 6f ba
       0.048655357 -0.019983003 -0.0048333276 -0.0009148938
000330 02 55 af bd 29 5c 9c bc 4d f7 4a 3c 09 7d 52 bc
       -0.08561136 -0.019086914 0.012388063 -0.0128471935
000340 b8 8c 02 bc bc 1e 3a 3c ca 97 03 bc 48 13 9a 3c
       -0.00796812 0.011359867 -0.008031795 0.018808022
000350 eb 41 33 bc e8 80 80 3c 89 38 4a bc 49 c8 f8 3c
       -0.010941009 0.015686467 -0.012342581 0.03036894
000360 94 d4 17 bd a9 d5 ce ba f0 63 df 3a 95 0d 81 3c
       -0.037067965 -0.0015780228 0.0017043334 0.015753547
000370 9d a4 a0 3c 1c 63 f6 3c 51 cf 3d 3d fc c6 19 3b
       0.019609744 0.030076556 0.04634029 0.0023464551
000380 5c e6 88 3a 0f cf 95 bc 3f 6f a2 3c 87 a8 47 bc
       0.0010444629 -0.01828721 0.019828437 -0.012186176
000390 38 de 2a 3c 5f 31 e4 bb a8 86 a6 3c c0 e5 7d 3d
       0.010428958 -0.0069638933 0.020327881 0.061986685
0003a0 03 10 1e bc e9 ac 24 3d ca 7a 80 3c fa 86 34 3d
       -0.009647372 0.040203962 0.01568355 0.044074036
0003b0 a1 59 a7 bc 8a 1d b9 bd d0 39 1c 3d 9b 81 8d bc
       -0.02042848 -0.09038837 0.03814107 -0.017273715
0003c0 6c a0 31 3d bd c8 fd 3c be 64 26 3c d6 e3 e0 3c
       0.04336588 0.030979509 0.010155855 0.02745239
0003d0 29 ad 45 3c ae ea e9 bb fb 53 d4 3c 7f ee f3 bc
       0.01206521 -0.0071385717 0.025918951 -0.02977681
0003e0 47 75 75 bc 3a ff fe ba bd 9f 3f bc 67 6c c3 bc
       -0.014981574 -0.0019454726 -0.011695799 -0.023855401
0003f0 ae 92 3c bc 1e b1 ec bc ff 0d 06 bd 6d 51 12 3d
       -0.011509581 -0.02889305 -0.03272819 0.035722185

action_model._discrete_distribution.branches.1.bias f4 [2]
000000 6e 2e 14 bc 70 2e 14 3c
       -0.009044273 0.009044275

action_model._discrete_distribution.branches.1.weight f4 [2, 128]
000000 cf 36 0a 3c f6 1d 91 bd fd bc ec bb 6d 30 14 3c
       0.008435919 -0.07085793 -0.0072246776 0.009044749
000010 ac ee 70 3a 3e 73 83 bc 35 eb 9b bc 82 6e cf ba
       0.00091908383 -0.016046163 -0.019033054 -0.001582578
000020 ef 38 a0 bc 67 22 20 3c 87 58 30 3c f4 36 99 ba
       -0.019558398 0.009773827 0.010763294 -0.0011689351
000030 38 d9 c2 bc 68 a2 41 3c 1f 32 dd bc 39 6b 74 bc
       -0.023785219 0.011818506 -0.027001439 -0.014918142
000040 c8 3c e6 3c ee 37 42 bc 2b 4a 65 bc 25 4a 79 3d
       0.028105155 -0.011854155 -0.013994734 0.060861725
000050 de 05 52 bb cc 79 01 3c 98 cd de 3c f7 cb 80 bc
       -0.0032046954 0.007902574 0.027197644 -0.015722258
000060 66 92 68 bc dc 41 02 bd e6 9d 6b bc 33 60 bb 3c
       -0.01419506 -0.03180109 -0.014380908 0.02287302
000070 3d 9c 05 3d a0 27 d0 3b 04 47 13 3d f9 73 a8 3c
       0.032619704 0.00635238 0.035956398 0.020563113
000080 8d 93 4e bc 40 2e 3e bd 60 2d 12 3d 4b 91 01 ba
       -0.012608421 -0.046430826 0.035687804 -0.000494261
000090 c1 e1 51 bc d5 a7 4f bc 14 e3 0d 3d 28 7e 66 bd
       -0.012810172 -0.012674292 0.034640387 -0.056272656
0000a0 07 9d dd bb 42 25 ef 3c ce b8 50 bd 2e 4f 36 3d
       -0.006763104 0.02919257 -0.050957493 0.044509105
0000b0 72 be 80 bb 10 26 48 3c 4d 4d 6b 3c 73 e8 aa bc
       -0.003928953 0.012216106 0.014361692 -0.020862794
0000c0 b8 aa 7b ba c9 77 ca 3c 17 e0 85 3a 62 3e f7 3c
       -0.0009600329 0.024715321 0.0010213879 0.030181114
0000d0 b6 ff 31 bd 2a 33 a4 3c 75 ca c1 3c 9f 61 c1 bc
       -0.043456756 0.020043928 0.02365611 -0.02360612
0000e0 a8 9d ae ba a1 7c da bb 0b 96 4f 3d 81 e0 48 3b
       -0.0013322132 -0.006667689 0.0506802 0.0030651393
0000f0 93 c9 12 3d 94 be f6 3c 40 88 87 bd 8b 7a 60 3c
       0.035836767 0.030120172 -0.066177845 0.0137010915
000100 58 61 79 3c 5c eb f0 3c 24 b9 46 bc e8 a2 c6 3b
       0.015220962 0.029409103 -0.012129102 0.0060619004
000110 b9 ae 54 3c 3a 44 cc 3c 30 f5 61 3c 6a 5f 03 bd
       0.01298111 0.024934877 0.013791367 -0.032073416
000120 f1 d8 aa bc 4b a1 61 bc 91 d6 86 bc ab af b8 3c
       -0.020855399 -0.013771365 -0.016459735 0.022544703
000130 71 58 11 bd f6 3a 06 3b b4 c9 b1 bc 95 d0 e6 bb
       -0.035484735 0.002048192 -0.021702625 -0.007043908
000140 1e 14 9b bc 17 f5 a7 3a 8a 44 2c bb ca 49 3e bd
       -0.018930491 0.0012814131 -0.002628597 -0.04645709
000150 e9 f2 75 bc 6b 5a 34 3c f4 6c 9d bc c4 e0 94 bd
       -0.015011528 0.011007885 -0.019216992 -0.07269433
000160 91 22 93 bc 46 d1 89 3c 5b 36 1b bc 80 02 54 bc
       -0.017960818 0.016823422 -0.009473409 -0.012940049
000170 eb 4d 9a 3c 32 f2 c2 bb 95 46 04 bd 5d 70 28 bd
       0.018835982 -0.005949282 -0.032293875 -0.041122783
000180 f1 46 c5 bc 7c fb 6e 3b 2c 86 14 bc 08 1e bf bc
       -0.024081679 0.0036465814 -0.009065192 -0.02332975
000190 71 fb ff 3a bc 1b 87 3c 86 40 b8 3d f7 19 ab bd
       0.0019529891 0.016492717 0.08996682 -0.08354562
0001a0 d7 25 1c bd a0 ee 99 3a 09 8a 67 bd c7 01 f9 3c
       -0.038122024 0.001174409 -0.056528125 0.030396355
0001b0 cc a8 09 3c 05 9d 90 3d 94 59 d0 bc 83 70 47 3d
       0.008402061 0.07061199 -0.02543334 0.048691284
0001c0 98 d5 72 3b e8 17 85 bc 46 79 12 bc db f2 88 ba
       0.0037053581 -0.016246751 -0.008940047 -0.0010448353
0001d0 01 48 96 3c 5c 7d d4 bb 3f df 03 3c ec 93 ce bb
       0.018344881 -0.0064846706 0.0080488315 -0.0063042548
0001e0 ab c5 ef bc f0 70 ac bc d7 de 98 3c 21 62 f0 3c
       -0.02926906 -0.021049947 0.018660946 0.029343667
0001f0 c7 3d 83 bc 12 3f 31 3d c6 6a e4 bb d6 12 0b 3d
       -0.016020669 0.04327304 -0.006970736 0.03395351
000200 80 26 d8 3b 77 43 a6 3d dc 94 6e 3b d6 f9 79 bc
       0.0065963864 0.08118337 0.0036404645 -0.015257319
000210 9c e5 03 3c d5 ae c3 3c fe 8b 89 3c 0f a7 93 3c
       0.008050349 0.023887077 0.016790386 0.018023996
000220 4b a7 aa 3c 9c ad 4d bb 4a b9 6f 3b a5 39 68 3c
       0.020831725 -0.0031383997 0.0036578947 0.0141739
000230 c9 08 42 3d b1 f5 e5 3a 06 aa 61 bb 7a d0 e1 3b
       0.04737166 0.0017544535 -0.0034433617 0.0068913074
000240 ee de 86 bc c9 34 1a 3b d1 5c 40 3c 4d 7a 1a bd
       -0.016463723 0.0023529998 0.011740879 -0.03771429
000250 d2 3c a9 3c 36 66 d8 bc d9 11 05 bd 35 8f f2 3c
       0.020658884 -0.026415925 -0.032487724 0.029609302
000260 99 18 04 3c 93 17 c0 3c 9e 01 97 3c 67 b2 8e bc
       0.008062505 0.023448741 0.018433388 -0.017419053
000270 e3 5c 09 bd 09 a8 d5 3c 57 e5 f2 bb ef b8 de bc
       -0.03353585 0.026081102 -0.0074125933 -0.027187793
000280 97 1d aa 3c c0 e0 25 3d d6 58 34 bd b1 05 46 ba
       0.020766063 0.04049754 -0.044030033 -0.00075539487
000290 11 6c bf 3a b7 16 47 3c 36 35 5b bd 2d 00 55 3d
       0.001460435 0.012151412 -0.053517543 0.05200212
0002a0 ee 71 dc bb 57 86 66 bc 6f 04 f9 3c ba 7a 1a bd
       -0.0067274487 -0.014070115 0.030397622 -0.037714697
0002b0 d7 4d 7a 3a 87 3f 91 bc 69 51 45 bc ba 44 88 3c
       0.0009548342 -0.017730488 -0.0120433355 0.016634334
0002c0 c7 9c de 3b db da fb bb 87 43 47 bc 67 56 c8 bc
       0.0067935917 -0.0076860017 -0.012162096 -0.024455262
0002d0 a7 ba 1e 3d f9 1b a4 bc f3 df eb bc 0f 10 28 3d
       0.038752224 -0.02003287 -0.02879331 0.04103094
0002e0 da fe 20 38 bd 5d 9d 3c 21 47 20 bd bd c3 7f 3b
       3.838432e-05 0.019209737 -0.039130334 0.0039026581
0002f0 13 46 4f bd a0 15 17 bc 17 28 71 3d 08 5f 95 bc
       -0.050603937 -0.009221464 0.058876123 -0.018233791
000300 ff 39 a6 bc 9a 2d 3c bd 4d 63 ca 3c a2 61 ab bc
       -0.020291327 -0.045941927 0.024705553 -0.020920578
000310 2d fc 0b bc 0f c6 f6 bb 33 ec d0 bc 9f 81 2f 3d
       -0.00854401 -0.0075309346 -0.025503254 0.042848226
000320 34 8c 9f 3c 13 67 6d 3c 17 a3 09 bb ee 1e f5 bc
       0.019476034 0.014489907 -0.002100175 -0.029921975
000330 3c d8 e9 3c e7 5f 8a bc a5 c9 dd 3c 45 25 fa 3b
       0.028545491 -0.016891433 0.02707369 0.0076338374
000340 5f a0 cd 3c ec 03 13 3c f9 c6 c5 3b 7d df f4 3c
       0.025100885 0.008973103 0.0060356823 0.029891724
000350 2f 0d 84 3c a3 ff e6 bb 9a 16 9d 3c 38 9f 7f 3d
       0.016119568 -0.0070495172 0.019175816 0.062407702
000360 75 0c 63 3c c1 69 90 bb 31 18 b3 3c bd 3a ba 3c
       0.01385795 -0.004407138 0.021862121 0.022733087
000370 bb ad 6c bc c6 ea 37 3c e8 68 d9 3c 60 2c 5c 3d
       -0.014445717 0.011225408 0.026539281 0.053753257
000380 f9 47 ed 3c 24 5e 42 bc da 26 55 3b 7e b8 24 3d
       0.028964983 -0.011863265 0.0032524378 0.040215008
000390 ff 8b 3f bb 01 e0 91 3b 0e 52 82 bd 86 e6 be 3d
       -0.0029227731 0.004451752 -0.06363307 0.093213126
0003a0 a9 c1 05 3d 6c 6a 56 bc 86 27 83 3d 21 f7 37 bd
       0.03265539 -0.013086896 0.06404023 -0.044913415
0003b0 b5 7b 29 bc cb c3 53 bd aa 66 a0 3c c3 89 31 bd
       -0.010344435 -0.051700395 0.019580204 -0.04334427
0003c0 99 69 8e 3c 53 72 56 3c 98 b4 6c 3c d8 4c fa 3a
       0.017384337 0.01308878 0.014447354 0.0019096388
0003d0 da ed b1 bb 20 66 97 3b ee c4 99 bc bd 79 e7 bb
       -0.0054299654 0.0046203285 -0.018770661 -0.007064073
0003e0 34 df 06 3d 17 ec ad 3c 89 52 03 3b d6 23 88 bc
       0.032927707 0.02123074 0.0020038208 -0.01661865
0003f0 9f 60 cb 3c 83 4d 69 bd 2d 26 cc 3c 6f 30 cb bc
       0.024826346 -0.056958687 0.024920547 -0.024803368

discrete_action_output_shape f4 [1, 2]
000000 00 00 e0 40 00 00 00 40
       7.0 2.0

network_body._body_endoder.seq_layers.0.bias f4 [128]
000000 71 22 82 3b 2f cb 81 bc 83 57 fc 3b c1 af 88 bc
       0.003971391 -0.015843956 0.007700862 -0.016685368
000010 39 69 dc 3b 04 ec 47 bb f6 3b 8c bb 8f 50 a4 bc
       0.0067264107 -0.0030505667 -0.004279609 -0.020057945
000020 52 66 32 bd 4d d6 d3 bb c7 51 bd bc 05 6d 52 3d
       -0.04355461 -0.0064647556 -0.023110284 0.0513735
000030 0c 2f fe 3a f8 86 3d bd 25 4b 45 39 bf 69 eb bc
       0.0019392683 -0.046271294 0.00018815378 -0.028736947
000040 14 c6 62 bd dc 2e 77 3b 78 04 01 3d b0 ae 93 bb
       -0.055364683 0.003771714 0.031498402 -0.0045069084
000050 f8 57 cd bc 9b 35 5d bc 3c 23 3e 3d 49 d6 c6 bc
       -0.02506636 -0.01350155 0.04642032 -0.024272101
000060 ff 0f 6c bb e0 a3 f2 3b b2 b0 0d bc 97 97 3c bc
       -0.0036020277 0.0074047893 -0.0086480845 -0.011510751
000070 36 6d b9 bc 2b 1f b2 bb 33 f8 01 3d 3c b9 2a bc
       -0.022635084 -0.0054358444 0.03173084 -0.01042014
000080 0b b7 a7 bc 55 67 3e bb 95 3f 78 bc 0c 37 e9 ba
       -0.020473024 -0.002905329 -0.015151878 -0.0017792895
000090 42 4f 33 bd e4 03 9b bc 35 0b a9 bb 77 2b c8 3a
       -0.043776758 -0.018922754 -0.0051588067 0.0015271743
0000a0 d3 86 41 3c e4 39 e9 3b ec 29 a8 bc 0a 05 9f 3b
       0.01181193 0.007117497 -0.020527802 0.0048528956
0000b0 0b d4 d6 bc e8 65 05 bd 3b d9 37 bc c1 ac 2a bd
       -0.026224157 -0.03256789 -0.011221225 -0.041668657
0000c0 fc d8 37 3d 28 0c 04 bb 28 6d ba bc 3f 7d 5e 3c
       0.044884667 -0.0020148847 -0.022757128 0.013579666
0000d0 65 28 2e bc 29 03 9f 3c 97 ec 34 bc 3d 1e 54 bb
       -0.010629748 0.019410687 -0.011042736 -0.0032366656
0000e0 75 1b b9 bc 76 c9 a8 3b e9 d3 80 3b 26 49 7b bc
       -0.0225961 0.005150969 0.0039315117 -0.015337264
0000f0 e7 98 53 bd 2f 3c ce bb 30 a1 65 bd e8 9c 31 3c
       -0.05165949 -0.0062937955 -0.056061924 0.010840632
000100 8f 91 b1 bb e9 86 96 bc 9c 92 5c bd 1b ce 43 bc
       -0.0054189633 -0.018374877 -0.053850755 -0.011950995
000110 ac 7e 8e 3c ce d0 78 bd 1e 6d a7 3c 67 65 21 bd
       0.017394386 -0.060746007 0.020437773 -0.039403345
000120 ad 54 0c ba 72 43 79 bc 03 fc 9a 3c c0 9a 0e bc
       -0.0005353194 -0.015213834 0.018918997 -0.008703887
000130 98 3b 9c 3c b6 1d 84 bc a9 a7 2c 3c b1 5b a8 3c
       0.019071385 -0.016127449 0.01053802 0.020551534
000140 43 58 1f 3d 64 8f e3 3c a3 3b d4 ba 92 9e 09 bd
       0.038902532 0.027778335 -0.001619209 -0.03359849
000150 b5 c4 c8 bc e8 b2 53 b9 f1 9e 0a bd 82 cf 7c bc
       -0.02450786 -0.00020189176 -0.033842985 -0.015430333
000160 cb 39 d9 bc 61 ba 63 bc 13 7e a5 bd a3 2b e7 bb
       -0.026516816 -0.013899417 -0.080806874 -0.0070547624
000170 c5 21 01 bd 6f 67 84 bb 76 a5 de 3b 71 df 58 bc
       -0.031526346 -0.0040406506 0.006794627 -0.013236866
000180 cf 54 8f 3b 41 24 0d 3d e1 03 06 3c 13 b7 01 3d
       0.0043741236 0.034458403 0.008179636 0.031668734
000190 59 27 4d 3b 43 ad 58 3d 73 b6 b3 bc ca 33 7e bd
       0.003130397 0.05289961 -0.021937585 -0.06206111
0001a0 c2 8e 5c 3a 50 6d cc bc d1 f5 2d bd a2 d4 75 bc
       0.00084136066 -0.024954468 -0.042470757 -0.015004309
0001b0 67 04 67 3c 15 0d 8e bc 27 87 e3 bc 75 04 43 3c
       0.014100171 -0.017340222 -0.027774407 0.011902918
0001c0 46 6d 95 3a e9 64 fe 3c cf 48 74 3c e6 06 ae bb
       0.0011400364 0.031053977 0.014909937 -0.005310881
0001d0 42 79 32 bb 3d f7 c1 bb 33 13 93 bb 68 fd 5a bb
       -0.002723292 -0.0059193657 -0.0044883727 -0.0033415202
0001e0 b8 a3 0c 3c 80 c4 05 bc 7f 5f 8f bc f3 06 0b bd
       0.0085839555 -0.008164525 -0.01750159 -0.033942174
0001f0 16 ed b7 bc db 37 41 3b 2f 16 cc bc 8f f6 30 3c
       -0.022451919 0.0029482755 -0.024912922 0.010800972

network_body._body_endoder.seq_layers.0.weight f4 [128, 90]
000000 2c 57 44 3d eb ab 47 3a d3 cd d5 bd 22 ed de 3d
       0.047934696 0.00076168653 -0.104396485 0.10885073
000010 4e c8 a7 3d 79 a2 59 3c 92 3a 70 3d bb d9 8f 3e
       0.08192502 0.013283365 0.058649607 0.28095803
000020 ce ea 13 be c9 b5 bc bc bb 07 74 be 9b 81 95 bd
       -0.1444504 -0.0230359 -0.23831074 -0.07300111
000030 61 a3 e9 3d 7f 08 4d 3d 4a 96 ae bd 8f a5 cb 3d
       0.11408115 0.05005693 -0.08524759 0.09943687
000040 9e ec a9 bd ca fe 35 3e b0 c4 28 3e 31 dc 52 be
       -0.08297084 0.17772976 0.1648128 -0.20591809
000050 a8 32 70 3d 4b 6b 80 bc c1 88 86 3b 9d a0 27 bd
       0.05864206 -0.015676161 0.004105658 -0.040924657
000060 5d 6d e4 3d 57 76 9c 3d 99 18 df bd a8 4b a8 bc
       0.11153672 0.07639759 -0.108933635 -0.020543888
000070 52 7a 2b bc 47 6a 31 be 9f 51 0f 3d 87 75 6a bd
       -0.010466175 -0.17325698 0.03498995 -0.05724099
000080 88 42 b0 bd 7e 4f de bd 97 c5 3e 3d fc 3c ff 3d
       -0.0860644 -0.10855006 0.046575155 0.12462804
000090 b8 df 7a bd 95 25 79 bc b3 c9 04 3c 30 b5 90 3d
       -0.06124851 -0.015206714 0.0081047295 0.07065809
0000a0 1a 83 2b 3c 7d 75 f0 3c a0 f0 c9 bd 77 f3 89 3d
       0.010468269 0.029352898 -0.09860349 0.0673589
0000b0 23 c9 53 3e 98 90 7e be 18 6c 94 bd 46 38 ab bc
       0.20682196 -0.24859846 -0.0724718 -0.020900857
0000c0 ab 06 f8 3d 5f 3d f7 3b 3f dc 0a 3e 7c 0b ba 3d
       0.12110647 0.007545158 0.1356058 0.09084222
0000d0 35 ad ff 3d ed f2 95 3d e1 4a 42 3e 2a 66 02 3e
       0.124842085 0.07321725 0.18973877 0.12734285
0000e0 0a 75 05 3d 3a 52 d2 3d 57 7a 9e 3d 88 24 8e bd
       0.03258232 0.1026959 0.07738178 -0.069405615
0000f0 04 f8 54 3d 2b b3 94 bd df d5 3c be 8e ec 54 3d
       0.05199434 -0.07260736 -0.1844096 0.05198341
000100 17 f6 00 bd a0 8d b8 3d 6e 55 e3 bc b4 83 a7 3d
       -0.03148469 0.09011388 -0.027750697 0.08179417
000110 60 5c fd bd 28 67 a2 be 13 be 40 bc c1 56 35 bd
       -0.12371135 -0.31719327 -0.011764067 -0.044272188
000120 01 31 9e 3d 95 f6 c8 3a 9c 9f c5 3d 35 15 d3 bc
       0.077241905 0.0015332276 0.09649584 -0.025766948
000130 9c f1 42 3d ba a5 47 bd 81 c3 2c be 4d 26 60 be
       0.047593698 -0.048742034 -0.16871454 -0.2188961
000140 de cc 5b bd 66 15 8b bd 4f d0 ea bd f5 cc 2d bd
       -0.053662173 -0.06791191 -0.11465513 -0.04243179
000150 93 4e 1e 3e bd 20 bf bd b9 bd b1 bd 83 43 19 be
       0.15459661 -0.09332416 -0.08678765 -0.1496716
000160 73 f7 03 be 97 90 23 bd 86 f8 80 3c fe 06 7a 3d
       -0.12887363 -0.039932813 0.015743505 0.061041825
000170 ea 7a 5d bd 42 96 64 3d 1a de 09 be 3e 44 88 bd
       -0.054072298 0.05580736 -0.13463631 -0.06653641
000180 ab 1a aa bd a8 53 40 3d 91 0d 71 bd 63 b8 a8 3d
       -0.08305868 0.04695478 -0.05885083 0.08238294
000190 cc 2a 70 bc 91 28 58 3d f9 f3 45 bc 6e ea fb 3d
       -0.014658641 0.052773062 -0.012082093 0.12300573
0001a0 e7 15 ad 3d c3 3d c7 3c 5a 2d 2a 3d 1c 6c 5d 3e
       0.08451443 0.024321442 0.041547157 0.21623272
0001b0 1d 67 99 3d 40 2b 8f bd a3 41 2b be a9 46 a9 3b
       0.074903704 -0.06990671 -0.16724257 0.005165894
0001c0 07 ca 00 be ee 21 d4 bb 42 0b 86 3b 49 19 e0 3c
       -0.12577067 -0.0064737713 0.0040906975 0.027355807
0001d0 22 1e d6 3b 9f 57 13 3e 1b 8c 87 be 05 5b 3e 3d
       0.006534354 0.14388894 -0.2647408 0.04647352
0001e0 ed fb f8 3d 88 d5 c2 3d b5 80 6f 3d d4 ef 03 3e
       0.12157426 0.09513384 0.058472354 0.12884456
0001f0 96 71 10 3e c9 ab 4a 3e 24 89 74 3d ad c7 07 be
       0.1410583 0.19792093 0.0597011 -0.13259764
000200 97 a9 e6 3d d1 32 81 3d ab 88 14 3d 70 09 91 bd
       0.112628154 0.063085206 0.03626315 -0.07081878
000210 7b 6a 90 ba 2d 2b 66 3d 89 e8 70 bb f1 4b 8d bd
       -0.0011018062 0.05619352 -0.0036759696 -0.0689925
000220 42 71 ac 3d 04 43 9e 3d ef 9b e1 bd 1f 4b 5a bd
       0.0842004 0.07727626 -0.1101607 -0.053294297
000230 21 0b 06 bd 6d aa ae bc e5 9c 16 3d e9 6c 23 3e
       -0.032725457 -0.0213215 0.03677072 0.15959515
000240 59 73 29 3d 26 d0 d9 3d 6c 62 a9 bd 91 ef 76 be
       0.04136977 0.10635404 -0.082707256 -0.24114825
000250 3e 08 e7 bd aa a3 39 3e 03 97 13 bd 51 d1 88 3e
       -0.11280869 0.18128839 -0.036032688 0.26722196
000260 16 e1 12 be 06 f1 ac 3d 37 7d 01 3c 09 44 15 3e
       -0.14343676 0.08444409 0.007903389 0.14576735
000270 d1 53 0e 3e 90 d4 24 bd d4 f9 e8 3c 3f 39 92 3d
       0.13899161 -0.040241778 0.02843944 0.07139825
000280 88 c3 31 3d c7 59 c1 3b 20 96 75 bc 68 7c 95 bd
       0.043399364 0.005900595 -0.014989406 -0.07299119
000290 fb 37 2b 3e e0 0d 63 be f5 de d9 3d b7 ed a9 3d
       0.16720574 -0.22173262 0.10638229 0.08297294
0002a0 f3 33 a6 3d 5f 92 2d be 85 23 07 be f0 9b 4e bd
       0.08115377 -0.16950367 -0.13197143 -0.050441682
0002b0 ba 01 5a be e9 ab 05 3e 22 bd 43 3c 79 2f 17 3e
       -0.21289721 0.1305386 0.011946948 0.14764203
0002c0 d3 53 11 3e 31 65 af 3d 89 13 e7 bb c5 c0 9c 3d
       0.14192133 0.085642226 -0.0070518893 0.07653955
0002d0 f4 4e 83 bd 68 82 88 3e 69 ab 72 3d 3c 38 78 3e
       -0.064115435 0.26661992 0.0592455 0.24240202
0002e0 5a c6 c7 bd 18 18 1b bd 50 5f 33 bb 1b 41 45 3d
       -0.097546294 -0.037864774 -0.0027370043 0.048157793
0002f0 51 f6 1f 3b 0e b9 a8 bd 4b ee cc bd d8 d5 57 be
       0.002440829 -0.082384214 -0.10006388 -0.21077669
000300 1f 78 14 bd 92 4c f4 bd 13 f2 64 bd d6 6d b1 bd
       -0.03624737 -0.11928667 -0.055894922 -0.08663528
000310 f1 29 24 be 69 a6 62 bd a1 8f 66 3e 96 87 4c 3e
       -0.16031624 -0.055334482 0.22515728 0.19973597
000320 53 6b 85 3d 58 48 af bd 8c 14 60 bd d9 93 10 bd
       0.06514611 -0.0855872 -0.054707095 -0.03529725
000330 ee 25 71 bd cb 99 17 bd ff e1 07 3e 9b b6 a3 bd
       -0.058874063 -0.037011903 0.13269804 -0.079938136
000340 a0 1b a0 3d c7 df a7 3d 0f cb a8 bd e2 7c 61 3e
       0.07817769 0.08196979 -0.08241855 0.22020295
000350 82 f0 41 3e 28 0e 3a bd 91 2f 1e bd f8 33 c2 3c
       0.18939403 -0.045423657 -0.03861958 0.023706421
000360 e6 e5 27 3d 56 9a 33 3e 44 48 a5 3d b2 f2 0f bd
       0.040990733 0.17539343 0.08070424 -0.03514356
000370 32 72 4d be 8c b4 6e 3e 10 63 76 bd 17 a7 b8 3d
       -0.20063093 0.2331106 -0.060153067 0.09016245
000380 93 a8 72 be cc e7 6d 3d dc e0 22 be 79 77 81 3c
       -0.23697118 0.058082387 -0.1590609 0.01580404
000390 6c a9 d4 bc 24 f0 29 be e2 5b 80 3d 6a f4 2d 3d
       -0.025959693 -0.16595513 0.06267525 0.04246942
0003a0 1a dd 2d bd f8 f1 7f 3d 96 b0 e0 bd 93 af b8 bd
       -0.042447187 0.06248662 -0.10971181 -0.09017863
0003b0 9d f2 9f bd 78 dd 7c 3d 84 17 82 bc 04 75 f3 bd
       -0.07809947 0.061734647 -0.015880354 -0.11887553
0003c0 08 23 a5 3c 4a 20 b9 3d 94 a9 26 be e0 99 be bd
       0.020158306 0.09039362 -0.16275626 -0.09306693
0003d0 32 35 1b 3e 66 f0 65 bd 66 ba 3f be b6 1b 45 bd
       0.15157011 -0.056137465 -0.18723449 -0.04812213
0003e0 ce 4b 4b 3c e8 51 27 be dc 4e c5 3d af 78 bc 3d
       0.01240821 -0.16339839 0.09634182 0.09202706
0003f0 f3 95 57 3e 89 2a 63 bd 72 9d 33 bd cb 2c d8 3d
       0.21053295 -0.055460487 -0.043851323 0.105554186

network_body._body_endoder.seq_layers.2.bias f4 [128]
000000 3e e8 cf 3c f7 77 e4 3c e1 08 5a bb b9 a2 37 bb
       0.025379296 0.027889235 -0.0033269452 -0.0028020574
000010 2d 9b 79 bc 50 e0 51 bc d3 fe c2 3c 0f 4c 92 bc
       -0.015234751 -0.012809828 0.02380315 -0.017858533
000020 1c aa 8a ba 02 f6 0e bc e1 07 2f bd a9 90 21 3c
       -0.0010579261 -0.008725645 -0.042732123 0.00986115
000030 bb 70 c9 bc 1c 09 ba bb 4b 84 82 3b 11 14 2c 3c
       -0.024589887 -0.0056773555 0.0039830557 0.010502831
000040 50 19 f5 bc f4 91 b5 bc 61 8a 16 bd 27 48 87 bb
       -0.029919297 -0.022164322 -0.036753062 -0.0041284743
000050 a5 54 ee bc 61 5a 22 bc 7c 1f de bb 16 4f be bb
       -0.029093096 -0.009909243 -0.0067786556 -0.0058077676
000060 08 64 1d bc 70 70 85 bc 56 7c f7 bc 48 d5 fd 3c
       -0.009606369 -0.016288966 -0.030210655 0.03098549
000070 86 91 bd bc c8 3f 8c bb 4e d5 01 bd 45 96 a0 bc
       -0.02314068 -0.0042800643 -0.031697564 -0.019602904
000080 16 8b a1 bc 60 4f 73 3b 72 5e cb bc 15 1c 23 bd
       -0.019719642 0.0037126169 -0.024825308 -0.039821703
000090 81 77 29 3c e7 33 35 3c f7 e2 fc 3b 1c 0a 30 bd
       0.010343433 0.011059738 0.007717486 -0.04297839
0000a0 92 86 eb bc 88 9d bf 3c 0a 57 e9 bc 4d ce e1 bc
       -0.028750692 0.023390546 -0.028483886 -0.027564192
0000b0 5f 27 3a bc f3 ee ea 3b 67 73 ff bc ab fb 44 bc
       -0.011361926 0.0071695982 -0.031182958 -0.012022893
0000c0 df af 05 bd 57 f4 86 3c 05 e8 f6 bc bd a2 a0 bc
       -0.032638427 0.016473932 -0.030139932 -0.01960885
0000d0 6d 10 98 bc 16 d7 40 bc c8 bc a2 bc f3 a0 44 bc
       -0.01856252 -0.0117700305 -0.019865409 -0.012001264
0000e0 3d a0 bb bb ef 5e ca 3b 94 e2 ed bb 4d c1 06 bc
       -0.005725889 0.0061758677 -0.0072596762 -0.008224797
0000f0 d9 66 61 bd 4a b6 00 bc 66 df ef 3c 06 7a 23 bd
       -0.055029724 -0.007855961 0.02928133 -0.039911292
000100 7d 28 e6 bb cb 1d ec bb b8 b7 ca bc 20 fc 4e bc
       -0.0070238695 -0.0072057 -0.024745807 -0.0126333535
000110 4a d2 09 bc 8a 65 46 bc ac 52 b1 3b ab ae e2 bc
       -0.008411953 -0.01210917 0.0054114666 -0.027671179
000120 27 f1 28 bc de e1 16 bd 30 13 a2 bc cc 21 5c bc
       -0.010311401 -0.036836497 -0.01978454 -0.013435792
000130 9b e9 c3 bc 57 33 3d bc 96 35 6d bc af bc 20 bc
       -0.023915103 -0.011547885 -0.014478108 -0.009810611
000140 51 9e 87 bc 9d 41 a2 bc d5 7b 74 bd 73 15 b7 bb
       -0.016554983 -0.019806677 -0.059688408 -0.0055872737
000150 68 97 2d bc d3 f9 18 bd 83 36 04 bd 14 a7 15 3d
       -0.01059518 -0.037347626 -0.03227855 0.03653629
000160 7f 37 a0 bb 50 9c 1e 3d 30 cd d0 bc 26 c4 54 bd
       -0.004889428 0.03872329 -0.025488466 -0.051944874
000170 65 15 6c 3c 8d b6 2a bc d8 21 5f bc f3 88 93 bc
       0.014409398 -0.0104195 -0.013618909 -0.018009638
000180 1c 57 66 3c 22 0b d8 bc e1 cb a7 bc 39 9a 83 bb
       0.014058854 -0.026372496 -0.02048296 -0.0040161875
000190 b1 a2 28 bd c6 56 f2 bc 43 92 06 3a a9 85 f1 bc
       -0.04117078 -0.029582392 0.0005133489 -0.02948268
0001a0 4c e5 a6 3c 09 42 98 bc 3f 8b ce 3b ac 42 cf 3b
       0.02037301 -0.018586176 0.0063032205 0.0063250866
0001b0 45 cd cb bb 7f 81 7c bc b0 85 2a 3c 56 ad 63 3c
       -0.0062195384 -0.015411734 0.01040785 0.013896307
0001c0 3c e2 4c 3d df 1c 9f bc 1d 28 4e bd be 14 5f bc
       0.05002044 -0.019422946 -0.050331224 -0.013615785
0001d0 f9 9e 15 bc c7 85 51 bd f9 28 80 3b 74 43 ee 3a
       -0.00913214 -0.05115297 0.0039111343 0.0018178062
0001e0 7a 12 8f bc a6 df 62 bc 6f 6f 11 3b 59 d9 13 bd
       -0.017464865 -0.013847267 0.0022191664 -0.03609595
0001f0 09 02 aa bc 9b 4f 26 3c ef ff 58 bc 4f 0f 51 bc
       -0.020752924 0.010150815 -0.013244613 -0.0127599975

network_body._body_endoder.seq_layers.2.weight f4 [128, 128]
000000 68 a4 2a 3e 47 00 75 bd cc 59 aa 3d 07 50 b0 3c
       0.16664279 -0.059814718 0.08317909 0.021522535
000010 92 6c ab 3c 62 ae a8 bd 03 65 06 bd 17 4e 69 bc
       0.020925794 -0.08236386 -0.032811176 -0.0142398095
000020 bc c1 df bd 08 54 ad bd 2c b2 c8 3d 08 fe 7a 3d
       -0.10925624 -0.08463293 0.097996086 0.06127742
000030 07 a8 00 be de 94 86 bd 74 09 1e bd 6c 53 46 3d
       -0.12564097 -0.06571363 -0.038583234 0.0484194
000040 89 39 16 be 13 29 28 3d 2d d7 cb 3d 32 f9 ff 3c
       -0.14670385 0.041054796 0.09953151 0.031246755
000050 7e cd e2 bd 10 ca a1 bb 3d 17 0c 3e af 31 c3 bd
       -0.11074351 -0.004937418 0.1368074 -0.09530961
000060 91 2a 24 3c b2 7f 8a bd 0c 03 9c 3b 12 a5 93 bd
       0.010019914 -0.06762637 0.0047611054 -0.07209219
000070 5e 7c a0 3c 30 af 27 bc 01 13 20 bd 83 4e ef bd
       0.019590553 -0.010234639 -0.039080624 -0.11684897
000080 2f 8e 1a 3c 0d c9 0d be dd d3 68 3e e1 48 a7 3d
       0.009433313 -0.13846226 0.2273707 0.081681974
000090 80 bf 1b be 7c 25 ce bc bb aa 20 be 9d ea 53 be
       -0.1520977 -0.025164358 -0.15690129 -0.20694967
0000a0 38 db 9e 3c e0 f2 b7 bd 28 52 dd bc 61 d4 ed bb
       0.019391641 -0.089818716 -0.027016714 -0.0072579836
0000b0 6f 5f 01 be 79 7a c8 bc 84 dc 3f bd fd 6a 12 3e
       -0.12634061 -0.024472462 -0.04684116 0.14298625
0000c0 b6 c6 10 3e 8a d1 52 3c 71 0f c4 bd e6 33 33 3c
       0.14138302 0.012867341 -0.09573258 0.0109376665
0000d0 23 51 9e bb 9e 6a 20 be a1 9f f0 bc 73 20 aa bd
       -0.0048314496 -0.15665671 -0.029372992 -0.083069704
0000e0 9a 96 61 bd 0e ba 8d bd cc cc 6a 3d d5 54 82 3c
       -0.055075265 -0.06920253 0.057324216 0.015909592
0000f0 bd ee 0e be 99 0d 82 3d 85 ed 38 3e 10 0a d0 3d
       -0.13958259 0.0635025 0.18059357 0.10158169
000100 02 8d 55 be 56 b1 0f 3e ed c5 d3 bd 67 8c 9f bd
       -0.20854571 0.14032492 -0.10340486 -0.077904515
000110 c6 2e 85 be c1 9b bf bd 32 5a a3 bc 8e d2 29 bd
       -0.26012248 -0.093558796 -0.01994047 -0.041460566
000120 2a a4 6b bc e3 78 94 3e ec 0e a7 3c 38 92 47 be
       -0.0143824015 0.2899848 0.020392857 -0.19489372
000130 74 7b 5e 3e f7 79 a9 bc 72 ec 53 3d fa c3 ae 3d
       0.21726781 -0.02068804 0.051739164 0.08533473
000140 0c ef 72 3d cb 75 55 bb 61 57 a3 3d 2b 25 be 3d
       0.059310004 -0.003257143 0.079756506 0.09284433
000150 46 8c 0f 3d b2 37 81 3c f0 bd 52 bd 47 5f a3 bd
       0.035045885 0.015773628 -0.05145067 -0.07977157
000160 c1 55 65 be cc 9f 90 3d 93 0d 1e 3e a5 d2 9e bd
       -0.22395994 0.07061729 0.15434866 -0.07755021
000170 4c ef 27 3d bc 35 3e 3e 04 b8 98 3d 52 b9 9d 3d
       0.040999696 0.18575186 0.07456973 0.07701363
000180 19 1c 3e 3e 23 e9 03 be 67 cb ce 3c e4 aa c8 3c
       0.18565406 -0.12881903 0.025243474 0.02449555
000190 58 97 6c bc 65 0b 68 3e 9c 64 fe bc 1d ad 06 3c
       -0.01444038 0.22660597 -0.031053834 0.008219984
0001a0 a4 27 54 bd 6b dd d9 bc 44 5f 04 be b9 81 eb 3d
       -0.051795617 -0.026594838 -0.12926966 0.11499352
0001b0 75 5c 28 3e 5b 89 8f bd e7 7c d3 bc 3e e8 de bd
       0.1644152 -0.0700862 -0.025816394 -0.108841404
0001c0 8c b0 9b bd 61 e7 5c bd 8c bc ea 3c 04 17 9b 3d
       -0.07602033 -0.053931598 0.02865436 0.07572749
0001d0 ef 69 a7 bd 27 b3 ce 3d 8c 3c 9f 3d fa 1c dd bd
       -0.08174502 0.10092764 0.0777522 -0.107965425
0001e0 fc 9a af 3d d4 51 b6 3d 25 ea 83 3d b0 31 81 3c
       0.08574483 0.08902326 0.06441144 0.015770763
0001f0 2b e3 26 be d7 18 a1 3d a1 bc ae 3d 96 b5 0c 3e
       -0.16297595 0.07866066 0.08532072 0.13741145
000200 5e b2 8d 3d ba 5e 2f bc 73 e6 22 bc 96 1f df bc
       0.069187865 -0.010703737 -0.009942639 -0.027236741
000210 c7 12 b4 3d 10 42 81 3e 5a ec 90 bd f7 63 e4 3d
       0.08792644 0.25245714 -0.070763305 0.11151879
000220 44 aa 60 3d 1f 33 38 bd 31 ec e8 3d db 62 1f be
       0.054849878 -0.044970628 0.11373175 -0.15565054
000230 d1 a0 27 bb 2e 18 00 3e f7 c2 cb bd f1 45 61 3d
       -0.0025578032 0.12509224 -0.09949296 0.054998342
000240 d8 78 84 3d 48 ea bd bd 7f 2f 4a 3d ea 43 39 3d
       0.064683616 -0.09273201 0.049361702 0.045230784
000250 9d 67 85 bd b3 f6 76 3d c9 ab 69 bd a4 67 b0 bd
       -0.06513903 0.060293864 -0.057048593 -0.08613518
000260 86 75 da bc 60 49 81 3c 6c b2 82 bd 1f 25 5f 3d
       -0.026667368 0.015782058 -0.063816875 0.05447876
000270 d2 13 0a 3e 56 ec 23 bd a6 2d 9b 3d b7 18 80 bd
       0.13484123 -0.04002031 0.07577066 -0.06254714
000280 b9 0d f9 bd 62 b6 0f be 14 69 ac bc ef 45 40 bd
       -0.121608205 -0.14034417 -0.021046199 -0.046941694
000290 56 3e 32 bd 16 03 21 bd 60 ae b6 3d f4 19 f7 3d
       -0.04351648 -0.039309584 0.08919978 0.12065497
0002a0 15 a0 85 bd 4a 9d b2 3d c0 25 cb bd 71 bf dc 3d
       -0.06524674 0.08721407 -0.099193096 0.10778702
0002b0 13 91 7d bc 3d 9f 7d bc 41 3b 36 bc 18 f0 84 3d
       -0.015476483 -0.01547986 -0.011122526 0.06491107
0002c0 41 d0 ad 3d 90 df cf bd ee 2e c7 bd 9a ab 6e 3d
       0.08486987 -0.10150063 -0.09725748 0.05826912
0002d0 30 68 ca bd 52 0a f1 3d 23 b0 21 3e d8 a7 07 3e
       -0.098831534 0.117695466 0.15789847 0.13247621
0002e0 b8 6e b1 3d 73 9d 46 bd f9 06 e2 3d 67 e6 81 3d
       0.08663696 -0.04849 0.11036486 0.06342774
0002f0 2d 10 26 3e 7a ee 34 3e 4a 1b 93 bd af 71 20 be
       0.16217108 0.17669097 -0.07182939 -0.15668367
000300 31 72 79 3e 56 88 83 bc bf bf 5d 3d 9b ec 3b bd
       0.24359967 -0.016056221 0.05413794 -0.04587994
000310 3b 11 49 bd da e5 81 bd cb d6 94 be 11 6b 6b bd
       -0.049088698 -0.06342669 -0.29070124 -0.057475153
000320 02 b0 81 3b ef f3 37 3d 4f 2b 9a 3d 99 27 64 bd
       0.0039577493 0.044910368 0.07527792 -0.055701826
000330 d1 6a 4b be 2e 79 95 bd 4c e9 a2 be c6 3f 67 3b
       -0.19864966 -0.07298504 -0.31818616 0.0035285815
000340 60 83 27 3e f2 e9 80 bc 37 ed 0d bc d8 c9 1d be
       0.1635871 -0.015736554 -0.008662513 -0.15409029
000350 bd e2 df bc d2 79 51 be fb 3b ac bb 49 5f d0 3d
       -0.027329797 -0.20456627 -0.0052561737 0.10174424
000360 c1 88 8b bd 12 2b f7 bd ad 82 d1 3d 73 e4 05 3c
       -0.06813193 -0.12068762 0.102300026 0.008172142
000370 2a 91 0f be ce be 20 bd cf 1c 48 be 7b 99 85 bd
       -0.1402022 -0.039244466 -0.1954224 -0.06523415
000380 55 70 ae bb ad 1f 52 bd 96 5b 4a bd 8d 49 b1 bd
       -0.0053234496 -0.05129974 -0.04940375 -0.08656607
000390 3a d4 3a bc d5 3d c9 3c 94 78 cc bc 50 46 ca bc
       -0.011403138 0.024565617 -0.02495984 -0.02469173
0003a0 eb b4 d5 bd d0 93 7d be 7a 7f bb 3c de ec 0a 3e
       -0.10434898 -0.24763417 0.022887934 0.1356692
0003b0 35 c8 b9 3c 83 73 8e bd a4 84 d4 3d 4d b3 83 bc
       0.022678474 -0.06955626 0.10376862 -0.016076708
0003c0 94 cc 8b be f9 a4 a2 3d a8 25 cc 3d 65 bf 2a bd
       -0.27304518 0.07941622 0.0996812 -0.041686434
0003d0 f6 90 57 3d 48 ec c8 bd 8a 90 12 be b7 79 9a bd
       0.05262848 -0.09810692 -0.1431295 -0.075427465
0003e0 bb b3 0c be 7f 85 3e bd 83 e4 1f 3e c2 a8 50 be
       -0.13740437 -0.04651403 0.15614514 -0.20376876
0003f0 50 a3 20 3e 8c ad ec 3d f5 af e7 3b 7e ab 56 3c
       0.15687299 0.11556539 0.0070705363 0.01310241
