Assets/ML-Brains/Backups/ResultsScenario_05.onnx (onnx, 120062 bytes, 9 tensors)

action_model._discrete_distribution.branches.0.bias f4 [7]
000000 64 78 48 bc 12 d7 31 bc e5 4b 33 3c 0e 41 1c bc
       -0.012235735 -0.010854499 0.010943388 -0.009536995
000010 fd cf 83 3c 0b 2a 23 bc c0 8c 6a 3c
       0.016090387 -0.009958754 0.014315784

action_model._discrete_distribution.branches.0.weight f4 [7, 128]
000000 da 0b 42 bd ca 41 a0 3c f8 18 1c bc ba 32 32 bd
       -0.047374584 0.01956262 -0.009527437 -0.043505408
000010 2a c3 9a bc 1e 5b da 3a da 4a 19 bd 7f 71 9d 3c
       -0.01889189 0.0016659235 -0.0374249 0.019219158
000020 e1 a7 d1 3c d7 b4 91 3c 5b 3f da bb 43 2d 3a bc
       0.025592746 0.017786426 -0.0066603846 -0.01136333
000030 1d ca da 3c 03 1f e6 bc 24 e3 da 3b 02 04 22 3c
       0.026707703 -0.02809096 0.0066799093 0.009888651
000040 4c 93 97 3c 5a 63 d6 3c 0a 0e 2a 3d 96 38 73 3c
       0.018502854 0.026170421 0.041517295 0.014845034
000050 d1 b9 8c bd 7b 72 91 bc 7f 41 5c 3c f4 68 33 bc
       -0.06871379 -0.017754784 0.01344335 -0.010950316
000060 0e 4d 64 3d c6 f0 51 3d fe ef 8a 3d 3f b5 93 bc
       0.055737548 0.05125501 0.06784056 -0.01803076
000070 b1 eb 08 bd 87 a3 57 3d fb 12 fc 3c db fa 85 bc
       -0.033427898 0.052646186 0.03077077 -0.016354969
000080 ca 81 fe bb 26 e1 ea 3c 96 4b 52 bb 43 4c de 3c
       -0.007766937 0.028671812 -0.003208851 0.027135974
000090 da fc 48 bd ed 70 ec bc 21 70 ae b9 a8 40 21 3c
       -0.049069263 -0.028862441 -0.0003327141 0.009842075
0000a0 a3 3d 05 bd f9 1a 44 bd 2a 39 79 bb 0b ff 72 3c
       -0.032529484 -0.047877286 -0.0038028457 0.014831315
0000b0 dc 33 59 3c e1 39 07 3c 4c eb 2c 3d f6 39 6a bc
       0.013256993 0.0082535455 0.042216584 -0.0142960455
0000c0 ff e9 16 bc ec df 3f 3a e7 0a 9a bc b8 ce 30 bc
       -0.009211062 0.0007319439 -0.018804027 -0.010791473
0000d0 c9 a8 e8 3b 0b 62 48 3c c9 01 1e bc e8 e6 0b bd
       0.007100199 0.0122304065 -0.00964398 -0.034155756
0000e0 f0 96 e4 bb f9 d7 49 3b 25 26 2b bc a7 2a 8b bc
       -0.006976001 0.0030798896 -0.010446106 -0.016988112
0000f0 e0 0e 8d ba 77 29 b9 3c ed a6 1e bd 80 8d 30 bd
       -0.0010761879 0.02260278 -0.03873341 -0.043103695
000100 52 ec 80 3b ab 36 81 bb e1 49 8c bb 99 8e 53 bd
       0.0039344216 -0.0039432845 -0.004281268 -0.051649664
000110 b4 87 f5 bb 08 00 2b bd ce da e5 bc 1e 35 82 bc
       -0.0074929837 -0.041748077 -0.028058436 -0.015894469
000120 4a cb 7d bc b1 47 5b bc 29 a0 54 ba 2f 78 08 3c
       -0.015490362 -0.013383792 -0.0008111024 0.008329435
000130 72 76 c4 3c 44 05 87 bc 62 29 20 bd fe 51 2c 3c
       0.02398226 -0.016482003 -0.039101966 0.010517595
000140 6a e3 7e 3d 65 69 1a bc 1a c1 58 bc 06 0d 4e 3c
       0.062228598 -0.009424542 -0.013229633 0.012576347
000150 9c 1b 1d 3c bc 3f c8 3b 94 1e b6 bc 9e 70 1b 3d
       0.009589102 0.0061111134 -0.022231378 0.037949197
000160 6d 57 79 3d 90 6b 1c 3c d0 ca aa 3c a1 74 36 3c
       0.06087439 0.009547129 0.020848662 0.011136205
000170 74 9c 9b 3c 20 ed 0e 3d 71 20 a6 3c e9 de 1f bd
       0.018995501 0.03489411 0.020279141 -0.039030943
000180 e1 72 07 bd e1 00 b2 3c 31 ba 1c bc 66 28 cd 3c
       -0.03306854 0.021728935 -0.009565876 0.025043678
000190 89 3c 48 bd 62 ba 2f bc 55 fb fd 3c 36 9f de 3c
       -0.048885856 -0.0107255895 0.031003634 0.027175527
0001a0 0b be 03 bc 32 eb 65 3d 06 b9 3d bb bf 6e 0d 3b
       -0.008040915 0.056132503 -0.0028949394 0.0021580902
0001b0 22 48 4a 3d 47 71 8f 3d 16 fd 13 bd 3d b3 c5 ba
       0.049385197 0.07004028 -0.036130033 -0.0015083324
0001c0 39 9e 3f bb 4b c7 a7 bc bd d3 84 3c 86 ad 18 bc
       -0.0029238595 -0.020480772 0.016214246 -0.009318715
0001d0 8c f5 85 bb fb 6a f6 bc 0a b1 00 3d fb 2e f8 ba
       -0.0040881094 -0.03008031 0.031418838 -0.00189349
0001e0 a7 8c 81 3a db 3d 24 bd 9c 35 de bc ab 2f 75 bc
       0.0009883837 -0.040098052 -0.027125172 -0.014964978
0001f0 c3 bc da bc dd 2d 79 bd 1f ac 01 bd 9c 67 66 3d
       -0.026701337 -0.060834754 -0.031658288 0.056251153
000200 4e 78 86 bc 34 c6 72 3d 88 65 1e bc 83 6b 00 3d
       -0.016414788 0.059271052 -0.009667762 0.03135253
000210 da 22 05 3c ea 60 58 bb a9 73 05 ba c4 54 28 3b
       0.008125985 -0.003301675 -0.0005090782 0.002568529
000220 99 bb b7 bc fd 0b 90 bc b0 62 a7 bc 0e 02 15 bc
       -0.02242832 -0.017583841 -0.0204328 -0.009094728
000230 f3 5d d0 3c be 72 a3 3c 39 21 89 bb ec 00 ca bb
       0.025435423 0.019952174 -0.0041848687 -0.0061646607
000240 f4 4c 4e 3c c4 59 71 bc b4 b5 58 bd 84 07 1e 3c
       0.012591589 -0.014730874 -0.05290766 0.009645347
000250 6d 9b c8 bc b6 30 ee bc c8 65 98 3c a1 e3 7d 3c
       -0.024488175 -0.029075962 0.01860322 0.0154961655
000260 d5 d4 7a bc f0 b5 8d bc 90 bc 5b bc 73 0b ad bc
       -0.015309532 -0.017298669 -0.013411656 -0.021123623
000270 3b d3 de 3b b4 6b 67 bd 49 f4 d9 b9 67 dd c3 bd
       0.006800083 -0.056499198 -0.00041571472 -0.095637135
000280 20 14 ec 3b 28 a5 47 bd b1 a6 d0 3a 7a 62 18 3a
       0.0072045475 -0.04874149 0.0015918819 0.0005813014
000290 c5 ec 06 bd fe 7a 5d 3d f6 ef 04 bd fe c9 88 bc
       -0.032940645 0.054072373 -0.032455407 -0.01669788
0002a0 59 2a 29 bb db 9c 5d 3d d4 d3 f8 3c ed db 6e 3d
       -0.0025812595 0.054104667 0.030374445 0.058315206
0002b0 8e 28 57 bc f1 db 6d bc aa 6d 00 bd 59 c8 41 3d
       -0.013132228 -0.01451777 -0.031354584 0.047310207
0002c0 ca 75 29 bd e4 8d 8b 3a e8 d3 4e bb 5f ac 07 3c
       -0.041372098 0.0010647145 -0.0031559411 0.008280843
0002d0 d8 dd 7b 3c 29 31 06 3c 43 4b f2 bc 21 3e 7c 3d
       0.015372716 0.008190432 -0.029576903 0.06158269
0002e0 8a 7e ae 3a ec 31 1c bd d8 69 dd 3c e7 89 99 bc
       0.0013312858 -0.038133547 0.02702801 -0.018742515
0002f0 6c 09 c9 3a 14 16 58 bd 66 01 c7 3a 62 b8 85 3d
       0.0015337891 -0.05275543 0.0015182912 0.06529309
000300 64 14 f5 bb f1 3b 81 3c 99 2a 68 3c 5a 49 9e bd
       -0.0074792374 0.015775653 0.014170312 -0.077288345
000310 41 64 fe 3c 2e 5a be 3b 6d f2 2b 3d 93 79 ad bc
       0.031053664 0.00580909 0.041979242 -0.021176135
000320 45 79 a9 3c ee 87 f0 3c ce 25 ad 3c 55 9c 3b bd
       0.020687709 0.029361691 0.02113619 -0.045803387
000330 68 59 f0 bc 0e e5 84 3b d3 ee 94 3d 7b 5b 57 3c
       -0.029339507 0.0040556258 0.072721146 0.013144369
000340 0b 2b 80 bd b9 38 a5 bc ac 86 43 3c 6d 0b 89 bd
       -0.0625821 -0.020168649 0.011933964 -0.066916324
000350 8b f6 82 ba b5 26 93 bd 2c 2d 29 3c 4d 8c 1a bd
       -0.0009991688 -0.07185117 0.010325711 -0.037731458
000360 d1 cb 10 3d 30 31 52 bc c0 83 05 bd 2d 0f 95 bc
       0.035350624 -0.01282911 -0.03259635 -0.018195713
000370 53 0a 32 bc b5 6e 22 3d 3a 5b 77 3d b6 86 47 3d
       -0.010866719 0.03965636 0.060389735 0.048712455
000380 ae 27 c8 bc 7a a8 9e 3b 41 d8 92 bc 2f 54 3c 3d
       -0.024432983 0.0048418613 -0.017925384 0.04597872
000390 cf cf 39 bc c3 2d 95 bd aa a3 41 bb b0 f1 5b bd
       -0.011341049 -0.07284119 -0.0029547014 -0.053697288
0003a0 12 d0 8d 3d 22 78 8c bd 59 1f 03 bd 24 7c 89 3c
       0.06924452 -0.06858851 -0.032012317 0.016782828
0003b0 6d 8f 60 bb 4b 88 6a bd f1 28 a6 3b 33 49 8d bc
       -0.0034265176 -0.057258885 0.0050707986 -0.017246818
0003c0 da 57 13 3d 76 8a bd 3d af 56 2f 3d 50 17 1b bc
       0.035972454 0.09254925 0.042807277 -0.009466007
0003d0 27 4d 6c 3d 21 0f 53 3d b7 d7 8c 3c 1f 5c e7 bc
       0.057690766 0.0515281 0.017192705 -0.028242169
0003e0 ee 66 ea bb 21 e0 ce bc f9 5c 8d 3c 18 dc 8d bc
       -0.0071533835 -0.025253357 0.017256247 -0.017316863
0003f0 42 db ef 3c ca 1b 60 3c 2d 9f 47 3c ee bb b1 bc
       0.029279355 0.0136785 0.012183947 -0.021696057

action_model._discrete_distribution.branches.1.bias f4 [2]
000000 c7 a1 62 3a dc a0 62 ba
       0.00086453225 -0.0008645186

action_model._discrete_distribution.branches.1.weight f4 [2, 128]
000000 43 b8 8c bb 76 54 ff 3c 96 70 f0 3a f2 36 a3 3c
       -0.0042944266 0.031168204 0.00183441 0.01992366
000010 f1 86 ed 3c 91 9f 43 3a 9e 24 fc ba f1 c6 bd 3c
       0.02899501 0.0007462437 -0.0019236987 0.023166152
000020 86 52 2d 3c 27 a6 21 bc 8c dd 84 3d 72 a9 2d 3c
       0.010578757 -0.009866274 0.06487569 0.010599481
000030 1a 85 cc bc c5 ca 02 3c b8 0a 9b 3c 0c 57 a8 3c
       -0.024965812 0.007982914 0.01892601 0.02054932
000040 1a dd 04 3c 4e ed 59 3c 91 c4 28 3c 8c 9a 08 bd
       0.008109355 0.013301207 0.010300771 -0.033350512
000050 ed 37 92 bc 92 ca 49 3d 04 fd 7f 3b b0 2d cf bc
       -0.017848933 0.04926545 0.0039060721 -0.02529034
000060 8e 77 18 bd 61 06 7b ba b7 92 be 3c 5a 92 50 3d
       -0.03722339 -0.00095758407 0.023263318 0.05092082
000070 02 13 b9 bc 01 6f 3b bb 8c f4 8e bb 50 5b 95 3c
       -0.022592071 -0.00286001 -0.0043626484 0.018232018
000080 eb b2 1c bd 35 95 4a bd 66 fb 2b bb f6 9d 6b bd
       -0.038256567 -0.0494587 -0.0026242374 -0.05752369
000090 16 05 04 bd 0c 47 f0 bc fa ff 73 3d 01 97 e4 3c
       -0.032231413 -0.029330753 0.05957029 0.027904036
0000a0 d6 7a 84 3a f5 b4 69 bc 1e 2d 64 3b 3c 8a b7 3b
       0.0010107409 -0.014264335 0.003481693 0.0056011956
0000b0 e9 74 19 bd 78 d5 a9 3c 2e a0 0f bc 10 03 79 3b
       -0.03746501 0.020731673 -0.008766217 0.003799621
0000c0 db 20 43 bc e2 bc 20 3c 48 1a 3b bd 06 c0 ba b9
       -0.011909689 0.009810658 -0.04567936 -0.00035619753
0000d0 05 e0 f0 bb 0c c3 d4 bc e1 1c 4c 3b 90 1f a5 3c
       -0.007350924 -0.025971912 0.0031145143 0.020156652
0000e0 55 53 cd bc 18 51 f8 3c 0f 0a 60 bb 85 c3 1d bc
       -0.02506415 0.030312106 -0.0034185683 -0.009629135
0000f0 7d 5f 82 3c b8 22 a1 3c d1 d4 ec 3d 1a 33 01 bb
       0.015914673 0.019669876 0.11564029 -0.0019714297
000100 a6 6a c5 bc 1f 47 9a bc aa f0 b8 bc 24 1e 08 3d
       -0.024098706 -0.018832741 -0.022575695 0.03323187
000110 64 d0 a7 bc 09 57 28 ba 8e f1 5b 3d 14 4d 36 3b
       -0.02048511 -0.00064216607 0.05369716 0.0027816938
000120 7d ce f6 bb 6f 04 0e 3b 7c 62 6d bd 60 8b 7e bc
       -0.0075319395 0.0021670123 -0.05795525 -0.015536159
000130 3b 03 60 bd a6 ee d1 bc 3d 18 a2 bc 91 21 e7 3c
       -0.05469058 -0.025626492 -0.019786948 0.028214248
000140 c0 0d 04 bd 1d 66 16 bc a7 f7 75 3d c7 1d 68 bb
       -0.032239676 -0.009179619 0.060050633 -0.003541814
000150 36 14 94 3c 34 a7 b1 3d ba 3e 8c 3c df dc 1d 3d
       0.018076044 0.086744696 0.017119754 0.038540717
000160 e8 ce 03 bd 7c 6c a0 3d 19 b4 88 3c bf cb fb ba
       -0.032179743 0.07833192 0.01668744 -0.0019210501
000170 0f 43 27 3d 8c 68 97 3d 62 1d 08 3d 5d 26 6f bc
       0.040835436 0.073929876 0.033231147 -0.014596549
000180 17 cd 8f 3d a8 67 d1 bb de 4f 73 3c c8 02 29 3c
       0.0702154 -0.0063905306 0.014850585 0.0103156045
000190 a7 c6 16 bc 63 68 92 bb f1 0b 01 bd de 39 43 bb
       -0.009202636 -0.0044680103 -0.03150553 -0.002978913
0001a0 ca 41 e7 bc 8b b9 fd b9 03 6b 6d bc b2 e4 ca 3c
       -0.028229613 -0.0004839416 -0.014490846 0.024767254
0001b0 d6 94 83 bb ce 66 01 bd 54 30 17 bb 29 11 dd bc
       -0.0040155454 -0.031592183 -0.0023069577 -0.026985722
0001c0 ba a8 87 3c 4c ce 04 bd b9 51 d9 bc e7 2b 09 3c
       0.016559947 -0.032423303 -0.026528226 0.008372284
0001d0 36 b8 93 bc fd d1 60 3d 89 85 05 bd 0d 84 dd 3a
       -0.018032175 0.05488776 -0.032598052 0.0016900316
0001e0 54 77 db bb a2 11 22 3c 03 8f 65 bc dc ab c5 bc
       -0.0066975746 0.009891899 -0.014011147 -0.0241298
0001f0 44 d4 73 3c 2d 54 a4 bb b5 9b 7d 3c 1f 0d 4d 3c
       0.014882151 -0.0050149173 0.015479018 0.012515335
000200 34 a6 74 3b dd 23 8a bc 92 6c b6 3b 43 95 2d bc
       0.003733051 -0.016862804 0.005567142 -0.010594669
000210 d8 19 3b bc 2c 63 52 3c 6e 4e bc 3b a8 04 54 bc
       -0.011419736 0.012841027 0.0057466542 -0.012940563
000220 89 82 c0 39 71 38 8a 3c 3d 2c 8f bd 74 4d 17 bc
       0.0003671835 0.016872616 -0.0699086 -0.009234775
000230 c9 3b 26 3d f6 46 77 3a 23 37 19 bd a7 53 a7 bc
       0.04058436 0.0009432876 -0.037406098 -0.02042563
000240 61 eb a3 3b a3 77 f1 bb 24 02 09 bd c5 63 00 3d
       0.0050024246 -0.007368998 -0.033449307 0.031345148
000250 3c 73 99 3c 09 5b 53 bd aa 90 16 3b b0 24 b8 3c
       0.018731706 -0.05160049 0.002297441 0.022478431
000260 2d 17 24 3d f7 21 f1 bc 4a 01 06 bd ad ec 73 bd
       0.040061165 -0.029435141 -0.032716073 -0.059551883
000270 80 c7 37 3c 16 93 43 bc c1 9c f4 3a 3d ff 92 bc
       0.011216998 -0.0119369235 0.0018662439 -0.017943973
000280 8a c2 e2 3c 83 9f 4c 3d f4 88 4a bc d2 de 8b 3d
       0.027680654 0.04995681 -0.012361754 0.06829609
000290 6f ba 15 3d 8f 8d 8c 3c 82 77 95 bd 5f e7 3e 3c
       0.03655475 0.017157344 -0.07298185 0.011651843
0002a0 30 25 56 3a 1b 52 1a bc 5a 35 9d bc fb 96 a7 3c
       0.00081689935 -0.0094189895 -0.01919048 0.020457735
0002b0 e1 ff 07 3d 11 01 90 bc 08 aa 8b 3c e4 65 32 bc
       0.03320301 -0.017578634 0.01704885 -0.01088855
0002c0 36 ae b9 3b 26 eb 52 bc 0e 25 3c 3d 79 a3 f0 bb
       0.0056665195 -0.012873447 0.045933776 -0.007343706
0002d0 ba 15 9e bc bb ec 0d 3d 09 1c 81 bc 45 26 c8 bc
       -0.01929747 0.034649592 -0.015760439 -0.02443231
0002e0 52 b9 e6 3c 75 34 70 bd 3c 38 01 bb 77 8f 72 3c
       0.02816454 -0.058643777 -0.0019717356 0.0148047125
0002f0 ab e6 b8 bc a6 f8 ac bc af 1d f3 bd ce d5 37 3a
       -0.022570929 -0.021114659 -0.11870896 0.00070127554
000300 64 a2 da 3c 09 58 44 3c 0a 80 c1 3b ae ed e6 bc
       0.026688762 0.01198388 0.005905156 -0.028189506
000310 b6 4f 8c 3c ae ba 03 bd 51 49 72 bd b2 6e 1d 3c
       0.017127853 -0.032160453 -0.05915195 0.009608911
000320 e2 5a ec 39 b2 ed a7 3c f8 a4 7c 3d 64 3a 71 3c
       0.0004508114 0.020499084 0.061680764 0.014723394
000330 19 58 18 3d 1c 18 9b 3c c0 97 f6 3c 15 b9 ca bc
       0.03719339 0.018932395 0.030101657 -0.024746457
000340 c3 37 4a 3d ef 75 21 b9 0a be 5f bd f2 94 96 3c
       0.049369585 -0.0001539809 -0.054624595 0.01838157
000350 49 5c b2 bb cf a4 d8 bd c0 1c 11 bb f5 88 49 bd
       -0.00544313 -0.1057831 -0.002214238 -0.049202878
000360 a1 2e 4b 3d c8 d0 9a bd 1a 03 89 3b b8 ae 46 3c
       0.049605016 -0.07559353 0.004181278 0.012126617
000370 64 b3 4e bd a5 cb 95 bd 65 b4 1e bd eb 3e 50 bb
       -0.05046405 -0.07314233 -0.038746256 -0.0031775783
000380 16 43 b1 bd d1 96 23 3c b4 1d 2b 3b 25 fd 9d bc
       -0.08655374 0.009984688 0.0026110234 -0.019285748
000390 7d 3f b5 3c 5f f5 ec 3c f2 41 5a 3c c0 be 06 3a
       0.022125 0.028925596 0.013321387 0.00051401183
0003a0 d2 8a 0a 3d 4c a3 b1 3b e4 d8 1a bc 23 0e 25 bc
       0.033823796 0.005421078 -0.009451125 -0.010074171
0003b0 a5 e8 a4 3c c3 fb 05 3d f7 7e 31 bb 91 36 02 3d
       0.020130465 0.0327108 -0.0027083734 0.03179032
0003c0 01 7a a0 bc 41 0d 16 3d 54 b8 84 3c 44 75 0d bb
       -0.019589426 0.036633734 0.016201176 -0.0021584788
0003d0 41 a2 07 3c 4d cb 99 bd 48 d2 fd 3b 4a 66 af 3c
       0.00827843 -0.0750948 0.0077460147 0.02141108
0003e0 53 6e 4d 3a ab 6f 04 3c be 20 ce 3c 92 91 52 3b
       0.0007836569 0.008083264 0.025162097 0.0032130224
0003f0 76 06 13 bd 8f 78 3e 3c ee 7f ea ba 77 56 ff bb
       -0.035894834 0.011625423 -0.0017890909 -0.00779229

discrete_action_output_shape f4 [1, 2]
000000 00 00 e0 40 00 00 00 40
       7.0 2.0

network_body._body_endoder.seq_layers.0.bias f4 [128]
000000 43 7c 8c bc 3d 0e cd bc c5 b5 6b bc 1c 66 2f bd
       -0.017149096 -0.025031203 -0.014386599 -0.04282199
000010 40 da 9d 3c a8 8f c9 bb c5 1d 1f bc 4f e2 b2 bb
       0.019269109 -0.0061511584 -0.009711687 -0.005459107
000020 b3 7b 09 bb 8c 02 e4 bb 50 ac 4a 3c 06 57 fd bc
       -0.0020978271 -0.0069583114 0.012370184 -0.030925285
000030 98 00 13 ba 1b e9 27 bd 1c 34 6f bc 2b 8f a4 bc
       -0.00056076935 -0.04099379 -0.014599826 -0.020087799
000040 52 04 88 3b 48 08 41 3c b7 aa c3 3b b8 38 3f 3c
       0.0041509056 0.01178176 0.0059712785 0.011671238
000050 e3 cb 38 bc 39 7f ac bc 24 83 88 bb 58 a8 1c bc
       -0.011279079 -0.021056758 -0.004166024 -0.009561621
000060 c1 3b 8f bc 01 e6 51 bc cf e4 0b bd dc b0 3d bd
       -0.017484548 -0.012811185 -0.034153756 -0.046311244
000070 ef a6 8a 3c 7a 22 52 3a d2 f0 b8 3b f4 eb 22 3b
       0.016925303 0.00080160017 0.0056439424 0.0024859877
000080 55 4a 11 3c 5d fa b2 bc 79 ed c4 bc 1d 7f d9 3b
       0.00886782 -0.021847898 -0.024039017 0.0066374675
000090 51 bf 8f bc 57 6d 72 bc 6e 5e 5e ba d3 36 60 bc
       -0.017547281 -0.014796576 -0.0008482699 -0.013684946
0000a0 da 1c 52 3c 87 ab b2 bc 89 e1 17 bd 2e c9 6a 3a
       0.012824262 -0.021810306 -0.03708032 0.000895637
0000b0 96 25 0d 3c b4 de e7 bb 1e 7e db 3c 5a 36 0a bd
       0.008614918 -0.007076109 0.026793536 -0.03374324
0000c0 3a 02 86 bc 1f dc 64 bc 8b 82 16 3c 32 0f e6 bc
       -0.016358484 -0.013968497 0.009186397 -0.028083418
0000d0 44 35 1f bb 2e 33 5e 3c 75 5d 53 bc a8 58 61 bc
       -0.0024293223 0.013562007 -0.0129007 -0.013754047
0000e0 b9 49 34 bc cd 79 45 3c 7c 21 a5 ba 09 f2 e3 bc
       -0.011003905 0.012052965 -0.001259848 -0.027825372
0000f0 94 a2 4b bb c9 96 96 3b 3b 75 c0 bc f3 2d ac 3c
       -0.0031072246 0.0045956117 -0.0234934 0.021018004
000100 b0 35 75 bb fe 3c a3 bc 13 38 6e 3b 6a bf 52 3b
       -0.0037416033 -0.019926544 0.003634934 0.0032157549
000110 3f 63 36 bc 35 ee 8b 3b 5f e2 74 bc 24 79 f8 bc
       -0.011132061 0.00427034 -0.014946549 -0.030331202
000120 55 3f 01 bd 25 04 ad 3d 6c 21 a6 3b a7 34 34 bb
       -0.03155454 0.08448056 0.005069902 -0.0027497204
000130 29 67 e0 bb 5e aa 1d bc 86 30 1d bd a5 59 a6 3a
       -0.006848235 -0.009623138 -0.038376354 0.0012691511
000140 2d f9 b0 3c 02 f6 78 bc a0 1a dc bc 7f bb 40 3c
       0.021603191 -0.015195372 -0.026868165 0.011763453
000150 f4 66 9c bc a7 1a a4 bb d0 75 1f bd 99 aa df 3c
       -0.01909206 -0.00500806 -0.038930714 0.027303027
000160 3f d3 1f bd a1 ed 87 bc a4 66 bf bc 66 e4 05 3b
       -0.03901982 -0.016592802 -0.023364373 0.0020430326
000170 57 bf e1 bc e8 da 14 bc 98 b7 58 3c 15 f7 99 bc
       -0.027557058 -0.009085394 0.013227366 -0.018794576
000180 22 06 f5 3c 9b ab 77 3d 0c ed b7 bc 84 35 b4 bc
       0.02991015 0.06046639 -0.0224519 -0.021998174
000190 d1 19 b2 bc b6 7b a2 3a d9 50 98 bc 86 2d db 3b
       -0.021740826 0.0012396488 -0.018593239 0.0066887764
0001a0 e3 0e 68 3b 44 e6 7c bc b8 f1 20 bc 30 5b 06 3d
       0.0035409264 -0.015435759 -0.009823255 0.032801807
0001b0 cb 68 07 bd 02 3d 67 bd af 44 2e 3c 12 c8 b0 3b
       -0.033058923 -0.056454666 0.010636493 0.005394944
0001c0 6f 94 5c bc fe 2a e5 bb d3 ca 9c 3c 26 a5 79 3c
       -0.013463124 -0.0069936505 0.019139683 0.015237128
0001d0 94 1c 02 bc 5a 96 1b 3c 4f 69 7f bc b9 3d 02 bc
       -0.007941384 0.009496296 -0.015589072 -0.007949286
0001e0 66 24 d0 bb 07 ae b9 bc 28 d5 74 bb f7 6b 17 3c
       -0.0063519953 -0.02266599 -0.0037358496 0.009242049
0001f0 ea 11 fb bc 7e 99 aa bb b9 ba 7a 3c 28 0c f9 bc
       -0.03064819 -0.005206286 0.015303307 -0.030401304

network_body._body_endoder.seq_layers.0.weight f4 [128, 90]
000000 e1 d4 08 3d b4 a1 a4 bd c5 6a 2e bd 65 ba db 3d
       0.033406142 -0.08038655 -0.042582292 0.10728911
000010 fb 79 ed 3c 86 6c 46 be c3 21 94 ba c0 56 d5 3c
       0.028988829 -0.19377336 -0.0011301566 0.026042342
000020 59 36 e3 bd ad 23 76 bc 68 fe a3 bc 87 a8 f3 3c
       -0.1109435 -0.015023154 -0.020018771 0.029743446
000030 ac 0d c7 bd c4 af 01 be b2 52 7e 3c 05 dc 55 b9
       -0.097194046 -0.12664706 0.015522646 -0.00020395227
000040 91 4f 3f 3d 3d fa 92 bc c6 c2 85 3d b9 30 20 3e
       0.04670674 -0.017941589 0.06531291 0.15643586
000050 80 72 d7 3c 46 23 7b bd a1 96 9c bc c2 0a 00 3d
       0.026299715 -0.061312936 -0.019114794 0.03126026
000060 fa f7 96 bc 8c e2 b8 3d 1e 0b 63 3c 71 a0 d1 bd
       -0.018428791 0.090275854 0.013857631 -0.1023568
000070 a6 8c 95 3d 8e cd 6b bd c7 cf 46 be 1d e3 ac 3d
       0.07302217 -0.05756908 -0.19415198 0.08441756
000080 c3 2e 02 bd bf 93 bb 3d d4 6d b7 3c b0 fb d7 bd
       -0.031782877 0.0915904 0.022391237 -0.105460525
000090 ab 3a 9b bd 2e 6d 60 3e 2f 15 f8 bc 11 37 bf bd
       -0.075795494 0.21916649 -0.030283539 -0.09336675
0000a0 bf 09 69 bd 0d c7 e6 bc b0 0c 10 bd 69 44 86 bd
       -0.05689406 -0.028171087 -0.03516835 -0.06556017
0000b0 a2 8e c6 3c c7 1a 5d be b4 02 84 3c 14 62 05 3e
       0.024237934 -0.21592246 0.01611457 0.13025695
0000c0 3e 5c 92 3d e3 7b 1e 3e 42 fd 1c 3e 91 aa 26 be
       0.071465 0.15476947 0.15330985 -0.16276003
0000d0 97 a1 64 3d b8 23 92 3d 73 fa 89 bd ac b8 2e be
       0.055818167 0.07135719 -0.067372225 -0.17062634
0000e0 19 70 2d 3d a1 12 93 bd 58 03 52 bd 12 57 f8 bd
       0.042343233 -0.071812876 -0.05127272 -0.12125982
0000f0 45 89 8c bd de 1d 84 3d f6 6d 3f 3e 03 94 66 bd
       -0.068621196 0.06451009 0.1869429 -0.0562935
000100 c7 09 53 be a3 26 a9 bd c8 46 a1 3d 40 d9 e6 3d
       -0.20609199 -0.082593225 0.078748286 0.11271906
000110 c0 0b 8f 3c b4 54 3f 3d d8 f3 42 be b1 30 6d 3e
       0.017461658 0.04671164 -0.19038332 0.23163106
000120 59 a5 4e be c5 d2 e7 3d a8 69 d9 bc 6e 47 33 3e
       -0.20180263 0.11319498 -0.026539639 0.17507717
000130 8d d2 21 3e f7 ca ff bd b7 d4 2e be db 96 26 3e
       0.15802975 -0.12489884 -0.17073332 0.16268484
000140 3a f9 02 3b 3d 6a b7 3d d0 3a 1b 3e be 3c 19 3e
       0.0019984976 0.0895581 0.15159154 0.14964578
000150 1d 24 41 3d 1e 72 a0 3b 27 b4 27 bd ef db 3f 3e
       0.04715358 0.0048964163 -0.04094329 0.18736242
000160 8b d6 83 be 70 92 95 bc de 7b fd bb c2 9d 2f be
       -0.2574962 -0.018258303 -0.0077357134 -0.17150024
000170 ae e6 58 bd 41 6a 1c bb 33 5d d4 bd ba af 2c ba
       -0.05295437 -0.0023867043 -0.10369339 -0.00065874646
000180 61 7a a7 3c 56 3f 2a 3e b4 1a 19 be c8 2c 5d 3e
       0.020444097 0.16625723 -0.14951593 0.21599114
000190 42 55 ed bc de 95 14 3d 61 5b 3b be 24 55 3d be
       -0.028971318 0.036275737 -0.18296577 -0.1848951
0001a0 b4 09 4b 3a 6a 4b 4c be 18 8e 18 3d fc 90 97 bd
       0.00077452813 -0.19950643 0.037244886 -0.074007004
0001b0 0e 15 d9 3c 03 de b2 bd a6 8a 04 3b 44 f3 65 be
       0.026499297 -0.087337516 0.0020224242 -0.2245608
0001c0 0b 24 30 bd 8a 4d 7a bd 52 2b 14 3c e6 e5 b1 bd
       -0.043003123 -0.061109103 0.0090435315 -0.08686428
0001d0 4d c7 1d 3e 22 85 96 be 85 5c dc 3d 4d 82 10 be
       0.15408058 -0.29398447 0.10759834 -0.14112206
0001e0 9f 2c 4b 3e 5c 97 a8 3d 43 cb 1d be f9 71 4b be
       0.1984124 0.082319945 -0.1540957 -0.19867696
0001f0 e6 94 40 3c d3 d7 e0 3c 1d 22 d3 bd 5a e0 a8 3d
       0.01175425 0.027446663 -0.10309241 0.08245917
000200 bd 90 30 bd 70 3e 49 bd 9e 48 74 3c 1a 76 c7 bc
       -0.043106783 -0.04913181 0.014909891 -0.024348307
000210 0c 4d b3 3d a1 3f 57 be 30 54 8a 3c 0c 93 fb bd
       0.0875493 -0.21020366 0.016885847 -0.12283906
000220 56 93 3a 3e f0 2f e4 bc 79 ce 64 bd 91 ad ae bc
       0.18220267 -0.02785489 -0.05586097 -0.021322997
000230 61 86 57 bd 44 fb 1d bd cf fd ec 3d b4 f5 a4 3d
       -0.052618388 -0.038569704 0.11571848 0.08054677
000240 54 84 43 3d 0b 6e ae 3d b4 90 a8 3d 57 ad 81 bd
       0.04773362 0.08517083 0.08230725 -0.0633189
000250 4b 38 81 bd 36 79 30 bd 64 5d a1 bc 8e 00 d1 bb
       -0.06309565 -0.043084346 -0.019697852 -0.00637824
000260 4f 28 99 3d ee b2 76 3d f2 fb e1 bd 8d e8 22 3e
       0.074783914 0.060229234 -0.11034383 0.15909024
000270 db 12 f6 bd 4f a9 30 be cf 02 27 3e bc e2 d4 3d
       -0.12015315 -0.17252086 0.16309665 0.10394809
000280 bf d5 fe 3d cb 15 f5 bd cc d0 73 bd 2a 60 d3 bd
       0.124431126 -0.11967047 -0.059525296 -0.10321076
000290 aa 82 5a bc 06 90 0c bd 27 56 1b 3c 83 15 94 3d
       -0.013336817 -0.03431704 0.00948099 0.072306655
0002a0 5c 5f 6b 3d 85 fd df bd 52 79 a8 3c f2 13 b2 bd
       0.05746399 -0.10937027 0.020565663 -0.086952105
0002b0 5b 51 84 3d 60 88 a1 3b 4f d7 35 be df bc 63 be
       0.0646083 0.0049295872 -0.17757915 -0.22240017
0002c0 63 c4 f7 bc db 20 8e 3d 21 93 59 be 62 62 b5 bd
       -0.030245012 0.069398604 -0.21247531 -0.08856656
0002d0 f5 0d 10 3d bd 33 b3 3d 98 9d 3a be 3d f2 98 be
       0.03516956 0.08750103 -0.1822418 -0.29872313
0002e0 dd 9d b9 3d 32 2d dc 3c 6a fc 0d bd d3 21 c0 3d
       0.09063313 0.02687702 -0.03466455 0.093814515
0002f0 90 7f 89 ba c9 56 d6 3d 0f ff 0a bd 3f a1 63 3c
       -0.0010490287 0.10465772 -0.03393465 0.0138934245
000300 f3 0f f9 bc 29 d2 4f 3d e4 55 91 3d 07 4b 15 be
       -0.030403113 0.050737534 0.070964605 -0.14579402
000310 d3 fe 4d 3c 1d a7 49 be 46 0a 2b be ae ba 51 bd
       0.012572962 -0.19692655 -0.16703138 -0.051203422
000320 76 c1 11 bd 48 a2 c6 3d b6 6a 23 3e 64 25 a9 bd
       -0.03558489 0.096989214 0.15958676 -0.08259085
000330 70 9b 1b 3d a4 fc 1e be 1a b6 b7 bd 0a 5b 77 3c
       0.037990034 -0.15526062 -0.0897028 0.015097389
000340 28 85 15 3e d1 8a 3e 3c 7a be a1 3d 9f 21 27 3d
       0.14601576 0.011629776 0.07897659 0.040803548
000350 3f a4 1f 3e 53 fb a5 3c 5e 52 13 3d 4f 4b 1d be
       0.15589999 0.020261442 0.035967223 -0.15360759
000360 69 fd 72 3d 9f 6a 6c 3d 1d 1f 9b 3c b6 4d 28 be
       0.059323702 0.05771887 0.018935734 -0.16435894
000370 51 47 00 3d 6c b8 26 bd c6 ea 90 3e c6 75 05 3c
       0.031318013 -0.040703222 0.28304118 0.008145755
000380 59 81 b1 3d a1 73 31 be 1c a3 26 3d d4 54 31 bd
       0.08667249 -0.17329265 0.040682897 -0.04329379
000390 2f ef 78 3d 7a 02 e3 bd 25 1a 9c bd 2b c4 24 3e
       0.06077498 -0.11084457 -0.07622174 0.16090457
0003a0 bb cb 72 bc 9a 46 19 bd 6f a8 1d bd 39 0e e2 bc
       -0.014819081 -0.037420847 -0.03849071 -0.027594673
0003b0 1d 5e 64 bb a6 db 4b be 0a 5b 89 3d 0e 09 93 bd
       -0.0034846135 -0.19908008 0.067068174 -0.071794614
0003c0 b0 ca c9 bd 2c a8 94 bd c0 67 12 be 65 7f b1 3c
       -0.09853113 -0.07258639 -0.1429739 0.021667192
0003d0 73 f3 09 3e aa 81 c9 3c fe dd 2a 3d c2 55 41 bd
       0.13471775 0.024597961 0.041715614 -0.047200926
0003e0 f6 3d 2b bd 4d 91 e4 bd a0 b9 5c 3c 80 06 a5 bd
       -0.041807137 -0.111605264 0.013471991 -0.080578804
0003f0 97 a3 62 bd 29 93 76 bd fd 52 b1 bd 8f d1 93 3a
       -0.055331793 -0.060198937 -0.08658407 0.0011277663

network_body._body_endoder.seq_layers.2.bias f4 [128]
000000 c9 87 eb bc 66 f0 b3 bc 84 4e fd bc 1c 0f 2d bd
       -0.02875127 -0.021965217 -0.030921228 -0.042250738
000010 62 fb 66 3c 8c 11 3a bd 37 f6 1c bd 27 a4 92 bb
       0.01409802 -0.04542689 -0.038320746 -0.004475135
000020 d9 95 4a bc 5f 24 6b bd dd 2f 44 3b 07 55 a6 bc
       -0.012364828 -0.057407733 0.0029935755 -0.020304216
000030 aa f2 c6 bc 35 fc f0 bb 3f 0d cc bb da 07 fa bc
       -0.024285633 -0.007354284 -0.006227165 -0.030521322
000040 3b ac 86 bb 4e 86 d1 bc f7 af cd bc fc d5 89 bc
       -0.004109887 -0.025576737 -0.02510832 -0.016825669
000050 19 e3 98 bc dd c9 b9 3c 41 53 db bc 19 78 92 bc
       -0.018662976 0.022679264 -0.026773097 -0.017879533
000060 a5 50 a1 3c 16 28 aa bc dc 32 96 3b c1 30 0e bb
       0.019691775 -0.020771068 0.0045836996 -0.002169654
000070 c2 4c 0a bd 50 8d b0 bb b4 16 83 bc d1 aa a5 3c
       -0.03376461 -0.0053879395 -0.016002037 0.020223053
000080 8c 20 31 bd c8 fe 13 bc 42 e6 db bc f7 c6 82 3c
       -0.04324393 -0.009032913 -0.026843194 0.015964014
000090 61 58 63 3c c2 4a c8 3c ea a6 35 bc 6f 84 ad bc
       0.013876052 0.02444971 -0.011087159 -0.021181313
0000a0 fa 76 de bc 24 a2 fa ba 38 db 0e 3a 78 7d 3f bc
       -0.027156342 -0.0019121808 0.0005449536 -0.011687629
0000b0 6c d8 ce bc 1e 08 9b 3c 1e e8 04 3b 28 32 62 ba
       -0.025249682 0.018924769 0.0020279954 -0.00086286897
0000c0 3f 5e 0c bd 60 a0 10 3c 1e 56 76 3c 5f 5c 32 bd
       -0.034269568 0.008827299 0.01503518 -0.043545123
0000d0 ac 56 87 3c 41 14 3b bc 42 3d 29 bc 06 48 78 bc
       0.01652082 -0.011418403 -0.010329546 -0.0151538905
0000e0 85 fa 65 bc 75 47 53 bc 38 b7 20 bd 4c 52 a4 bc
       -0.014036779 -0.012895455 -0.03923723 -0.020058773
0000f0 cc 76 06 bd ab 40 ad bb 10 e2 c3 bb d2 dd d5 bb
       -0.032828137 -0.00528725 -0.0059778765 -0.006526687
000100 a6 c7 1d bc 4d a4 b7 bc 37 51 b4 bc 8c ab 3a ba
       -0.009630119 -0.022417212 -0.022011383 -0.00071208994
000110 4f 0d 4a bd cf 50 19 bc e2 f6 86 bc 1b d5 da bc
       -0.0493291 -0.009357645 -0.016475145 -0.026712945
000120 70 da 18 3b 5c a6 9c bc 88 26 81 bc b1 33 c6 bc
       0.0023323558 -0.019122295 -0.015765443 -0.02419457
000130 e3 83 91 bc 79 a8 62 ba 2b 7d 56 3a 90 c8 90 ba
       -0.017763084 -0.000864632 0.00081821036 -0.00110461
000140 18 d4 3f bc 60 2b 88 bd e6 c4 ba bc 6d 42 1b bd
       -0.011708282 -0.06648898 -0.022798967 -0.037905145
000150 a0 0e 84 3c 1c e3 84 3c 19 5a 4c 3b 48 a3 dd 3c
       0.016120255 0.016221575 0.0031181632 0.027055398
000160 bc 32 76 3c 28 77 51 3c 5c 39 4f bc 4f ae fd bc
       0.015026744 0.012784757 -0.012647953 -0.030966906
000170 90 84 30 bc b3 e4 bb bc b1 c0 d0 ba e0 d8 ea 3c
       -0.010773793 -0.0229362 -0.0015926567 0.028667867
000180 8f 79 4c 3c 7f 25 cf 3b 5d 0e f0 bb 48 c1 5f bb
       0.012480154 0.0063216086 -0.007325931 -0.0034142304
000190 20 bc 91 bc 1a 38 1f 3c ba d7 e1 3b 10 53 a2 3c
       -0.0177899 0.0097179655 0.0068921717 0.019814998
0001a0 50 62 7b 3c ff 98 81 bb 86 b3 e6 bc da db d3 bc
       0.015343264 -0.003955006 -0.028161775 -0.02586167
0001b0 cd b5 35 3c 43 56 ae 3c 54 3c cb bc f2 29 f4 bc
       0.011090708 0.021281367 -0.02480904 -0.029805157
0001c0 bc 20 5c bc 73 3e 9e 3b 44 28 48 bc 7a 5c 35 bd
       -0.013435539 0.004829222 -0.012216631 -0.044277646
0001d0 09 99 c1 bc 45 6b b9 3c ea 93 08 3c 82 2b 0f 3c
       -0.023632543 0.022634158 0.008336047 0.0087384
0001e0 12 6d 4a 3c 6a 78 a8 bc 9c 63 44 bd ab bc 32 bd
       0.012355106 -0.02056523 -0.047946557 -0.04363696
0001f0 29 84 ff 3c fb 66 60 bc c6 3c 2d bd 48 5a 83 bc
       0.031190949 -0.013696427 -0.042294286 -0.01603426

network_body._body_endoder.seq_layers.2.weight f4 [128, 128]
000000 f7 5e 5b 3d 34 41 b6 bd e7 5d 16 3d 79 4c fb bd
       0.053557362 -0.08899155 0.036710646 -0.122704454
000010 5f df fe 3d 88 45 86 be 61 db 31 3d 52 07 eb bd
       0.124449484 -0.26224923 0.043422107 -0.114760056
000020 3e 59 33 3e 9b 27 82 bc 0d aa 72 be 9e fb a8 bd
       0.17514512 -0.015888026 -0.23697682 -0.08251117
000030 2b f7 13 be aa d4 11 bc 06 88 95 3e 4a c4 0f 3d
       -0.14449756 -0.008900801 0.2920534 0.035099305
000040 6e 65 e8 3c 50 d4 3a bd d4 40 9d 3d 08 92 ad bc
       0.028368678 -0.045612633 0.076783806 -0.021187797
000050 c6 5d 50 3c f9 a4 37 be 04 09 45 3d 47 ea 9c bd
       0.01271767 -0.17934026 0.0481043 -0.07661872
000060 97 ee ec 3c a7 4d 17 be 5b 8e f2 bd f4 80 5c 3d
       0.028922362 -0.14775716 -0.118435584 0.053833917
000070 b0 f4 61 be b4 59 c2 3a b9 c5 99 3d dc f8 0d be
       -0.22065997 0.0014827759 0.07508416 -0.13864464
000080 08 d3 c2 3d a2 af c9 3d a4 d3 19 bd a1 68 4f bd
       0.09512907 0.098479524 -0.03755535 -0.05063689
000090 88 69 a4 3d 1a 2a ba 3d 85 90 c0 bc 7e 67 1c be
       0.08027941 0.090900615 -0.023506412 -0.15273854
0000a0 51 a1 4f bd 0a 47 66 3a ba a8 51 3c 48 c2 a4 bd
       -0.050690953 0.00087843894 0.012796575 -0.08044869
0000b0 89 70 2f bd c3 5e 3a 3d 31 98 65 bd e3 50 83 bd
       -0.04283193 0.045500528 -0.056053344 -0.06411912
0000c0 8e 61 d0 bc 4a 2b 45 bd 4d ac f0 3d e3 00 03 3e
       -0.025437143 -0.048136987 0.11751614 0.12793307
0000d0 ed 58 b2 bc 4a ff c3 bc 3c 35 f4 3c c9 3a 8e 3a
       -0.021770919 -0.023925442 0.02981054 0.001085126
0000e0 05 71 a8 bd 22 99 24 bd 23 c9 09 bc e6 14 85 bd
       -0.08224682 -0.0401851 -0.008409771 -0.06498127
0000f0 ac f5 3e 3d 48 d1 d7 3b 62 08 bc bc 78 1a 14 be
       0.04662101 0.0065862276 -0.022953216 -0.14463222
000100 3c cc d1 3d 4e 40 06 bd 03 65 b4 bd a4 18 ea 3b
       0.10244033 -0.03277617 -0.08808329 0.0071440507
000110 28 83 86 ba 56 dd 17 be b0 3c 06 3d 68 5f fb bd
       -0.0010262476 -0.14830527 0.03277272 -0.12274057
000120 10 76 d5 3c 94 78 82 3d a3 b8 96 3d ab a3 a5 3d
       0.026057273 0.06370655 0.073594354 0.08087858
000130 f8 87 20 3d 15 d4 aa bc 59 50 9a bd 72 d7 84 bc
       0.03919217 -0.020853082 -0.07534856 -0.016216014
000140 d6 3c 97 bd 72 21 ce 3d 41 38 11 3d eb f5 67 3c
       -0.073846504 0.10064973 0.03545404 0.0141577525
000150 5d 0d a2 3d f4 91 96 bd 26 1b ef bc 78 25 41 3e
       0.07912705 -0.07352057 -0.02918775 0.1886195
000160 04 98 5d 3c e6 ae a5 3c 60 6e 11 bd a5 a3 2e 3d
       0.013525013 0.020225 -0.035505652 0.042636532
000170 94 75 b7 bd 20 8d 01 3c a8 67 cd bd 5b e0 b4 3d
       -0.08957973 0.007907182 -0.100295365 0.08831855
000180 1e 64 7a be 52 4a c9 bc 6a bd 47 bc 80 25 af bd
       -0.24452254 -0.024571571 -0.012191156 -0.085520744
000190 b8 5d 1e bc fe a7 14 be 64 7f 22 bd eb c0 e5 3c
       -0.009665899 -0.14517209 -0.03967227 0.028046092
0001a0 3d fb 4d bd a4 21 41 be 1f 13 4e 3c 8b cc d9 3c
       -0.050288428 -0.18860489 0.012577801 0.026586792
0001b0 74 dd c2 bc 64 3c a1 bd 74 83 a9 bc 7f ee 8a 3d
       -0.023787238 -0.07872847 -0.020692565 0.06783771
0001c0 2d da e5 bd fd 70 01 3d bd 16 60 bb 64 ce 3f be
       -0.11223254 0.031601895 -0.003419324 -0.18731076
0001d0 87 07 42 bc dc bb 0e be ab 69 0d be db 26 79 bd
       -0.011842615 -0.1393885 -0.1380984 -0.06082807
0001e0 b3 bd 37 be 5b 3f dd bd 43 36 10 3b d8 07 b6 3b
       -0.17943458 -0.108031 0.0022004999 0.0055551343
0001f0 31 3f c6 bd 16 f3 a5 bc 2d 25 7f ba 68 14 07 be
       -0.096800216 -0.020257514 -0.00097330177 -0.13191378
000200 ab b1 da bd b4 24 75 3d b6 30 37 3e 97 0f 50 be
       -0.10678419 0.059849456 0.17889675 -0.20318447
000210 dc 44 96 3a b2 f6 00 3e 0f 16 0a 3d 39 eb 42 bc
       0.0011464613 0.12594107 0.033712443 -0.011896902
000220 98 62 77 3c de 05 49 3d 42 76 b2 bd 04 8d 8b bd
       0.01509919 0.04907786 -0.08713962 -0.06814006
000230 9c 83 81 be 32 dd 96 bd 94 bf fe bd 5b 89 b9 bd
       -0.25295722 -0.073664084 -0.124388844 -0.090594016
000240 0d 58 73 3d 0b 39 da 3d 84 ff 16 bd 8e e9 9e 3c
       0.059410144 0.10655411 -0.036864772 0.019398477
000250 49 11 8f 3d ed 09 a0 bd bc 0d 3b be 8d b2 17 bd
       0.06985719 -0.07814393 -0.18266958 -0.037035514
000260 62 22 cb bb 5c 44 91 bd a2 57 19 bc c5 88 57 be
       -0.006199167 -0.07093117 -0.009359272 -0.21048267
000270 fd 31 77 bd c5 14 46 bd 8b b1 5e be 54 2c 0f 3e
       -0.060350407 -0.04835965 -0.21747415 0.13981754
000280 90 7e bd 3c 92 f8 b3 bd 9a 12 12 bd 23 e2 e5 bc
       0.023131639 -0.087876454 -0.03566227 -0.028061932
000290 a2 4c fe 3c 2d 58 00 3c 2c 45 1a 3c 20 b0 30 bd
       0.0310424 0.007833523 0.009415906 -0.043136716
0002a0 3b ab d6 bc 15 94 2b 3e e3 61 e6 bb 6b 1d 0d 3e
       -0.026204696 0.16755708 -0.007030712 0.13780753
0002b0 ec a9 24 be 33 5f c4 bc 2a e2 25 be da 7a 3b 3d
       -0.16080445 -0.023971176 -0.16199556 0.045771457
0002c0 d6 8e e8 bd e8 a7 0c bd 89 af 1c bc 47 16 95 bb
       -0.11355369 -0.034339815 -0.009563335 -0.004549775
0002d0 4a 1e 2f be d6 f7 2c bc f3 ad ad bd 19 4c f0 bb
       -0.17101398 -0.010557136 -0.08480444 -0.0073332903
0002e0 f1 8a e0 bd e4 26 90 bb 7d 80 0b bd dd ad c0 bd
       -0.10964001 -0.0043991674 -0.034058083 -0.09408162
0002f0 7a 32 2a be da 01 bf 3c f3 ce 26 bd 23 3a 0a 3d
       -0.16620818 0.023316313 -0.040724706 0.03374685
000300 95 ef cf 3d 25 32 f5 3d a6 26 1d 3e 92 71 d0 3d
       0.101531185 0.11972455 0.15346774 0.10177912
000310 2a 74 43 3e 8e 6d 0a bd 11 c9 e5 3d 03 30 63 bd
       0.19087282 -0.033795886 0.11219991 -0.05546571
000320 e4 e6 4c be 71 94 10 3d 9a 0e 88 3c a1 aa 8d 3d
       -0.20009953 0.035297815 0.016608525 0.069173105
000330 00 1d 25 be 8e dc cf 3d 60 70 b9 3c 5e 1c f1 3d
       -0.16124344 0.10149489 0.022636592 0.11772989
000340 0a 4a 0f be e3 e0 aa bd d9 d9 b9 bc d8 63 85 bd
       -0.13993087 -0.08343675 -0.022686886 -0.06513184
000350 d0 77 91 bd 71 20 34 3d f0 43 43 3c 2c f2 a4 bd
       -0.071029305 0.04397625 0.011918053 -0.08054003
000360 32 68 f6 3d 00 e4 7f be f9 e8 55 bd b3 bf 08 be
       0.120315924 -0.24989319 -0.052224133 -0.13354377
000370 09 be 07 3d 66 4c 44 bb 4e ee 72 3c 25 68 75 3d
       0.033140216 -0.0029952764 0.014827324 0.059913773
000380 60 5e 80 bb 0c 80 c9 3d b5 fc f3 3d b3 57 8b bd
       -0.0039175004 0.09838876 0.119134344 -0.06803837
000390 f3 45 92 bd 9a bc 57 be a4 c8 04 3e e9 27 50 be
       -0.07142248 -0.2106804 0.12967163 -0.20327725
0003a0 53 13 67 bd fe e4 71 3e 25 0b 4d 3d a6 bb cd bd
       -0.056414913 0.2362251 0.050059456 -0.10045557
0003b0 8f ef cc 3c 5c e4 2a be 12 7a 23 3e 1a 4d 05 be
       0.025016574 -0.16688675 0.15964535 -0.13017693
0003c0 81 14 0b 3d 1d 54 27 bd ae 6a bb 3d 41 d4 03 bd
       0.0339551 -0.0408517 0.09151207 -0.032184843
0003d0 94 f4 df bd 91 f9 7e bd 04 04 42 be 7b ab 4c bd
       -0.109353215 -0.062249724 -0.18946844 -0.049968224
0003e0 fa f2 54 3d 19 b1 9e 3c bf 8f c6 bd 3c 39 1e bd
       0.051989533 0.019371556 -0.09695386 -0.0386288
0003f0 bb f9 25 be de 3f cc 3c 37 c3 89 3d 1c e4 10 3d
       -0.16208546 0.024932798 0.067266874 0.035373792
