Assets/ML-Brains/Backups/ResultsScenario_07.onnx (onnx, 120062 bytes, 9 tensors)

action_model._discrete_distribution.branches.0.bias f4 [7]
0	0x3cf9e158	0.03050296
1	0xbc67ad89	-0.014140495
2	0x3ccf626e	0.02531549
3	0xbcadebed	-0.021230662
4	0x3cc320a6	0.023819279
5	0xbd2e7399	-0.04259071
6	0x395cae3b	0.00021045741

action_model._discrete_distribution.branches.0.weight f4 [7, 128]
0	0xbc10c329	-0.008835592
1	0xbc0c3809	-0.008558282
2	0xb81cc22a	-3.7374128e-05
3	0xbd4add79	-0.04952762
4	0x3b85491b	0.0040675527
5	0x3d086ae8	0.03330508
6	0x3c5d954c	0.013524365
7	0x3cc18201	0.023621561
8	0xbbe59099	-0.007005763
9	0x3c884da1	0.016638579
10	0x3b501838	0.0031752717
11	0x3c0cd4cb	0.008595656
12	0xbb73fc27	-0.0037229152
13	0xbce8d3b0	-0.028421253
14	0x3d543def	0.051816877
15	0x3ae77a28	0.0017660307
16	0xbcf18171	-0.029480668
17	0x3d1073f5	0.035266835
18	0x3ada8375	0.0016671257
19	0xbca0e12a	-0.019638617
20	0xbd3c9745	-0.0460427
21	0xbc7d15de	-0.015447108
22	0x3c845f92	0.016158853
23	0x3ca8a5b4	0.020586826
24	0xbd271c65	-0.040798564
25	0xbd10bb45	-0.035334844
26	0xbd114c25	-0.035473008
27	0x3cd9691a	0.026539374
28	0xbd00172d	-0.031272102
29	0x38a083c6	7.653939e-05
30	0x38e8ba86	0.00011097365
31	0xbc1aae41	-0.009440959
32	0x3cda6f48	0.026664391
33	0xbc9fcc77	-0.019506676
34	0x3b38a715	0.002817576
35	0xbd5b975e	-0.053611152
36	0x3c251822	0.0100765545
37	0xbd4be8c7	-0.04978254
38	0xbcdd4674	-0.027011134
39	0x3c9445e3	0.01809973
40	0x3c0929ae	0.008371754
41	0xbc30e6f3	-0.01079725
42	0x3d2845b8	0.041082114
43	0x3c6695c5	0.014073794
44	0xbd285798	-0.04109916
45	0x3c2c19b2	0.010504173
46	0xbc354185	-0.011062984
47	0xbc319e9a	-0.010841036
48	0xbd7ae6a1	-0.0612551
49	0xbd865c57	-0.06560581
50	0xbc77e59e	-0.015130429
51	0xbc15ed16	-0.009150764
52	0x3d27948e	0.040913157
53	0x3cca87ad	0.024722898
54	0xbc994321	-0.018708767
55	0x3d2b157c	0.041768536
56	0x3d0bb7db	0.034110885
57	0x3c312e55	0.010814269
58	0x3c91e64a	0.017810006
59	0x3b93dc36	0.004512335
60	0x3c2e2b3c	0.010630425
61	0x3cbb0948	0.022831574
62	0xbd55fca7	-0.0522429
63	0x3c9869b2	0.018605087
64	0xbcc56c4f	-0.024099497
65	0xbc7381c6	-0.014862483
66	0x3b5b8ec4	0.0033501843
67	0xbc8bda05	-0.017071733
68	0x3aecff86	0.0018081523
69	0x3b88afd6	0.004171352
70	0x3ce8efbc	0.028434627
71	0x3d324f30	0.04353255
72	0x3c49da38	0.012320094
73	0x3d3963d9	0.045261238
74	0x3c69e7f8	0.014276497
75	0x3c476739	0.012170606
76	0x3ca72448	0.020403042
77	0x3d82de2c	0.06390032
78	0xbcb6a181	-0.022293808
79	0xbcabd45e	-0.020975288
80	0xbd164f51	-0.036696736
81	0x3bb0ffcb	0.0054015866
82	0x3bb5b798	0.0055455677
83	0x3c663ebc	0.014053043
84	0x3ccf9123	0.025337761
85	0x3cd4468f	0.025912551
86	0x3c6a9a62	0.014319034
87	0x3d6da4d9	0.05801854
88	0x3c61c32d	0.013779444
89	0x3cb3ae5e	0.02193373
90	0x3d2ae557	0.04172262
91	0xbadd26d4	-0.0016872534
92	0xbcf995b0	-0.030466884
93	0x3b02e2a1	0.0019971507
94	0xbd576125	-0.05258288
95	0x3cf7c5c1	0.030245664
96	0xbc7d1f66	-0.0154493805
97	0xbd51eefe	-0.05125331
98	0xbc8ced23	-0.01720292
99	0xba7d3e2b	-0.0009660448
100	0xbc079979	-0.008276337
101	0x3cbdbefe	0.023162361
102	0x3c18a34d	0.009316278
103	0xbd6c28ec	-0.057656214
104	0xbca1d5b4	-0.019755222
105	0xbbcf318f	-0.0063230465
106	0xbd216d34	-0.039410785
107	0xbcbfa486	-0.02339388
108	0x3b811db2	0.0039403075
109	0x3d1fc941	0.03901029
110	0x3d387cc7	0.045040872
111	0xbc3b0bf0	-0.01141642
112	0x3d0d9b0d	0.034571696
113	0x3cef9334	0.029244997
114	0xbcb5f150	-0.022209793
115	0xbc9afa6b	-0.018918237
116	0xbc41afc1	-0.011821688
117	0x3d147217	0.036241617
118	0xbd600ee9	-0.05470172
119	0x3c5bd795	0.013418098
120	0xbda9540f	-0.08267986
121	0xbb38df6c	-0.0028209342
122	0xbcef1d7c	-0.029188864
123	0x3cc7a401	0.024370195
124	0x3c8f000f	0.017456083
125	0xbcd13302	-0.025537018
126	0x3c6bba00	0.014387608
127	0x3be105c0	0.0068671405
128	0x3b5dbd21	0.0033834653
129	0x3d2b0eac	0.04176204
130	0x3c34e36e	0.011040552
131	0x3d6bf969	0.057610903
132	0x3c7f82f9	0.015595191
133	0xbcb123ae	-0.021623459
134	0x3a827859	0.0009954079
135	0xbc5211cd	-0.012821627
136	0xbd47d63a	-0.048788287
137	0x3cb67609	0.02227308
138	0x3c6a07de	0.014284102
139	0x3cbe0f14	0.02320055
140	0xbcb96d87	-0.022635235
141	0x3b94034d	0.004516995
142	0x3d05c63d	0.032659758
143	0x3c5615b0	0.013066694
144	0xbbe48de7	-0.006974924
145	0x3ccbf3df	0.02489656
146	0x3d48fef1	0.049071256
147	0x3cead22c	0.02866467
148	0x3a5ebcda	0.0008496769
149	0xbd4bf5ee	-0.049795084
150	0x3cb95325	0.022622654
151	0xbc983ff1	-0.018585177
152	0x3d738121	0.05944932
153	0xbd12e049	-0.035858426
154	0x3cc5ca84	0.024144419
155	0x3b4cb7be	0.0031237449
156	0xbcb860bc	-0.022507064
157	0xbd366181	-0.04452658
158	0x3cb312c1	0.021859528
159	0x3c1f6ced	0.00973056
160	0xbbf82901	-0.0075732474
161	0xbc13442b	-0.0089884205
162	0x3c376db7	0.011195592
163	0x3d844472	0.064583674
164	0xbabef0a1	-0.0014567563
165	0x3c22871b	0.009919907
166	0x3b9eca69	0.0048459065
167	0x3cbc7709	0.02300598
168	0xbd2d8080	-0.042358875
169	0x3c24e2dc	0.010063853
170	0xbd93b32c	-0.07211909
171	0xbd123ff6	-0.03570553
172	0x3bb23ea7	0.0054395976
173	0x3c202ef1	0.009776817
174	0xbc99880d	-0.018741632
175	0x3c199cc6	0.009375757
176	0x3da92efa	0.08260913
177	0xbcc89cbb	-0.024488797
178	0x3ca1a9af	0.019734232
179	0x3cd7ce19	0.026343392
180	0x3cb5b540	0.022181153
181	0x3cc3e5f7	0.023913367
182	0x3b43666a	0.0029815682
183	0xbcae8344	-0.021302827
184	0xbc8800e9	-0.016601996
185	0x3ccba2b6	0.02485786
186	0xbb33bfe2	-0.0027427603
187	0x3cb1b740	0.021693826
188	0x3d115ee2	0.035490878
189	0x3cda8dc6	0.026678931
190	0x3cb30257	0.021851702
191	0x3bba5a7c	0.005687056
192	0xbccdf0bb	-0.025139203
193	0x3c8bb7b0	0.017055362
194	0xbc39b791	-0.01133527
195	0xbd249226	-0.04017844
196	0xbc25f116	-0.01012828
197	0xbd66f404	-0.056385055
198	0x3b9987f7	0.0046853977
199	0x3c1b76b8	0.009488754
200	0x3ccec642	0.025241021
201	0x3cc1cde5	0.023657748
202	0xbc9f73a8	-0.019464329
203	0xbcaa93d5	-0.020822445
204	0x3c4156c6	0.011800474
205	0xbd68ddce	-0.056852154
206	0x3d6b210d	0.057404567
207	0xbbf97937	-0.007613327
208	0x3a6652c5	0.00087861373
209	0x3c927248	0.01787676
210	0x3d2a6866	0.04160347
211	0xbbc3d361	-0.005976126
212	0xbc2e5c05	-0.010642056
213	0x3d2053ef	0.039142545
214	0xbcaed6c7	-0.021342648
215	0xbcb6b8aa	-0.022304852
216	0xbc10545c	-0.008809175
217	0x3cc2087d	0.023685688
218	0xbcc8e0d0	-0.024521261
219	0xbd3a02bd	-0.045412768
220	0xbbd41f48	-0.0064734556
221	0x3d3a1687	0.04543164
222	0x3d371783	0.044700157
223	0xbd237202	-0.03990365
224	0x3bfddd36	0.0077473177
225	0x3cb3a416	0.021928828
226	0x3be6ef10	0.0070475414
227	0x3cdc6482	0.026903395
228	0x3cb63c9a	0.022245694
229	0xbd59f373	-0.053210687
230	0xbe083920	-0.13303041
231	0xbca81c94	-0.02052144
232	0x3d3bcc78	0.045849293
233	0x3cbf8c05	0.023382196
234	0xbabd5b35	-0.0014446737
235	0x3c4b965e	0.012425987
236	0x3bd240b0	0.0064164028
237	0x3d49857e	0.049199574
238	0xbd68e8a1	-0.056862477
239	0x3cdcbabd	0.026944513
240	0xbc6116cc	-0.013738345
241	0x3d1fefbb	0.039046984
242	0xbd049d4c	-0.032376572
243	0x3d32f3dc	0.043689594
244	0x3d02a99a	0.031900026
245	0x3d24f529	0.040272865
246	0x3c1b78f9	0.009489291
247	0xbb8f8141	-0.004379422
248	0xbc924fef	-0.017860381
249	0xbd08f51a	-0.033436872
250	0x3bc44901	0.005990148
251	0xbcfb6309	-0.030686872
252	0xbcc170ab	-0.023613295
253	0xba5fbf46	-0.0008535277
254	0xbc98dc93	-0.018659865
255	0x3bf38242	0.0074312994

action_model._discrete_distribution.branches.1.bias f4 [2]
0	0xbd18f659	-0.03734431
1	0x3d18f65d	0.037344325

action_model._discrete_distribution.branches.1.weight f4 [2, 128]
0	0x3cd9657c	0.02653765
1	0x3c7827da	0.01514622
2	0x3d6c852a	0.057744183
3	0x3ccb5300	0.02481985
4	0xbd096a05	-0.033548374
5	0xbbe695ac	-0.0070368852
6	0x3d33558c	0.043782756
7	0xbb8cb79e	-0.00429435
8	0x3d2b1dca	0.041776456
9	0x3ba5b90d	0.00505746
10	0x38b258ce	8.5042426e-05
11	0x3b55b062	0.0032606353
12	0xbd19490b	-0.037423175
13	0x3d38fc0f	0.045162257
14	0x3cc3a062	0.023880187
15	0x3d56ee92	0.052473612
16	0x3d0d7197	0.034532156
17	0xbcf6cffe	-0.030128475
18	0xbbb1d63d	-0.0054271505
19	0xbae3da57	-0.0017383796
20	0x3c8ae7e7	0.016956283
21	0xbab49c8a	-0.0013779562
22	0xbc1290c2	-0.008945646
23	0xbc41a5aa	-0.011819283
24	0xbc06483b	-0.008195932
25	0xbce0d7cd	-0.027446652
26	0xbc3a04fc	-0.011353727
27	0xbc4f0ef2	-0.012637841
28	0xbc6c2d88	-0.014415152
29	0xbc53d6c2	-0.01292962
30	0x3d405243	0.04695345
31	0xbd5286be	-0.05139803
32	0xbcca08ec	-0.024662457
33	0x3b8090e6	0.0039235232
34	0x3bf0961e	0.007342114
35	0x3da5c656	0.0809447
36	0xb8941084	-7.060266e-05
37	0x3c668a87	0.014071113
38	0x3cbbaeb5	0.022910455
39	0xbcac7b0b	-0.021054765
40	0x3c2dda7a	0.010611171
41	0xba329bb6	-0.0006813364
42	0x3c0e35b7	0.008679799
43	0x3cbfda7d	0.023419613
44	0xbcf322a7	-0.02967961
45	0xbd214c2b	-0.03937928
46	0xbc82e3ae	-0.015977707
47	0x3d189530	0.03725165
48	0x3ca25146	0.019814145
49	0x3af4bee6	0.0018672615
50	0x3c7347ba	0.014848644
51	0x3c8142f0	0.015778989
52	0xbcd95e24	-0.026534148
53	0xbc7bf2ef	-0.015377744
54	0xbd06cb2a	-0.032908596
55	0x3b7972a4	0.0038062716
56	0xbd32c609	-0.043645892
57	0xbd05230e	-0.032504134
58	0xbd0675b5	-0.032827098
59	0xbcade90a	-0.021229286
60	0xbb8d2c5f	-0.004308268
61	0xbd1e29bc	-0.03861402
62	0xbcec92b0	-0.02887854
63	0xbc90cc73	-0.017675614
64	0xbcb8f523	-0.022577828
65	0xbc7aad1b	-0.015300061
66	0x3d640763	0.055671107
67	0x3cbe52e3	0.023232883
68	0x3a96dfa2	0.001151074
69	0xbd036ece	-0.032088093
70	0xbad5dff2	-0.0016317351
71	0x3bb975df	0.0056598033
72	0x3a2dd03f	0.00066304574
73	0x3c68596c	0.014181476
74	0xbbe5a619	-0.007008326
75	0x3a50d0fe	0.00079657126
76	0x3a07e833	0.00051844417
77	0x3d2a7778	0.04161784
78	0x3d3b58c5	0.045738954
79	0xbce004f0	-0.027346104
80	0x3cfbdca9	0.030744867
81	0x3c9763e0	0.018480241
82	0xbc2fe9e9	-0.010736921
83	0xbcd9c5f7	-0.026583655
84	0xbcb7aad8	-0.022420332
85	0x3ce2c66a	0.027682502
86	0xbbf3e7e3	-0.0074434145
87	0xbc26c277	-0.0101782
88	0xbd195c44	-0.037441507
89	0x3c8a83b0	0.016908497
90	0x3d5a8cd0	0.053356946
91	0x3c8102a7	0.015748335
92	0x3bfe5204	0.007761242
93	0x3c272d1a	0.010203624
94	0x3c0ec827	0.008714712
95	0x3d38a6ab	0.045080822
96	0x3a2b6a3c	0.00065389625
97	0x3d5997be	0.05312323
98	0xbbd53174	-0.0065061394
99	0x3bee56c4	0.007273527
100	0xbc82d1e8	-0.015969232
101	0xba112b29	-0.00055377424
102	0x3d320470	0.043461263
103	0xbb126b95	-0.0022341956
104	0x3d61a813	0.05509193
105	0xbcae3682	-0.021266226
106	0x3cb37554	0.021906532
107	0x3ac67434	0.0015140832
108	0xbb305072	-0.0026903418
109	0xbc0f6ada	-0.008753503
110	0x3b61a667	0.003443146
111	0xbd3b24d2	-0.04568941
112	0xba7bcc88	-0.00096053677
113	0x3c650731	0.013978765
114	0x3d8e19c4	0.06938508
115	0x3bfddd1a	0.0077473046
116	0x3d1d0135	0.03833123
117	0xbcca29b5	-0.02467809
118	0x3ca3ad6d	0.019980157
119	0xbc97ec5d	-0.018545324
120	0x3bcf99a2	0.006335453
121	0x3c161157	0.009159408
122	0xbb583ad4	-0.0032994049
123	0xbc8e6fee	-0.017387357
124	0xba8af167	-0.0010600508
125	0x3dc9e74d	0.0985857
126	0xbcc09265	-0.023507306
127	0xbc10727b	-0.008816357
128	0x3bb9ff18	0.0056761615
129	0xbc72ffb0	-0.014831468
130	0xbd476c6f	-0.048687395
131	0xbc3530eb	-0.011059026
132	0x3cbb9e8e	0.022902753
133	0x3bb0a3c9	0.0053906185
134	0xbcd39801	-0.025829317
135	0x3bb2090f	0.005433209
136	0xbd0b1854	-0.033958748
137	0xbb52e45a	-0.0032179565
138	0xbb853ff4	-0.0040664617
139	0xbc9d14d3	-0.019174969
140	0x3ccaa2b5	0.024735788
141	0xbd0d72f8	-0.03453347
142	0xbce04b6d	-0.027379716
143	0xbd4b7729	-0.049674187
144	0xbd113fd1	-0.03546125
145	0x3d09f116	0.033677183
146	0x3c331cd8	0.01093217
147	0x3bbf1278	0.005831059
148	0xbce8af80	-0.028403997
149	0x3b4f8d1f	0.0031669808
150	0xbc48b5d4	-0.012250382
151	0xbbe6503e	-0.0070286086
152	0x3c240376	0.010010591
153	0x3cb952b7	0.02262245
154	0xbc531bd4	-0.012885053
155	0x3bec3e18	0.0072095506
156	0x3c8d179c	0.017223172
157	0x3c818ba9	0.015813665
158	0xbc8997d3	-0.016796028
159	0x3d607488	0.054798633
160	0x3ccb615a	0.024826694
161	0x3aa721c5	0.0012751153
162	0x3c0b4d80	0.008502364
163	0xbd3de902	-0.04636479
164	0xbcb9cbb5	-0.022680143
165	0xbc69daaa	-0.014273325
166	0xbc9f2960	-0.019428909
167	0x3c423d2a	0.011855403
168	0xbc225f1c	-0.009910371
169	0xbc4fdeee	-0.012687428
170	0xbc225314	-0.009907503
171	0xbcd7d7e7	-0.026348067
172	0x3d14c0fc	0.036316857
173	0x3cf84f8c	0.030311368
174	0x3c46a73f	0.0121248355
175	0xbd159a38	-0.036524028
176	0xbca43f49	-0.020049708
177	0xbb78c2ff	-0.0037958024
178	0xbc0f5b58	-0.008749805
179	0xbc1f86f7	-0.009736768
180	0x3cb1397a	0.021633852
181	0x3c2dff28	0.010619916
182	0x3d60d298	0.054888338
183	0xbc2f5188	-0.010700591
184	0x3bfb46f5	0.007668371
185	0x3cc0de72	0.02354357
186	0x3c897f01	0.016784193
187	0x3b5a041b	0.0033266607
188	0x3d016cc9	0.031597886
189	0x3d0d3ba7	0.034480717
190	0x3d00f985	0.03148796
191	0xbb40fedc	-0.0029448783
192	0x3c7814aa	0.015141645
193	0x3cfec8ae	0.03110155
194	0xbd4f64f4	-0.050633386
195	0xbd13e8a4	-0.036110535
196	0xbc48eefc	-0.01226401
197	0x3cb616a7	0.022227598
198	0xbc186aff	-0.009302854
199	0xbbb4113c	-0.0054952186
200	0xbba2eb13	-0.0049718707
201	0xbc0d1e28	-0.008613147
202	0xb9ee209f	-0.00045419202
203	0xba596fc5	-0.0008294548
204	0x3baf65c1	0.005352706
205	0xbd3ac1b1	-0.045594875
206	0xbd000be6	-0.031261347
207	0x3ce398e7	0.02778287
208	0xbc05c71b	-0.008165146
209	0xbc91a8ba	-0.01778065
210	0x3b4768d9	0.0030427484
211	0x3cdee230	0.027207464
212	0x3d0ef766	0.034903906
213	0xbca0331b	-0.019555619
214	0x3c63cdf1	0.013904081
215	0xba5cd535	-0.00084241043
216	0x3cf2de5d	0.029647047
217	0xbc97c36d	-0.018525803
218	0xbd4d91b5	-0.050187785
219	0xbca00dee	-0.019537892
220	0xbd041fe6	-0.032256983
221	0x39e4ad56	0.00043616694
222	0x3b4280ad	0.0029678748
223	0xbd372ac3	-0.044718515
224	0x39e488bf	0.00043589433
225	0xbca45717	-0.020061059
226	0x3d0471a8	0.032334954
227	0xbb469d73	-0.003030625
228	0x3c859b4c	0.016309403
229	0x3c196d31	0.009364412
230	0xbd64cf1e	-0.055861585
231	0xbc15ddd7	-0.009147129
232	0xbd235ab4	-0.039881423
233	0x3d54eb18	0.051982015
234	0xbc952902	-0.01820803
235	0x3b13affe	0.002253532
236	0x3c32aad4	0.010904986
237	0x3a0c9af4	0.0005363666
238	0x3c16bcaa	0.009200254
239	0x3d01104f	0.031509694
240	0xbbcc236a	-0.0062298076
241	0xbbfc717e	-0.007703959
242	0xbd8ce0fa	-0.068788484
243	0x3a18684e	0.00058138825
244	0xbc5e2810	-0.013559356
245	0x3cf83fad	0.0303038
246	0xbd097991	-0.0335632
247	0x38b848bf	8.787354e-05
248	0xbc44bb37	-0.012007526
249	0xbc567e18	-0.0130915865
250	0x3c536f99	0.012905025
251	0x3ce01ebc	0.027358405
252	0x3a706e16	0.00091716775
253	0xbdcc098f	-0.09962761
254	0x3ccdf196	0.025139611
255	0x3cb220ca	0.02174415

discrete_action_output_shape f4 [1, 2]
0	0x40e00000	7.0
1	0x40000000	2.0

network_body._body_endoder.seq_layers.0.bias f4 [128]
0	0xbc444f6f	-0.011981829
1	0xbcd8470b	-0.026401063
2	0x3c3bef49	0.011470624
3	0xbd43d161	-0.0478071
4	0x3bbdeb7d	0.0057958947
5	0xbb51a33c	-0.0031988164
6	0x3be3b645	0.0069492185
7	0xbd499f42	-0.049224146
8	0x3ca2123c	0.019784085
9	0x3c851fc7	0.016250504
10	0x3d065012	0.032791205
11	0x3c76a60f	0.01505424
12	0xbaed0001	-0.0018081666
13	0xbcb79bb6	-0.022413116
14	0x3cae2178	0.021256194
15	0xbb514778	-0.0031933468
16	0xbc979d34	-0.018507577
17	0xbca3ea37	-0.020009143
18	0xbd0d59ca	-0.034509458
19	0xbd5c31ee	-0.053758554
20	0x3b6840d3	0.003543903
21	0xbccd27e0	-0.025043428
22	0x3b646aa5	0.0034853604
23	0x3b6013fb	0.0034191597
24	0x3d156318	0.036471456
25	0xbd072c9d	-0.03300153
26	0xbc9498cf	-0.018139271
27	0xbbc7f52d	-0.0061022253
28	0xbc573268	-0.013134576
29	0xbb1e07c0	-0.0024113506
30	0x3b53b2b6	0.0032302565
31	0xbc227e40	-0.009917796
32	0x3bb657bf	0.0055646594
33	0xbbd9f005	-0.006650927
34	0xbd004df5	-0.031324346
35	0xbbe79ff6	-0.0070686294
36	0xbc9e3375	-0.019311646
37	0x3c20cb59	0.009814107
38	0xbc177c7c	-0.009245988
39	0xbd2a35a1	-0.04155505
40	0x3bc0717d	0.005872904
41	0xbd1edfdc	-0.038787708
42	0xbc00e8c5	-0.007867997
43	0xbc89a36f	-0.016801564
44	0xbc2d86d3	-0.010591227
45	0xbd134c86	-0.03596165
46	0xbce31fb4	-0.027725078
47	0xbc418de4	-0.0118136145
48	0xbcb06f3e	-0.02153742
49	0x3c17b06d	0.009258372
50	0x3c7773ea	0.01510332
51	0xbca870c3	-0.020561581
52	0x3a8a2573	0.0010539725
53	0xbd2ba527	-0.04190555
54	0xbd0ca04d	-0.034332562
55	0xbd0e53e5	-0.034747977
56	0x3cdaef44	0.026725419
57	0xbca68dfa	-0.020331372
58	0x3c3dfc29	0.011595764
59	0xbcaccf68	-0.021094993
60	0xbcb991d9	-0.022652553
61	0x3ba229d7	0.0049488354
62	0xbb535022	-0.0032243808
63	0xbcaee9fd	-0.021351809
64	0x3a90842d	0.001102572
65	0xbb23f136	-0.00250156
66	0xbc2b4e5e	-0.010455696
67	0xbcdb03a4	-0.026735134
68	0xbc2c077f	-0.010499834
69	0x3c0b6dfb	0.008510108
70	0xb9d51068	-0.0004063875
71	0xbc90ab97	-0.017659945
72	0x3c0815e2	0.0083059985
73	0xbbaf0831	-0.0053415527
74	0x3c604b2d	0.013689798
75	0x3b5803c1	0.0032961222
76	0x3c92a322	0.017900053
77	0xbc789b75	-0.015173783
78	0xbc885dc0	-0.016646266
79	0xbcb4898c	-0.022038244
80	0x3b82db94	0.003993461
81	0x3c625fc3	0.013816777
82	0xbcaa9b01	-0.020825865
83	0x3c85489e	0.016269978
84	0x3ce6751c	0.028132014
85	0xbc7b2cfd	-0.01533055
86	0xbc280aa6	-0.010256445
87	0x3c429a21	0.0118775675
88	0x3bef1856	0.0072966022
89	0x3c563ebf	0.013076483
90	0x3bccfea2	0.0062559405
91	0x3bb1ce2f	0.0054261903
92	0xbcb85b69	-0.022504525
93	0xbd17467e	-0.03693246
94	0xbcbe3c4e	-0.023222115
95	0x3ca4af28	0.020103052
96	0xbd2fb490	-0.042896807
97	0xbb8220c5	-0.0039711916
98	0xbd09e8a5	-0.033669133
99	0xbbd0da69	-0.006373693
100	0x3c37be0d	0.011214745
101	0xbcafa865	-0.021442601
102	0x3c1eed2e	0.009700103
103	0xba3284f4	-0.00068099727
104	0x3b03418f	0.002002809
105	0xbc173865	-0.009229754
106	0x3cc9f796	0.024654191
107	0x3b9ef834	0.0048513655
108	0xbc705003	-0.014667514
109	0x3d0b4f58	0.034011215
110	0xbc495d9c	-0.012290385
111	0x3b1a4aac	0.0023543043
112	0x3bba346b	0.0056825182
113	0xbc617902	-0.013761761
114	0xbbbfc01c	-0.0058517586
115	0xbc789aad	-0.015173596
116	0xb9910414	-0.00027659594
117	0x3d2c5d83	0.042081367
118	0x3c5df3a7	0.013546861
119	0xbc136e1f	-0.008998423
120	0x3d2d3138	0.042283267
121	0x3c2f61b8	0.01070445
122	0xbb9d12ed	-0.004793516
123	0xbc93095f	-0.017948804
124	0x3ac59edf	0.0015077255
125	0xbaa2e5f8	-0.0012428155
126	0xbc9d0a5a	-0.019169975
127	0x3ca57855	0.02019898

network_body._body_endoder.seq_layers.0.weight f4 [128, 90]
0	0x3dcb0e54	0.09914842
1	0x3e3acc05	0.1824189
2	0xbdad4154	-0.08459726
3	0x3c803f19	0.015655087
4	0xbcccfcd1	-0.025022896
5	0xbd5a2ac2	-0.053263433
6	0x3cf8a72a	0.030353148
7	0xbd38e58e	-0.045140795
8	0xbda199d1	-0.07890666
9	0x3e46c7bf	0.19412135
10	0xbd11dfa8	-0.035613686
11	0x3e0ecc07	0.13945018
12	0x3d07e44e	0.033176713
13	0xbe14fd0a	-0.14549652
14	0x3cff7fca	0.031188864
15	0x3d6ad084	0.057327762
16	0xbe480ba5	-0.19535692
17	0xbd0e4abc	-0.03473924
18	0x3dabe3f3	0.08393087
19	0xbd3f73df	-0.046741363
20	0xbc3d99c7	-0.011572308
21	0x3e16a88f	0.14712738
22	0x3ca25414	0.019815482
23	0xbd6517b2	-0.0559308
24	0x3dde3a33	0.10850944
25	0x3e03649e	0.12831351
26	0xbda5214b	-0.08062991
27	0x3d6699f2	0.056299157
28	0xbce47634	-0.027888395
29	0xbcb215bb	-0.021738878
30	0x3d8e8326	0.06958608
31	0xbdb0a753	-0.086256646
32	0x3d82b3ce	0.06381951
33	0xbe27c8df	-0.1638522
34	0xbdb6f253	-0.089329384
35	0xbe7f861a	-0.249535
36	0x3cb66fa8	0.022270039
37	0x3d12a41e	0.035801046
38	0xbd6fe493	-0.058567595
39	0x3dee5168	0.11636621
40	0x3e4d4ecd	0.20049591
41	0x3c91080f	0.017704038
42	0xbd24301c	-0.040084943
43	0xbcf53ba1	-0.02993566
44	0x3d629b6c	0.055324003
45	0x3e278329	0.16358627
46	0xbda70aa8	-0.081563294
47	0x3e398572	0.18117312
48	0xbdaa4a6a	-0.083149746
49	0xbd1fd915	-0.039025385
50	0xbdc48873	-0.09596338
51	0xbe2cac59	-0.1686262
52	0xbe01ec07	-0.12687694
53	0x3d8e72ff	0.069555275
54	0xbca2fb7f	-0.019895313
55	0xbe17ed4c	-0.14836615
56	0x3da7cbba	0.08193155
57	0xbcb78c96	-0.022405904
58	0x3d8a58ac	0.06755194
59	0xbd9212c4	-0.071324855
60	0x3e069a25	0.13144739
61	0x3cda2740	0.026630044
62	0xbe18ecd6	-0.14934096
63	0xbe1d2ffb	-0.15350334
64	0xbe24f617	-0.16109501
65	0xbd97b07c	-0.074067086
66	0x3ded46ce	0.115857705
67	0xbd6f51ba	-0.05842755
68	0x3df9e336	0.1220154
69	0x3e71eb53	0.23624925
70	0x3cfb1266	0.030648421
71	0xbdd346b0	-0.10316217
72	0xbe32239c	-0.17396396
73	0xbc98d8b1	-0.018658014
74	0x3db07fe3	0.086181425
75	0x3c6da860	0.014505476
76	0x3dd013d0	0.10160029
77	0xbc412c6b	-0.011790375
78	0xbd032c4e	-0.032024674
79	0xb8835b57	-6.26358e-05
80	0xbd1454a0	-0.036213517
81	0x3d52fb54	0.051509216
82	0xbe3b072f	-0.18264459
83	0x3e6070ea	0.21918073
84	0xbda2d34a	-0.079504564
85	0x3ddc8cb1	0.10769022
86	0x3d8e796e	0.069567546
87	0x3e5f414d	0.21802254
88	0x3e0d3615	0.13790162
89	0xbe32ea36	-0.17472157
90	0xbca006f1	-0.01953456
91	0x3d8c7593	0.06858363
92	0x3d576c3f	0.052593466
93	0xbdbc78b4	-0.0920271
94	0xbc17366b	-0.009229283
95	0x3c76c6ff	0.015062093
96	0x3ce1062c	0.027468763
97	0x3ce5ef12	0.0280681
98	0x3ce659ee	0.028119054
99	0x3dc36e97	0.09542578
100	0x3e3147cd	0.17312546
101	0xbcceafbc	-0.025230281
102	0xbe5d466e	-0.21608898
103	0xbdc2bfd3	-0.09509244
104	0x3deb92da	0.11502619
105	0x3d08d04d	0.033401776
106	0x3b8b75b2	0.0042559737
107	0xbb39ab7a	-0.0028330968
108	0xbed1126a	-0.4083436
109	0xbda32688	-0.07966334
110	0xbe2fe653	-0.17177705
111	0xbda90afc	-0.08254048
112	0x3d5e4fa5	0.054275174
113	0xbd2160c3	-0.03939892
114	0x3dee6e2c	0.11642107
115	0x3d8903e1	0.06690193
116	0x3dfd0e22	0.12356211
117	0x3de7ca63	0.11317899
118	0x3c1c0fd6	0.00952526
119	0xbd524490	-0.051334918
120	0x3dfa7bf7	0.12230676
121	0x3e0e8a45	0.13919933
122	0xbd728d42	-0.059216745
123	0x3e074a16	0.13211855
124	0xbcd0921d	-0.025460297
125	0xbe502b74	-0.20329076
126	0x3db8808f	0.090088956
127	0xbe35776f	-0.17721342
128	0xbd89375c	-0.06700012
129	0x3ce18ecb	0.02753391
130	0x3bac9354	0.0052665863
131	0xbe008249	-0.125497
132	0x3d255597	0.040364828
133	0xbe55a418	-0.20863378
134	0xbc757df8	-0.014983647
135	0xbb610712	-0.003433649
136	0x3c3884af	0.011262103
137	0xbdffadfc	-0.12484357
138	0xbc842182	-0.016129259
139	0xbe30c43f	-0.17262362
140	0x3d6fbf45	0.05853202
141	0x3d699df3	0.057035398
142	0xbde7b3e8	-0.11313611
143	0xbe381e80	-0.17980385
144	0xbda780de	-0.08178876
145	0xbd9e974d	-0.07743702
146	0x3b82951f	0.003985062
147	0x3db4f7c1	0.08836318
148	0x3df655b5	0.12028066
149	0xbdecd962	-0.115649
150	0x3dcb17d1	0.09916652
151	0x3d26855b	0.04065452
152	0x3e19854e	0.14992258
153	0x3d04f65e	0.032461517
154	0x3d07e700	0.033179283
155	0x3d6fe87d	0.058571327
156	0xbde4632d	-0.11151729
157	0xbdf053eb	-0.11734756
158	0x3bce2cd5	0.0062919655
159	0xbd8bc34a	-0.06824358
160	0xbe622294	-0.22083503
161	0xbcf40968	-0.029789641
162	0xbe0ffb22	-0.14060643
163	0x3da975fa	0.08274455
164	0x3db0c425	0.086311616
165	0xba69c6ce	-0.0008917869
166	0xbdb40894	-0.08790699
167	0x3e3593fe	0.17732236
168	0x3e136933	0.14395599
169	0x3d83b169	0.06430323
170	0xbd7fc3a8	-0.06244245
171	0x3aa7f0da	0.0012812868
172	0x3c8201e9	0.015870051
173	0xbe2a6de3	-0.16643481
174	0x3d7d4afd	0.061839093
175	0x3e53796b	0.20651786
176	0xbdf3ed46	-0.11910491
177	0xbcd285ee	-0.025698628
178	0xbd8f9e55	-0.07012621
179	0xbc71ced3	-0.014758783
180	0x3de11af9	0.10991473
181	0x3dcd8f84	0.10037139
182	0x3e4f32b3	0.20234184
183	0xbbd9c33a	-0.0066455873
184	0xbdadb1b2	-0.08481158
185	0x3d02ca60	0.03193128
186	0x3e1e3f68	0.15453875
187	0x3c31d0a1	0.010852964
188	0xbcf3767f	-0.02971959
189	0xbde0acd2	-0.10970463
190	0x3dbde42f	0.09272038
191	0xbdd58e12	-0.104274884
192	0xbd6cb274	-0.057787374
193	0xbe3ce830	-0.18447948
194	0x3da33178	0.0796842
195	0xbdae3683	-0.08506491
196	0xbe27f32a	-0.16401353
197	0x3dd7b88f	0.10533249
198	0x3d895d37	0.067072324
199	0x3e170cc4	0.14750963
200	0x3d82e9ee	0.06392275
201	0xbdd5b86f	-0.104355685
202	0x3dc59f95	0.096495785
203	0xbe3e16cc	-0.18563384
204	0xbc77cdc5	-0.015124743
205	0x3d6342f4	0.055483773
206	0xbdffb209	-0.124851294
207	0x3d04e18e	0.03244167
208	0xbde07422	-0.109596506
209	0x3e042379	0.12904157
210	0xbdc26858	-0.09492558
211	0x3d499adb	0.049219947
212	0xbe093351	-0.13398482
213	0xbd084961	-0.033273105
214	0x3dae8e91	0.08523286
215	0x3e257f8f	0.16161941
216	0xbe4b3179	-0.19843091
217	0x3c9ae51c	0.018908076
218	0xbdb13efd	-0.08654592
219	0x3c7dd4ab	0.0154925985
220	0xbe0e971a	-0.13924828
221	0xbd3b29f6	-0.045694314
222	0xbd0272d0	-0.031847775
223	0x3cd4fabb	0.025998464
224	0xbe15f8e5	-0.14645727
225	0x3ccef9fe	0.02526569
226	0x3e1d94b1	0.15388753
227	0xbd9dbe08	-0.07702261
228	0x3d81f58d	0.06345663
229	0xbda9a33f	-0.0828309
230	0x3d44defa	0.04806421
231	0xbe082c7a	-0.13298216
232	0xbde81a60	-0.11333156
233	0x3e7033d7	0.23457275
234	0xbde9d126	-0.11416845
235	0x3e1ec59c	0.1550507
236	0xbcaa65ff	-0.020800589
237	0xbc78d347	-0.015187091
238	0xbc0331d2	-0.008007484
239	0x3dc3ec91	0.09566606
240	0xbe8c9304	-0.27455914
241	0xbd056471	-0.03256649
242	0x3d20ab97	0.03922614
243	0xbe28be56	-0.16478857
244	0xbd57724c	-0.052599236
245	0xbdd15437	-0.10221141
246	0xbe0fdef1	-0.14049889
247	0xbc7e6548	-0.015527077
248	0xbdf50e98	-0.11965674
249	0x3cc91694	0.024546899
250	0x3cfe714d	0.031059885
251	0x3d36d456	0.044636093
252	0xbe205617	-0.1565784
253	0x3df64a22	0.120258585
254	0x3dd0bc63	0.10192182
255	0xbd5d4595	-0.054021437

network_body._body_endoder.seq_layers.2.bias f4 [128]
0	0xbd26aec0	-0.040694
1	0xbd087ce3	-0.033322226
2	0xbc776b2f	-0.015101238
3	0x3c2baee5	0.01047871
4	0xbc9e1af9	-0.019299971
5	0xbcd8c3cb	-0.026460549
6	0xbcd66d7c	-0.026175253
7	0xbcf6ff94	-0.030151166
8	0x3c0ad938	0.008474641
9	0xbce330a9	-0.027733164
10	0x3caa39bc	0.020779483
11	0xbd06507a	-0.032791592
12	0xbc3c88aa	-0.011507193
13	0xbc9f77a1	-0.019466223
14	0x3b80661c	0.0039184224
15	0xbcb58725	-0.022159168
16	0xbca25743	-0.019817
17	0x3b95879a	0.004563284
18	0xbd4baa17	-0.049722757
19	0xbcab8b65	-0.020940492
20	0xbca7be64	-0.020476528
21	0xbc871e78	-0.01649402
22	0xbc16d750	-0.009206608
23	0x3bedf9c5	0.007262441
24	0xbd1026a3	-0.035193097
25	0x3b1e65db	0.0024169597
26	0xbc1cb847	-0.0095654195
27	0xbc3d0819	-0.011537575
28	0xbcad8cf0	-0.021185368
29	0xbcbb48e0	-0.022861898
30	0xbd59db1f	-0.053187486
31	0x3c2ca7e1	0.010538072
32	0x3bf9451b	0.007607115
33	0xbd5a57fb	-0.05330656
34	0xbd733a21	-0.059381608
35	0x3cbcb51c	0.023035578
36	0xbaac59bb	-0.00131493
37	0xbc2fc07e	-0.010727046
38	0xbd5116af	-0.051047023
39	0x3c50b8d9	0.012739384
40	0xbd1fb9ae	-0.038995437
41	0xbcd4ebe1	-0.025991382
42	0x3adde314	0.0016928636
43	0xbb077821	-0.0020670968
44	0xbd113fc0	-0.035461187
45	0xbcb5b302	-0.022180084
46	0xbce4b601	-0.027918817
47	0xbc97e2c8	-0.018540755
48	0x3b4f58e6	0.003163868
49	0xbd131b25	-0.03591456
50	0xbc52f0ca	-0.012874791
51	0xbd1303f1	-0.03589243
52	0xbd311e0b	-0.04324154
53	0x3b80cd46	0.0039307205
54	0xbd8fdab7	-0.070241384
55	0x3bd69f90	0.006549783
56	0xbd0f9614	-0.035055235
57	0xbca443f3	-0.020051932
58	0x3bea568f	0.007151432
59	0x3bc61751	0.00604526
60	0xbcedd13b	-0.029030433
61	0x3c706789	0.014673122
62	0xbce117ba	-0.027477134
63	0xbcb8371a	-0.022487212
64	0xbcaf1277	-0.02137111
65	0xbd10b500	-0.035328865
66	0xbcc41790	-0.023937017
67	0xbd067acd	-0.032831956
68	0xbc90994f	-0.017651228
69	0xbb9074fe	-0.004408478
70	0xbcbff2df	-0.02343124
71	0xbc7a2c89	-0.015269407
72	0xbba77102	-0.005109907
73	0x3d19d190	0.03755337
74	0xbd35ff66	-0.04443302
75	0xbc75fe2e	-0.015014214
76	0xbc06f024	-0.008235965
77	0x3be03f56	0.0068434877
78	0x3bb3906c	0.005479863
79	0x3b30934e	0.002694327
80	0x3bb90026	0.0056457696
81	0xbc1e4b41	-0.009661497
82	0xbc6bba31	-0.014387653
83	0x3cf36b66	0.029714298
84	0x3a043f5d	0.0005044842
85	0xbcc47b37	-0.023984535
86	0x3c17bf32	0.009261893
87	0xbcbe9f40	-0.023269296
88	0xbc75ead7	-0.015009603
89	0xbccf03e9	-0.02527042
90	0x3b496f9d	0.0030736693
91	0xbc5ed9c7	-0.013601727
92	0xbd19f0b1	-0.037583057
93	0xbbd25c07	-0.006419662
94	0xba923518	-0.0011154739
95	0xbcbf4746	-0.023349416
96	0xbd68f450	-0.05687362
97	0xbd569c7d	-0.052395333
98	0x3c129c35	0.0089483755
99	0xbcf6ef96	-0.03014354
100	0xbd0e0d3a	-0.034680583
101	0xbcc3f7b0	-0.023921818
102	0x3cae658b	0.021288654
103	0xbc95001b	-0.018188527
104	0xbc999d27	-0.018751694
105	0xbcda5f12	-0.026656661
106	0xbca257b3	-0.019817209
107	0xbc874406	-0.016511928
108	0xbd4bc7e6	-0.049751185
109	0xbc96d8ff	-0.018414019
110	0x3ccc55b6	0.024943214
111	0xbca16d49	-0.019705432
112	0xbb47b231	-0.00304712
113	0xbc250480	-0.010071874
114	0x3cc04850	0.023471981
115	0x3be43d23	0.006965296
116	0xbc55a723	-0.013040337
117	0x3c185176	0.009296766
118	0xbd79c706	-0.06098082
119	0xbcc7970c	-0.024364017
120	0xbd6848fd	-0.056710232
121	0xbced88c0	-0.028995872
122	0xbcbf3dfb	-0.023344984
123	0x3cee0c12	0.02905849
124	0xbbed5900	-0.0072432756
125	0x39ab08ff	0.00032622364
126	0x3b40da4b	0.0029426988
127	0xbbfc8e15	-0.007707367

network_body._body_endoder.seq_layers.2.weight f4 [128, 128]
0	0xbd5c878d	-0.05384021
1	0xbe154fd3	-0.14581232
2	0x3d37f98f	0.044915732
3	0x3c03871d	0.008027819
4	0xbc670d4e	-0.014102293
5	0x3d295dce	0.041349225
6	0xbde83c64	-0.113396436
7	0xbdc296f6	-0.0950145
8	0x3cb89ed5	0.022536675
9	0xbc61a631	-0.013772533
10	0xbd380cb9	-0.04493401
11	0xbd734852	-0.059395142
12	0x3df92084	0.12164405
13	0xbc9c73f1	-0.019098254
14	0x3d32d123	0.04365648
15	0xbdc66557	-0.09687298
16	0xbd98163f	-0.07426118
17	0x3e1254e6	0.14290199
18	0xbd82447c	-0.063607186
19	0x3d944d77	0.07241338
20	0xbb9a0fc0	-0.0047015846
21	0xbe07f651	-0.13277556
22	0x3d2121bf	0.039338823
23	0x3dfe4a50	0.12416518
24	0xbe05055c	-0.12990326
25	0x3cda75df	0.026667533
26	0x3e22f6c0	0.1591444
27	0xbba01ab8	-0.0048859976
28	0xbcda13f0	-0.026620835
29	0xbdb36ca9	-0.0876096
30	0xbe1017e6	-0.14071617
31	0xbd0793e2	-0.033100016
32	0x3d78356c	0.060597822
33	0xbd05c450	-0.03265792
34	0xbd55d8ed	-0.05220883
35	0x3e05085d	0.12991472
36	0x3d832589	0.06403644
37	0x3b90cde0	0.0044190735
38	0xbd6eba25	-0.05828299
39	0x3cec2816	0.028827708
40	0xbcd374ed	-0.02581259
41	0x3df1935b	0.11795684
42	0xbe00ffa1	-0.12597515
43	0x3d8cf529	0.06882698
44	0x3d734863	0.059395205
45	0x3df4d26d	0.11954198
46	0xbe038e5f	-0.12847279
47	0xbe43afd7	-0.19110046
48	0xbda1c677	-0.07899182
49	0xbe3cec2c	-0.18449467
50	0xbb198985	-0.0023427915
51	0xbce06a3f	-0.027394412
52	0xbd38d09f	-0.04512083
53	0xbd8f3d0e	-0.06994067
54	0xbe080b03	-0.1328545
55	0xbce44827	-0.027866436
56	0xbd5326ca	-0.051550664
57	0x3bd25572	0.0064188773
58	0xbe39781f	-0.18112229
59	0xbddc18b2	-0.10746898
60	0x3b6de7a9	0.003630141
61	0x3da991e9	0.08279783
62	0x3e7132f9	0.23554601
63	0xbd4506dc	-0.048102245
64	0xbcccdbc5	-0.025007138
65	0xbd786df5	-0.06065174
66	0x3d43f73b	0.0478432
67	0x3bb04f4d	0.005380547
68	0xbc6b273a	-0.014352614
69	0xbd087b8a	-0.03332094
70	0x3d17052e	0.036870174
71	0x3d02321d	0.031786073
72	0xbdb67219	-0.08908481
73	0x3e13ab39	0.14420785
74	0xbc877b25	-0.016538212
75	0x3d9e3cd0	0.07726443
76	0xbdd8a916	-0.105791256
77	0x3dd07563	0.1017864
78	0x3dd0a099	0.101868816
79	0x3e049e44	0.12950999
80	0xbdc17c00	-0.09447479
81	0xbd7ca203	-0.061677944
82	0xbdfdad4a	-0.12386568
83	0xbdc1c75c	-0.09461853
84	0x3d043023	0.03227247
85	0x3df50127	0.119631104
86	0xbbe742ec	-0.0070575383
87	0xbdbc3589	-0.091898985
88	0xbc6a40fc	-0.01429772
89	0xbe50b079	-0.20379819
90	0x3d96cace	0.07362901
91	0x3d2ab3f6	0.04167553
92	0x3da6e7be	0.0814967
93	0xbc5ec1f9	-0.013596051
94	0x3bf521ec	0.0074808504
95	0xbc480309	-0.012207755
96	0xbdb3d43a	-0.087807134
97	0x3ddc47e8	0.107559025
98	0x3dcbd8e3	0.09953477
99	0xbe188930	-0.14896083
100	0x3e131368	0.14362872
101	0xbd9b2f25	-0.075773515
102	0xbc8684b4	-0.0164207
103	0xbe0f7295	-0.14008553
104	0xbd8ec7c8	-0.06971699
105	0x3d9129a9	0.07088024
106	0x3a940caa	0.0011295278
107	0xbe02e58a	-0.12782875
108	0x3d5e3562	0.05425013
109	0x3e4b2f0a	0.19842163
110	0x3cef17d1	0.029186161
111	0xbe1ebcd6	-0.15501723
112	0x3e04b313	0.12958936
113	0xbe2b0ce5	-0.16704138
114	0xbd8fbad6	-0.07018058
115	0xbe00c3b9	-0.12574662
116	0xbd8eb021	-0.06967188
117	0x3c4875f3	0.012235153
118	0x3da1f07f	0.07907199
119	0xbcdb71d7	-0.026787682
120	0xbd066d41	-0.032819036
121	0x3e0c3633	0.1369255
122	0xbcc8d163	-0.024513906
123	0xbdfb0013	-0.122558735
124	0x3d3224a9	0.043491993
125	0x3e6432a2	0.2228494
126	0xbc828c0e	-0.015935924
127	0xbe2fcd65	-0.17168196
128	0xbd75ee2b	-0.060041588
129	0x3ce1b6db	0.027553013
130	0x3d3a6cad	0.045513798
131	0xbdb9bfc3	-0.09069779
132	0x3d778023	0.060424935
133	0x3b58e3c9	0.0033094755
134	0xbc44ce93	-0.012012142
135	0xbd9d8d8b	-0.07693013
136	0xbe936725	-0.2878963
137	0x3e31ab87	0.17350589
138	0x3de41082	0.11135961
139	0x3da1c977	0.078997545
140	0xbd620797	-0.05518302
141	0x3d9cb915	0.07652489
142	0x3da5cb65	0.08095435
143	0x3d026133	0.031830978
144	0x3dd32c6d	0.10311208
145	0x3d81330f	0.06308567
146	0xbdba253a	-0.09089132
147	0xbe3eefa9	-0.1864611
148	0xbd531f16	-0.051543318
149	0x3d09f0d1	0.033676926
150	0xbdb17f34	-0.0866684
151	0xbe274d01	-0.16337968
152	0xbe127e07	-0.14305888
153	0x3c0f1c48	0.00873477
154	0x3e86e360	0.26345348
155	0xbe473fdf	-0.19457959
156	0xbde86eda	-0.11349268
157	0xbd1eed76	-0.03880068
158	0xbe50db51	-0.20396163
159	0xbd878ce1	-0.066186674
160	0xbd65be1d	-0.05608951
161	0xbdfe3d4c	-0.12414035
162	0xbe3409f0	-0.17581916
163	0x3d35c4c9	0.044377122
164	0x3d5075a1	0.05089343
165	0xbd5d1bc4	-0.053981557
166	0xbda197d3	-0.07890286
167	0xbda5afef	-0.08090197
168	0x3cf9dcb5	0.03050075
169	0x3d230eef	0.039809164
170	0xbdcd8d42	-0.100367084
171	0xbd94982e	-0.072555885
172	0x3d1f4e69	0.038893137
173	0xbd84bbe8	-0.06481153
174	0x3d12aef2	0.035811372
175	0xbe463282	-0.19355205
176	0xbbe677d7	-0.007033329
177	0x3ca6cd4e	0.020361569
178	0x3b5acedd	0.003338746
179	0xbc4bf408	-0.012448318
180	0x3d743d09	0.05962852
181	0xbd9ebb85	-0.0775061
182	0xbc5314cc	-0.012883376
183	0x3dc441d2	0.09582867
184	0xbdd84254	-0.10559526
185	0x3bc60422	0.006042973
186	0xbd45b49c	-0.048267946
187	0xbd475a77	-0.04867026
188	0x3b2d6d0b	0.00264627
189	0xbdbbf6f7	-0.09177964
190	0x3dba2157	0.0908839
191	0x3dbe5c00	0.09294891
192	0x3da319a3	0.07963874
193	0xbc9b211e	-0.01893669
194	0xbcefe0f9	-0.02928208
195	0x3e1223f4	0.14271528
196	0x3c425c32	0.011862801
197	0x3e5f31a5	0.21796282
198	0xbe4d723b	-0.20063107
199	0x3d5a3d42	0.053281076
200	0x3ccda5f4	0.025103547
201	0x3cfd7823	0.030941075
202	0x3babf43c	0.005247621
203	0xbe113b67	-0.14182816
204	0xbe4ebdf3	-0.20189647
205	0x3d0ad3d9	0.03389344
206	0x3d2e3e79	0.042540047
207	0xbd0b8500	-0.034062386
208	0xbda10a63	-0.07863309
209	0xbc9df8a1	-0.019283595
210	0x3d4d17f0	0.050071657
211	0xbe0d8df0	-0.13823676
212	0xbdeed0d7	-0.11660927
213	0x3cc1bcc5	0.023649583
214	0xbd1266af	-0.035742458
215	0xbc40d28e	-0.01176895
216	0xbdfec67e	-0.12440203
217	0xbe125a01	-0.14292146
218	0xbc5e4cbf	-0.013568102
219	0x3aad109a	0.00132038
220	0xbd5c74a8	-0.05382219
221	0xbe93580b	-0.2877811
222	0x3cc03f64	0.023467727
223	0xbd90fa63	-0.070790075
224	0xbdb8aa18	-0.09016818
225	0x3d607d25	0.054806847
226	0x3c15ca9c	0.009142544
227	0xbde7cbaa	-0.11318143
228	0x3cf02e79	0.029319035
229	0x3cc6346f	0.024194924
230	0x3d6ebdf3	0.05828662
231	0xbd5458e5	-0.05184259
232	0xbda9900e	-0.082794294
233	0x3df2460b	0.11829766
234	0xbdef8bd1	-0.1169659
235	0x3e15b2ac	0.14618939
236	0xbda19c91	-0.07891191
237	0xbe08e64c	-0.13369101
238	0xbe12bf5f	-0.14330815
239	0x3d42b13a	0.047532298
240	0x3d97c159	0.07409925
241	0x3bd1f207	0.0064070257
242	0x3c34b5c4	0.011029664
243	0xbd865b4a	-0.06560381
244	0x3d9f5bf8	0.077812135
245	0xbdd59992	-0.10429682
246	0x3cba34ca	0.02273025
247	0x3e0af9cf	0.13571857
248	0x3e2b0c8a	0.16704002
249	0xbd7f13ce	-0.062274747
250	0xbdb15fa3	-0.086608194
251	0x3c356efb	0.011073823
252	0xbc9e2b28	-0.019307688
253	0xbd66eaac	-0.056376144
254	0x3c9dac61	0.019247236
255	0xbe199048	-0.14996445
